rl_environments/trained_models/PPO_scheduling_5_obj_j5m5/policy.pth (torch, 43358 bytes, 24 tensors)

actor.sigma_param f4 [2, 1]
000000 9e 86 9c be 32 92 f6 bd
       -0.30571455 -0.12039603

actor.conv1.bias f4 [64]
000000 43 bb 3a 3d ad ad b8 3b 00 00 00 00 68 3e e8 bc
       0.045588743 0.005635938 0.0 -0.02835007
000010 be b7 cf 3c a6 ec 0d bd 36 28 8e bd f4 3c 98 3d
       0.02535617 -0.034649514 -0.069412634 0.07433501
000020 64 5e 25 3d ec 37 2c 3d 09 db 3e bd 6f b6 81 3d
       0.04037322 0.04204552 -0.046595607 0.063336246
000030 27 d3 c6 3d 89 a3 88 bd ed 6c a2 3d d0 ee b7 3d
       0.09708243 -0.06671817 0.07930932 0.08981097
000040 1c e9 bd 3d e3 53 ac 3d 73 38 ae bc 4d 10 22 bd
       0.09272978 0.084144376 -0.021267151 -0.039566327
000050 6a f1 16 bd e6 22 fe 3d 5e 8e a6 3d 5e 4a ac 3d
       -0.036851324 0.12409 0.08132623 0.08412622
000060 04 c1 b0 3d 7d 22 1e 3e 5a f7 8e bc c3 ca bb 3d
       0.08630565 0.15442844 -0.01745193 0.09169533
000070 2a ec 82 3d c5 b6 84 3d 24 0f c0 3d 3a c2 90 3d
       0.06392701 0.06480173 0.09377888 0.07068296
000080 19 33 16 3d 4e 0b 91 bd ec c8 0b bd 00 00 00 00
       0.036669824 -0.07082234 -0.03412716 0.0
000090 ae 2d 95 bc 24 40 b6 3d da d5 3b bc 09 62 2d bd
       -0.018210258 0.088989526 -0.01146456 -0.04232982
0000a0 f8 ac 13 bd cc da c8 3d e0 b3 4b bc 30 b5 af 3d
       -0.036053628 0.09807357 -0.012433022 0.08579481
0000b0 c4 41 06 3d 00 00 00 00 93 71 b3 bc 1b 0a 36 bd
       0.032777563 0.0 -0.021904742 -0.04444323
0000c0 6c da 5c 3d e8 fe bb bc 06 d3 c3 3d 71 14 c0 3d
       0.05391924 -0.022948697 0.09561734 0.09378899
0000d0 da 18 7e bd f1 f3 b8 3d fc b2 96 3d 43 b6 ba 3d
       -0.06203542 0.09030903 0.07358357 0.09116795
0000e0 a1 7c 48 bc cf c9 22 bd 80 01 b9 3d fb b3 68 3d
       -0.012236745 -0.03974324 0.09033489 0.056812268
0000f0 7e d4 ca 3d 1e 50 e9 bc 42 ef 60 3b fd 6b 92 3c
       0.09903811 -0.028480586 0.0034322296 0.017873758

actor.conv1.lin.weight f4 [64, 5]
000000 84 27 73 bc 8e 48 6f bd 1a 8f 07 3d e2 58 e4 3d
       -0.014840964 -0.058418803 0.033095457 0.111497656
000010 a7 f0 4b 3e 78 6c ff bd 84 a3 a2 3e 22 f6 61 bd
       0.1991602 -0.12471861 0.31765378 -0.05516637
000020 81 5b 04 3d 7a 58 2b 3d 70 fc 92 bd f1 6d fa bd
       0.032313827 0.041832425 -0.07177055 -0.12228001
000030 97 d8 23 bd d0 29 d3 bd c5 1e c0 bd b4 60 d1 3c
       -0.040001478 -0.103107095 -0.09380869 0.025558807
000040 cd 0b 70 bd 5d c9 15 bd 9d ab 0a be d8 cf c2 ba
       -0.058605004 -0.036568988 -0.13542028 -0.0014862968
000050 6e 0a bd bc d9 91 28 3e cc f1 02 3d 5d fa a7 3e
       -0.023076262 0.16461886 0.031968877 0.328082
000060 2b 97 61 3d 00 57 62 be 13 24 7c 3d a9 c9 b8 bd
       0.055075806 -0.221035 0.06155784 -0.090228386
000070 49 c8 00 be 76 11 9e 3d ab 4f 63 be a8 0c 01 be
       -0.12576403 0.07718174 -0.2219836 -0.12602484
000080 61 b0 0c 3e 56 83 88 be 25 59 9e bd db 24 3a 3e
       0.13739158 -0.266627 -0.07731847 0.18178122
000090 e7 c3 41 3e 64 2f 1f 3e c2 4d e6 3d 6d 2f 17 be
       0.18922387 0.15545422 0.112453 -0.14764185
0000a0 f1 d5 d9 3d b2 94 46 3e 4d ba a5 3e c3 be 09 3e
       0.10636509 0.1939266 0.323687 0.13451676
0000b0 e6 ce 12 be 1f df 67 3c 6f 57 0a 3e 3b 8a c1 bd
       -0.14336738 0.014152317 0.13509916 -0.094501935
0000c0 94 94 d1 3d 27 25 5d 3e 9e 09 fd bc 42 b5 e2 bb
       0.10233417 0.21596204 -0.030888375 -0.0069185803
0000d0 f4 ad 97 be f8 e8 b2 3d c4 5a 17 be b8 19 37 3e
       -0.29624903 0.087358415 -0.14780718 0.17880905
0000e0 e7 44 e1 3e 5a 68 0d 3c 83 49 01 3e 3a 90 66 3d
       0.4399788 0.008630836 0.12625699 0.05628989
0000f0 39 b1 9a bd b0 4a 2e 3e 31 99 9e 3e 99 f4 57 3e
       -0.07553334 0.17020679 0.3097625 0.210894
000100 4a 9c 91 3e a1 3f 14 be 6b a5 ad 3d b8 61 da bd
       0.28439552 -0.14477398 0.084788166 -0.106631696
000110 40 5d 65 be c7 1e 17 be e4 b9 aa 3d 71 48 59 3e
       -0.22398853 -0.14757834 0.08336237 0.2121904
000120 8a 0e 14 bd 9c b9 82 3e 47 1c 2c 3e ca 0d bc 3e
       -0.036146678 0.25532234 0.16807662 0.3672927
000130 f6 de 65 3d 9d 4c 63 3d 6a 1a 8a 3d d0 30 6d 3e
       0.056120835 0.055492986 0.06743319 0.23163152
000140 74 34 d2 bc c6 fa 82 3e 3e 14 95 3e 51 94 4f 3e
       -0.025659777 0.2558195 0.29117006 0.20271422
000150 74 40 12 be cd c2 81 3e 1f 84 8a 3e ca cd 32 3e
       -0.142824 0.25343934 0.27053925 0.17461315
000160 8a 3b 58 3e e1 d2 56 3e 6f 3e 63 3c 37 96 59 be
       0.21116462 0.20978881 0.013869866 -0.21248709
000170 53 dd 1d be 4f b4 ce bd c4 74 06 be 57 a9 fd 3c
       -0.1541646 -0.10092985 -0.1313048 0.030964537
000180 78 7d cd bc 60 fa 88 bd e9 5e 14 3d 85 e8 39 be
       -0.025084242 -0.0668838 0.036223326 -0.18155105
000190 cc ce a8 be 89 a4 df bb 17 16 7e 3d b3 64 62 bd
       -0.32970273 -0.006825034 0.062032785 -0.055271816
0001a0 6b d9 b1 bd 30 fd 2d 3e cc f9 ae 3e 72 62 c8 3d
       -0.08684047 0.16991115 0.34174955 0.09784402
0001b0 ef d1 b1 3e 6e 49 04 be 5b 87 29 3e ab fb 55 3e
       0.3473048 -0.12918636 0.1655554 0.20896785
0001c0 10 7d b6 3d 9c 2b 79 3e de 35 8e 3d 03 20 3b 3e
       0.089105725 0.24333042 0.06943868 0.1827393
0001d0 42 58 a3 3e c0 5a de bd 54 8a 95 3e c3 c2 43 3d
       0.31903273 -0.10857153 0.29207098 0.04779316
0001e0 53 c7 b5 3e 92 d0 ba 3e e3 87 31 be d1 df 98 3d
       0.35503635 0.36487252 -0.17336993 0.074645646
0001f0 cf 34 b2 bb 5c 71 1a be 5d ff bf 3e 6d 2a 97 bc
       -0.005438424 -0.15082306 0.37499514 -0.018452847
000200 61 c5 d6 3e f6 cf d0 bd 70 c3 39 bd 1a 58 17 be
       0.41947463 -0.101959154 -0.0453524 -0.14779702
000210 df d9 73 be fc 3c 99 3d 0e 0c 6b bd bf 23 e9 3d
       -0.2381358 0.07482335 -0.057384543 0.11383771
000220 59 24 91 3e d9 97 6d 3e f9 a4 91 3e e6 d9 59 3d
       0.28348044 0.23202457 0.28446177 0.05318632
000230 b0 d6 4d 3e 42 c8 46 3e 5f 9f b8 3d c1 82 ed 3d
       0.20101428 0.1941233 0.090147726 0.11597205
000240 84 32 89 3d 5a ee fb bc 48 34 94 3e a2 79 d6 3d
       0.06699088 -0.030753303 0.28946137 0.10472418
000250 cf 23 89 bc e8 44 a3 3b 55 a8 15 bd ca 89 9d 3e
       -0.016740708 0.0049825795 -0.036537487 0.30769187
000260 a2 e7 b2 3d f0 31 c9 3d 96 5e 83 bd 39 ee fa 3d
       0.08735587 0.09823978 -0.06414525 0.122524686
000270 fc 7a 7c 3e b5 27 af 3d 74 34 c7 bd 5b 8f 0d 3e
       0.2465629 0.085524954 -0.097268015 0.13824217
000280 77 0e 82 3d 5f 83 6f 3e a9 ff d6 3d 8c cb 6d 3e
       0.06350415 0.23389958 0.10497982 0.23222178
000290 01 04 c7 bd 78 77 22 be a6 85 82 bd b3 89 8f bc
       -0.097175606 -0.15865886 -0.06373148 -0.017521715
0002a0 18 35 4f 3e 8a 73 31 be 65 4e 70 be ca 95 0d be
       0.20235097 -0.17329231 -0.23467405 -0.13826671
0002b0 28 30 93 bd 23 89 8e bc 08 4e 34 3e c9 04 6e be
       -0.071869195 -0.017399376 0.17607892 -0.23244013
0002c0 f2 f8 b8 bd 17 8f 12 be a3 b4 88 be 34 e1 80 bc
       -0.090318576 -0.14312397 -0.26700315 -0.015732385
0002d0 b2 7f 89 3c 45 e3 f9 37 19 d7 f3 bc bc a0 7b bd
       0.016784523 2.9788944e-05 -0.029765652 -0.061432585
0002e0 77 9f da be d2 4e 8e 3e f7 a6 82 3e 62 c3 bb bc
       -0.42699787 0.2779451 0.2551801 -0.022920314
0002f0 e9 50 b3 3d 8c b4 13 3e 3f 49 36 be 83 9c 1b 3d
       0.08755667 0.14424342 -0.17801379 0.037991058
000300 09 3a ff bc 0e 57 81 3d 82 4d 15 3d 46 24 46 3e
       -0.031155603 0.063154325 0.03645087 0.19349775
000310 ad 78 c4 bd d5 bc 3a 3d 97 1e b4 bd 79 9d 86 be
       -0.095933296 0.04559024 -0.08794897 -0.26292017
000320 4b cf 6e bc 0c 46 46 be 24 71 0b be 7c 39 1c 3d
       -0.01457579 -0.19362658 -0.13617378 0.03814076
000330 5a 2d 67 3d 9f 1b 8d 3e ca 4c 37 3e 13 21 15 3d
       0.056439735 0.27560136 0.17900386 0.036408495
000340 e3 a8 a3 3e 16 e8 23 3e 23 83 da bd 7b bc 6c bd
       0.31964788 0.16006503 -0.106695436 -0.057796936
000350 32 5d c3 bd 73 23 1d be 3a 06 24 3d 9a 04 08 3e
       -0.0953926 -0.15345554 0.040045 0.13283005
000360 83 fa 02 3f 7c 31 81 3c 48 d4 4f 3e 30 38 32 3e
       0.511635 0.015770666 0.20295823 0.17404246
000370 7b e6 48 bd eb b9 c9 3e 75 64 9c bd 41 c3 2b 3e
       -0.04904793 0.39399657 -0.07636348 0.16773702
000380 9e 5f d2 3b c5 45 1f bc 5e 54 8e ba 54 b6 5e bd
       0.00642009 -0.009721224 -0.0010858884 -0.0543731
000390 0c fc 5b ba 5a e0 c1 bd 8b 98 bf bd 94 bd ad bc
       -0.0008391745 -0.0946662 -0.09355267 -0.021208562
0003a0 7e 79 8e 3b 55 c9 eb bd b4 27 54 bd 0f 88 a4 3a
       0.004347979 -0.115130104 -0.051795676 0.0012552756
0003b0 a9 a8 25 3d eb 15 50 be 54 e5 56 be 76 61 62 3d
       0.04044405 -0.20320861 -0.20985919 0.055268727
0003c0 1f 67 9b 3d 7d ea 01 be 4f 15 31 3d 21 9a 0d bb
       0.07588028 -0.12687106 0.043233212 -0.002160676
0003d0 b1 f3 62 3e 72 05 53 bd 55 12 a2 3b a6 4d ab 3b
       0.22163273 -0.051518865 0.004946033 0.0052277623
0003e0 e8 7c 90 be 93 bf 09 be 51 4e 02 3e c3 b2 c3 3e
       -0.28220296 -0.13451986 0.12725188 0.38222322
0003f0 40 fb 01 3e 6a 63 e7 3d 69 47 e0 3d ef e9 a6 3d
       0.126935 0.112982586 0.109511204 0.08150088

actor.conv2.bias f4 [64]
000000 3b 8c 0b bd d5 ec 05 bd 79 b5 bd 3d 08 28 9d 3d
       -0.03406928 -0.032696564 0.09263129 0.07673651
000010 00 00 00 00 19 7c 60 bc 0a 64 d8 bc 72 e2 b2 3d
       0.0 -0.013701462 -0.02641489 0.08734597
000020 6b 16 4a 3d 7b 07 c2 3d 26 9f 9e bc fc 37 58 bc
       0.049337786 0.09474083 -0.019362997 -0.013196941
000030 05 c6 d2 3d 1c 53 d4 3d 4b b8 2b bc 3c f3 45 bc
       0.102916755 0.10367414 -0.010480951 -0.012081917
000040 2e 33 39 bc d6 41 b3 3d 5f 8f 91 3d c7 27 ab ba
       -0.011303706 0.087527916 0.07107424 -0.0013058119
000050 38 07 1f bc d7 d8 b6 3d 6c 72 c9 3d 23 7b ad 3d
       -0.009706311 0.08928078 0.09836277 0.08470752
000060 a4 40 1f bc dc de ae 3d 6c 7d 52 bc 90 0a ca 3d
       -0.009720001 0.08538601 -0.012847286 0.09865296
000070 8a 6b 05 bb d8 28 24 bc b2 6e c6 3d 0a 96 c3 3d
       -0.0020358288 -0.0100195035 0.09689082 0.09550102
000080 27 5c 34 bc 0f 63 57 3d a2 d8 a4 bb c7 e1 cf 3d
       -0.011008299 0.052584704 -0.0050307075 0.101504855
000090 48 5e a7 bc ce 83 c0 3d fa 81 38 bc 3c df 67 bb
       -0.020430699 0.0940014 -0.011261458 -0.003538086
0000a0 f1 fb d0 bb 09 1a ce 3d 2f 18 9c bb b0 6a 74 bc
       -0.00637769 0.100635596 -0.004763625 -0.014918014
0000b0 ac 29 d8 3d 42 83 a7 3d c5 98 a5 3d 2e 6c c7 3d
       0.10554823 0.08179332 0.08085779 0.097374305
0000c0 7c c1 3d bc 4d bd 9e 3d 21 f7 a1 bc 61 77 b0 3d
       -0.011581775 0.0775095 -0.01977116 0.0861652
0000d0 23 34 a7 3d c6 ec c0 3d a3 a1 bf 3d 9b cd a8 3d
       0.08164241 0.09420161 0.09357002 0.08242341
0000e0 98 d4 a8 bc 50 81 bd bc b2 df 72 ba db 23 d7 3b
       -0.020609185 -0.02313295 -0.00092649006 0.0065655536
0000f0 79 42 2e bc 3f f7 c7 3d 1b 97 c4 3d db 78 1f bc
       -0.0106359655 0.09763955 0.095991336 -0.009733404

actor.conv2.lin.weight f4 [64, 64]
000000 32 c6 06 be 09 5f 2c 3d b8 bc 0a 3d b3 70 17 3e
       -0.13161543 0.04208282 0.033871382 0.14789085
000010 f2 03 11 bd 89 c6 69 be c8 7f 49 be eb 38 e6 bd
       -0.035404153 -0.22829641 -0.19677651 -0.11241325
000020 ab bb fa 3c 44 cd 6d 37 d6 cf d2 3d 63 5d 9b 3c
       0.030607065 1.4174093e-05 0.10293548 0.018965429
000030 fa db 58 be 38 3a fd bd 00 1c 88 3c 77 70 c2 bd
       -0.21177664 -0.1236462 0.016614914 -0.09494107
000040 b2 9f e0 bd f6 02 f7 3d 8d b2 86 3d 57 c9 71 bd
       -0.109679595 0.12061112 0.065770246 -0.059029903
000050 dc e6 89 3d 1f b2 58 be 83 27 96 3d 6f bd 1a be
       0.06733486 -0.21161698 0.07331755 -0.15111326
000060 3e 78 09 3e fa 1b 5d 3d b9 95 be 3d 8f 94 be bd
       0.13424775 0.05398176 0.09305901 -0.09305679
000070 59 b6 f1 bc bc 42 ae bd 60 f9 3e be ac 4d 0e 3d
       -0.029505895 -0.08508822 -0.18649817 0.034742042
000080 db 54 97 3e c8 98 95 3e f0 4b be bd 88 a9 d2 bb
       0.29556927 0.29218125 -0.09291828 -0.006428901
000090 95 88 fa 3c 44 5c 12 be f1 df e6 3c 4d ef 15 3e
       0.030582706 -0.14293009 0.028182955 0.14642067
0000a0 19 24 8d be b2 9f d4 3c d5 9f 66 3d ad de 94 bd
       -0.27566603 0.025955055 0.05630477 -0.072690345
0000b0 59 66 38 3d f1 d9 21 3e b5 7a d0 3c be 1a 8f 3e
       0.04501948 0.15805794 0.025449136 0.2795009
0000c0 62 5a 00 be 02 99 eb 3d b3 64 0a 3d 4b 92 a8 3d
       -0.12534478 0.11503793 0.03378744 0.08231028
0000d0 67 3c 0e bd 5b 98 2a bd 3a 48 d2 3d 5d 5d 5c 3d
       -0.034725573 -0.041649204 0.102676824 0.053799976
0000e0 81 d6 56 bd fb e6 04 be 07 28 63 bd cc 36 19 3e
       -0.05245066 -0.12978737 -0.055458095 0.1496231
0000f0 08 1a 6d 3e 27 ae 13 bc af 6a 11 3c 0c 51 42 3d
       0.23154461 -0.009013689 0.008875533 0.047440574
000100 9c 9c 6d be f4 51 87 3d 5e 6d 1f be 6b d3 c0 3c
       -0.23204273 0.06607428 -0.15569064 0.023538312
000110 7e 4d 2b 3d a6 76 cd bc f2 33 35 be 13 c1 27 bd
       0.04182195 -0.02508099 -0.17695597 -0.040955614
000120 e9 4b 4f 3d 0f 48 56 bc 31 36 53 3d f7 08 36 3d
       0.050609503 -0.013078704 0.051565353 0.044442143
000130 3d 9f 90 3b c0 73 56 3e fe 02 02 3c a7 d3 97 bd
       0.004413514 0.20942593 0.007935284 -0.07413416
000140 2a 6f 66 3d 85 bd 00 bd 98 f1 d7 bd 04 98 e1 3d
       0.056258358 -0.03143074 -0.10544127 0.11015323
000150 a6 c9 bc 3d 63 a8 40 be b7 0d 74 3e 07 47 e8 3d
       0.09218149 -0.18814234 0.23833357 0.113416724
000160 ce c1 55 bd 95 b2 86 3e 4c ac 34 bd f7 15 69 bd
       -0.05218678 0.26308122 -0.044109628 -0.056905713
000170 50 82 08 3e 81 5c 91 be df 69 69 3c 41 9f 3b be
       0.1333096 -0.28390887 0.014246433 -0.1832247
000180 70 cc 57 bc 13 df a6 bb 38 df ad bd e0 2d 8c bd
       -0.0131713 -0.0050925105 -0.08489841 -0.068446875
000190 6e bf 8d bc 3c e7 a7 3e f6 77 cd bd af 84 5a be
       -0.017303195 0.32793605 -0.10032646 -0.21339677
0001a0 14 01 e6 3d 70 6f 4e 3d 10 44 9c be 87 a0 6a be
       0.112306744 0.050399244 -0.30520678 -0.22912799
0001b0 f7 39 42 be d0 fd 44 3e 7c 2a c6 3d e0 5d f9 bd
       -0.18967424 0.19237447 0.09676072 -0.12176108
0001c0 76 6e 74 bd b8 ba ab 3d fe 8b 6d be e6 ef be bd
       -0.059675656 0.08385223 -0.23197934 -0.09323101
0001d0 30 56 e8 3d c5 f3 19 3d d8 d3 40 3d 9a 66 39 bc
       0.11344564 0.037585992 0.04707703 -0.011315966
0001e0 15 42 a1 3d 04 ee 88 bd 2b a1 02 3d 51 2b 8f ba
       0.07873932 -0.06686023 0.031891983 -0.0010922943
0001f0 02 e7 11 3d c5 8e 13 3d ce 6c f6 bd 91 5d 7d bd
       0.035620697 0.036024828 -0.120324716 -0.06185681
000200 39 2f 49 be c8 6b 62 3e 80 b8 70 3d 1c d9 df 3b
       -0.1964692 0.22111428 0.058769703 0.0068313014
000210 18 33 5a 3e 5d 8d 40 bc dd 78 c8 bd a1 30 0e bd
       0.21308553 -0.011752454 -0.09788678 -0.034714345
000220 56 7e 9d 3e d7 02 7d 3e ef 09 30 3d 57 35 57 3d
       0.3076045 0.24708115 0.042978223 0.052541103
000230 1c 66 61 3e 0b a8 3c 3d 83 08 9e 3e d5 b5 22 3e
       0.22011608 0.046058696 0.3086587 0.15889676
000240 58 9f 3e 3e f8 37 ab 3c 7c ed 16 be bf af 03 be
       0.18615472 0.020900711 -0.1473903 -0.1286001
000250 05 92 94 3e 4f fb 3e 3e 1c ed 10 3d 93 c0 92 3e
       0.29017654 0.18650554 0.035382375 0.28662547
000260 79 6e c0 3e a6 d0 bb 3e 42 2e 2c bc 61 ed 4d 3e
       0.37584284 0.36682624 -0.010509076 0.20110084
000270 4d 70 6b 3c 59 34 80 3e 56 99 4e 3e 26 ba 13 be
       0.014370036 0.25039938 0.2017568 -0.14426479
000280 e6 f5 0c bd 26 f1 36 bd e1 39 a1 3d ec 11 41 3b
       -0.034414195 -0.04466357 0.07872368 0.0029460145
000290 fe 86 01 be d3 a5 38 3e f1 5d 02 3e 4a f5 d9 3d
       -0.12649152 0.18032007 0.12731148 0.10642488
0002a0 b0 9a 39 be ec 4a c8 3e 84 7a 3c 3e eb f2 53 3e
       -0.18125415 0.3911966 0.18406111 0.20698135
0002b0 13 da 49 3e 05 38 be 3c 5c 4b 48 3c fd 65 ee 3c
       0.19712095 0.023220072 0.012224998 0.029101366
0002c0 d7 cd d7 bd a6 4b 16 bd 56 0e 4e 3c 6a d9 c3 3c
       -0.10537308 -0.036693238 0.01257666 0.023907382
0002d0 0b 48 0a be 94 e0 19 3e 81 9b 40 3d 52 5a 2c 3e
       -0.13504045 0.15027076 0.0470233 0.1683133
0002e0 39 d0 d7 bc 6d 56 e4 3d dd ed 1e be 41 48 8e 3d
       -0.026344405 0.11149297 -0.15520425 0.06947375
0002f0 d4 1f 9c ba 9c 4d b5 bd 3a 9c 90 3e 5b 04 d5 bc
       -0.0011911341 -0.088526934 0.2824419 -0.026003053
000300 80 ce 1c be 99 b2 4b bd cf c4 b8 bc 6f 1a 79 bd
       -0.15313148 -0.04973087 -0.022554783 -0.060816225
000310 1e fd 71 3d 19 33 f1 3d e7 f7 25 bd 0f a5 4f 3d
       0.059079282 0.11777324 -0.04051962 0.05069452
000320 0b 9e 4c 3e 2e 2b 1c 3e d5 81 3a be bb c8 84 3d
       0.19982164 0.15250847 -0.1821359 0.06483599
000330 77 1d b2 3c 8d a8 42 3e e6 cf 1c 3e 54 36 19 bd
       0.021742566 0.1900961 0.15313682 -0.037405327
000340 c3 5e ad 3e c4 bb 3b bc bf 85 8f bd ae 8f 2e 3e
       0.3386136 -0.011458341 -0.07007932 0.17046997
000350 5c 10 4f bd 5c 70 73 3e 97 83 72 3e 9b d0 02 3e
       -0.05055271 0.2377333 0.2368301 0.12774889
000360 18 35 34 bd 78 ae 3c 3e 33 f9 f2 bd f1 9b b8 bd
       -0.043995947 0.1842593 -0.11863937 -0.090141185
000370 82 cb 81 bd df c7 6d 3e f2 54 9e 3e 94 87 a0 bd
       -0.06337644 0.23220776 0.30924183 -0.078383595
000380 48 25 80 3e a5 c4 21 3c 04 f1 3f bc 35 d7 13 3e
       0.25028443 0.009873544 -0.011715177 0.14437564
000390 79 e2 14 be f4 eb 40 bc 86 7f d5 bd 16 97 45 be
       -0.14539517 -0.011775006 -0.10424714 -0.19295916
0003a0 0a d4 f8 bd 0c c1 74 3d 71 dd db 3d 39 7a 99 3d
       -0.12149818 0.059754416 0.10735596 0.07494015
0003b0 5b 1f 2c 3e 16 46 20 bc 6a e8 19 be e1 c9 ae 3d
       0.16808836 -0.009782335 -0.15030065 0.08534599
0003c0 09 7e a3 3d 01 bc 19 be 84 f4 67 3e 74 70 c0 bb
       0.07983024 -0.15013124 0.22651869 -0.0058727805
0003d0 a3 b5 a4 bc 2e e0 88 3c 5d 37 a9 3d 80 e3 30 3d
       -0.020106142 0.01670846 0.08262513 0.04318571
0003e0 31 bc 82 3e 4d 9e 91 be f4 70 5b 3e 54 12 00 3e
       0.25534204 -0.28441086 0.21429807 0.12506992
0003f0 a4 11 96 3e 8d c5 43 bd f0 f5 72 3e 9f 2a 0d 3e
       0.29310334 -0.04779582 0.2372663 0.1378579

actor.fc_mu.weight f4 [2, 65]
000000 ba 78 f1 bb ec 9e 1f 3c 63 06 1a 3e 17 ca 09 3e
       -0.007369128 0.00974248 0.15041499 0.13455997
000010 03 c3 7b 38 00 5f d6 3b 82 78 1d bb e1 5d 11 3e
       6.0024682e-05 0.0065420866 -0.0024028127 0.14195968
000020 20 e7 00 3e 42 c7 16 3e 1a 10 d6 3b 80 80 9f 39
       0.12588167 0.14724448 0.006532681 0.00030422583
000030 a0 8b 18 3e 91 cc 1f 3e aa 8e 70 3a d8 55 a2 3b
       0.14897013 0.1560538 0.0009176532 0.004954081
000040 8c 7d 4e 3c 90 ec 16 3e 59 5e 0d 3e 32 9f ff 3b
       0.012603175 0.14738679 0.13805522 0.00780096
000050 f7 29 dd bb 5b 8b 11 3e 4b cb 15 3e 5c b2 12 3e
       -0.0067493874 0.14213316 0.14628331 0.14325851
000060 2b a2 cd 3b 24 00 0f 3e 26 5c 78 3b 47 d6 1f 3e
       0.0062754354 0.13964897 0.0037896722 0.15609084
000070 28 41 74 3c 19 9a 8f 3b 3a f7 16 3e 50 b8 18 3e
       0.014908113 0.0043823835 0.14742747 0.1491406
000080 e8 68 66 3b d0 cb 0f 3e 5e 75 5c 3a cf d8 19 3e
       0.0035157744 0.14042592 0.0008409823 0.15024112
000090 5b be e4 bb 93 fb 14 3e 13 62 b6 bb 3d 2a 8a 3c
       -0.0069807 0.14549093 -0.0055658906 0.016865844
0000a0 5a 87 0c bb 07 fc 12 3e 24 56 d8 3c b8 fb 1c 3b
       -0.002144298 0.14353953 0.026408263 0.0023953747
0000b0 03 59 30 3e c4 93 0d 3e 07 82 0c 3e df 7f 12 3e
       0.17221455 0.138259 0.13721476 0.14306591
0000c0 7f d0 51 ba 34 0b f9 3d 4e 53 08 3b 21 ba 14 3e
       -0.00080037856 0.1216034 0.0020801607 0.14524128
0000d0 f2 6a 09 3e 86 12 1a 3e 10 00 16 3e f6 6d 11 3e
       0.13419703 0.15046129 0.14648461 0.14202103
0000e0 ea aa 00 bc 09 80 26 3c 4e 4f 26 3c a7 c1 f3 bb
       -0.007853249 0.010162362 0.010150744 -0.0074388566
0000f0 69 10 fd b9 82 1f 20 3e 1e dd 22 3e fc 43 f4 3a
       -0.00048268147 0.1563702 0.15904662 0.0018635984
000100 b1 1b f1 3d d9 49 a3 bb 48 0d fc bc fd 51 20 bd
       0.1177286 -0.0049831686 -0.030768052 -0.03914069
000110 38 19 67 bc f9 c8 03 3b 00 a5 2a ba 31 d8 db bb
       -0.014105134 0.0020108803 -0.0006509572 -0.0067091216
000120 c1 61 df bc 5c 82 a8 bc b6 86 df bc 39 82 c4 bc
       -0.027268292 -0.020569973 -0.027285915 -0.023987876
000130 6b 0e a8 bb 46 c3 bd bc d0 9c e5 bc 09 79 cf bb
       -0.005128672 -0.023164403 -0.028028876 -0.006331567
000140 c7 f0 8f bb 69 2d 28 3c 79 80 01 bd ed 5f 03 bd
       -0.0043927166 0.010264733 -0.03161666 -0.032073904
000150 ea 6a 47 3a cc 9e 9e 3b 10 fe eb bc 48 d3 ce bc
       0.0007607179 0.0048407074 -0.02880767 -0.025247231
000160 8f b7 d2 bc 1e fd 20 3b e7 0a af bc 71 1a a5 bc
       -0.025722293 0.0024564932 -0.021367503 -0.02015421
000170 00 1b 15 bd 3a 0c e5 3a 3d 92 dd bb 30 fd eb bc
       -0.036402702 0.0017474957 -0.0067618177 -0.028807253
000180 17 01 df bc 7b 37 61 3b 21 47 2a bd f1 08 17 b9
       -0.0272222 0.0034365344 -0.04157174 -0.00014403813
000190 68 2d e7 bc 22 51 28 bc 68 fd 04 bd c4 f7 48 bc
       -0.028219894 -0.01027325 -0.03246823 -0.012266103
0001a0 b2 a8 84 bc 2f 79 58 3b 0c 7f 98 bc cb 37 0a bb
       -0.016193721 0.0033031215 -0.018615268 -0.0021090384
0001b0 31 24 01 bb 32 61 e1 bc 56 ea c9 bc d7 61 23 bd
       -0.001970541 -0.027512167 -0.024647873 -0.03988823
0001c0 54 92 8e bc cf 4c 4d 3b c2 a0 c7 3a 9d 70 38 ba
       -0.017403759 0.00313263 0.0015230405 -0.00070358237
0001d0 35 93 e2 bc c7 77 46 bc 05 f8 21 bd 6f 8e e9 bc
       -0.027658084 -0.012113518 -0.03954317 -0.0285103
0001e0 bd 08 ee bc e4 e1 02 3b 78 fb e2 3b f0 da 9d bc
       -0.029056901 0.0019971067 0.00692695 -0.019269437
0001f0 3b 0b a1 bc 1a 68 f0 3a a3 68 1b bd be c7 24 bd
       -0.019658675 0.0018341572 -0.037941586 -0.04022955
000200 3e 0b 82 ba ca 47 41 be
       -0.0009921563 -0.18875042

actor.fc_mu.bias f4 [2]
000000 19 b0 02 3e 21 9c 93 bb
       0.12762488 -0.004504696

critic.conv1.bias f4 [64]
000000 ab e7 27 3d 91 22 d1 3d 22 94 4a bc 17 96 da ba
       0.04099242 0.10211671 -0.012364419 -0.001667681
000010 2b db 3f 3d b5 6a b4 bc ee 69 a2 bc 70 0f 45 bd
       0.046839874 -0.022023538 -0.019825902 -0.048110425
000020 ba 0a 8e 3b 39 f8 1d bb 4b 72 62 bc c7 27 35 bd
       0.004334775 -0.002410425 -0.013821195 -0.044227388
000030 33 98 00 3d 9f 5e f1 3d 12 1e b0 bc c0 62 4b bd
       0.03139515 0.11785626 -0.021498714 -0.049654722
000040 ba 6c 15 bc 39 60 16 3e fc 6c 2b bd d9 9e b2 bc
       -0.009120161 0.14685144 -0.041851982 -0.02180426
000050 1b 81 65 bc 5d 65 7a 3b c6 a6 99 3c a5 2a b1 3b
       -0.014007832 0.003820739 0.018756282 0.005406695
000060 da cd 2d 3d 17 91 f0 3c 36 1d ba bc 6d 38 e0 3b
       0.042432643 0.02936606 -0.022719007 0.006842664
000070 68 03 cb bc a1 f9 f0 3c af 9b a8 3d 21 63 74 ba
       -0.024781898 0.029415907 0.08232819 -0.00093226327
000080 2f f3 48 3c 4a a0 05 3d 09 a3 86 3d 00 00 00 00
       0.012265011 0.032623567 0.06574065 0.0
000090 a9 a2 06 3d be 97 eb 3d ca b0 0e 3e 73 dd 4f bb
       0.03286997 0.11503552 0.13934627 -0.0031717687
0000a0 00 00 00 00 00 00 00 00 10 c3 3a 3e 14 f0 21 bd
       0.0 0.0 0.18238473 -0.039535597
0000b0 f7 10 c9 3d 76 4b 5b 3d 02 72 92 3c d5 3e 8b bc
       0.09817689 0.053538762 0.017876629 -0.016997734
0000c0 ce 06 ef 3c e4 3e 0e 3c 2c 69 87 3c bc f1 71 3d
       0.02917805 0.0086819865 0.016529642 0.059068426
0000d0 67 f2 88 3d ef b3 43 bb cb 4e cc 3d 1b f7 1b 3d
       0.066868596 -0.0029861887 0.09975966 0.038077455
0000e0 7f 12 fa 3a 2e f1 11 bd 1d 06 ee 3c 67 88 b2 3c
       0.0019078999 -0.035630397 0.02905565 0.021793557
0000f0 bf 13 46 bc 6c 8d 40 bc 9a aa 07 bd a8 dd a1 bc
       -0.012089669 -0.011752468 -0.033121683 -0.019759014

critic.conv1.lin.weight f4 [64, 5]
000000 36 07 ab bc fb 0f 98 be f3 2e 9b 3e ef 4f 72 be
       -0.020877462 -0.29699692 0.30309257 -0.23663305
000010 b0 8e 74 3d 8b 32 96 bd 69 62 35 bd 71 42 1b 3d
       0.05970639 -0.07333859 -0.044283304 0.03790516
000020 8c 79 48 3e b0 92 f8 bd d5 00 91 be 06 9d 70 be
       0.19577616 -0.121373534 -0.28320947 -0.234974
000030 28 04 fd bc 3f 46 7e 3d 43 9e 6a be 2c 71 c0 bd
       -0.03088577 0.06207871 -0.22911935 -0.09396586
000040 31 f5 3c be 82 8b 7b bd 50 63 c1 bd 50 1a 6d 3b
       -0.18452908 -0.061412342 -0.094427705 0.0036179014
000050 70 18 55 be c4 6d eb bc 34 c5 26 3e 52 3f 0c be
       -0.20810103 -0.028738864 0.16286165 -0.1369603
000060 1c ff a5 3d 78 4f 1f be 6d b1 9f 3d e7 dd 2b 3d
       0.08105299 -0.15557659 0.07797513 0.04195967
000070 7e 12 0a be 31 27 88 3e 13 d4 6e bd 29 a9 a7 3e
       -0.13483617 0.265924 -0.05830772 0.32746246
000080 d7 d7 ca bd 02 ef 07 be 8b 01 11 be 6f bc 81 3e
       -0.099044494 -0.13274768 -0.14160745 0.25339076
000090 92 85 91 3d 87 90 30 3d 96 ee 25 be c0 31 62 bd
       0.07105555 0.043106582 -0.16204295 -0.055223227
0000a0 eb b4 8e ba 47 ac 40 3e 54 17 8f bd 15 39 95 3d
       -0.0010887658 0.18815719 -0.06986871 0.07286278
0000b0 43 22 a5 bd f0 99 0f 3a 68 32 df 3c 86 ad d9 bd
       -0.080631755 0.00054779556 0.027245715 -0.106288
0000c0 48 cf 91 3e cb 6c be bd c4 e4 82 be 4a bd 90 bb
       0.28478456 -0.09298094 -0.2556516 -0.0044170963
0000d0 f5 7d 1f bd 3a 88 59 bd 76 ce fa bc 1d 19 60 3d
       -0.03893848 -0.05310843 -0.030616026 0.05471145
0000e0 52 a8 ad bb 60 ca 9f 3e c6 eb 0e 3c a3 54 16 be
       -0.0052996064 0.31209087 0.008723205 -0.14680724
0000f0 84 c8 05 bb f4 05 20 bd 64 1e d9 3c 75 43 5d 3e
       -0.0020413706 -0.039068177 0.02650375 0.21607764
000100 9b 3b ee bd b8 ee 2d be 9b ff 72 3d c8 79 37 3e
       -0.116324626 -0.16985595 0.059325796 0.1791755
000110 4e c1 96 be 90 0f 96 3e 8f 21 a8 3d db c7 02 3e
       -0.29444355 0.29308748 0.08209526 0.12771551
000120 0a fe 09 3e 86 64 2d bb d8 bf 2d be b4 aa c3 bb
       0.13475814 -0.0026457622 -0.16967714 -0.005971277
000130 73 d4 bf bd 3a c8 e7 3d 0f df b2 3e f4 49 91 bc
       -0.09366693 0.11317487 0.34935805 -0.017735459
000140 35 a6 ae 3d 6b 7f df 3b d5 8e ac bd 80 0d 40 be
       0.08527795 0.0068206093 -0.084256805 -0.1875515
000150 00 b0 86 3c 5a 7d a5 3d b7 88 27 bd 59 02 8e 3d
       0.016441345 0.080805495 -0.040901866 0.069340415
000160 b0 27 87 bd c8 d9 a6 3c 8b 1b 45 be 9d c3 52 3e
       -0.06599367 0.020367518 -0.19248788 0.20582433
000170 ec b8 8c 3d de 29 bf bd e5 97 2f 3e b6 2f c0 3d
       0.068712085 -0.093341574 0.17147787 0.093841
000180 24 ff 25 3e c7 7d 25 be 1c e6 88 3e de 7f ec ba
       0.1621061 -0.16161261 0.2673806 -0.0018043478
000190 d5 ba 76 3b 9d 3f 57 3d ab 60 01 be d2 f3 11 3d
       0.0037647982 0.0525509 -0.12634532 0.035632916
0001a0 69 27 9a bc 1a ad 9e bc b3 6c ac bd 3b 08 c0 bd
       -0.01881762 -0.01936965 -0.0841917 -0.0937657
0001b0 49 54 06 bf e6 57 05 3f 7d 17 e9 3d a3 82 2a bb
       -0.5247236 0.5208725 0.11381433 -0.0026017807
0001c0 83 dc 1b 3d dc 1a 03 3d 34 2d 02 3e 8f b4 e9 bd
       0.038052093 0.032008037 0.12712556 -0.11411392
0001d0 a5 70 eb bc 57 a2 f0 3d 85 b3 1a bf 85 fa cb 3e
       -0.028740237 0.11749714 -0.60430175 0.3983957
0001e0 b9 1b 17 3e 6d b3 f2 bc 2c 65 ba bd 5e dc d9 3e
       0.14756669 -0.029626573 -0.09101328 0.4255094
0001f0 9c f3 bb be 72 73 10 be 91 4b 1e bd 91 5e 23 3e
       -0.36709297 -0.14106539 -0.038646284 0.15954043
000200 e9 aa c4 3d 1f c3 30 3e 23 e1 b3 bd 11 f8 34 bd
       0.09602911 0.17261933 -0.08783176 -0.044181887
000210 86 7c b1 3c 9f 3b 03 bd 6e 60 ab 3d 3c d0 59 be
       0.021665823 -0.03203928 0.08368002 -0.21270841
000220 08 65 de 3d 3f 2a 5f 3d 7f c5 8e 3e 2a 0d a3 3b
       0.10859114 0.05448365 0.27885053 0.0049759345
000230 e0 65 23 3e d8 79 21 3a 04 6f 50 3d 42 17 88 3e
       0.15956831 0.0006159819 0.050887123 0.26580244
000240 c9 aa c8 bd 07 15 2f bc 6e 1f cd 3a 52 2b d1 3c
       -0.097982 -0.010686166 0.0015649626 0.025533352
000250 a1 34 86 3d 1c 48 b8 3d fe 84 55 3d 10 83 43 bd
       0.06553007 0.08998129 0.052128784 -0.047732413
000260 2e 8e b7 bd 40 b5 65 be 52 c7 47 3e 39 54 fa 3c
       -0.089626655 -0.22432423 0.19509628 0.030557739
000270 19 df d8 3d 6c 50 b1 bd 4d a9 e8 3c bc 5c 20 be
       0.105894275 -0.086579174 0.028401041 -0.15660375
000280 a2 78 92 be 69 fc 01 bd 9f 75 11 3e 85 05 40 3c
       -0.2860766 -0.031734858 0.14205025 0.011720066
000290 37 2e 95 3d 06 fe 28 3e 45 4d cf 3c 0b 7d 56 bc
       0.072842054 0.16503152 0.0253054 -0.013091336
0002a0 13 00 b6 3d b1 0a 16 be fe 3e 04 bd f4 91 c8 ba
       0.08886733 -0.14652516 -0.032286637 -0.0015302286
0002b0 62 e0 38 bd 2c 7f 3c bf 2e 62 50 3d ad 16 90 bd
       -0.045135863 -0.7363155 0.05087488 -0.07035575
0002c0 5e fb 22 bd 20 50 78 be 2b 4a c8 bd e9 8c 57 be
       -0.039790504 -0.24249315 -0.097797714 -0.21049847
0002d0 fa b6 90 3d bc d2 01 bd f1 7c 09 3e 9a 17 08 3e
       0.0706615 -0.031695113 0.13426568 0.13290253
0002e0 28 80 8d 3c c8 00 f4 bd 6b 04 17 bd e5 18 87 3d
       0.017273024 -0.119142115 -0.036869448 0.06596545
0002f0 75 57 03 bc 2e c8 b1 bd 01 a4 14 3d 48 48 96 bd
       -0.008016457 -0.08680759 0.03628922 -0.07338005
000300 1e 95 5a be 74 3b 2b 3f 6a a3 0c bf c9 43 24 3b
       -0.21345946 0.66887593 -0.5493685 0.0025064817
000310 d2 57 c1 bd 7f 4a 9f bd 81 fb 66 be 1f d8 79 be
       -0.094405785 -0.07777881 -0.22556879 -0.2439885
000320 23 2c 88 bd 10 8e 73 bd f6 e5 16 be 51 71 ab bd
       -0.066490434 -0.059461653 -0.1473616 -0.08371223
000330 fa 55 13 be 04 88 3a be 3f 65 9b bd 15 6d 63 be
       -0.14388266 -0.18215948 -0.075876705 -0.2220958
000340 ce db 96 bd 49 d8 03 bd a0 15 ae 3d 8d b8 20 bd
       -0.07366143 -0.032188687 0.085002184 -0.0392385
000350 c9 95 c8 3e 7f a4 a1 be cd 63 12 3e 5b 7b 75 be
       0.39176777 -0.31570813 0.14295883 -0.23972838
000360 45 9a 89 3e 74 ee 8c 3c 7e a9 46 bd 3e 49 06 3e
       0.2687551 0.017203547 -0.048501484 0.13113877
000370 da 84 23 bd ce 0c cb bd 99 32 7e be 89 8b ac 3e
       -0.03992162 -0.09914552 -0.24823989 0.33700207
000380 2d a3 10 be 96 29 2f 3d 43 29 18 3e 2b 14 fe bc
       -0.14124747 0.04276427 0.1485949 -0.031015476
000390 ee 57 96 bd 0b ce 9f 3c f7 d6 12 3e 08 92 e0 bc
       -0.0734099 0.019507429 0.14339815 -0.027413383
0003a0 32 11 60 be 7e a0 8d 3e 9d 15 b9 bd dd a5 6e be
       -0.2188156 0.27661508 -0.090373255 -0.2330546
0003b0 e4 ec 85 3e 11 52 93 bd e9 cd 5e 3e e8 14 7d bd
       0.26157296 -0.07193387 0.21758236 -0.061787516
0003c0 f9 cf af bb e5 17 1b bd 74 5b d5 3d dc 7a d8 be
       -0.0053653684 -0.037864584 0.10417834 -0.42281234
0003d0 99 4a 5f bc 14 6c 92 3d fe f5 f2 be c3 b3 8c 3d
       -0.013628625 0.071495205 -0.47453302 0.06870224
0003e0 79 6b 6f be 6c c1 bf 3d e4 85 13 3e 99 3a 15 bd
       -0.23380841 0.09363064 0.14406544 -0.036432836
0003f0 d8 31 c4 3d 7a 25 ad 3b 31 3b 11 be c9 0d a8 bc
       0.095798194 0.0052840086 -0.14182736 -0.020514386

critic.conv2.bias f4 [64]
000000 2d 30 fd bb bb d3 5b bc 04 d3 90 3c e9 53 2e 3e
       -0.0077266903 -0.01341718 0.017678745 0.17024197
000010 d8 8f bb bc 5c 65 02 3d bf 13 ae bc e8 f8 98 bc
       -0.022895738 0.031834945 -0.02124965 -0.018673375
000020 df e3 69 3e 82 15 92 bc 3f 1c f5 bc 56 af c2 bc
       0.22840832 -0.017832521 -0.029920695 -0.023765247
000030 87 50 83 bb 35 ae ae 3c 81 c0 2e 3d e5 03 39 3d
       -0.0040074023 0.021323303 0.042664055 0.04516973
000040 a6 86 62 bc 6a 80 25 bc c9 a6 65 bc e5 87 ec 3c
       -0.013826048 -0.010101417 -0.014016815 0.028873393
000050 83 10 5e 3d 51 9f f5 3c 9d 14 fd 3c 6d ad a7 bc
       0.054214966 0.029983195 0.030893618 -0.020468438
000060 26 26 9b 3d f8 27 bc bc 9f cd e9 3c c1 c9 f2 3c
       0.075756356 -0.022968277 0.02854043 0.02963722
000070 0e 31 bb 3d a1 ed 9d bc de 81 a1 3c 2a 6f f1 3c
       0.09140216 -0.01927835 0.019715246 0.029471952
000080 00 00 00 00 40 d0 b2 bc 71 cc f4 3c 57 ee 6b bc
       0.0 -0.021827817 0.029882642 -0.014400086
000090 77 0e 71 bc c5 2a 5b bd c3 9b ef 3c f5 88 03 3d
       -0.014712921 -0.053507585 0.029249078 0.032113034
0000a0 cb 50 5f bc ad 79 ee 3c 77 54 d1 bc 34 a1 13 3e
       -0.013630102 0.029110754 -0.025552971 0.14416963
0000b0 7c 16 6c 3e 97 fa b2 bc a4 23 10 3d 94 89 02 3b
       0.23055452 -0.021848006 0.03519024 0.0019918429
0000c0 cf 0c 75 bc 86 6a 4f 3e ca bf 8a bc 76 91 7b bc
       -0.014956667 0.20255479 -0.016937155 -0.015354505
0000d0 c3 84 eb 3c d4 31 9a 3d e6 d2 88 3d 82 da 80 3d
       0.02874983 0.07529035 0.06680851 0.06291677
0000e0 bb 9e be bc 80 7c 49 3d 6c be 2d bc 5c 41 4c bc
       -0.023269048 0.049190998 -0.010604482 -0.012466755
0000f0 ad d9 5c bc 52 99 33 3d de 12 1d bc 24 71 88 bc
       -0.013479632 0.04384739 -0.009587018 -0.016655512

critic.conv2.lin.weight f4 [64, 64]
000000 bf 43 9c 3d 02 2d 1e 3c 73 5f c7 bd be f7 b3 3d
       0.07630109 0.009654285 -0.09735002 0.087874874
000010 64 96 d7 bd e5 8d c7 3d 9c 49 e2 bc 3b b2 0d 3e
       -0.105267316 0.09743861 -0.02762299 0.13837521
000020 54 91 06 be f2 d9 d5 3d 81 c5 e9 bd 73 53 f6 3c
       -0.13141376 0.104419604 -0.11414624 0.030069089
000030 f8 8c bf 3d 08 41 9f bd 09 d2 8f 3d c9 d9 d2 bb
       0.093530595 -0.077760756 0.07022483 -0.0064346534
000040 8b 78 d6 bd dd fb 00 be 48 a5 de bc 6a 44 25 3d
       -0.104722105 -0.12596078 -0.027178422 0.040348448
000050 93 cb 6f 3b 11 a6 f9 3c 50 34 c4 bd b7 55 bd bd
       0.0036589846 0.030474694 -0.0958029 -0.092448644
000060 aa 9b fe ba fd 39 64 be 39 6f d2 3e 89 28 b9 bc
       -0.0019425054 -0.22287746 0.4110048 -0.022602336
000070 08 e1 f2 bd 11 fc db 3d 88 8c 19 bd 30 81 27 3a
       -0.118593276 0.10741437 -0.037487537 0.0006389795
000080 91 5e 74 bd 09 ee 48 be f4 d8 cf bd fe f6 16 be
       -0.059660498 -0.19622053 -0.101488024 -0.14742658
000090 23 3b dd 3c de cd 52 3d bf 75 df 3b 7e 5f 00 3d
       0.027005738 0.05146586 0.0068194564 0.03134107
0000a0 23 3b d7 bd 97 08 37 3c 6c b8 1a be c8 40 a9 bd
       -0.10509326 0.011171482 -0.15109414 -0.08264309
0000b0 4a d7 85 be b4 8d a1 be 7f d4 37 3e ed 32 63 3e
       -0.26140815 -0.31553423 0.17952155 0.22187395
0000c0 64 b3 47 bd e2 c2 0e be 94 c0 32 be ef dc 06 be
       -0.048755065 -0.1394153 -0.17456275 -0.13170217
0000d0 65 a8 0b 3e 2e fd c4 bd 80 49 21 bc 00 ca 37 be
       0.13638456 -0.09618603 -0.009844184 -0.1794815
0000e0 cd 3d 71 3e 8b 23 85 bd f7 ff 3d 3c 9a ae a3 bd
       0.23558731 -0.0650092 0.011596671 -0.07992287
0000f0 6d 58 90 bd 49 65 85 3c 68 9a 72 bd 36 dc 10 3e
       -0.07048116 0.016283648 -0.059229285 0.14146504
000100 eb 09 07 be f0 38 3a bd ca a5 1f 3e c0 6d a0 3d
       -0.13187377 -0.045464456 0.15590587 0.07833433
000110 83 79 d8 bd 7c bc 8b 3d 5a 07 a2 3d 14 80 80 be
       -0.105700515 0.0682306 0.079115584 -0.25097716
000120 71 3f b5 3d da b0 e1 3d b8 74 bc bd 7d dd 0f 3e
       0.08849991 0.1102006 -0.0920195 0.14049335
000130 46 a5 37 ba 18 dd 9d 3c 8b d6 71 3e 05 db 80 be
       -0.00070055237 0.019270465 0.23616998 -0.251671
000140 00 24 b2 be 03 e5 1b 3d a6 72 24 3d ee 9f 2c be
       -0.3479309 0.0380602 0.0401484 -0.16857883
000150 d6 1c 14 3b 55 99 7b 3d 75 1f 8d bd f8 01 17 bd
       0.0022600195 0.061425526 -0.068907656 -0.036867112
000160 a5 7c 48 3d 37 b0 98 bd 71 01 ac 3d b7 39 2f bd
       0.048946995 -0.07455485 0.083987124 -0.04277965
000170 78 d0 79 bd ef e9 8f bd 0b 90 5c be 08 04 5c be
       -0.060989827 -0.07027041 -0.21539323 -0.21485913
000180 93 fd e9 3a 88 4b 86 be 79 14 c9 bd dc 37 08 3d
       0.001785206 -0.262295 -0.09818358 0.033256397
000190 e7 c6 2d bd 37 ae 16 be 0f e3 77 be 16 4a 0f be
       -0.042426016 -0.14714895 -0.2420771 -0.13993105
0001a0 b1 c6 67 bd 04 f7 fe bc 94 2e 25 3e 5b 23 23 be
       -0.05658597 -0.031123646 0.1613105 -0.15931456
0001b0 be af 10 be ac dd 83 3d 27 01 26 be 27 6b 07 bd
       -0.1412954 0.06438765 -0.16211377 -0.033061173
0001c0 37 74 c7 bd 95 d2 b3 3c f8 44 b7 3d 32 37 3b bd
       -0.09738963 0.021951 0.089487016 -0.045706935
0001d0 15 18 ba bd 52 7e d1 3b 53 7e ed 3d fc bc 09 3e
       -0.090866245 0.0063932324 0.1159636 0.13450998
0001e0 81 35 19 be 87 1a 1c be 8a fe 36 3c a6 37 89 bc
       -0.14961816 -0.15244494 0.011169085 -0.016750168
0001f0 35 c7 75 bd 8f bd 0f 3d fe 1f 6f 3d d6 e8 f8 bd
       -0.06000443 0.035092887 0.05838012 -0.12153785
000200 41 90 ff 3d bc ae 0d be d8 1f 10 3d 68 fd a7 3d
       0.12478686 -0.13836187 0.03518662 0.0820263
000210 d4 14 1b bd 70 7e 56 be 67 66 28 3d d9 da 93 bd
       -0.03786166 -0.2094667 0.041113283 -0.07219476
000220 44 bd b3 bd 99 5a fb 3c 95 a5 87 be d9 90 5e be
       -0.08776334 0.030682849 -0.26493517 -0.21734942
000230 e2 b8 42 be f2 12 2d bd c0 d5 33 ba 94 27 bc 3d
       -0.1901584 -0.042254396 -0.00068601593 0.091872364
000240 73 f8 b2 3d c2 a0 fd 3d 1c 19 d8 3d 5c d4 3b 3b
       0.08738794 0.12384178 0.10551664 0.0028660512
000250 c1 2b 3b be df 72 8b 3b 48 84 65 3e da fd 93 39
       -0.1827841 0.004255637 0.22413743 0.0002822716
000260 59 2a 81 be d8 82 e7 3d 13 62 03 3e ba 38 83 3d
       -0.2522762 0.11304253 0.12830381 0.06407304
000270 1a 72 c3 3d ab 7d 01 be 12 00 25 bd fa 42 88 3b
       0.095432475 -0.12645595 -0.04028327 0.004158375
000280 5c e6 a5 3d 85 87 03 be 88 97 02 3d e3 86 a7 3d
       0.08100578 -0.12844665 0.031882793 0.081800245
000290 c5 27 d5 3d d5 56 9c 3d 19 3a 47 bf d0 9d fc bd
       0.10407976 0.076337494 -0.77823025 -0.12334788
0002a0 fc a1 bf 3d 50 c9 46 3e 85 7e e8 3d 83 ee e0 3c
       0.09357068 0.19412732 0.11352257 0.027457481
0002b0 6b a0 cd be ba 1e a4 bd c1 b0 0d be f3 9c 29 3e
       -0.40161452 -0.08013673 -0.13836958 0.16563778
0002c0 b8 8a e6 3d 7f 7c 34 be 25 d9 c9 3d 07 c5 df 3e
       0.11256927 -0.17625616 0.0985587 0.43705007
0002d0 0b 39 39 3d 26 55 a0 3c 7b d8 0b be e3 41 2b bd
       0.045220416 0.019571852 -0.136568 -0.04181088
0002e0 c0 66 c9 bd a8 55 1c be cf a6 f3 be 1f 65 9a 3e
       -0.09834051 -0.1526705 -0.47588202 0.30155274
0002f0 c1 85 1b 3d 3f 4e aa bd ce 07 c1 bc 1b 35 0a 3d
       0.037969355 -0.083157055 -0.023563292 0.03374205
000300 7b 14 20 3f 61 bc 21 be 66 ce 3f 3e 68 4c 4d 3e
       0.6253125 -0.15794517 0.18731079 0.20048678
000310 92 1c d8 bd 3d 97 54 3e 0d d1 e4 3c 06 c3 9a bd
       -0.10552324 0.20760818 0.027931714 -0.07556729
000320 ec 7f 42 bd c9 a7 a9 3d 07 5f 8b bd 92 28 a4 3d
       -0.047485277 0.082839556 -0.068052344 0.08015551
000330 67 8a fb 3d c4 89 8a 3e 5e 8e 6a be 5b f0 13 3c
       0.122822575 0.27058232 -0.22905871 0.009029473
000340 76 41 a0 3d 88 ae 8c 3e 58 37 a8 3d 3d 86 91 bd
       0.07824986 0.27476907 0.08213681 -0.07105682
000350 b2 44 13 bd 65 52 8c 3e 45 7e 43 3e ec da 03 3f
       -0.035954185 0.27406612 0.19091137 0.51505923
000360 9b e3 1a bf ff c3 1d 3e bf b8 de 3d fd 7d 98 bd
       -0.6050355 0.15406798 0.10875081 -0.07445905
000370 d1 0d a2 be f2 fc 0b 3d f5 ac 0f 3e 1c 66 ef bd
       -0.31651166 0.034176774 0.14030822 -0.11689398
000380 89 b0 70 be 67 6d c8 3d f9 96 2a 3f a1 9a 1a 3e
       -0.23504843 0.09786492 0.66636616 0.15098049
000390 de 81 22 3e 0f b7 7d 3e 6a 1b e5 be 5a 08 f0 bd
       0.15869853 0.24776863 -0.44747478 -0.11720343
0003a0 e5 7b 4d bd a8 c6 ff bd 35 6a e5 3e 1e 3c 0c 3f
       -0.050166983 -0.124890625 0.44807592 0.5477923
0003b0 3e 77 10 3d 21 fe b3 3e 43 2b 0a bf e3 70 21 3e
       0.03526997 0.35154822 -0.5397226 0.15765719
0003c0 a9 b2 05 3f f7 c9 12 bf 08 d0 87 3d 25 8c ab bb
       0.5222574 -0.57339424 0.06631476 -0.0052352124
0003d0 23 6e 1c 3e 02 72 f9 3c 57 59 45 3e 1a d6 11 be
       0.15276389 0.030449871 0.19272362 -0.1424183
0003e0 2a 56 55 3e de a5 70 bb f2 94 e2 be 1f 58 2c 3e
       0.2083365 -0.0036719958 -0.4425426 0.1683049
0003f0 ff bb 4a 3e e9 ce a8 3e dc 69 c2 3e 65 57 90 3e
       0.19798277 0.3297036 0.3797139 0.28191677

critic.fc.weight f4 [1, 65]
000000 7c a4 f4 bd 8f 83 82 be b2 8d af 3e dd c5 40 3e
       -0.119454354 -0.25490996 0.34287792 0.18825479
000010 e2 fa bb bc a0 88 82 3e 8c d8 c5 be bf ce b4 bd
       -0.022946779 0.25494862 -0.38641775 -0.08828496
000020 eb 23 c1 3e 6e 85 48 be af fa d9 be c9 af 68 be
       0.37722716 -0.1958215 -0.4257407 -0.22723307
000030 2b c2 d6 3c a6 6b 65 3e 65 94 9c 3e 1e 85 5a 3e
       0.026215633 0.22404346 0.30581966 0.21339843
000040 43 ce 02 be df 55 c8 be 3a 49 85 be 42 14 12 3e
       -0.12773995 -0.39128014 -0.2603243 0.1426554
000050 68 a8 f5 be 0a 80 30 3e a1 f6 39 3e 05 88 4b be
       -0.47980046 0.17236343 0.18160488 -0.19876106
000060 f4 89 9a 3e b1 bb 13 be 0a 84 92 3d 98 6a bd 3d
       0.30183375 -0.14427067 0.07154091 0.09248847
000070 d0 74 0b 3f f1 3a b2 be 69 a7 f5 be 53 68 f5 3c
       0.54475117 -0.34810594 -0.47979286 0.029956972
000080 96 67 3b 3d 40 f7 98 be f1 92 36 3e 3c 41 2b bd
       0.045753084 -0.29876137 0.17829491 -0.04181026
000090 48 33 71 be 57 ef ae be c0 06 27 3e d7 4d ae 3e
       -0.23554718 -0.34166977 0.16311169 0.34043762
0000a0 b8 e8 6a be 33 98 d2 3d 8c 0e 1c be 76 3f c0 3e
       -0.22940338 0.10282936 -0.15239924 0.37548417
0000b0 6b 61 c5 3e bf fb 15 be 12 94 e3 3d 13 74 09 3e
       0.38550887 -0.14646815 0.111122265 0.13423185
0000c0 10 60 07 be 5d e2 f6 3e 94 3f 50 be c1 2a f5 bc
       -0.13220239 0.48219576 -0.20336753 -0.029927613
0000d0 31 14 20 3e fc d0 3d 3e 4d 1d bf 3e 08 92 c5 be
       0.15632702 0.18536752 0.37327042 -0.38587976
0000e0 d7 2f be be 8f 37 da 3e 0d f8 c9 be 7a 9f 47 bd
       -0.37145874 0.42620513 -0.3944706 -0.048736073
0000f0 7b 73 dc bd 90 28 3c bf 43 57 38 bd 48 1f b1 bd
       -0.10764214 -0.73499393 -0.045005094 -0.086485445
000100 56 d4 46 bf
       -0.7766775

_actor_critic.actor.sigma_param f4 [2, 1]
000000 9e 86 9c be 32 92 f6 bd
       -0.30571455 -0.12039603

_actor_critic.actor.conv1.bias f4 [64]
000000 43 bb 3a 3d ad ad b8 3b 00 00 00 00 68 3e e8 bc
       0.045588743 0.005635938 0.0 -0.02835007
000010 be b7 cf 3c a6 ec 0d bd 36 28 8e bd f4 3c 98 3d
       0.02535617 -0.034649514 -0.069412634 0.07433501
000020 64 5e 25 3d ec 37 2c 3d 09 db 3e bd 6f b6 81 3d
       0.04037322 0.04204552 -0.046595607 0.063336246
000030 27 d3 c6 3d 89 a3 88 bd ed 6c a2 3d d0 ee b7 3d
       0.09708243 -0.06671817 0.07930932 0.08981097
000040 1c e9 bd 3d e3 53 ac 3d 73 38 ae bc 4d 10 22 bd
       0.09272978 0.084144376 -0.021267151 -0.039566327
000050 6a f1 16 bd e6 22 fe 3d 5e 8e a6 3d 5e 4a ac 3d
       -0.036851324 0.12409 0.08132623 0.08412622
000060 04 c1 b0 3d 7d 22 1e 3e 5a f7 8e bc c3 ca bb 3d
       0.08630565 0.15442844 -0.01745193 0.09169533
000070 2a ec 82 3d c5 b6 84 3d 24 0f c0 3d 3a c2 90 3d
       0.06392701 0.06480173 0.09377888 0.07068296
000080 19 33 16 3d 4e 0b 91 bd ec c8 0b bd 00 00 00 00
       0.036669824 -0.07082234 -0.03412716 0.0
000090 ae 2d 95 bc 24 40 b6 3d da d5 3b bc 09 62 2d bd
       -0.018210258 0.088989526 -0.01146456 -0.04232982
0000a0 f8 ac 13 bd cc da c8 3d e0 b3 4b bc 30 b5 af 3d
       -0.036053628 0.09807357 -0.012433022 0.08579481
0000b0 c4 41 06 3d 00 00 00 00 93 71 b3 bc 1b 0a 36 bd
       0.032777563 0.0 -0.021904742 -0.04444323
0000c0 6c da 5c 3d e8 fe bb bc 06 d3 c3 3d 71 14 c0 3d
       0.05391924 -0.022948697 0.09561734 0.09378899
0000d0 da 18 7e bd f1 f3 b8 3d fc b2 96 3d 43 b6 ba 3d
       -0.06203542 0.09030903 0.07358357 0.09116795
0000e0 a1 7c 48 bc cf c9 22 bd 80 01 b9 3d fb b3 68 3d
       -0.012236745 -0.03974324 0.09033489 0.056812268
0000f0 7e d4 ca 3d 1e 50 e9 bc 42 ef 60 3b fd 6b 92 3c
       0.09903811 -0.028480586 0.0034322296 0.017873758

_actor_critic.actor.conv1.lin.weight f4 [64, 5]
000000 84 27 73 bc 8e 48 6f bd 1a 8f 07 3d e2 58 e4 3d
       -0.014840964 -0.058418803 0.033095457 0.111497656
000010 a7 f0 4b 3e 78 6c ff bd 84 a3 a2 3e 22 f6 61 bd
       0.1991602 -0.12471861 0.31765378 -0.05516637
000020 81 5b 04 3d 7a 58 2b 3d 70 fc 92 bd f1 6d fa bd
       0.032313827 0.041832425 -0.07177055 -0.12228001
000030 97 d8 23 bd d0 29 d3 bd c5 1e c0 bd b4 60 d1 3c
       -0.040001478 -0.103107095 -0.09380869 0.025558807
000040 cd 0b 70 bd 5d c9 15 bd 9d ab 0a be d8 cf c2 ba
       -0.058605004 -0.036568988 -0.13542028 -0.0014862968
000050 6e 0a bd bc d9 91 28 3e cc f1 02 3d 5d fa a7 3e
       -0.023076262 0.16461886 0.031968877 0.328082
000060 2b 97 61 3d 00 57 62 be 13 24 7c 3d a9 c9 b8 bd
       0.055075806 -0.221035 0.06155784 -0.090228386
000070 49 c8 00 be 76 11 9e 3d ab 4f 63 be a8 0c 01 be
       -0.12576403 0.07718174 -0.2219836 -0.12602484
000080 61 b0 0c 3e 56 83 88 be 25 59 9e bd db 24 3a 3e
       0.13739158 -0.266627 -0.07731847 0.18178122
000090 e7 c3 41 3e 64 2f 1f 3e c2 4d e6 3d 6d 2f 17 be
       0.18922387 0.15545422 0.112453 -0.14764185
0000a0 f1 d5 d9 3d b2 94 46 3e 4d ba a5 3e c3 be 09 3e
       0.10636509 0.1939266 0.323687 0.13451676
0000b0 e6 ce 12 be 1f df 67 3c 6f 57 0a 3e 3b 8a c1 bd
       -0.14336738 0.014152317 0.13509916 -0.094501935
0000c0 94 94 d1 3d 27 25 5d 3e 9e 09 fd bc 42 b5 e2 bb
       0.10233417 0.21596204 -0.030888375 -0.0069185803
0000d0 f4 ad 97 be f8 e8 b2 3d c4 5a 17 be b8 19 37 3e
       -0.29624903 0.087358415 -0.14780718 0.17880905
0000e0 e7 44 e1 3e 5a 68 0d 3c 83 49 01 3e 3a 90 66 3d
       0.4399788 0.008630836 0.12625699 0.05628989
0000f0 39 b1 9a bd b0 4a 2e 3e 31 99 9e 3e 99 f4 57 3e
       -0.07553334 0.17020679 0.3097625 0.210894
000100 4a 9c 91 3e a1 3f 14 be 6b a5 ad 3d b8 61 da bd
       0.28439552 -0.14477398 0.084788166 -0.106631696
000110 40 5d 65 be c7 1e 17 be e4 b9 aa 3d 71 48 59 3e
       -0.22398853 -0.14757834 0.08336237 0.2121904
000120 8a 0e 14 bd 9c b9 82 3e 47 1c 2c 3e ca 0d bc 3e
       -0.036146678 0.25532234 0.16807662 0.3672927
000130 f6 de 65 3d 9d 4c 63 3d 6a 1a 8a 3d d0 30 6d 3e
       0.056120835 0.055492986 0.06743319 0.23163152
000140 74 34 d2 bc c6 fa 82 3e 3e 14 95 3e 51 94 4f 3e
       -0.025659777 0.2558195 0.29117006 0.20271422
000150 74 40 12 be cd c2 81 3e 1f 84 8a 3e ca cd 32 3e
       -0.142824 0.25343934 0.27053925 0.17461315
000160 8a 3b 58 3e e1 d2 56 3e 6f 3e 63 3c 37 96 59 be
       0.21116462 0.20978881 0.013869866 -0.21248709
000170 53 dd 1d be 4f b4 ce bd c4 74 06 be 57 a9 fd 3c
       -0.1541646 -0.10092985 -0.1313048 0.030964537
000180 78 7d cd bc 60 fa 88 bd e9 5e 14 3d 85 e8 39 be
       -0.025084242 -0.0668838 0.036223326 -0.18155105
000190 cc ce a8 be 89 a4 df bb 17 16 7e 3d b3 64 62 bd
       -0.32970273 -0.006825034 0.062032785 -0.055271816
0001a0 6b d9 b1 bd 30 fd 2d 3e cc f9 ae 3e 72 62 c8 3d
       -0.08684047 0.16991115 0.34174955 0.09784402
0001b0 ef d1 b1 3e 6e 49 04 be 5b 87 29 3e ab fb 55 3e
       0.3473048 -0.12918636 0.1655554 0.20896785
0001c0 10 7d b6 3d 9c 2b 79 3e de 35 8e 3d 03 20 3b 3e
       0.089105725 0.24333042 0.06943868 0.1827393
0001d0 42 58 a3 3e c0 5a de bd 54 8a 95 3e c3 c2 43 3d
       0.31903273 -0.10857153 0.29207098 0.04779316
0001e0 53 c7 b5 3e 92 d0 ba 3e e3 87 31 be d1 df 98 3d
       0.35503635 0.36487252 -0.17336993 0.074645646
0001f0 cf 34 b2 bb 5c 71 1a be 5d ff bf 3e 6d 2a 97 bc
       -0.005438424 -0.15082306 0.37499514 -0.018452847
000200 61 c5 d6 3e f6 cf d0 bd 70 c3 39 bd 1a 58 17 be
       0.41947463 -0.101959154 -0.0453524 -0.14779702
000210 df d9 73 be fc 3c 99 3d 0e 0c 6b bd bf 23 e9 3d
       -0.2381358 0.07482335 -0.057384543 0.11383771
000220 59 24 91 3e d9 97 6d 3e f9 a4 91 3e e6 d9 59 3d
       0.28348044 0.23202457 0.28446177 0.05318632
000230 b0 d6 4d 3e 42 c8 46 3e 5f 9f b8 3d c1 82 ed 3d
       0.20101428 0.1941233 0.090147726 0.11597205
000240 84 32 89 3d 5a ee fb bc 48 34 94 3e a2 79 d6 3d
       0.06699088 -0.030753303 0.28946137 0.10472418
000250 cf 23 89 bc e8 44 a3 3b 55 a8 15 bd ca 89 9d 3e
       -0.016740708 0.0049825795 -0.036537487 0.30769187
000260 a2 e7 b2 3d f0 31 c9 3d 96 5e 83 bd 39 ee fa 3d
       0.08735587 0.09823978 -0.06414525 0.122524686
000270 fc 7a 7c 3e b5 27 af 3d 74 34 c7 bd 5b 8f 0d 3e
       0.2465629 0.085524954 -0.097268015 0.13824217
000280 77 0e 82 3d 5f 83 6f 3e a9 ff d6 3d 8c cb 6d 3e
       0.06350415 0.23389958 0.10497982 0.23222178
000290 01 04 c7 bd 78 77 22 be a6 85 82 bd b3 89 8f bc
       -0.097175606 -0.15865886 -0.06373148 -0.017521715
0002a0 18 35 4f 3e 8a 73 31 be 65 4e 70 be ca 95 0d be
       0.20235097 -0.17329231 -0.23467405 -0.13826671
0002b0 28 30 93 bd 23 89 8e bc 08 4e 34 3e c9 04 6e be
       -0.071869195 -0.017399376 0.17607892 -0.23244013
0002c0 f2 f8 b8 bd 17 8f 12 be a3 b4 88 be 34 e1 80 bc
       -0.090318576 -0.14312397 -0.26700315 -0.015732385
0002d0 b2 7f 89 3c 45 e3 f9 37 19 d7 f3 bc bc a0 7b bd
       0.016784523 2.9788944e-05 -0.029765652 -0.061432585
0002e0 77 9f da be d2 4e 8e 3e f7 a6 82 3e 62 c3 bb bc
       -0.42699787 0.2779451 0.2551801 -0.022920314
0002f0 e9 50 b3 3d 8c b4 13 3e 3f 49 36 be 83 9c 1b 3d
       0.08755667 0.14424342 -0.17801379 0.037991058
000300 09 3a ff bc 0e 57 81 3d 82 4d 15 3d 46 24 46 3e
       -0.031155603 0.063154325 0.03645087 0.19349775
000310 ad 78 c4 bd d5 bc 3a 3d 97 1e b4 bd 79 9d 86 be
       -0.095933296 0.04559024 -0.08794897 -0.26292017
000320 4b cf 6e bc 0c 46 46 be 24 71 0b be 7c 39 1c 3d
       -0.01457579 -0.19362658 -0.13617378 0.03814076
000330 5a 2d 67 3d 9f 1b 8d 3e ca 4c 37 3e 13 21 15 3d
       0.056439735 0.27560136 0.17900386 0.036408495
000340 e3 a8 a3 3e 16 e8 23 3e 23 83 da bd 7b bc 6c bd
       0.31964788 0.16006503 -0.106695436 -0.057796936
000350 32 5d c3 bd 73 23 1d be 3a 06 24 3d 9a 04 08 3e
       -0.0953926 -0.15345554 0.040045 0.13283005
000360 83 fa 02 3f 7c 31 81 3c 48 d4 4f 3e 30 38 32 3e
       0.511635 0.015770666 0.20295823 0.17404246
000370 7b e6 48 bd eb b9 c9 3e 75 64 9c bd 41 c3 2b 3e
       -0.04904793 0.39399657 -0.07636348 0.16773702
000380 9e 5f d2 3b c5 45 1f bc 5e 54 8e ba 54 b6 5e bd
       0.00642009 -0.009721224 -0.0010858884 -0.0543731
000390 0c fc 5b ba 5a e0 c1 bd 8b 98 bf bd 94 bd ad bc
       -0.0008391745 -0.0946662 -0.09355267 -0.021208562
0003a0 7e 79 8e 3b 55 c9 eb bd b4 27 54 bd 0f 88 a4 3a
       0.004347979 -0.115130104 -0.051795676 0.0012552756
0003b0 a9 a8 25 3d eb 15 50 be 54 e5 56 be 76 61 62 3d
       0.04044405 -0.20320861 -0.20985919 0.055268727
0003c0 1f 67 9b 3d 7d ea 01 be 4f 15 31 3d 21 9a 0d bb
       0.07588028 -0.12687106 0.043233212 -0.002160676
0003d0 b1 f3 62 3e 72 05 53 bd 55 12 a2 3b a6 4d ab 3b
       0.22163273 -0.051518865 0.004946033 0.0052277623
0003e0 e8 7c 90 be 93 bf 09 be 51 4e 02 3e c3 b2 c3 3e
       -0.28220296 -0.13451986 0.12725188 0.38222322
0003f0 40 fb 01 3e 6a 63 e7 3d 69 47 e0 3d ef e9 a6 3d
       0.126935 0.112982586 0.109511204 0.08150088
