rl_environments/trained_models/PPO_scheduling_5_obj_j10m5/policy.pth (torch, 43358 bytes, 24 tensors)

actor.sigma_param f4 [2, 1]
-0.23772578 -0.09564012
00000000: 636e 73be f8de c3bd

actor.conv1.bias f4 [64]
-0.03906497 0.093153685 0.11821431 -0.053968083 -0.05042276 0.103126995 0.13434845 0.10524847
0.11188451 0.10649733 0.05826617 -0.029595278 0.11141225 0.07352891 0.10383021 -0.03526237
0.11069054 -0.070432335 0.11567892 0.108349085 0.12181475 0.1093429 0.08309884 -0.041219458
0.11715442 0.110004656 -0.012822868 0.111646615 0.1134667 -0.015932355 0.11866543 -0.041997682
-0.07293152 -0.062972195 0.0 -0.037276853 0.12257508 0.0 -0.025099153 0.11441004
0.11157313 0.057534855 0.11559041 0.052791998 0.10234419 0.0 0.10779568 -0.045495946
-0.056057546 -0.028193135 -0.015443717 -0.02988566 -0.049463503 0.12599888 0.0 0.11997016
0.1074445 0.11266832 -0.049288787 0.11453366 0.11182663 0.022118466 -0.037353616 -0.004108436
00000000: 9702 20bd 5cc7 be3d 581a f23d a30d 5dbd
00000010: 1988 4ebd 3f34 d33d a492 093e 838c d73d
00000020: b523 e53d 461b da3d 82a8 6e3d cc71 f2bc
00000030: 1b2c e43d 5396 963d efa4 d43d 466f 10bd
00000040: b9b1 e23d d43e 90bd 12e9 ec3d 20e6 dd3d
00000050: 037a f93d 2cef df3d ba2f aa3d bcd5 28bd
00000060: a8ee ef3d 1f4a e13d 0217 52bc fba6 e43d
00000070: 3b61 e83d 9284 82bc dc06 f33d c305 2cbd
00000080: 1f5d 95bd 91f7 80bd 0000 0000 9daf 18bd
00000090: a508 fb3d 0000 0000 bd9c cdbc d04f ea3d
000000a0: 7480 e43d aba9 6b3d aaba ec3d 6c3c 583d
000000b0: d599 d13d 0000 0000 fbc3 dc3d f559 3abd
000000c0: 999c 65bd 4af5 e6bc a507 7dbc c6d2 f4bc
000000d0: 3e9a 4abd da05 013e 0000 0000 eab2 f53d
000000e0: dd0b dc3d a6be e63d 0ae3 49bd a090 ea3d
000000f0: 5c05 e53d c931 b53c 1b00 19bd 0fa0 86bb

actor.conv1.lin.weight f4 [64, 5]
-0.20185886 0.15966979 0.10171829 0.19591506 0.019481957 0.18498178 -0.09223066 0.03573499
0.102962986 0.25146583 0.20470098 0.14233689 0.05148772 0.007144078 0.24769957 0.09865887
0.0036047325 -0.084104225 -0.2947498 -0.11191923 -0.14277744 -0.016223261 -0.21467026 0.07613221
-0.07766033 -0.083721966 0.06572423 0.14580931 0.06602336 0.32241508 0.024391066 0.033870123
0.03209833 0.19707794 0.3307779 0.21364304 0.14056773 0.27968687 -0.0029453714 0.09327642
0.07872942 0.19534667 0.010135386 -0.042383235 0.008291573 0.029438872 -0.0822697 0.07548769
0.018629475 0.23112758 0.093843855 -0.17398967 0.23502891 0.17356417 0.09315039 -0.23468234
-0.1456265 0.017489875 0.021680152 0.033043507 0.26881763 0.17583935 0.10351423 0.000119946446
0.10528474 0.26068968 0.03484131 0.30624524 -0.1342155 0.21616268 0.2731911 0.045111272
0.16064768 0.00060112955 0.059867453 -0.14342013 -0.09806537 -0.1720161 -0.11372386 0.10868844
0.2526675 0.13176328 0.04012408 0.37763453 0.15313858 -0.11055033 -0.122366115 -0.21810609
0.13108186 0.15979213 0.15141197 0.30735704 0.066999145 0.31494245 0.009670575 0.05531309
0.027908418 0.2484745 0.23233092 0.17692102 0.0011341391 0.04167637 0.15074591 0.22608355
0.2978657 0.15348217 0.0060569905 0.45654115 0.008267528 0.03737251 0.104829386 -0.031974975
0.28830674 0.2992384 0.03614845 -0.028774261 0.023879727 -0.29773033 -0.048934657 0.058456596
0.11564898 -0.09413823 0.13178487 0.055187546 0.14898111 0.45750672 0.18450087 0.06134801
0.29150757 0.109320536 -0.022807466 -0.07720068 0.019774357 -0.24812546 -0.05048434 0.02045844
0.42985883 0.12127457 0.17585358 0.12722264 0.29982615 -0.0383171 0.13227336 0.24509217
-0.047983106 -0.053348996 -0.055184275 0.0069175186 -0.10737919 -0.058477703 0.16375591 0.09349845
0.20124419 0.107662015 -0.020653797 -0.010590546 -0.33271244 0.04337869 0.082787015 -0.012777864
-0.02729079 -0.09971003 -0.06829486 0.12394278 0.03304885 0.09076858 -0.31017587 -0.21329784
-0.045356635 -0.031635717 -0.11570753 -0.1245188 -0.09336361 -0.00581127 -0.07407179 0.014253102
-0.09441601 0.103426054 -0.09381343 -0.13524213 0.11077846 -0.10134654 0.28140312 0.25324315
0.10419312 -0.001093521 -0.048487764 -0.16040732 -0.077069126 -0.10837517 0.003460319 0.027666967
-0.16448 -0.012208876 -0.24642874 0.08656883 0.2477256 -0.061408687 -0.02918312 0.28531662
0.06349474 0.063204296 0.18413278 0.19058388 0.053443395 0.12886028 -0.12608543 0.06398218
0.24007034 -0.100439824 0.052222703 0.02053142 0.15236767 0.2511566 0.25504458 0.10773289
-0.22771102 0.20825942 0.095190726 0.069643885 0.13197106 -0.009454056 0.16828816 0.044368733
0.24775128 -0.09608692 -0.034537748 -0.053219482 -0.13632382 -0.096446194 0.020631801 0.12226026
0.07491734 0.0058530862 0.26369485 -0.20244735 -0.029272547 0.06308273 -0.12503977 -0.008318018
0.09150885 -0.18687311 -0.32191664 -0.058485653 0.04740572 0.018747717 -0.009962946 0.009844857
0.022724008 -0.13918206 -0.08320819 0.00384709 -0.03680604 -0.101083525 -0.3312549 -0.17178266
00000000: 17b4 4ebe 7a80 233e ae51 d03d f59d 483e
00000010: a098 9f3c dd6b 3d3e 6ee3 bcbd da5e 123d
00000020: 42de d23d 21c0 803e 229d 513e c3c0 113e
00000030: cae4 523d df18 ea3b f5a4 7d3e a90d ca3d
00000040: 603d 6c3b d63e acbd 72e9 96be e935 e5bd
00000050: 4034 12be a5e6 84bc 85d2 5bbe 34eb 9b3d
00000060: 610c 9fbd 6c76 abbd 6d9a 863d 094f 153e
00000070: 4137 873d 9713 a53e c6cf c73c 66bb 0a3d
00000080: 8a79 033d cdce 493e b95b a93e 3ec5 5a3e
00000090: fdf0 0f3e 1e33 8f3e 2207 41bb b507 bf3d
000000a0: e43c a13d f508 483e e40e 263c 0b9a 2dbd
000000b0: 61d9 073c ca29 f13c 047d a8bd 4a99 9a3d
000000c0: d79c 983c b5ac 6c3e 3531 c03d 592a 32be
000000d0: 6bab 703e ceba 313e a2c5 be3d 9150 70be
000000e0: 1d1f 15be ed46 8f3c 939a b13c a158 073d
000000f0: 77a2 893e 3b0f 343e 45ff d33d c28b fb38
00000100: 879f d73d 1e79 853e c3b5 0e3d 2dcc 9c3e
00000110: ca6f 09be c059 5d3e b4df 8b3e 99c6 383d
00000120: d380 243e 1f95 1d3a 9337 753d badc 12be
00000130: 7fd6 c8bd fd24 30be 0ee8 e8bd 0b98 de3d
00000140: a25d 813e f4ec 063e 2659 243d 5059 c13e
00000150: 5cd0 1c3e 3668 e2bd 169b fabd 3457 5fbe
00000160: 533a 063e 8ca0 233e bd0b 1b3e e75d 9d3e
00000170: d936 893d 2340 a13e 5571 1e3c fb8f 623d
00000180: 32a0 e43c 1970 7e3e 28e8 6d3e c92a 353e
00000190: 65a7 943a d7b4 2a3d 235d 1a3e 7282 673e
000001a0: da81 983e 6e2a 1d3e b879 c63b c3bf e93e
000001b0: 8774 073c eb13 193d cab0 d63d 31f8 02bd
000001c0: f19c 933e c735 993e 6610 143d 00b8 ebbc
000001d0: 6b9f c33c 1c70 98be b56f 48bd 2f70 6f3d
000001e0: 5fd9 ec3d 8bcb c0bd 9df2 063e 560c 623d
000001f0: 818e 183e 523e ea3e cced 3c3e 0d48 7b3d
00000200: 7b40 953e 72e3 df3d b9d6 babc 641b 9ebd
00000210: d5fd a13c 9a14 7ebe abc8 4ebd 7598 a73c
00000220: 7516 dc3e cd5e f83d f612 343e a746 023e
00000230: d082 993e 64f2 1cbd ab72 073e 71f9 7a3e
00000240: ef89 44bd 7a84 5abd e808 62bd 5aac e23b
00000250: 9fe9 dbbd 5186 6fbd a1af 273e 1e7c bf3d
00000260: f512 4e3e e77d dc3d 2732 a9bc f883 2dbc
00000270: 4959 aabe daad 313d 3d8c a93d 3f5a 51bc
00000280: ef90 dfbc c634 ccbd 2dde 8bbd b6d5 fd3d
00000290: 3b5e 073d e1e4 b93d 5fcf 9ebe c06a 5abe
000002a0: e1c7 39bd 7494 01bd 12f8 ecbd b603 ffbd
000002b0: 6c35 bfbd 776c bebb f3b2 97bd d885 693c
000002c0: 2e5d c1bd 0ad1 d33d 4121 c0bd ea7c 0abe
000002d0: d1df e23d c68e cfbd 1214 903e 16a9 813e
000002e0: 3463 d53d 7a54 8fba 1b9b 46bd d141 24be
000002f0: 6bd6 9dbd cdf3 ddbd 85c6 623b d6a5 e23c
00000300: 726d 28be bd07 48bc d157 7cbe 004b b13d
00000310: c8ab 7d3e ad87 7bbd 7011 efbc 0515 923e
00000320: 8809 823d 4171 813d 4e8d 3c3e 6c28 433e
00000330: 76e7 5a3d f3f3 033e 8a1c 01be 1709 833d
00000340: 00d5 753e 65b3 cdbd 79e7 553d 8231 a83c
00000350: 4506 1c3e 9997 803e 3495 823e 10a3 dc3d
00000360: 142d 69be f541 553e 5bf3 c23d 74a1 8e3d
00000370: 6c23 073e 2fe5 1abc bb53 2c3e fdbb 353d
00000380: 83b2 7d3e 38c9 c4bd 7477 0dbd acfc 59bd
00000390: 7998 0bbe 9585 c5bd 0604 a93c 9663 fa3d
000003a0: 436e 993d 3fcb bf3b 0303 873e 5c4e 4fbe
000003b0: fbcc efbc 8531 813d 6d0a 00be 4c48 08bc
000003c0: fe68 bb3d aa5b 3fbe 42d2 a4be a78e 6fbd
000003d0: 802c 423d d094 993c a03b 23bc 534c 213c
000003e0: b327 ba3c be85 0ebe 0e69 aabd 761f 7c3b
000003f0: eec1 16bd e104 cfbd 3e9a a9be cbe7 2fbe

actor.conv2.bias f4 [64]
0.10808116 -0.009979825 -0.0062912554 0.10878147 -0.009924042 -0.00769206 -0.010284109 -0.009083404
-0.004777505 -0.006479593 -0.008400401 -0.0076073203 0.107240446 -0.022842323 -0.0053693545 -0.0121837575
-0.016572012 0.116707385 0.0 -0.027569277 -0.010557443 0.10406739 -0.0029132266 -0.0093548065
0.10951892 0.113910876 0.117853396 0.11191559 0.0030705181 -0.009468052 0.12061814 -0.007391042
-0.02024738 0.00018150308 0.108405665 -0.0049058865 0.11090133 -0.004539577 -0.007459097 -0.011819766
-0.008669911 0.113765374 0.11220883 0.10571251 0.115884334 0.101137936 0.11243125 -0.010127263
0.1242098 -0.0053705354 -0.016060168 0.10828656 0.11032228 0.10979635 0.111195564 0.0
0.11095504 0.10995431 0.0 0.11130479 -0.0012862912 -0.021736914 -0.0049531776 0.11646163
00000000: a859 dd3d 6b82 23bc e026 cebb d2c8 de3d
00000010: 7398 22bc ad0d fcbb ae7e 28bc 8fd2 14bc
00000020: 9e8c 9cbb c452 d4bb d6a1 09bc d446 f9bb
00000030: e1a0 db3d d31f bbbc 69f1 afbb 629e 47bc
00000040: 07c2 87bc 4804 ef3d 0000 0000 f7d8 e1bc
00000050: 20f9 2cbc 4921 d53d d5eb 3ebb e744 19bc
00000060: 754b e03d 1b4a e93d 1f5d f13d 0034 e53d
00000070: bf3a 493b e31f 1bbc a506 f73d 8e30 f2bb
00000080: d5dd a5bc dd51 3e39 ca03 de3d 8fc1 a0bb
00000090: 3d20 e33d bbc0 94bb 716b f4bb b1a7 41bc
000000a0: 3e0c 0ebc d2fd e83d becd e53d cd7f d83d
000000b0: c454 ed3d 6821 cf3d 5b42 e63d d2ec 25bc
000000c0: b561 fe3d 51fb afbb 9d90 83bc 58c5 dd3d
000000d0: a6f0 e13d e9dc e03d 80ba e33d 0000 0000
000000e0: 653c e33d ba2f e13d 0000 0000 c4f3 e33d
000000f0: c598 a8ba 9d11 b2bc 444e a2bb 6f83 ee3d

actor.conv2.lin.weight f4 [64, 64]
-0.044970796 0.02579404 0.13323031 -0.111595534 -0.17543069 0.12820913 0.38708752 0.09151535
0.024307292 0.124821864 0.12306865 0.019598264 0.21602012 0.06884898 0.110413246 0.16185437
0.17983039 -0.0013081924 0.09777954 0.18227322 0.039318066 0.0478775 0.1359074 -0.0070651174
0.021658488 0.11532 -0.20230022 -0.033752955 0.18599409 -0.09744849 0.037739526 0.11184256
-0.08048224 -0.04050909 0.18729612 0.18794316 0.16616899 0.35383642 -0.021198107 -0.031330045
0.1346253 0.2583687 0.13079011 0.1597403 0.30466786 0.056160133 0.1330548 -0.22605953
0.26610976 0.025139196 -0.0058375592 0.16264784 -0.21510917 0.09981659 -0.17139521 -0.023751762
-0.06577978 0.027336478 -0.21863322 0.17484547 0.22244203 -0.17255838 0.09386119 0.2769675
0.115834005 0.036674332 -0.003232303 0.052312855 0.06464946 -0.103282444 -0.1004857 0.11149305
-0.09007371 -0.060032222 -0.05936213 -0.17850058 0.046271615 -0.0618963 -0.066807166 0.16787648
0.104107164 -0.108379856 -0.2030047 0.2017135 -0.01671126 0.060468893 -0.27073652 -0.038498733
-0.002714805 -0.06456155 0.039260358 -0.15368247 0.40778854 -0.0914438 -0.093633614 0.07328946
0.25003704 0.07900146 -0.10583021 -0.15725297 -0.0010409134 -0.03667588 -0.17745514 0.006005622
0.004056728 0.10793275 -0.11610098 0.023439892 0.07981142 0.16318236 -0.091903456 -0.070090346
-0.070718 0.27294457 -0.10281863 0.1598993 -0.06719826 0.06310992 0.06768386 0.036341134
-0.065108806 -0.013710377 0.080768116 -0.2163573 0.15426911 -0.07624855 0.0140426885 -0.1592071
-0.02173054 0.07306271 0.14679794 -0.30255902 -0.11559262 0.0393686 0.026260292 0.07181333
-0.09961998 0.054554686 0.05144568 0.026695764 0.045808367 0.21623409 -0.08007892 -0.34042907
-0.07521459 -0.112620175 -0.029876428 0.1134238 0.0791243 -0.13981417 0.07612993 -0.14974162
-0.099773124 -0.20409174 0.042686183 -0.0049372404 0.070952594 -0.08754666 -0.021224301 0.057971455
0.06762027 0.081569284 0.1313681 -0.19302867 -0.007155276 0.023473632 0.006776574 -0.08997764
-0.07911472 0.13358021 -0.1768979 0.10436341 -0.03503083 0.092105426 -0.03864656 -0.05888725
-0.13322945 -0.19283512 0.26038638 0.15519321 0.29812458 -0.1843068 0.087835215 -0.21754462
0.07593793 -0.0263282 0.0039361105 0.016439168 0.022281758 0.119651236 0.044650525 -0.053386513
-0.17743844 0.11770181 0.107667 0.00798809 0.31595638 -0.08721662 0.0017009857 -0.05035276
-0.07583545 0.14119366 0.09929371 0.12489969 0.10201095 0.09385264 0.26593167 -0.087552875
0.2490309 0.111789614 -0.0044409656 0.12745394 0.17989738 -0.16225113 0.13201475 0.18420789
0.23745263 0.24748394 -0.06810129 -0.04398533 0.18471617 -0.16601537 0.12605484 0.1801113
-0.13236097 -0.21175815 -0.24218878 -0.030215269 0.2080255 0.014809251 0.10643061 0.06788879
0.14941628 0.05583128 0.14364561 0.08967127 0.06973443 0.0012462931 0.1969126 0.102527834
0.16279714 -0.010603224 0.087655656 0.31881547 0.19862968 0.17348137 -0.21872537 0.08485099
0.04791597 -0.10170559 -0.00907093 0.045289773 0.16421977 -0.06896316 -0.11184265 -0.088954724
00000000: 4c33 38bd 064e d33c 876d 083e 338c e4bd
00000010: 1aa4 33be 4149 033e 5630 c63e 666c bb3d
00000020: 1620 c73c 9ba2 ff3d 6b0b fc3d 8a8c a03c
00000030: 6134 5d3e b200 8d3d 5720 e23d 27bd 253e
00000040: 7525 383e a777 abba a440 c83d d5a5 3a3e
00000050: fb0b 213d 331b 443d 4f2b 0b3e 8082 e7bb
00000060: 246d b13c e42c ec3d ca27 4fbe 8a40 0abd
00000070: 3c75 3e3e 1393 c7bd c394 1a3d b60d e53d
00000080: dfd3 a4bd dcec 25bd 8eca 3f3e 2c74 403e
00000090: 3428 2a3e 0c2a b53e a7a7 adbc ef53 00bd
000000a0: 37db 093e e748 843e d8ed 053e f692 233e
000000b0: 6dfd 9b3e 2b08 663d 843f 083e 267c 67be
000000c0: 8a3f 883e b7f0 cd3c ff48 bfbb 288d 263e
000000d0: 9445 5cbe a46c cc3d 3a82 2fbe 0e93 c2bc
000000e0: 8db7 86bd c0f0 df3c 63e1 5fbe b10a 333e
000000f0: d8c7 633e 25b3 30be 4c3a c03d afce 8d3e
00000100: 613a ed3d d337 163d 0cd5 53bb 0146 563d
00000110: f066 843d bf85 d3bd 72cb cdbd 7856 e43d
00000120: 9178 b8bd 59e4 75bd b425 73bd dbc8 36be
00000130: 4e87 3d3d fa86 7dbd 32d2 88bd d0e7 2b3e
00000140: 2336 d53d 42f6 ddbd 77e0 4fbe fc8d 4e3e
00000150: 0de6 88bc 3bae 773d fa9d 8abe d9b0 1dbd
00000160: dfea 31bb d938 84bd 78cf 203d f05e 1dbe
00000170: a9c9 d03e e346 bbbd fbc2 bfbd c918 963d
00000180: db04 803e 84cb a13d 82bd d8bd ec06 21be
00000190: 426f 88ba 7339 16bd cdb6 35be cfca c43b
000001a0: 4dee 843b d80b dd3d 5ac6 edbd 0405 c03c
000001b0: 2b74 a33d 4719 273e e137 bcbd 878b 8fbd
000001c0: 99d4 90bd 64bf 8b3e 9392 d2bd a4bc 233e
000001d0: 3e9f 89bd c63f 813d d69d 8a3d 71da 143d
000001e0: c457 85bd 7da1 60bc c169 a53d c58c 5dbe
000001f0: b9f8 1d3e 3328 9cbd 4e13 663c 3007 23be
00000200: 3f04 b2bc e7a1 953d 3352 163e 04e9 9abe
00000210: d3bb ecbd f840 213d d31f d73c de12 933d
00000220: 8f05 ccbd bc74 5f3d b5b8 523d 13b1 da3c
00000230: 8ea1 3b3d 786c 5d3e 6b00 a4bd b84c aebe
00000240: 1b0a 9abd 68a5 e6bd 69bf f4bc bd4a e83d
00000250: ec0b a23d 722b 0fbe 02ea 9b3d de55 19be
00000260: da55 ccbd 6dfd 50be b5d7 2e3d 93c8 a1bb
00000270: 984f 913d aa4b b3bd 96de adbc 7a73 6d3d
00000280: 7f7c 8a3d cc0d a73d 5c85 063e 4fa9 45be
00000290: ce76 eabb c64b c03c 060e de3b 3246 b8bd
000002a0: e606 a2bd 40c9 083e b924 35be 7cbc d53d
000002b0: 7d7c 0fbd c5a1 bc3d db4b 1ebd c233 71bd
000002c0: 4d6d 08be 9276 45be 5d51 853e f8ea 1e3e
000002d0: c9a3 983e ecba 3cbe f3e2 b33d 04c4 5ebe
000002e0: 5885 9b3d 3dae d7bc 7dfa 803b 6fab 863c
000002f0: 3c88 b63c b50b f53d 78e3 363d d1ab 5abd
00000300: 6cb2 35be a60d f13d 8480 dc3d 7ae0 023c
00000310: 09c5 a13e a19e b2bd 9cf3 de3a b23e 4ebd
00000320: 9e4f 9bbd 1295 103e 805a cb3d 69cb ff3d
00000330: 1eeb d03d d035 c03d 3228 883e ec4e b3bd
00000340: f501 7f3e f4f1 e43d 8585 91bb 4983 023e
00000350: 0537 383e 2925 26be e02e 073e fea0 3c3e
00000360: c826 733e 6e6c 7d3e b078 8bbd f629 34bd
00000370: 3c26 3d3e efff 29be 8514 013e 196f 383e
00000380: a289 07be 21d7 58be 5600 78be 0386 f7bc
00000390: a304 553e 80a2 723c 4bf8 d93d 4709 8b3d
000003a0: 9500 193e 57af 643d d617 133e 92a5 b73d
000003b0: edd0 8e3d a85a a33a 75a3 493e 1dfa d13d
000003c0: 4bb4 263e 25b9 2dbc cf84 b33d c83b a33e
000003d0: 9465 4b3e 1aa5 313e 8bf9 5fbe 5bc6 ad3d
000003e0: 8943 443d 054b d0bd 3d9e 14bc c581 393d
000003f0: 3a29 283e 8f3c 8dbd c20d e5bd e52d b6bd

actor.fc_mu.weight f4 [2, 65]
0.11126893 0.0086576855 0.0012746776 0.11411337 0.005557849 -0.0033529853 0.0013929826 -0.004912355
0.00044659688 -0.0022031602 -0.002365123 -0.00046359043 0.109229654 0.012105632 -0.0029413078 0.007922693
0.008412705 0.11670629 -0.0023227434 0.00048813934 -0.00040823102 0.110632814 -0.006579101 -0.0002804055
0.1077376 0.12139343 0.11491041 0.11592071 0.0036418196 0.0043073352 0.11223331 -0.005609413
-0.006957008 0.005064413 0.114843585 -0.008768688 0.11521402 -0.0003441324 0.011116389 0.002674953
0.010094207 0.112674676 0.11824233 0.0949794 0.10833933 0.10922112 0.11666039 0.0005353408
0.11661452 0.0043054204 0.0028700675 0.10984029 0.10925803 0.111690655 0.116485834 0.0007101127
0.11813967 0.11001978 -0.0031164952 0.11448425 0.0021450808 -0.0133043695 0.0020649252 0.115285546
0.018450651 -0.05956512 -0.0044435267 -0.0067691063 -0.056331776 -0.004537064 -0.011702453 -0.0043853014
0.006363265 -0.006043278 0.0017383366 -0.004789176 0.003421247 -0.059600957 0.0005715294 -0.0048031905
-0.00517485 -0.0021622665 -0.06481723 0.001027507 -0.0150755 0.0040344833 -0.060723756 -0.0035954274
-0.0016939548 -0.06513355 -0.06518602 -0.06999649 -0.068154745 -0.01360015 0.0014061334 -0.06495992
0.01138908 -0.0086366255 -0.0072202436 -0.06426108 -0.0041458425 -0.060111683 -0.0038751438 -0.006685823
-0.0006430083 0.0027439198 -0.06491485 -0.06513141 -0.08494597 -0.06279687 -0.045454048 -0.05738092
-0.006970312 -0.06495358 -0.009425755 -0.0032472273 -0.057963796 -0.063264266 -0.0617678 -0.05805259
-0.0019536417 -0.0635597 -0.060674295 -0.0024821525 -0.054060005 -0.008860888 -0.012210755 0.0049567735
-0.06487637 -0.19816716
00000000: f7e0 e33d f7d8 0d3c 1513 a73a 45b4 e93d
00000010: 9e1e b63b c2bd 5bbb bd94 b63a d2f7 a0bb
00000020: 3825 ea39 e562 10bb 2e00 1bbb 0e0e f3b9
00000030: ccb3 df3d b356 463c f5c2 40bb 2fce 013c
00000040: 71d5 093c b503 ef3d 2b39 18bb f4ec ff39
00000050: d707 d6b9 7593 e23d 8095 d7bb 6403 93b9
00000060: 88a5 dc3d 1e9d f83d 2656 eb3d d667 ed3d
00000070: 98ab 6e3b 8c24 8d3b 94da e53d 2bcf b7bb
00000080: 9df7 e3bb 60f3 a53b 1d33 eb3d 8baa 0fbc
00000090: 54f5 eb3d ab6c b4b9 8421 363c 444e 2f3b
000000a0: 2c62 253c fbc1 e63d 0929 f23d 8f84 c23d
000000b0: 03e1 dd3d 53af df3d a4eb ee3d 1d56 0c3a
000000c0: 98d3 ee3d 7c14 8d3b be17 3c3b f2f3 e03d
000000d0: adc2 df3d 12be e43d 2090 ee3d db26 3a3a
000000e0: 36f3 f13d 0d52 e13d 1d3e 4cbb b876 ea3d
000000f0: 7c94 0c3b 92fa 59bc b253 073b d41a ec3d
00000100: d225 973c 8efa 73bd 019b 91bb 61cf ddbb
00000110: 26bc 66bd a7ab 94bb a5bb 3fbc 93b2 8fbb
00000120: f082 d03b b106 c6bb e6d8 e33a 85ee 9cbb
00000130: 0037 603b 2220 74bd b0d2 153a 1564 9dbb
00000140: ca91 a9bb d0b4 0dbb e5be 84bd 6aad 863a
00000150: 3bff 76bc b333 843b 79b9 78bd 43a1 6bbb
00000160: b107 deba bd64 85bd 4080 85bd 525a 8fbd
00000170: b794 8bbd 2ad3 5ebc 024e b83a b509 85bd
00000180: 4499 3a3c a280 0dbc cb97 ecbb 509b 83bd
00000190: d9d9 87bb ab37 76bd 20f6 7dbb c014 dbbb
000001a0: 8e8f 28ba 56d3 333b 14f2 84bd 9e63 85bd
000001b0: 27f8 adbd a59b 80bd 062e 3abd 4108 6bbd
000001c0: 3767 e4bb 6206 85bd 7b6e 1abc 6fcf 54bb
000001d0: 726b 6dbd b290 81bd 3c00 7dbd 8dc8 6dbd
000001e0: ab08 00bb 972b 82bd 9c85 78bd 9cab 22bb
000001f0: 066e 5dbd 422d 11bc 9e0f 48bc 6e6c a23b
00000200: e7dd 84bd 55ec 4abe

actor.fc_mu.bias f4 [2]
0.085991986 -0.06435436
00000000: 911c b03d 38cc 83bd

critic.conv1.bias f4 [64]
0.026862873 0.0031961955 0.010104443 0.017921466 0.031173067 0.09606562 0.02564338 0.06680337
0.0004954625 0.028548274 0.034160882 0.10314067 0.021315059 0.06182054 0.075008705 0.07781198
0.00079184247 0.108447194 -0.00167956 0.022550745 -0.022480575 0.02857652 -0.04882993 -0.036131725
0.060529046 0.08284529 -0.027575256 0.03297943 0.022551097 0.025893167 0.022815688 0.12316698
-0.013920703 -0.06900984 -0.039184082 0.047544777 0.031134518 0.10304892 0.08611424 0.034104288
0.05489721 -0.0082995705 0.0062323865 0.09175337 -0.014957743 0.023163369 0.024108347 -0.024140507
-0.022801107 -0.0023314047 0.11740676 -0.016230846 0.023241153 0.09173861 0.012690374 0.06492451
0.021558737 0.08429417 0.0019237322 -0.0092039695 0.0 0.029519394 -0.0027318816 -0.04673354
00000000: 870f dc3c 4377 513b 1b8d 253c 0ad0 923c
00000010: a95e ff3c 0dbe c43d 1112 d23c 35d0 883d
00000020: ede1 013a 12de e93c 48ec 0b3d 6a3b d33d
00000030: eb9c ae3c 8937 7d3d 2a9e 993d e35b 9f3d
00000040: a693 4f3a 9019 de3d af24 dcba 57bc b83c
00000050: 2f29 b8bc 4e19 ea3c e501 48bd dcfe 13bd
00000060: 4eed 773d cbaa a93d 81e5 e1bc 7015 073d
00000070: 14bd b83c e81d d43c f7e7 ba3c f83e fc3d
00000080: a913 64bc 0855 8dbd 7d7f 20bd 50be 423d
00000090: d10d ff3c 500b d33d aa5c b03d f0b0 0b3d
000000a0: e6db 603d ecfa 07bc 0c39 cc3b 31e9 bb3d
000000b0: 5211 75bc 1bc1 bd3c de7e c53c 50c2 c5bc
000000c0: 63c9 babc 7bca 18bb f572 f03d 8df6 84bc
000000d0: 3b64 be3c 74e1 bb3d 49eb 4f3c 24f7 843d
000000e0: f39b b03c 6ca2 ac3d be25 fc3a 3fcc 16bc
000000f0: 0000 0000 a8d2 f13c 5e09 33bb ab6b 3fbd

critic.conv1.lin.weight f4 [64, 5]
0.18471095 0.059869036 0.14896688 0.015674498 -0.1792683 0.16762947 -0.15696076 0.0034468933
-0.10723842 0.006134787 0.17702384 -0.015249366 0.05926202 -0.0811406 0.07085301 0.28773957
0.05344255 -0.14885098 0.016840858 -0.03570977 -0.051190402 0.011392152 -0.068535 0.20270307
0.09248379 -0.08535598 -0.01600144 0.16204531 -0.06377359 0.053756688 -0.062265657 0.13677031
0.115482114 0.32225534 -0.034053415 -0.114291385 0.17252582 -0.06579614 -0.19126956 0.19173387
-0.13535571 0.1311704 0.016722396 -0.3339339 0.0466952 0.10227732 -0.02400381 0.17213674
0.24519104 0.056250967 0.013932274 0.025547475 0.18553442 -0.0357695 -0.14791192 -0.043647826
-0.1527986 0.089614026 -1.1297095 0.07018205 -0.25906432 0.31420755 0.032665092 -0.20501783
-0.096441634 0.2933026 0.027396753 -0.42821437 0.46845537 -0.29465884 -0.060189333 -0.09590007
0.047918566 -0.041037414 0.2043687 0.058838677 -0.011491249 0.056778245 -0.0006469491 0.11227674
0.23501752 0.24387214 0.15188825 0.11251831 -0.057249293 -0.25636053 0.14655428 0.12301381
0.03554683 0.19022498 0.032804396 0.02476092 0.11818677 -0.05470685 -0.1516496 0.11667061
-0.0960821 0.23034763 -0.14898244 0.0739981 -0.1440883 0.09453748 0.0939677 0.048013147
-0.057002094 0.16359986 0.041578468 0.047677062 0.14602254 -0.05022955 -0.35809514 0.33394367
0.21955799 0.22006012 -0.01897724 0.03813291 0.10874778 0.032006364 -0.013112354 -0.014545333
-0.008628236 -0.02208148 0.02041874 0.14623429 -0.05892287 -0.09319822 -0.5494495 0.009268224
-0.1047669 0.07284049 -0.02915646 -0.21331653 -0.027789868 0.08142104 0.36660147 -0.001087381
-0.15616512 0.20086123 0.3689407 0.11953559 0.025590526 -0.023959907 -0.0011016001 0.033831958
0.047134336 0.009560431 0.06976657 0.15594904 0.26278356 0.06797451 0.14813097 0.13290595
-0.056678157 -0.17019002 0.26180202 0.28708014 -0.18406871 -0.26624346 0.46005926 -0.45720857
0.093574345 -0.15270443 -0.063579045 -0.07066558 -0.059220824 -0.27944547 0.14109577 0.24469693
-0.09307629 0.28459683 -0.022251563 0.05103666 -0.07462494 -0.04128897 0.20392819 -0.17787224
0.028798196 0.15347117 -0.31360164 0.33765826 0.04296098 0.054522086 0.21677518 0.037424576
0.20210372 -0.29334918 0.120703235 0.13918312 -0.024507346 0.110192135 0.040068064 0.14394812
0.09075591 0.1253414 -0.14038798 -0.16740927 -0.048462413 -0.11978011 0.011046437 0.052858293
-0.05823826 -0.095014356 0.10431365 0.038122542 0.08811021 -0.047843654 -0.08788082 0.04300217
0.035191648 -0.14228655 0.24186414 -0.2801602 0.07902178 -0.117727 -0.015520574 -0.18993057
0.12428734 0.2847391 -0.118133776 0.0793886 -0.093653485 0.0050741667 0.0483613 -0.01092452
-0.24458574 -0.13742876 0.28628746 -0.06293214 -0.06504443 0.13599956 0.0719654 0.23421386
0.22075945 0.26684663 0.08021398 -0.24954322 0.106661975 0.011744172 0.25538403 0.17047851
-0.090897515 -0.13960987 -0.1991367 0.17402294 -0.08952627 -0.0553278 -0.17312917 -0.00012861493
0.022549035 -0.15875094 0.10209593 -0.02009581 -0.11619118 -0.88561296 -0.20980366 0.25421804
00000000: de24 3d3e 3c39 753d c68a 183e ce67 803c
00000010: 1c92 37be 0fa7 2b3e 52ba 20be 46e5 613b
00000020: d19f dbbd 5306 c93b bd45 353e 7ad8 79bc
00000030: bbbc 723d 0b2d a6bd 621b 913d 9a52 933e
00000040: 93e6 5a3d 646c 18be d7f5 893c 6844 12bd
00000050: 07ad 51bd 26a6 3a3c 145c 8cbd 6591 4f3e
00000060: 2468 bd3d 1ecf aebd 7415 83bc 35ef 253e
00000070: ba9b 82bd f92f 5c3d 460a 7fbd 840d 0c3e
00000080: e381 ec3d a7fe a43e 987b 0bbd 9a11 eabd
00000090: 9caa 303e 20c0 86bd 2bdc 43be e255 443e
000000a0: b09a 0abe 8951 063e 68fd 883c 62f9 aabe
000000b0: 7743 3f3d c676 d13d a3a3 c4bc 9d44 303e
000000c0: 5c13 7b3e 6a67 663d 3144 643c f048 d13c
000000d0: bcfc 3d3e 0a83 12bd 3976 17be 10c8 32bd
000000e0: 3c77 1cbe 8f87 b73d 529a 90bf 9bbb 8f3d
000000f0: 14a4 84be d0df a03e d5cb 053d 32f0 51be
00000100: 3183 c5bd c22b 963e 286f e03c ea3e dbbe
00000110: 62d9 ef3e 86dd 96be 1789 76bd 4267 c4bd
00000120: 4246 443d d916 28bd 0746 513e d300 713d
00000130: cb45 3cbc 4e90 683d 0598 29ba 59f1 e53d
00000140: 6fa8 703e 9eb9 793e 9888 1b3e 0070 e63d
00000150: 3c7e 6abd b041 83be 5312 163e aaee fb3d
00000160: 8e99 113d 56ca 423e e75d 063d 6ad7 ca3c
00000170: e80b f23d 4a14 60bd 084a 1bbe 00f1 ee3d
00000180: b1c6 c4bd 40e0 6b3e da8e 18be 518c 973d
00000190: e28b 13be de9c c13d 2372 c03d 6fa9 443d
000001a0: 077b 69bd b986 273e 2f4e 2a3d 0649 433d
000001b0: ef86 153e 80bd 4dbd 3f58 b7be aafa aa3e
000001c0: cfd3 603e 7157 613e 2876 9bbc 4131 1c3d
000001d0: 28b7 de3d 1b19 033d 33d5 56bc 8c4f 6ebc
000001e0: 725d 0dbc 38e4 b4bc 3445 a73c 71be 153e
000001f0: 1b59 71bd b5de bebd b9a8 0cbf c0d9 173c
00000200: 0790 d6bd 652d 953d 87d9 eebc a66f 5abe
00000210: 94a7 e3bc 13c0 a63d 30b3 bb3e 7486 8eba
00000220: c0e9 1fbe 91ae 4d3e cce5 bc3e 13cf f43d
00000230: 39a3 d13c 9147 c4bc 9163 90ba 6193 0a3d
00000240: ef0f 413d 5ba3 1c3c c7e1 8e3d 1bb1 1f3e
00000250: 918b 863e 3836 8b3d a5af 173e 7f18 083e
00000260: 5b27 68bd 4b46 2ebe ea0a 863e 2bfc 923e
00000270: 827c 3cbe 1051 88be e38c eb3e 3e17 eabe
00000280: e8a3 bf3d 8d5e 1cbe bb35 82bd 1eb9 90bd
00000290: 8991 72bd 7a13 8fbe 697b 103e d591 7a3e
000002a0: c89e bebd adb6 913e e948 b6bc d10b 513d
000002b0: f6d4 98bd 9f1e 29bd 8dd2 503e 2424 36be
000002c0: 32ea eb3c 8c27 1d3e 6590 a0be 8be1 ac3e
000002d0: daf7 2f3d 8d52 5f3d 50fa 5d3e 834a 193d
000002e0: 47f4 4e3e dd31 96be 4233 f73d 0586 0e3e
000002f0: a1c3 c8bc 6aac e13d 691e 243d 2367 133e
00000300: 3cde b93d 7f59 003e dec1 0fbe 566d 2bbe
00000310: 8680 46bd 464f f5bd 1dfc 343c f081 583d
00000320: 3e8b 6ebd e396 c2bd 65a2 d53d 6226 1c3d
00000330: 2073 b43d b5f7 43bd dcfa b3bd 0b23 303d
00000340: 1e25 103d 91b3 11be 3cab 773e 2871 8fbe
00000350: 2cd6 a13d da1a f1bd 014a 7ebc 297d 42be
00000360: 5c8a fe3d 53c9 913e 1ff0 f1bd 7e96 a23d
00000370: 66cd bfbd 3245 a63b 8016 463d c2fc 32bc
00000380: af74 7abe 20ba 0cbe 4594 923e 91e2 80bd
00000390: 0436 85bd 7843 0b3e 9862 933d c2d5 6f3e
000003a0: c40e 623e 1fa0 883e 3a47 a43d 4288 7fbe
000003b0: 9871 da3d a16a 403c b2c1 823e eb91 2e3e
000003c0: 7a28 babd e4f5 0ebe 7eea 4bbe 1233 323e
000003d0: 8d59 b7bd 679f 62bd c648 31be cfdc 06b9
000003e0: c1b8 b83c 9b8f 22be ac17 d13d f89f a4bc
000003f0: a4f5 edbd 88b7 62bf c5d6 56be de28 823e

critic.conv2.bias f4 [64]
-0.018637057 -0.014857363 0.029322889 -0.0077273287 0.057226684 0.02939099 0.02934941 0.07307227
-0.026163245 -0.027094875 0.029608985 0.028709995 0.028919892 -0.01120131 0.03892996 0.13132073
0.02917084 -0.01660833 -0.027810406 0.09812127 0.0290603 -0.023949113 0.029048007 0.10084515
0.06741797 0.0 -0.019046178 0.03663418 0.02842466 0.028512966 0.029299017 0.046652954
0.05845515 0.0052150832 0.0 0.007994812 -0.024558747 -0.013572987 -0.009837213 0.1258485
-0.022477577 -0.04966576 0.13140486 0.13672902 0.11235666 -0.01265301 0.028402464 0.029194532
0.02859026 -0.0048094345 -0.020060856 -0.016200759 0.13358516 -0.021998934 0.029266302 0.029391773
-0.0038138228 -0.0005082916 0.12359556 0.046703324 0.03746085 0.02926244 -0.016004076 0.029200545
00000000: beac 98bc 4c6c 73bc 8e36 f03c 8835 fdbb
00000010: 8766 6a3d 60c5 f03c 2d6e f03c eaa6 953d
00000020: 4d54 d6bc 12f6 ddbc 8b8e f23c 3931 eb3c
00000030: 69e9 ec3c b385 37bc 0675 1f3d f178 063e
00000040: aff7 ee3c 310e 88bc a6d2 e3bc cef3 c83d
00000050: de0f ee3c ee30 c4bc 16f6 ed3c e787 ce3d
00000060: 6f12 8a3d 0000 0000 bb06 9cbc b90d 163d
00000070: d5da e83c 0694 e93c 7e04 f03c 2b17 3f3d
00000080: ab6e 6f3d 4ae3 aa3b 0000 0000 acfc 023c
00000090: 6d2f c9bc 3c61 5ebc 432c 21bc 6ede 003e
000000a0: e522 b8bc 536e 4bbd ff8e 063e b102 0c3e
000000b0: 401b e63d 924e 4fbc 49ac e83c 5f29 ef3c
000000c0: 1f36 ea3c 7698 9dbb aa56 a4bc 74b7 84bc
000000d0: 8cca 083e 1c37 b4bc e2bf ef3c 04c7 f03c
000000e0: 54f1 79bb df3e 05ba ab1f fd3d fc4b 3f3d
000000f0: 8c70 193d c9b7 ef3c fb1a 83bc fb35 ef3c

critic.conv2.lin.weight f4 [64, 64]
0.01591047 -0.19019273 0.34893402 -0.06174486 -0.27860108 0.19825016 -0.012469993 0.09132768
-0.03649551 0.01230588 0.30917335 -0.072987854 0.17871684 0.49870768 -0.058900468 -0.069774695
-0.0070641264 -0.04303032 0.17675927 -0.1541574 0.05302375 -0.056577228 -0.16320217 0.13390787
0.13888158 0.0357411 0.108805016 0.18296279 0.02217894 -0.022684611 0.06764177 0.43172696
-0.026131544 0.071108125 -0.17628999 -0.050508555 -0.050811425 0.032868225 0.09153868 -0.036782052
-0.14933923 -0.010862661 -0.029363288 0.021770634 0.02443584 0.08292818 -0.012080967 -0.02514844
0.12814966 0.025821747 -0.36623034 0.15861002 0.020350523 -0.076894015 -0.01954845 0.12202271
0.06626323 0.39667523 0.22097728 0.0048473836 0.090935834 -0.015594612 0.09309676 -0.2288427
0.11120775 -0.25962836 -0.20016989 -0.058569387 0.0059015895 0.12230467 -0.028482853 -0.07624446
-0.14927006 -0.0528463 0.035094187 -0.1592653 0.19037883 -0.02225218 0.022412267 -0.21925741
0.16275409 -0.31305394 -0.13207592 0.05756877 0.1163084 0.059837352 -0.12753491 -0.18966539
-0.16472156 0.1391032 0.06806413 -0.006034531 0.04073319 -0.07214681 0.060418 0.060131483
0.01342467 0.0103485035 0.082695365 -0.13969782 0.05280467 -0.10362138 -0.19323587 -0.06970205
-0.19375949 -0.11045537 -0.121121146 0.078995384 0.010853832 -0.2018882 -0.076455526 -0.23315021
-0.24670926 -0.01863728 0.17260122 0.01826614 -0.06367456 -0.11016765 0.13052163 -0.10436742
0.03496059 -0.08756341 -0.030483097 0.06222387 -0.12719138 -0.111395776 0.14040989 -0.15103662
0.33670154 -0.010144664 -0.03566964 -0.099011414 -0.034716282 0.11556791 0.15773955 0.08851797
0.21610531 0.19509305 0.031222474 0.4365258 0.17652725 -0.43597832 0.20989579 0.18659568
0.088645115 0.43115997 -0.23343635 0.10635045 0.08425126 -0.08719671 0.24747564 0.09007372
0.03960105 -0.1899717 -0.03239508 0.052703626 -0.071601555 0.09230557 0.23376927 -0.27606893
0.0062074238 -0.0038353503 -0.07725992 0.18274002 -0.095276855 0.21784504 -0.08128178 -0.049841914
-0.028329948 -0.016563108 0.07387719 0.020995602 0.005466459 -0.16615556 0.024959246 0.21182342
-0.029279247 -0.16745132 0.47052816 0.0586007 0.17215526 0.38166526 0.19367711 -0.028018393
0.073085755 -0.4742756 0.10457318 0.017099582 -0.18070284 0.20664135 -0.27048653 0.021046676
0.12770665 0.19569048 -0.13144545 0.102353595 -0.20106763 0.0070391046 -0.28677553 -0.20092285
-0.12616159 0.07805406 -0.045455944 -0.12447712 0.1491766 -0.082299665 -0.0094981 -0.17980085
-0.07098041 0.049240436 -0.028839722 -0.06016662 0.11660598 0.05807453 0.083169125 0.21606469
0.084268086 -0.07236745 -0.05569841 -0.010552328 0.2171088 0.014575545 -0.030349491 -0.112168126
0.20880064 -0.031575337 0.13804787 -0.21305788 -0.12383093 0.20290881 -0.04411875 -0.23913157
0.012353355 -0.11155811 0.09945039 -0.19495533 -0.039728574 0.074187726 -0.066537544 -0.094382375
0.13375613 -0.10226354 -0.14548844 -0.04671193 0.13811478 -0.05250774 -0.07778518 -0.16923693
0.16091816 0.11469838 -0.058025844 -0.1579785 -0.0906493 -0.016115643 0.078512505 0.039062474
00000000: ad56 823c e2c1 42be 7ba7 b23e 2ee8 7cbd
00000010: cda4 8ebe 1702 4b3e f14e 4cbc 020a bb3d
00000020: 517c 15bd 9a9e 493c f84b 9e3e a87a 95bd
00000030: 8c01 373e 9d56 ff3e 9e41 71bd 09e6 8ebd
00000040: 307a e7bb 9040 30bd 6200 353e 70db 1dbe
00000050: 6f2f 593d 86bd 67bd 781e 27be 251f 093e
00000060: f936 0e3e 4265 123d 2ad5 de3d 995a 3b3e
00000070: 9cb0 b53c 14d5 b9bc c587 8a3d 510b dd3e
00000080: d211 d6bc 23a1 913d 5d85 34be 0fe2 4ebd
00000090: a41f 50bd d5a0 063d a278 bb3d c7a8 16bd
000000a0: 62ec 18be 4df9 31bc 478b f0bc 5458 b23c
000000b0: ac2d c83c 40d6 a93d 40ef 45bc 1a04 cebc
000000c0: aa39 033e 2188 d33c 8b82 bbbe aa6a 223e
000000d0: 24b6 a63c 9c7a 9dbd 1224 a0bc 0be7 f93d
000000e0: 04b5 873d 0419 cb3e de47 623e cdd6 9e3b
000000f0: 913c ba3d 8b80 7fbc 84a9 be3d be55 6abe
00000100: e4c0 e33d 02ee 84be 56f9 4cbe 74e6 6fbd
00000110: 1f62 c13b df7a fa3d df54 e9bc 0e26 9cbd
00000120: 40da 18be 5d75 58bd ecbe 0f3d 7116 23be
00000130: abf2 423e 344a b6bc ee99 b73c 0485 60be
00000140: 02a9 263e 9b48 a0be e93e 07be 3bcd 6b3d
00000150: 1933 ee3d 0318 753d 8398 02be a537 42be
00000160: c5ac 28be 1271 0e3e 3565 8b3d 51bd c5bb
00000170: d8d7 263d b5c1 93bd dd78 773d 6e4c 763d
00000180: 26f3 5b3c c58c 293c 305c a93d f20c 0fbe
00000190: b649 583d 7237 d4bd a0df 45be f3bf 8ebd
000001a0: e368 46be 6d36 e2bd 5d0e f8bd 55c8 a13d
000001b0: 45d4 313c c8bb 4ebe b794 9cbd eebe 6ebe
000001c0: 5aa1 7cbe 36ad 98bc 60be 303e dfa2 953c
000001d0: cf67 82bd 949f e1bd 76a7 053e 96be d5bd
000001e0: d632 0f3d 7254 b3bd b0b7 f9bc 75de 7e3d
000001f0: 753e 02be 7823 e4bd 9cc7 0f3e 58a9 1abe
00000200: 2564 ac3e ce35 26bc 541a 12bd 7fc6 cabd
00000210: a932 0ebd deae ec3d 7a86 213e e948 b53d
00000220: b64a 5d3e 79c6 473e 46c6 ff3c 4f80 df3e
00000230: 8fc3 343e 8d38 dfbe ecee 563e f012 3f3e
00000240: 928b b53d 00c1 dc3e f009 6fbe 44ce d93d
00000250: ed8b ac3d 3094 b2bd 416a 7d3e 9278 b83d
00000260: b634 223d f187 42be b4b0 04bd c2df 573d
00000270: d6a3 92bd b40a bd3d 3661 6f3e e858 8dbe
00000280: a567 cb3b 805a 7bbb 733a 9ebd 3320 3b3e
00000290: 8320 c3bd c512 5f3e 1077 a6bd 0927 4cbd
000002a0: 3514 e8bc 5baf 87bc ed4c 973d f8fe ab3c
000002b0: fb1f b33b af24 2abe 5577 cc3c 3de8 583e
000002c0: 08db efbc 5c78 2bbe 11e9 f03e 4a07 703d
000002d0: 7849 303e a169 c33e 4b53 463e d486 e5bc
000002e0: fcad 953d 40d4 f2be 772a d63d 6c14 8c3c
000002f0: 2a0a 39be ca99 533e 367d 8abe 146a ac3c
00000300: 88c5 023e 1663 483e a399 06be c39e d13d
00000310: ace4 4dbe 4aa8 e63b 3ed4 92be b8be 4dbe
00000320: 8130 01be cfda 9f3d 0330 3abd dced febd
00000330: c0c1 183e ba8c a8bd eb9d 1bbc b71d 38be
00000340: 2d5e 91bd 57b0 493d 4841 ecbc 4671 76bd
00000350: 1ecf ee3d 8fdf 6d3d 9354 aa3d 1040 5d3e
00000360: bf94 ac3d 6335 94bd 0424 64bd ace3 2cbc
00000370: c551 5e3e 44ce 6e3c 7f9f f8bc 67b8 e5bd
00000380: d6cf 553e 2455 01bd 6c5c 0d3e d82b 5abe
00000390: 129b fdbd 54c7 4f3e ddb5 34bd e8de 74be
000003a0: ba65 4a3c 9478 e4bd a5ac cb3d 5fa2 47be
000003b0: 6eba 22bd bcef 973d d644 88bd 8c4b c1bd
000003c0: 5ef7 083e 8c6f d1bd ecfa 14be 0255 3fbd
000003d0: f66d 0d3e 5b12 57bd d64d 9fbd 724c 2dbe
000003e0: bbc7 243e fce6 ea3d 82ac 6dbd 1ec5 21be
000003f0: 57a6 b9bd f404 84bc 2acb a03d f9ff 1f3d

critic.fc.weight f4 [1, 65]
-0.05662222 -0.09255611 0.16475074 -0.4377616 -0.21805738 0.23642316 0.12636198 -0.86786073
-0.29807538 -0.06855661 0.2262053 0.17306215 0.0639791 0.008458138 0.46231306 0.36454785
0.13048115 -0.07107001 -0.37504458 0.1852281 0.37559298 0.20496996 0.1852733 -0.4752356
0.19162849 -0.056862283 -0.1675575 0.09900858 0.30994222 0.28048587 0.09646363 -0.36019853
0.27435538 -0.15107818 0.106424004 -0.77474964 -0.21826823 -0.24573997 -0.038572203 0.2615667
-0.04623859 -0.50009835 0.18498823 0.32833835 0.28374526 -0.034380157 0.23814805 0.19280377
0.085028395 -0.31650668 0.14748731 -0.12806167 0.20490026 0.0062277317 0.21801123 0.22938351
-0.4219303 0.22496133 0.23395291 0.24947076 0.12632361 0.15283287 -0.14296877 0.32719412
-1.3470451
00000000: b3ec 67bd 0f8e bdbd 6bb4 283e 4a22 e0be
00000010: 6f4a 5fbe ea18 723e 0965 013e 1f2c 5ebf
00000020: 569d 98be 6867 8cbd 5da2 673e 3437 313e
00000030: 7907 833d 0194 0a3c 4cb4 ec3e 04a6 ba3e
00000040: da9c 053e 278d 91bd d805 c0be 6fac 3d3e
00000050: b94d c03e a5e3 513e 49b8 3d3e 1552 f3be
00000060: 423a 443e 6de8 68bd 3194 2bbe 03c5 ca3d
00000070: bfb0 9e3e d89b 8f3e b98e c53d f16b b8be
00000080: 4f78 8c3e 3db4 1abe d4f4 d93d fe55 46bf
00000090: b581 5fbe 42a3 7bbe e3fd 1dbd 12ec 853e
000000a0: ad64 3dbd 7206 00bf 8e6d 3d3e f71b a83e
000000b0: 0f47 913e 35d2 0cbd 15dd 733e 5a6e 453e
000000c0: 5e23 ae3d 2a0d a2be ea06 173e 9922 03be
000000d0: 60d1 513e 0012 cc3b 563e 5f3e 83e3 6a3e
000000e0: 4007 d8be 435c 663e 5a91 6f3e 4375 7f3e
000000f0: fa5a 013e 3880 1c3e 6866 12be fd85 a73e
00000100: f96b acbf

_actor_critic.actor.sigma_param f4 [2, 1]
-0.23772578 -0.09564012
00000000: 636e 73be f8de c3bd

_actor_critic.actor.conv1.bias f4 [64]
-0.03906497 0.093153685 0.11821431 -0.053968083 -0.05042276 0.103126995 0.13434845 0.10524847
0.11188451 0.10649733 0.05826617 -0.029595278 0.11141225 0.07352891 0.10383021 -0.03526237
0.11069054 -0.070432335 0.11567892 0.108349085 0.12181475 0.1093429 0.08309884 -0.041219458
0.11715442 0.110004656 -0.012822868 0.111646615 0.1134667 -0.015932355 0.11866543 -0.041997682
-0.07293152 -0.062972195 0.0 -0.037276853 0.12257508 0.0 -0.025099153 0.11441004
0.11157313 0.057534855 0.11559041 0.052791998 0.10234419 0.0 0.10779568 -0.045495946
-0.056057546 -0.028193135 -0.015443717 -0.02988566 -0.049463503 0.12599888 0.0 0.11997016
0.1074445 0.11266832 -0.049288787 0.11453366 0.11182663 0.022118466 -0.037353616 -0.004108436
00000000: 9702 20bd 5cc7 be3d 581a f23d a30d 5dbd
00000010: 1988 4ebd 3f34 d33d a492 093e 838c d73d
00000020: b523 e53d 461b da3d 82a8 6e3d cc71 f2bc
00000030: 1b2c e43d 5396 963d efa4 d43d 466f 10bd
00000040: b9b1 e23d d43e 90bd 12e9 ec3d 20e6 dd3d
00000050: 037a f93d 2cef df3d ba2f aa3d bcd5 28bd
00000060: a8ee ef3d 1f4a e13d 0217 52bc fba6 e43d
00000070: 3b61 e83d 9284 82bc dc06 f33d c305 2cbd
00000080: 1f5d 95bd 91f7 80bd 0000 0000 9daf 18bd
00000090: a508 fb3d 0000 0000 bd9c cdbc d04f ea3d
000000a0: 7480 e43d aba9 6b3d aaba ec3d 6c3c 583d
000000b0: d599 d13d 0000 0000 fbc3 dc3d f559 3abd
000000c0: 999c 65bd 4af5 e6bc a507 7dbc c6d2 f4bc
000000d0: 3e9a 4abd da05 013e 0000 0000 eab2 f53d
000000e0: dd0b dc3d a6be e63d 0ae3 49bd a090 ea3d
000000f0: 5c05 e53d c931 b53c 1b00 19bd 0fa0 86bb

_actor_critic.actor.conv1.lin.weight f4 [64, 5]
-0.20185886 0.15966979 0.10171829 0.19591506 0.019481957 0.18498178 -0.09223066 0.03573499
0.102962986 0.25146583 0.20470098 0.14233689 0.05148772 0.007144078 0.24769957 0.09865887
0.0036047325 -0.084104225 -0.2947498 -0.11191923 -0.14277744 -0.016223261 -0.21467026 0.07613221
-0.07766033 -0.083721966 0.06572423 0.14580931 0.06602336 0.32241508 0.024391066 0.033870123
0.03209833 0.19707794 0.3307779 0.21364304 0.14056773 0.27968687 -0.0029453714 0.09327642
0.07872942 0.19534667 0.010135386 -0.042383235 0.008291573 0.029438872 -0.0822697 0.07548769
0.018629475 0.23112758 0.093843855 -0.17398967 0.23502891 0.17356417 0.09315039 -0.23468234
-0.1456265 0.017489875 0.021680152 0.033043507 0.26881763 0.17583935 0.10351423 0.000119946446
0.10528474 0.26068968 0.03484131 0.30624524 -0.1342155 0.21616268 0.2731911 0.045111272
0.16064768 0.00060112955 0.059867453 -0.14342013 -0.09806537 -0.1720161 -0.11372386 0.10868844
0.2526675 0.13176328 0.04012408 0.37763453 0.15313858 -0.11055033 -0.122366115 -0.21810609
0.13108186 0.15979213 0.15141197 0.30735704 0.066999145 0.31494245 0.009670575 0.05531309
0.027908418 0.2484745 0.23233092 0.17692102 0.0011341391 0.04167637 0.15074591 0.22608355
0.2978657 0.15348217 0.0060569905 0.45654115 0.008267528 0.03737251 0.104829386 -0.031974975
0.28830674 0.2992384 0.03614845 -0.028774261 0.023879727 -0.29773033 -0.048934657 0.058456596
0.11564898 -0.09413823 0.13178487 0.055187546 0.14898111 0.45750672 0.18450087 0.06134801
0.29150757 0.109320536 -0.022807466 -0.07720068 0.019774357 -0.24812546 -0.05048434 0.02045844
0.42985883 0.12127457 0.17585358 0.12722264 0.29982615 -0.0383171 0.13227336 0.24509217
-0.047983106 -0.053348996 -0.055184275 0.0069175186 -0.10737919 -0.058477703 0.16375591 0.09349845
0.20124419 0.107662015 -0.020653797 -0.010590546 -0.33271244 0.04337869 0.082787015 -0.012777864
-0.02729079 -0.09971003 -0.06829486 0.12394278 0.03304885 0.09076858 -0.31017587 -0.21329784
-0.045356635 -0.031635717 -0.11570753 -0.1245188 -0.09336361 -0.00581127 -0.07407179 0.014253102
-0.09441601 0.103426054 -0.09381343 -0.13524213 0.11077846 -0.10134654 0.28140312 0.25324315
0.10419312 -0.001093521 -0.048487764 -0.16040732 -0.077069126 -0.10837517 0.003460319 0.027666967
-0.16448 -0.012208876 -0.24642874 0.08656883 0.2477256 -0.061408687 -0.02918312 0.28531662
0.06349474 0.063204296 0.18413278 0.19058388 0.053443395 0.12886028 -0.12608543 0.06398218
0.24007034 -0.100439824 0.052222703 0.02053142 0.15236767 0.2511566 0.25504458 0.10773289
-0.22771102 0.20825942 0.095190726 0.069643885 0.13197106 -0.009454056 0.16828816 0.044368733
0.24775128 -0.09608692 -0.034537748 -0.053219482 -0.13632382 -0.096446194 0.020631801 0.12226026
0.07491734 0.0058530862 0.26369485 -0.20244735 -0.029272547 0.06308273 -0.12503977 -0.008318018
0.09150885 -0.18687311 -0.32191664 -0.058485653 0.04740572 0.018747717 -0.009962946 0.009844857
0.022724008 -0.13918206 -0.08320819 0.00384709 -0.03680604 -0.101083525 -0.3312549 -0.17178266
00000000: 17b4 4ebe 7a80 233e ae51 d03d f59d 483e
00000010: a098 9f3c dd6b 3d3e 6ee3 bcbd da5e 123d
00000020: 42de d23d 21c0 803e 229d 513e c3c0 113e
00000030: cae4 523d df18 ea3b f5a4 7d3e a90d ca3d
00000040: 603d 6c3b d63e acbd 72e9 96be e935 e5bd
00000050: 4034 12be a5e6 84bc 85d2 5bbe 34eb 9b3d
00000060: 610c 9fbd 6c76 abbd 6d9a 863d 094f 153e
00000070: 4137 873d 9713 a53e c6cf c73c 66bb 0a3d
00000080: 8a79 033d cdce 493e b95b a93e 3ec5 5a3e
00000090: fdf0 0f3e 1e33 8f3e 2207 41bb b507 bf3d
000000a0: e43c a13d f508 483e e40e 263c 0b9a 2dbd
000000b0: 61d9 073c ca29 f13c 047d a8bd 4a99 9a3d
000000c0: d79c 983c b5ac 6c3e 3531 c03d 592a 32be
000000d0: 6bab 703e ceba 313e a2c5 be3d 9150 70be
000000e0: 1d1f 15be ed46 8f3c 939a b13c a158 073d
000000f0: 77a2 893e 3b0f 343e 45ff d33d c28b fb38
00000100: 879f d73d 1e79 853e c3b5 0e3d 2dcc 9c3e
00000110: ca6f 09be c059 5d3e b4df 8b3e 99c6 383d
00000120: d380 243e 1f95 1d3a 9337 753d badc 12be
00000130: 7fd6 c8bd fd24 30be 0ee8 e8bd 0b98 de3d
00000140: a25d 813e f4ec 063e 2659 243d 5059 c13e
00000150: 5cd0 1c3e 3668 e2bd 169b fabd 3457 5fbe
00000160: 533a 063e 8ca0 233e bd0b 1b3e e75d 9d3e
00000170: d936 893d 2340 a13e 5571 1e3c fb8f 623d
00000180: 32a0 e43c 1970 7e3e 28e8 6d3e c92a 353e
00000190: 65a7 943a d7b4 2a3d 235d 1a3e 7282 673e
000001a0: da81 983e 6e2a 1d3e b879 c63b c3bf e93e
000001b0: 8774 073c eb13 193d cab0 d63d 31f8 02bd
000001c0: f19c 933e c735 993e 6610 143d 00b8 ebbc
000001d0: 6b9f c33c 1c70 98be b56f 48bd 2f70 6f3d
000001e0: 5fd9 ec3d 8bcb c0bd 9df2 063e 560c 623d
000001f0: 818e 183e 523e ea3e cced 3c3e 0d48 7b3d
00000200: 7b40 953e 72e3 df3d b9d6 babc 641b 9ebd
00000210: d5fd a13c 9a14 7ebe abc8 4ebd 7598 a73c
00000220: 7516 dc3e cd5e f83d f612 343e a746 023e
00000230: d082 993e 64f2 1cbd ab72 073e 71f9 7a3e
00000240: ef89 44bd 7a84 5abd e808 62bd 5aac e23b
00000250: 9fe9 dbbd 5186 6fbd a1af 273e 1e7c bf3d
00000260: f512 4e3e e77d dc3d 2732 a9bc f883 2dbc
00000270: 4959 aabe daad 313d 3d8c a93d 3f5a 51bc
00000280: ef90 dfbc c634 ccbd 2dde 8bbd b6d5 fd3d
00000290: 3b5e 073d e1e4 b93d 5fcf 9ebe c06a 5abe
000002a0: e1c7 39bd 7494 01bd 12f8 ecbd b603 ffbd
000002b0: 6c35 bfbd 776c bebb f3b2 97bd d885 693c
000002c0: 2e5d c1bd 0ad1 d33d 4121 c0bd ea7c 0abe
000002d0: d1df e23d c68e cfbd 1214 903e 16a9 813e
000002e0: 3463 d53d 7a54 8fba 1b9b 46bd d141 24be
000002f0: 6bd6 9dbd cdf3 ddbd 85c6 623b d6a5 e23c
00000300: 726d 28be bd07 48bc d157 7cbe 004b b13d
00000310: c8ab 7d3e ad87 7bbd 7011 efbc 0515 923e
00000320: 8809 823d 4171 813d 4e8d 3c3e 6c28 433e
00000330: 76e7 5a3d f3f3 033e 8a1c 01be 1709 833d
00000340: 00d5 753e 65b3 cdbd 79e7 553d 8231 a83c
00000350: 4506 1c3e 9997 803e 3495 823e 10a3 dc3d
00000360: 142d 69be f541 553e 5bf3 c23d 74a1 8e3d
00000370: 6c23 073e 2fe5 1abc bb53 2c3e fdbb 353d
00000380: 83b2 7d3e 38c9 c4bd 7477 0dbd acfc 59bd
00000390: 7998 0bbe 9585 c5bd 0604 a93c 9663 fa3d
000003a0: 436e 993d 3fcb bf3b 0303 873e 5c4e 4fbe
000003b0: fbcc efbc 8531 813d 6d0a 00be 4c48 08bc
000003c0: fe68 bb3d aa5b 3fbe 42d2 a4be a78e 6fbd
000003d0: 802c 423d d094 993c a03b 23bc 534c 213c
000003e0: b327 ba3c be85 0ebe 0e69 aabd 761f 7c3b
000003f0: eec1 16bd e104 cfbd 3e9a a9be cbe7 2fbe

_actor_critic.actor.conv2.bias f4 [64]
0.10808116 -0.009979825 -0.0062912554 0.10878147 -0.009924042 -0.00769206 -0.010284109 -0.009083404
-0.004777505 -0.006479593 -0.008400401 -0.0076073203 0.107240446 -0.022842323 -0.0053693545 -0.0121837575
-0.016572012 0.116707385 0.0 -0.027569277 -0.010557443 0.10406739 -0.0029132266 -0.0093548065
0.10951892 0.113910876 0.117853396 0.11191559 0.0030705181 -0.009468052 0.12061814 -0.007391042
-0.02024738 0.00018150308 0.108405665 -0.0049058865 0.11090133 -0.004539577 -0.007459097 -0.011819766
-0.008669911 0.113765374 0.11220883 0.10571251 0.115884334 0.101137936 0.11243125 -0.010127263
0.1242098 -0.0053705354 -0.016060168 0.10828656 0.11032228 0.10979635 0.111195564 0.0
0.11095504 0.10995431 0.0 0.11130479 -0.0012862912 -0.021736914 -0.0049531776 0.11646163
00000000: a859 dd3d 6b82 23bc e026 cebb d2c8 de3d
00000010: 7398 22bc ad0d fcbb ae7e 28bc 8fd2 14bc
00000020: 9e8c 9cbb c452 d4bb d6a1 09bc d446 f9bb
00000030: e1a0 db3d d31f bbbc 69f1 afbb 629e 47bc
00000040: 07c2 87bc 4804 ef3d 0000 0000 f7d8 e1bc
00000050: 20f9 2cbc 4921 d53d d5eb 3ebb e744 19bc
00000060: 754b e03d 1b4a e93d 1f5d f13d 0034 e53d
00000070: bf3a 493b e31f 1bbc a506 f73d 8e30 f2bb
00000080: d5dd a5bc dd51 3e39 ca03 de3d 8fc1 a0bb
00000090: 3d20 e33d bbc0 94bb 716b f4bb b1a7 41bc
000000a0: 3e0c 0ebc d2fd e83d becd e53d cd7f d83d
000000b0: c454 ed3d 6821 cf3d 5b42 e63d d2ec 25bc
000000c0: b561 fe3d 51fb afbb 9d90 83bc 58c5 dd3d
000000d0: a6f0 e13d e9dc e03d 80ba e33d 0000 0000
000000e0: 653c e33d ba2f e13d 0000 0000 c4f3 e33d
000000f0: c598 a8ba 9d11 b2bc 444e a2bb 6f83 ee3d
