rl_environments/trained_models/PPO_scheduling_2_obj_j5m5/policy.pth (torch, 41822 bytes, 24 tensors)

actor.sigma_param f4 [2, 1]
-0.45262283 -0.30020607
00000000: 2ebe e7be 9cb4 99be

actor.conv1.bias f4 [64]
0.0 -0.03763511 0.12344398 0.16076499 0.10538512 0.13342343 -0.046381645 0.0
-0.035697103 0.15444417 -0.0181188 0.18818533 0.087725885 0.13428408 0.0 -0.057500694
0.0 0.14956835 -0.03729943 0.12020543 -0.016145868 0.0 0.0 -0.012018781
0.0 -0.013660164 -0.01803414 0.05138658 -0.050342258 0.098837465 0.18056622 -0.0041667344
0.18095818 0.119057156 -0.00996274 0.044355843 0.10756547 -0.028270945 0.0 -0.023188835
0.0 0.15430385 0.0 -0.0442689 0.13704853 -0.050270062 0.14233212 0.17421736
0.11483839 0.12348851 -0.01130938 -0.047936123 0.13977097 0.121300526 -0.030257715 0.13471064
0.106941685 -0.03022339 -0.038034614 0.0 0.103346966 0.12763275 0.0 -0.010132304
00000000: 0000 0000 4627 1abd 33d0 fc3d 949f 243e
00000010: 27d4 d73d 27a0 083e aefa 3dbd 0000 0000
00000020: 2037 12bd 9d26 1e3e e16d 94bc a8b3 403e
00000030: a1a9 b33d c481 093e 0000 0000 d985 6bbd
00000040: 0000 0000 7228 193e 4ac7 18bd 442e f63d
00000050: 5744 84bc 0000 0000 0000 0000 6cea 44bc
00000060: 0000 0000 e1ce 5fbc 55bc 93bc bc7a 523d
00000070: af33 4ebd 4c6b ca3d 5ae6 383e 1a89 88bb
00000080: 1a4d 393e 3dd4 f33d c33a 23bc 79ae 353d
00000090: 494b dc3d 7898 e7bc 0000 0000 83f6 bdbc
000000a0: 0000 0000 d401 1e3e 0000 0000 4e53 35bd
000000b0: 7356 0c3e fbe7 4dbd 83bf 113e 0966 323e
000000c0: 6430 eb3d 8be7 fc3d fa4a 39bc ab58 44bd
000000d0: 1f20 0f3e 696c f83d 07df f7bc 96f1 093e
000000e0: 3e04 db3d 0b97 f7bc 2fca 1bbd 0000 0000
000000f0: 93a7 d33d 29b2 023e 0000 0000 f701 26bc

actor.conv1.lin.weight f4 [64, 2]
-0.12977111 -0.083961144 -0.00019343737 0.037004504 0.19742118 0.22454742 0.3775623 0.12201253
0.32534188 0.22015305 0.3503619 0.2675585 0.04549861 -0.068599395 -0.016845971 -0.20405729
0.06902701 -0.12988698 0.29453778 0.1097187 -0.08554975 0.057826627 0.4140403 0.17382218
-0.014622058 0.17819464 0.3039412 0.34110022 -0.2426617 -0.14100613 0.07521349 -0.2458813
-0.251315 -0.09059999 0.37522152 0.33510995 -0.004722319 0.023381181 0.09071498 0.24712545
-0.042999145 0.014816431 -0.08233537 -0.07113952 -0.142416 -0.07691723 0.010015009 -0.18540618
-0.15094656 -0.116606854 -0.006519644 0.010985602 -0.13251248 0.050993755 0.31536803 -0.025211768
-0.18815224 0.091542676 0.4138796 0.1442448 0.39367288 -0.026610488 -0.13624212 0.0032538737
0.3339251 0.16880801 0.25400123 0.23652868 0.08345041 -0.246003 -0.038463447 0.25103998
0.2871088 0.25355804 -0.18930668 0.065985605 -0.02814219 -0.26191646 -0.11042989 0.019715589
-0.09656939 -0.15542509 0.29738963 0.1331801 -0.03879832 -0.06442342 0.09518107 -0.12419628
0.3188949 0.2589582 0.04514957 0.019611372 0.45657375 0.17313108 0.19892268 0.27990192
0.25130087 0.20829414 0.32712886 0.09693417 -0.08725013 0.001303589 0.046226803 0.03684785
-0.025769804 0.22220828 0.47109532 0.02964328 0.002096183 0.019208636 0.3726399 0.3498741
0.16642834 0.1531465 0.028329948 -0.18353109 -0.12775502 0.037535448 -0.1438123 -0.23222575
0.15381692 0.1742908 0.04159604 0.27882648 -0.17155264 -0.08569118 -0.1292826 0.0010220914
00000000: b8e2 04be d2f3 abbd 73d5 4ab9 0992 173d
00000010: c728 4a3e c2ef 653e d94f c13e b5e1 f93d
00000020: 3693 a63e cd6f 613e a362 b33e 6dfd 883e
00000030: c05c 3a3d d77d 8cbd 9000 8abc 65f4 50be
00000040: 085e 8d3d 1801 05be a8cd 963e 33b4 e03d
00000050: b534 afbd 9ddb 6c3d 17fd d33e 71fe 313e
00000060: 5b91 6fbc a878 363e 2e9e 9b3e b0a4 ae3e
00000070: 4f7c 78be e963 10be 8809 9a3d 4fc8 7bbe
00000080: 5cac 80be 7d8c b9bd 091d c03e 8893 ab3e
00000090: afbd 9abb e489 bf3c c7c8 b93d 740e 7d3e
000000a0: df1f 30bd 9ec0 723c 729f a8bd 99b1 91bd
000000b0: 80d5 11be c886 9dbd fe15 243c 1edb 3dbe
000000c0: bc91 1abe 93cf eebd bda2 d5bb f4fc 333c
000000d0: 5ab1 07be d4de 503d eb77 a13e e988 cebc
000000e0: fbaa 40be ba7a bb3d 07e8 d33e e9b4 133e
000000f0: 7e8f c93e 3dfe d9bc 0e83 0bbe f13e 553b
00000100: 3bf8 aa3e 02dc 2c3e 730c 823e 9334 723e
00000110: 0ce8 aa3d 36e8 7bbe d98b 1dbd 5088 803e
00000120: edff 923e 5cd2 813e 9cd9 41be 7623 873d
00000130: 738a e6bc ea19 86be 1129 e2bd 9682 a13c
00000140: 2cc6 c5bd c127 1fbe 7443 983e 5d60 083e
00000150: fdea 1ebd 6df0 83bd 4bee c23d 9f5a febd
00000160: 3146 a33e 2b96 843e c1ee 383d 07a8 a03c
00000170: 09c4 e93e 4649 313e 63b2 4b3e 4e4f 8f3e
00000180: 82aa 803e 0f4b 553e 6f7d a73e 6c85 c63d
00000190: 32b0 b2bd 30dd aa3a 5158 3d3d c5ed 163d
000001a0: 321b d3bc 918a 633e 6833 f13e 77d6 f23c
000001b0: 1d60 093b 6e5b 9d3c a8ca be3e b322 b33e
000001c0: 316c 2a3e 70d2 1c3e 3514 e83c 93ef 3bbe
000001d0: 36d2 02be c5be 193d 8843 13be 96cc 6dbe
000001e0: 2f82 1d3e 4a79 323e 9c60 2a3d 58c2 8e3e
000001f0: 7fab 2fbe db7e afbd a862 04be b2f7 853a

actor.conv2.bias f4 [64]
-0.0012956295 -0.013479757 -0.005135293 -0.022786772 -0.0062571373 0.0007631873 0.0016113553 0.0
-0.036729988 0.0034883085 -0.026990436 -0.008968585 -0.032980762 -0.0049898205 -0.010958075 0.11872287
0.09318866 0.0011148012 -0.0111069465 -0.028691307 -0.01644682 -0.0092553245 0.12312007 0.0027282848
0.09112619 -0.028439136 0.19344442 0.004373297 -0.0045086 -0.000843552 -0.011522898 0.12476993
-0.022112414 0.14001858 0.18772957 0.15934403 -0.020071732 0.0 -0.0067653763 -0.0071929507
0.00060764246 -0.026090322 -0.009345941 -0.0047702244 -0.021289447 0.13473077 -0.015495523 0.0
-0.0054400186 -0.01819911 -0.012467922 -0.01694022 0.08854838 -0.0020115883 -0.012280352 -0.004382564
-0.002281552 -0.005140447 -0.016518978 -0.0063697877 -0.013838397 -0.0061362227 0.003440622 -0.005875594
00000000: 1dd2 a9ba 33da 5cbc f645 a8bb 53ab babc
00000010: ac08 cdbb a210 483a 1d34 d33a 0000 0000
00000020: 2f72 16bd 1b9c 643b 0c1b ddbc f9f0 12bc
00000030: d616 07bd a681 a3bb 7f89 33bc fa24 f33d
00000040: b2d9 be3d 851e 923a e9f9 35bc 080a ebbc
00000050: 7bbb 86bc a5a3 17bc 6026 fc3d 06cd 323b
00000060: 5ea0 ba3d 31f9 e8bc 4b16 463e e04d 8f3b
00000070: e1bc 93bb d121 5dba 8aca 3cbc 6187 ff3d
00000080: 1825 b5bc 0861 0f3e 2e3c 403e 152b 233e
00000090: 796d a4bc 0000 0000 17b0 ddbb d8b2 ebbb
000000a0: 324a 1f3a 5fbb d5bc b81f 19bc 8b4f 9cbb
000000b0: 3567 aebc ddf6 093e efe0 7dbc 0000 0000
000000c0: 2f42 b2bb 4d16 95bc 4146 4cbc 37c6 8abc
000000d0: da58 b53d dad4 03bb 8833 49bc 9d9b 8fbb
000000e0: 1786 15bb 3271 a8bb cf52 87bc a7b9 d0bb
000000f0: 72ba 62bc 5e12 c9bb 0f7c 613b 0e88 c0bb

actor.conv2.lin.weight f4 [64, 64]
-0.04161346 0.026455227 -0.0008292323 -0.15182304 -0.15138169 0.061418436 0.022973426 -0.049204685
0.011456574 -0.020655142 -0.04147127 -0.058306616 -0.025825556 -0.16336167 -0.14293651 0.24789198
0.043287992 0.00058902055 -0.044291236 0.029369079 -0.18027386 0.19333044 -0.07632146 0.0018226657
0.23483439 0.07581204 0.25875145 -0.13101438 0.025942199 -0.021639215 -0.06574452 0.104370095
0.02323536 -0.18418796 0.13561511 0.051073503 -0.0024560532 0.062026013 0.008497356 0.06695365
0.17713487 -0.14324717 0.052095033 -0.11542971 -0.26008952 -0.011087242 0.020603873 0.0790119
-0.09617723 -0.057845358 0.010356212 0.1173716 0.23518807 0.008500935 0.07376407 0.27179176
0.15625347 0.08027545 -0.3466208 -0.15453255 -0.0042248075 0.0016618902 0.04870134 0.16308606
-0.09578768 -0.061195545 -0.056509603 0.14481488 -0.019247752 -0.17375027 0.11804816 0.14232698
0.22187588 -0.21387754 -0.049938362 -0.01968941 0.13317738 0.00724572 -0.04583454 -0.15504357
0.0101385405 -0.020323351 -0.108478 -0.12641168 0.15793505 -0.13342093 -0.07125875 0.1218082
0.0935384 -0.11657413 -0.063295186 -0.00022041301 -0.21668284 -0.02949272 -0.074286565 0.0853041
0.18959466 -0.09937369 0.17828646 -0.24020241 0.056890246 0.16108993 -0.005763069 -0.114374585
0.029990181 -0.11120894 -0.0092051085 -0.0036351308 0.15728569 0.04279622 0.013596096 -0.0668582
-0.3109073 0.04413777 0.1035819 -0.023383714 0.102016024 0.034063626 0.0632164 -0.09226693
0.3991439 -0.08743808 -3.431365e-05 0.04192638 0.065888844 0.09363068 0.20007864 0.040451027
0.06901624 -0.054221943 -0.106612995 -0.13657893 -0.09482239 0.0031888701 0.0063039963 0.23815495
0.10685135 -0.22097404 0.17635404 0.071134485 0.10134951 0.03413253 0.16919881 0.0057267253
0.07779866 -0.1856271 0.014682838 0.18225336 0.046034385 -0.075602144 -0.09256912 -0.22042897
0.09248929 0.13766758 0.073549554 -0.088477306 0.002354851 0.024655065 -0.13832088 0.13013238
0.016312169 -0.021241555 -0.05823204 0.035609182 0.015010809 0.17123297 -0.03761128 0.28818434
-0.3195692 0.12564991 0.08514355 0.057804186 -0.18146993 0.09878218 0.031782623 -0.19893382
-0.12910436 -0.12780082 -0.08401005 0.07224781 -0.0058173356 0.054530572 -0.30332366 0.06803517
-0.026270408 -0.120240435 0.06920693 0.18768862 -0.022328276 0.08623049 -0.07149917 0.039898515
-0.24681853 0.19421953 -0.087299876 0.01909392 -0.009489391 -0.02755469 -0.12551178 -0.058994107
0.053405944 0.1350694 0.11530457 -0.16631274 -0.039456453 0.05745685 -0.24881303 -0.03226908
-0.07659733 -0.22592089 0.08841183 -0.055718977 -0.12345476 -0.06919009 -0.10408172 -0.20482337
-0.10751505 0.044367738 -0.039968517 -0.12610462 -0.038128503 -0.004284795 0.08496576 -0.06400712
0.12339896 0.09414426 -0.1979734 -0.085180186 0.103638865 0.17222497 -0.11004247 -0.101689495
0.03466576 -0.12238404 -0.0832432 -0.070787765 0.15792355 0.15618642 -0.061072953 0.03185073
0.056907073 -0.26881793 0.16138303 0.033420414 0.0025000868 0.019859998 -0.21869862 0.13937175
0.13257417 0.13452014 0.08197125 0.045357376 0.12022537 -0.08906415 -0.16290344 -0.013084971
00000000: e072 2abd a2b8 d83c d660 59ba 8077 1bbe
00000010: cd03 1bbe e691 7b3d c432 bc3c da8a 49bd
00000020: 5bb4 3b3c f934 a9bc c7dd 29bd ebd2 6ebd
00000030: 1e90 d3bc 4848 27be f35d 12be 65d7 7d3e
00000040: c04e 313d 8068 1a3a ba6a 35bd 6c97 f03c
00000050: b699 38be 6af8 453e 6d4e 9cbd 83e6 ee3a
00000060: 6d78 703e 5843 9b3d 127b 843e a228 06be
00000070: bc84 d43c b944 b1bc 10a5 86bd fdbf d53d
00000080: 1558 be3c c59b 3cbe b0de 0a3e 7332 513d
00000090: bcf5 20bb fd0e 7e3d 7f38 0b3c ff1e 893d
000000a0: d862 353e 63af 12be 9a61 553d 6966 ecbd
000000b0: 742a 85be 43a7 35bc 74c9 a83c fed0 a13d
000000c0: 91f8 c4bd 41ef 6cbd 1aad 293c 8560 f03d
000000d0: 24d5 703e 8147 0b3c 9e11 973d 4a28 8b3e
000000e0: e900 203e 7567 a43d 4878 b1be c83d 1ebe
000000f0: 4170 8abb c8d3 d93a 0e7b 473d 0800 273e
00000100: 552c c4bd 2ea8 7abd 9d76 67bd 5a4a 143e
00000110: 76ad 9dbc 97eb 31be 3cc3 f13d 2abe 113e
00000120: 6e33 633e b702 5bbe 2b8c 4cbd b04b a1bc
00000130: a75f 083e 816d ed3b 00bd 3bbd bec3 1ebe
00000140: 1f1c 263c 287d a6bc b729 debd 1072 01be
00000150: bab9 213e 7f9f 08be 1cf0 91bd 9476 f93d
00000160: 1091 bf3d 6bbe eebd e8a0 81bd ab1e 67b9
00000170: 1be2 5dbe b79a f1bc 8e23 98bd eab3 ae3d
00000180: 1a25 423e 6f84 cbbd ba90 363e 9ff7 75be
00000190: bf05 693d c2f4 243e 20d8 bcbb 393d eabd
000001a0: f8ad f53c 83c1 e3bd 06d1 16bc 603b 6ebb
000001b0: 800f 213e 174b 2f3d 29c2 5e3c f4ec 88bd
000001c0: 3e2f 9fbe cec9 343d bf22 d43d 348f bfbc
000001d0: c7ed d03d 4d86 0b3d 9a77 813d 72f6 bcbd
000001e0: 975c cc3e bc12 b3bd 00ec 0fb8 ffba 2b3d
000001f0: bbf0 863d 71c1 bf3d 6ae1 4c3e faaf 253d
00000200: 6358 8d3d d417 5ebd ea57 dabd 59db 0bbe
00000210: 3e32 c2bd 5dfc 503b c191 ce3b e4de 733e
00000220: e1d4 da3d 0547 62be 2796 343e f5ae 913d
00000230: 5590 cf3d 8dce 0b3d 7442 2d3e 41a7 bb3b
00000240: e754 9f3d 0815 3ebe 4990 703c a0a0 3a3e
00000250: 8d8e 3c3d 4cd5 9abd e194 bdbd 22b8 61be
00000260: 066b bd3d bbf8 0c3e 26a1 963d 9733 b5bd
00000270: d853 1a3b 6bf9 c93c fda3 0dbe 6c41 053e
00000280: 19a1 853c c502 aebc b884 6ebd efda 113d
00000290: e5ef 753c b257 2f3e 490e 1abd e68c 933e
000002a0: 939e a3be 5faa 003e be5f ae3d 15c4 6c3d
000002b0: 41d3 39be 504e ca3d 7f2e 023d 4fb5 4bbe
000002c0: ef33 04be 38de 02be 760d acbd a9f6 933d
000002d0: 599f bebb 735b 5f3d 3d4d 9bbe 0656 8b3d
000002e0: 0a35 d7bc 9e40 f6bd 5dbc 8d3d 7231 403e
000002f0: cae9 b6bc 9c99 b03d 286e 92bd a06c 233d
00000300: ffbd 7cbe 7ce1 463e 47ca b2bd da6a 9c3c
00000310: 6479 1bbc 60ba e1bc 2986 00be cea3 71bd
00000320: 31c0 5a3d a24f 0a3e cd24 ec3d e34d 2abe
00000330: 179d 21bd e057 6b3d d8c8 7ebe 952c 04bd
00000340: 10df 9cbd ce57 67be 4311 b53d 9539 64bd
00000350: d9d5 fcbd 89b3 8dbd cc28 d5bd 38bd 51be
00000360: da30 dcbd f2ba 353d 07b6 23bd 9221 01be
00000370: a22c 1cbd 7767 8cbb 8702 ae3d 2a16 83bd
00000380: 98b8 fc3d b5ce c03d 8ab9 4abe f372 aebd
00000390: 9d40 d43d be5b 303e f25d e1bd 9542 d0bd
000003a0: affd 0d3d 7ca4 fabd 697b aabd 2df9 90bd
000003b0: b6b6 213e 55ef 1f3e a227 7abd e975 023d
000003c0: 6417 693d 81a2 89be 9841 253e d8e3 083d
000003d0: 7fd8 233b 6fb1 a23c 88f2 5fbe 78b7 0e3e
000003e0: 86c1 073e a6bf 093e 8be0 a73d a8c8 393d
000003f0: b838 f63d 4467 b6bd 29d0 26be 5962 56bc

actor.fc_mu.weight f4 [2, 65]
0.0005552688 0.007859687 0.0062144496 0.00023486039 0.0015651806 0.00364027 -0.0022722755 -1.6614253e-05
-0.012163891 0.020446679 -0.013042472 -0.0011015025 -0.0033289187 -0.0037451938 0.0035629873 0.16965632
0.17726329 -0.0043708845 -0.0010553756 -0.010235269 0.016382819 -0.0018701074 0.17565952 0.014497441
0.131602 0.033601984 0.25344682 -0.0011209402 0.00355938 0.0013297196 -0.0029734788 0.18473837
0.022069903 0.21062398 0.26467085 0.2035332 0.0006761674 -0.0007012777 0.0051253294 -0.0043806187
0.00083812565 -0.0026065398 -0.0037966105 0.0007559896 0.02131555 0.19121796 0.008363983 -0.0014608578
0.0016092637 0.004683091 0.004227538 0.0020564487 0.1726417 -0.0020211297 0.004645928 0.0042792093
0.006491062 0.0043099103 -0.0017394271 -0.0015470821 -0.01610834 -0.003742716 0.0021871144 0.0020235847
0.11110196 -0.0012447514 -0.0021048859 0.0012619012 -0.00029867192 -0.0026858742 -0.0011328096 -0.0058133225
0.0032106887 0.010678859 -0.00073376443 -0.015198242 -0.001038361 -0.0027474253 -0.00015894607 -0.0034901157
0.008602614 -0.0036684168 -0.0043380144 -0.00264597 -0.006757176 -0.021001576 -0.0038855034 0.0028902164
-0.012685044 0.02936954 0.010824904 -0.006774714 -0.009286591 0.00571786 -0.0018620552 0.004246519
-0.0072820103 0.004041724 -0.0153408665 -0.014085783 -0.0074847327 -0.002470371 -0.0015504683 0.0021851214
-0.0031144451 0.0002729634 -0.002708339 -0.0018150788 0.001157581 0.021479363 -0.0026642857 0.0032029317
0.00034049328 0.0007281411 -0.008809698 0.0024301047 -0.00033021407 0.029430263 0.00031833284 0.0006878982
0.006601782 -0.003194937 -0.0029714464 -0.003625342 -0.0017339189 -0.014990941 -0.00018352842 -0.0099019185
0.0046739858 -0.13380648
00000000: 758f 113a ebc5 003c 95a2 cb3b db44 7639
00000010: bf26 cd3a 9991 6e3b 75ea 14bb d65e 8bb7
00000020: 0f4b 47bc cb7f a73c 18b0 55bc 4a60 90ba
00000030: fd29 5abb ed71 75bb 0281 693b 63ba 2d3e
00000040: 8284 353e a339 8fbb 8754 8aba d4b1 27bc
00000050: 4335 863c 641e f5ba 17e0 333e ad86 6d3c
00000060: adc2 063e 3ca2 093d c8c3 813e 83ec 92ba
00000070: 7d44 693b fc49 ae3a b2de 42bb 0e2c 3d3e
00000080: f1cb b43c d0ad 573e f082 873e 026b 503e
00000090: d340 313a f3d5 37ba 61f2 a73b 4b8b 8fbb
000000a0: a9b5 5b3a 7bd2 2abb 8ed0 78bb 9a2d 463a
000000b0: f39d ae3c a4ce 433e 1609 093c 417a bfba
000000c0: eeed d23a 9d74 993b 2987 8a3b 7cc5 063b
000000d0: fcc8 303e ee74 04bb de3c 983b 9c38 8c3b
000000e0: fab2 d43b 263a 8d3b 7dfd e3ba 76c7 caba
000000f0: a3f5 83bc 5b48 75bb b155 0f3b 1e9e 043b
00000100: 6d89 e33d ed26 a3ba 20f2 09bb 6166 a53a
00000110: 1197 9cb9 7e05 30bb c87a 94ba af7d bebb
00000120: 6b6a 523b 62f6 2e3c 195a 40ba 0c02 79bc
00000130: 9d19 88ba 260e 34bb c3aa 26b9 6dba 64bb
00000140: faf1 0c3c d269 70bb e725 8ebb 0368 2dbb
00000150: 4d6b ddbb 7f0b acbc eea3 7ebb c969 3d3b
00000160: eed4 4fbc 6498 f03c f05a 313c 6cfe ddbb
00000170: c926 18bc e35c bb3b 3410 f4ba 6226 8b3b
00000180: ee9d eebb 7070 843b 4258 7bbc 0ec8 66bc
00000190: 7d42 f5bb f3e5 21bb 1539 cbba 4134 0f3b
000001a0: b81b 4cbb 871c 8f39 637e 31bb f0e7 edba
000001b0: f9b9 973a 7df5 af3c 4c9b 2ebb 47e8 513b
000001c0: 3c84 b239 b9e0 3e3a 8d56 10bc 6442 1f3b
000001d0: 9520 adb9 bc17 f13c e9e5 a639 1154 343a
000001e0: c353 d83b 2662 51bb 99bc 42bb 2597 6dbb
000001f0: aa44 e3ba 909c 75bc 8971 40b9 a83b 22bc
00000200: 3c28 993b 9104 09be

actor.fc_mu.bias f4 [2]
0.17252457 -0.0050257826
00000000: 48aa 303e 52af a4bb

critic.conv1.bias f4 [64]
-0.044558525 0.020216601 0.0 0.0 0.12537561 0.0 -0.041721217 0.02632529
-0.001731542 -0.017936412 -0.025545768 0.0 -0.014779554 0.04535792 0.0 -0.045272414
0.0 0.056116585 0.022181764 0.0 0.0 -0.05930865 0.0 0.029984012
0.0 0.040971145 0.0 -0.041464556 -0.03011606 0.015845574 0.0 0.029085828
0.012591681 -0.04924767 0.0 -0.018139757 0.0290319 0.0 -0.08074706 0.03071784
0.033250146 0.02821623 0.0 0.010507578 0.022494167 -0.06391969 0.010306953 0.02513353
-0.06430071 0.017575573 0.0 0.20982446 -0.041532766 0.07710632 0.016241947 0.024214463
-0.04116623 -0.003066029 0.02509638 -0.05987192 0.0 0.0 -0.0016976045 0.03136084
00000000: 0083 36bd 499d a53c 0000 0000 0000 0000
00000010: 7762 003e 0000 0000 dee3 2abd 22a8 d73c
00000020: e9f4 e2ba 62ef 92bc 5c45 d1bc 0000 0000
00000030: f125 72bc 3ac9 393d 0000 0000 916f 39bd
00000040: 0000 0000 81da 653d 88b6 b53c 0000 0000
00000050: 0000 0000 a1ed 72bd 0000 0000 08a1 f53c
00000060: 0000 0000 5cd1 273d 0000 0000 bdd6 29bd
00000070: f5b5 f6bc 94ce 813c 0000 0000 6745 ee3c
00000080: 574d 4e3c edb7 49bd 0000 0000 d499 94bc
00000090: 4fd4 ed3c 0000 0000 b75e a5bd fba3 fb3c
000000a0: 4e31 083d b925 e73c 0000 0000 fa27 2c3c
000000b0: b045 b83c 54e8 82bd 7fde 283c d5e4 cd3c
000000c0: 17b0 83bd a6fa 8f3c 0000 0000 39dc 563e
000000d0: 431e 2abd ebe9 9d3d d50d 853c 695d c63c
000000e0: ec9d 28bd 6eef 48bb ec96 cd3c 423c 75bd
000000f0: 0000 0000 0000 0000 2882 deba 3974 003d

critic.conv1.lin.weight f4 [64, 2]
0.15949985 0.1851225 0.0542222 0.09692524 -0.007855984 -0.09080335 -0.0451985 -0.21155035
-0.33275026 0.11110071 -0.049811814 -0.1126224 0.02235509 0.19519906 0.24083242 0.09746257
0.17211269 -0.1512686 0.030006936 -0.20640469 0.08188855 -0.2048586 -0.035383023 -0.18253963
0.023746727 -0.060000017 0.049145814 -0.040959798 -0.05007153 -0.09416963 0.02251926 0.089393176
-0.2558568 -0.28711987 0.1261055 -0.088889234 -0.060559638 0.15213667 -0.17415488 -0.051162828
-0.106339954 -0.08128128 0.4039554 0.21584149 -0.09267053 -0.09433401 0.11978512 -0.02749492
-0.21410826 -0.08771776 0.12491747 -0.07727062 -0.14969273 -0.024612756 0.22174035 0.15962154
0.2520756 0.072544485 0.009820834 0.043191593 -0.061007984 -0.026696922 0.13613856 0.115021825
-0.03528433 0.039927147 -0.04139628 0.12521783 -0.0026323437 -0.044110175 0.06979838 -0.11807208
0.26486883 -0.0657417 -0.075834826 -0.11552495 0.105630934 0.13351755 0.08382297 0.09082338
-0.07492089 0.062181477 0.17901197 0.030735571 -0.006429051 -0.053096402 0.22830586 -0.03826535
0.18528725 0.15711135 0.3367231 0.27068993 0.33018595 -0.29357827 -0.0427487 0.14591353
0.27783465 0.27652556 0.1790721 0.028232023 -0.021706684 -0.1402378 0.46451437 0.3229754
0.15389238 0.1651242 0.13170813 -0.122221895 -0.06762125 0.13223982 0.11606571 0.020064658
0.14404581 0.1676622 -0.1789614 0.0978367 0.04586062 0.09589728 0.1453831 0.27389777
-0.0388211 -0.06822673 -0.014534984 -0.076787114 0.21209864 -0.11287969 0.21614367 -0.0048186923
00000000: ee53 233e c190 3d3e 1918 5e3d bd80 c63d
00000010: 63b6 00bc 1bf7 b9bd 1022 39bd a8a0 58be
00000020: 3e5e aabe c588 e33d 7907 4cbd 93a6 e6bd
00000030: 0622 b73c 43e2 473e c69c 763e 759a c73d
00000040: 4f3e 303e 28e6 1abe 1bd1 f53c c05b 53be
00000050: 2fb5 a73d 74c6 51be caed 10bd abeb 3abe
00000060: 7f88 c23c 94c2 75bd 1f4d 493d 76c5 27bd
00000070: ce17 4dbd 02dc c0bd 507a b83c c513 b73d
00000080: aaff 82be 6001 93be cd21 013e 8f0b b6bd
00000090: 620d 78bd b7c9 1b3e a855 32be 1d90 51bd
000000a0: c3c8 d9bd cd76 a6bd 3ed3 ce3e 8d05 5d3e
000000b0: 0cca bdbd 3032 c1bd e751 f53d 073d e1bc
000000c0: 323f 5bbe 5ea5 b3bd bbd4 ff3d 0f40 9ebd
000000d0: 0d49 19be b1a0 c9bc e70f 633e d473 233e
000000e0: 0e10 813e 3492 943d 90e7 203c abe9 303d
000000f0: 82e3 79bd 81b3 dabc e867 0b3e 9090 eb3d
00000100: 4d86 10bd a68a 233d 258f 29bd 1a39 003e
00000110: 6683 2cbb dfac 34bd 74f2 8e3d c6cf f1bd
00000120: e39c 873e 96a3 86bd 4a4f 9bbd 5898 ecbd
00000130: 0855 d83d d3b8 083e 61ab ab3d 9c01 ba3d
00000140: 2070 99bd 01b2 7e3d ea4e 373e 2ac9 fb3c
00000150: caaa d2bb 9d7b 59bd 03c9 693e 21bc 1cbd
00000160: f1bb 3d3e cce1 203e f866 ac3e df97 8a3e
00000170: 220e a93e e44f 96be 4319 2fbd 5b6a 153e
00000180: 5840 8e3e c294 8d3e ad5e 373e d846 e73c
00000190: 37d2 b1bc 7f9a 0fbe d4d4 ed3e 085d a53e
000001a0: f795 1d3e 5116 293e 7fde 063e 794f fabd
000001b0: 037d 8abd e069 073e dcb3 ed3d a35e a43c
000001c0: bf80 133e a4af 2b3e a841 37be 9c5e c83d
000001d0: 58d8 3b3d cb65 c43d 4fdf 143e 543c 8c3e
000001e0: e002 1fbd 75ba 8bbd 2424 6ebc 9042 9dbd
000001f0: 6330 593e 782d e7bd c454 5d3e 1fe6 9dbb

critic.conv2.bias f4 [64]
0.023169532 0.024048422 -0.01667483 0.022848986 0.027833423 0.025381494 0.02799423 0.0
0.36849707 0.012373492 0.0286804 -0.013978585 0.34909615 -0.0074911057 -0.014207337 -0.024009606
-0.01569786 -0.011521677 0.023259431 -0.018168814 0.0 -0.54719603 -0.011626147 0.024022877
0.043809786 0.0 -0.014054622 -0.013569955 0.0 -0.015355487 -0.007514701 -0.01764578
0.022798806 -0.0150665 -0.011878127 0.34975824 -0.018158149 0.0 0.023617184 0.022899376
0.024361871 0.022920236 -0.0007506452 -0.015395519 -0.013717343 -0.01802616 -0.0149157485 0.0
0.13800654 0.024152422 0.024380803 0.02291615 -0.019349353 -0.007821442 -0.014485619 -0.015511316
-0.1985638 0.024218611 -0.014481822 0.028568754 -0.012809505 0.34168223 0.022912245 0.024587832
00000000: 08ce bd3c 3201 c53c a799 88bc cc2d bb3c
00000010: eb02 e43c daec cf3c 2854 e53c 0000 0000
00000020: a6ab bc3e 30ba 4a3c 29f3 ea3c 6f06 65bc
00000030: bbbc b23e f377 f5bb e4c5 68bc cbaf c4bc
00000040: cc98 80bc 6ac5 3cbc 908a be3c c4d6 94bc
00000050: 0000 0000 0a15 0cbf 987b 3ebc a0cb c43c
00000060: e471 333d 0000 0000 5b45 66bc 8454 5ebc
00000070: 0000 0000 9595 7bbc e23d f6bb e28d 90bc
00000080: 90c4 ba3c 7bd9 76bc 7a9c 42bc 8313 b33e
00000090: 66c0 94bc 0000 0000 d378 c13c 7997 bb3c
000000a0: 8c92 c73c 38c3 bb3c f2c6 44ba 7d3d 7cbc
000000b0: b5be 60bc 99ab 93bc 2f61 74bc 0000 0000
000000c0: 9651 0d3e 4ddb c53c 40ba c73c a6ba bb3c
000000d0: 8982 9ebc 8125 00bc 1755 6dbc 2d23 7ebc
000000e0: 4f54 4bbe 1c66 c63c 2a45 6dbc 0509 ea3c
000000f0: f5de 51bc f9f0 ae3e 76b2 bb3c 6c6c c93c

critic.conv2.lin.weight f4 [64, 64]
-0.11763488 0.16090511 -0.00600997 -0.010153472 0.23524131 0.24179302 -0.084271975 0.02722713
0.13979994 -0.08570011 -0.15449123 -0.019632682 -0.0013597708 -0.041580994 -0.09892061 0.133572
-0.096578166 -0.020786738 0.26302093 0.09645657 -0.16462965 0.19188474 0.094414145 -0.23842856
-0.034750678 0.099929266 0.02195451 0.2995862 0.32158843 0.038688097 0.15540978 0.2253743
0.19768944 -0.08904727 -0.006639415 -0.10077311 0.058567535 -0.023656059 -0.03642144 0.016137462
0.03319447 -0.02795384 0.08827664 -0.14023073 0.11305551 0.11219193 0.041857835 0.057594646
-0.0145733375 0.12719592 -0.17711808 0.2999794 -0.0209565 -0.07821705 -0.040756077 0.20022841
0.17180513 0.06380805 0.17774116 0.032123547 0.1874333 0.05860957 0.042504784 -0.11402454
-0.13511497 -0.08062667 0.2301854 -0.24992873 -0.0346572 -0.015090497 0.001589985 0.15926248
0.056335874 -0.124666534 -0.07782461 0.064329416 -0.019487 0.066003375 -0.13911386 -0.061048742
-0.13670622 0.02457398 -0.09337561 0.0030180411 0.019878684 -0.08011169 0.1398288 0.030528437
-0.17324625 0.22669612 -0.057911187 -0.098239034 -0.0914533 0.14963141 -0.050446715 0.05490138
-0.22557144 -0.2626484 0.10066677 0.013732049 0.1822476 0.06737757 0.055682834 0.05382373
0.15063706 0.20177165 0.0073813563 0.1395672 0.26967812 -0.16944797 0.149465 0.13127036
-0.10820511 0.1915726 -0.110784665 0.5282794 -0.091318406 -0.04977235 -0.08451568 0.18771617
0.01962944 0.084189855 -0.056739755 -0.087590344 -0.08519094 0.0473389 0.0728923 0.09732624
0.05463215 0.037901435 -0.061135888 -0.04687775 0.04494112 0.18637171 0.081648596 0.029231973
-0.014939506 0.06444638 0.008147948 0.25603706 -0.12618409 0.064393826 -0.030439109 -0.061293103
0.21571264 0.006559297 -0.10977714 -0.12372562 0.114906624 0.0032850706 -0.16945806 0.18233441
-0.052588865 0.08591845 -0.060818616 -0.023731956 -0.10546048 0.16095765 0.12451786 0.15794306
0.2194785 -0.09399422 -0.075998425 0.17732544 -0.02444534 -0.013503702 0.18820949 0.1755617
-0.37069076 0.1424407 0.16922821 -0.22447732 0.06813798 0.0037227664 -0.18979132 0.05733827
-0.108297125 0.061158314 -0.07503801 -0.26385784 -0.015151697 -0.10843326 -0.110236526 -0.0635486
-0.25316814 -0.0408484 0.01644241 0.042379297 0.00240013 -0.11766049 -0.103539824 0.024452057
0.14489509 0.22212982 0.23358452 -0.1582253 -0.28407374 -0.0630729 -0.14852029 0.04762482
0.14123057 0.052155163 0.12580422 -0.020796906 -0.04361835 -0.0559048 0.058704253 -0.1537333
-0.012647186 -0.024036733 0.0595507 0.04827789 -0.066017404 0.11192504 0.05689167 0.21376874
0.04448303 -0.12108873 0.02277711 0.22332443 0.22240818 0.053111773 -0.002561599 0.14866711
0.12692238 0.11246948 0.0893959 0.06522261 0.011187188 0.18384746 -0.14508857 0.16242172
0.048933037 0.14335692 -0.0066277273 -0.028650578 0.06957702 0.123301364 0.054669537 -0.13942865
0.06466853 0.009474402 0.18102983 0.43240088 0.19852869 -0.079911314 0.031255558 0.1250041
-0.036013894 -0.01977033 -0.2500798 0.17963907 -0.05474591 0.042586852 0.086980514 0.20493236
00000000: 8eea f0bd 4fc4 243e 48ef c4bb c05a 26bc
00000010: 19e3 703e 9798 773e c996 acbd 6e0b df3c
00000020: b727 0f3e 8a83 afbd f332 1ebe b8d4 a0bc
00000030: 563a b2ba d550 2abd e496 cabd 19c7 083e
00000040: c6ca c5bd f348 aabc aeaa 863e 068b c53d
00000050: ad94 28be 6f7d 443e 345c c13d 9e26 74be
00000060: ba56 0ebd b7a7 cc3d f2d9 b33c 5d63 993e
00000070: 3da7 a43e 6977 1e3d be23 1f3e 85c8 663e
00000080: 1a6f 4a3e 6a5e b6bd 738f d9bb 2262 cebd
00000090: 83e4 6f3d 5aca c1bc a62e 15bd b632 843c
000000a0: edf6 073d 74ff e4bc 62ca b43d a598 0fbe
000000b0: a689 e73d e2c4 e53d 1f73 2b3d 5de8 6b3d
000000c0: 02c5 6ebc a63f 023e 715e 35be e696 993e
000000d0: f7ac abbc 4330 a0bd d8ef 26bd ad08 4d3e
000000e0: afed 2f3e cbad 823d c701 363e fb93 033d
000000f0: 84ee 3f3e 9710 703d 7f19 2e3d b385 e9bd
00000100: 945b 0abe 981f a5bd b9b5 6b3e 51ed 7fbe
00000110: b5f4 0dbd 223e 77bc 0b67 d03a b415 233e
00000120: 72c0 663d 2b51 ffbd 8262 9fbd 24bf 833d
00000130: 33a3 9fbc c72c 873d dd73 0ebe 3f0e 7abd
00000140: b7fc 0bbe 5f4f c93c b63b bfbd 54ca 453b
00000150: 9fd8 a23c 9911 a4bd 482f 0f3e c616 fa3c
00000160: 7767 31be 0723 683e 4834 6dbd 8c31 c9bd
00000170: de4b bbbd fa38 193e 37a1 4ebd 45e0 603d
00000180: 33fc 66be da79 86be 612a ce3d 63fc 603c
00000190: 1d9f 3a3e 40fd 893d af13 643d 4676 5c3d
000001a0: 9a40 1a3e 3a9d 4e3e 4edf f13b b4ea 0e3e
000001b0: 4013 8a3e c583 2dbe 5a0d 193e bd6b 063e
000001c0: a49a ddbd 9c2b 443e 12e3 e2bd 523d 073f
000001d0: 2505 bbbd 17de 4bbd 8f16 adbd ab38 403e
000001e0: ebcd a03c bb6b ac3d f267 68bd 9162 b3bd
000001f0: 9678 aebd 6fe6 413d 8f48 953d fb52 c73d
00000200: f6c5 5f3d 893e 1b3d a069 7abd e202 40bd
00000210: 2e14 383d 3ad8 3e3e 6137 a73d e477 ef3c
00000220: d4c4 74bc 77fc 833d f97e 053c 4a17 833e
00000230: 6736 01be e9e0 833d 705b f9bc 7a0e 7bbd
00000240: c6e3 5c3e 5fef d63b d6d2 e0bd dc63 fdbd
00000250: 2a54 eb3d 574a 573b 6a86 2dbe dfb5 3a3e
00000260: 6c67 57bd 03f6 af3d f11c 79bd 8569 c2bc
00000270: aafb d7bd 15d2 243e 3803 ff3d d3bb 213e
00000280: f9be 603e 0b80 c0bd 10a5 9bbd cd94 353e
00000290: 9841 c8bc a23e 5dbc fdb9 403e 72c6 333e
000002a0: 2ecb bdbe fadb 113e 294a 2d3e 62dd 65be
000002b0: ed8b 8b3d a8f9 733b a858 42be 89db 6a3d
000002c0: e2ca ddbd 2481 7a3d 87ad 99bd 6018 87be
000002d0: d33e 78bc 4212 debd b0c3 e1bd c525 82bd
000002e0: 419f 81be a750 27bd 3cb2 863c ea95 2d3d
000002f0: 804b 1d3b fcf7 f0bd b00c d4bd ae4f c83c
00000300: 615f 143e 0076 633e c830 6f3e d005 22be
00000310: 1d72 91be 5d2c 81bd b415 18be 3e12 433d
00000320: bf9e 103e a7a0 553d d2d2 003e 465e aabc
00000330: 28a9 32bd 6efc 64bd df73 703d 436c 1dbe
00000340: 2536 4fbc afe8 c4bc 6feb 733d 09bf 453d
00000350: 2234 87bd f538 e53d 3d07 693d 31e6 5a3e
00000360: d633 363d 5efd f7bd 1097 ba3c 29af 643e
00000370: f8be 633e bb8b 593d 80e0 27bb 313c 183e
00000380: f1f7 013e 6656 e63d 3315 b73d 6f93 853d
00000390: 784a 373c 8242 3c3e 1992 14be e151 263e
000003a0: 026e 483d 28cc 123e 682d d9bb 9eb4 eabc
000003b0: 667e 8e3d 6d85 fc3d 2aed 5f3d 62c6 0ebe
000003c0: ef70 843d 863a 1b3c e25f 393e a663 dd3e
000003d0: 1b4b 4b3e 8ba8 a3bd d405 003d 1301 003e
000003e0: 4e83 13bd 63f5 a1bc 760a 80be 4ef3 373e
000003f0: 3f3d 60bd 8d6f 2e3d d722 b23d cad9 513e

critic.fc.weight f4 [1, 65]
0.10438774 0.38485444 -0.15196499 0.20654659 0.37812418 0.038616452 0.05564944 0.17869191
-0.8527018 -0.5331026 0.05657525 -0.16821952 -0.73346853 -0.08730559 -0.1960282 -0.039658062
-0.013795481 -0.3971581 0.088551305 -0.04482079 0.055720974 -1.3346893 -0.17930381 0.041950602
0.5055527 -0.26792246 -0.084898464 -0.03278604 -0.11545734 -0.008561983 -0.024788458 -0.0034068055
0.2954712 -0.006514474 -0.36794287 0.46282497 -0.22052479 0.25618115 0.06089943 0.17461583
0.18053383 0.25045815 0.067496106 -0.01519689 -0.15527925 -0.1178808 -0.16192894 0.3117659
0.62126166 0.048470892 0.24589229 0.1445375 -0.13905556 -0.0038119485 -0.26372632 -0.23006734
0.71331257 0.10043078 -0.019774897 0.24875437 -0.2191023 -1.1494036 0.17136744 0.27757004
-0.38213128
00000000: 3dc9 d53d a40b c53e b69c 1bbe f380 533e
00000010: 7e99 c13e 492c 1e3d abf0 633d 03fb 363e
00000020: aa4a 5abf 6979 08bf 73bb 673d bd41 2cbe
00000030: 98c4 3bbf 46cd b2bd 9ebb 48be 7e70 22bd
00000040: 7106 62bc 4e58 cbbe 635a b53d 0196 37bd
00000050: ad3b 643d 19d7 aabf 6b9b 37be 65d4 2b3d
00000060: e76b 013f 222d 89be 3fdf adbd a84a 06bd
00000070: e674 ecbd 8f47 0cbc 2a11 cbbc b644 5fbb
00000080: 0048 973e 5e77 d5bb 0263 bcbe 65f7 ec3e
00000090: 40d1 61be 2d2a 833e ae71 793d 7ece 323e
000000a0: dcdd 383e 0d3c 803e 663b 8a3d 60fc 78bc
000000b0: 8601 1fbe 7d6b f1bd b3d0 25be c89f 9f3e
000000c0: 010b 1f3f 6a89 463d 30cb 7b3e a301 143e
000000d0: 9564 0ebe e2d1 79bb 2307 87be c696 6bbe
000000e0: a79b 363f a7ae cd3d f7fe a1bc 77b9 7e3e
000000f0: 5a5c 60be a81f 93bf f27a 2f3e a91d 8e3e
00000100: b6a6 c3be

_actor_critic.actor.sigma_param f4 [2, 1]
-0.45262283 -0.30020607
00000000: 2ebe e7be 9cb4 99be

_actor_critic.actor.conv1.bias f4 [64]
0.0 -0.03763511 0.12344398 0.16076499 0.10538512 0.13342343 -0.046381645 0.0
-0.035697103 0.15444417 -0.0181188 0.18818533 0.087725885 0.13428408 0.0 -0.057500694
0.0 0.14956835 -0.03729943 0.12020543 -0.016145868 0.0 0.0 -0.012018781
0.0 -0.013660164 -0.01803414 0.05138658 -0.050342258 0.098837465 0.18056622 -0.0041667344
0.18095818 0.119057156 -0.00996274 0.044355843 0.10756547 -0.028270945 0.0 -0.023188835
0.0 0.15430385 0.0 -0.0442689 0.13704853 -0.050270062 0.14233212 0.17421736
0.11483839 0.12348851 -0.01130938 -0.047936123 0.13977097 0.121300526 -0.030257715 0.13471064
0.106941685 -0.03022339 -0.038034614 0.0 0.103346966 0.12763275 0.0 -0.010132304
00000000: 0000 0000 4627 1abd 33d0 fc3d 949f 243e
00000010: 27d4 d73d 27a0 083e aefa 3dbd 0000 0000
00000020: 2037 12bd 9d26 1e3e e16d 94bc a8b3 403e
00000030: a1a9 b33d c481 093e 0000 0000 d985 6bbd
00000040: 0000 0000 7228 193e 4ac7 18bd 442e f63d
00000050: 5744 84bc 0000 0000 0000 0000 6cea 44bc
00000060: 0000 0000 e1ce 5fbc 55bc 93bc bc7a 523d
00000070: af33 4ebd 4c6b ca3d 5ae6 383e 1a89 88bb
00000080: 1a4d 393e 3dd4 f33d c33a 23bc 79ae 353d
00000090: 494b dc3d 7898 e7bc 0000 0000 83f6 bdbc
000000a0: 0000 0000 d401 1e3e 0000 0000 4e53 35bd
000000b0: 7356 0c3e fbe7 4dbd 83bf 113e 0966 323e
000000c0: 6430 eb3d 8be7 fc3d fa4a 39bc ab58 44bd
000000d0: 1f20 0f3e 696c f83d 07df f7bc 96f1 093e
000000e0: 3e04 db3d 0b97 f7bc 2fca 1bbd 0000 0000
000000f0: 93a7 d33d 29b2 023e 0000 0000 f701 26bc

_actor_critic.actor.conv1.lin.weight f4 [64, 2]
-0.12977111 -0.083961144 -0.00019343737 0.037004504 0.19742118 0.22454742 0.3775623 0.12201253
0.32534188 0.22015305 0.3503619 0.2675585 0.04549861 -0.068599395 -0.016845971 -0.20405729
0.06902701 -0.12988698 0.29453778 0.1097187 -0.08554975 0.057826627 0.4140403 0.17382218
-0.014622058 0.17819464 0.3039412 0.34110022 -0.2426617 -0.14100613 0.07521349 -0.2458813
-0.251315 -0.09059999 0.37522152 0.33510995 -0.004722319 0.023381181 0.09071498 0.24712545
-0.042999145 0.014816431 -0.08233537 -0.07113952 -0.142416 -0.07691723 0.010015009 -0.18540618
-0.15094656 -0.116606854 -0.006519644 0.010985602 -0.13251248 0.050993755 0.31536803 -0.025211768
-0.18815224 0.091542676 0.4138796 0.1442448 0.39367288 -0.026610488 -0.13624212 0.0032538737
0.3339251 0.16880801 0.25400123 0.23652868 0.08345041 -0.246003 -0.038463447 0.25103998
0.2871088 0.25355804 -0.18930668 0.065985605 -0.02814219 -0.26191646 -0.11042989 0.019715589
-0.09656939 -0.15542509 0.29738963 0.1331801 -0.03879832 -0.06442342 0.09518107 -0.12419628
0.3188949 0.2589582 0.04514957 0.019611372 0.45657375 0.17313108 0.19892268 0.27990192
0.25130087 0.20829414 0.32712886 0.09693417 -0.08725013 0.001303589 0.046226803 0.03684785
-0.025769804 0.22220828 0.47109532 0.02964328 0.002096183 0.019208636 0.3726399 0.3498741
0.16642834 0.1531465 0.028329948 -0.18353109 -0.12775502 0.037535448 -0.1438123 -0.23222575
0.15381692 0.1742908 0.04159604 0.27882648 -0.17155264 -0.08569118 -0.1292826 0.0010220914
00000000: b8e2 04be d2f3 abbd 73d5 4ab9 0992 173d
00000010: c728 4a3e c2ef 653e d94f c13e b5e1 f93d
00000020: 3693 a63e cd6f 613e a362 b33e 6dfd 883e
00000030: c05c 3a3d d77d 8cbd 9000 8abc 65f4 50be
00000040: 085e 8d3d 1801 05be a8cd 963e 33b4 e03d
00000050: b534 afbd 9ddb 6c3d 17fd d33e 71fe 313e
00000060: 5b91 6fbc a878 363e 2e9e 9b3e b0a4 ae3e
00000070: 4f7c 78be e963 10be 8809 9a3d 4fc8 7bbe
00000080: 5cac 80be 7d8c b9bd 091d c03e 8893 ab3e
00000090: afbd 9abb e489 bf3c c7c8 b93d 740e 7d3e
000000a0: df1f 30bd 9ec0 723c 729f a8bd 99b1 91bd
000000b0: 80d5 11be c886 9dbd fe15 243c 1edb 3dbe
000000c0: bc91 1abe 93cf eebd bda2 d5bb f4fc 333c
000000d0: 5ab1 07be d4de 503d eb77 a13e e988 cebc
000000e0: fbaa 40be ba7a bb3d 07e8 d33e e9b4 133e
000000f0: 7e8f c93e 3dfe d9bc 0e83 0bbe f13e 553b
00000100: 3bf8 aa3e 02dc 2c3e 730c 823e 9334 723e
00000110: 0ce8 aa3d 36e8 7bbe d98b 1dbd 5088 803e
00000120: edff 923e 5cd2 813e 9cd9 41be 7623 873d
00000130: 738a e6bc ea19 86be 1129 e2bd 9682 a13c
00000140: 2cc6 c5bd c127 1fbe 7443 983e 5d60 083e
00000150: fdea 1ebd 6df0 83bd 4bee c23d 9f5a febd
00000160: 3146 a33e 2b96 843e c1ee 383d 07a8 a03c
00000170: 09c4 e93e 4649 313e 63b2 4b3e 4e4f 8f3e
00000180: 82aa 803e 0f4b 553e 6f7d a73e 6c85 c63d
00000190: 32b0 b2bd 30dd aa3a 5158 3d3d c5ed 163d
000001a0: 321b d3bc 918a 633e 6833 f13e 77d6 f23c
000001b0: 1d60 093b 6e5b 9d3c a8ca be3e b322 b33e
000001c0: 316c 2a3e 70d2 1c3e 3514 e83c 93ef 3bbe
000001d0: 36d2 02be c5be 193d 8843 13be 96cc 6dbe
000001e0: 2f82 1d3e 4a79 323e 9c60 2a3d 58c2 8e3e
000001f0: 7fab 2fbe db7e afbd a862 04be b2f7 853a

_actor_critic.actor.conv2.bias f4 [64]
-0.0012956295 -0.013479757 -0.005135293 -0.022786772 -0.0062571373 0.0007631873 0.0016113553 0.0
-0.036729988 0.0034883085 -0.026990436 -0.008968585 -0.032980762 -0.0049898205 -0.010958075 0.11872287
0.09318866 0.0011148012 -0.0111069465 -0.028691307 -0.01644682 -0.0092553245 0.12312007 0.0027282848
0.09112619 -0.028439136 0.19344442 0.004373297 -0.0045086 -0.000843552 -0.011522898 0.12476993
-0.022112414 0.14001858 0.18772957 0.15934403 -0.020071732 0.0 -0.0067653763 -0.0071929507
0.00060764246 -0.026090322 -0.009345941 -0.0047702244 -0.021289447 0.13473077 -0.015495523 0.0
-0.0054400186 -0.01819911 -0.012467922 -0.01694022 0.08854838 -0.0020115883 -0.012280352 -0.004382564
-0.002281552 -0.005140447 -0.016518978 -0.0063697877 -0.013838397 -0.0061362227 0.003440622 -0.005875594
00000000: 1dd2 a9ba 33da 5cbc f645 a8bb 53ab babc
00000010: ac08 cdbb a210 483a 1d34 d33a 0000 0000
00000020: 2f72 16bd 1b9c 643b 0c1b ddbc f9f0 12bc
00000030: d616 07bd a681 a3bb 7f89 33bc fa24 f33d
00000040: b2d9 be3d 851e 923a e9f9 35bc 080a ebbc
00000050: 7bbb 86bc a5a3 17bc 6026 fc3d 06cd 323b
00000060: 5ea0 ba3d 31f9 e8bc 4b16 463e e04d 8f3b
00000070: e1bc 93bb d121 5dba 8aca 3cbc 6187 ff3d
00000080: 1825 b5bc 0861 0f3e 2e3c 403e 152b 233e
00000090: 796d a4bc 0000 0000 17b0 ddbb d8b2 ebbb
000000a0: 324a 1f3a 5fbb d5bc b81f 19bc 8b4f 9cbb
000000b0: 3567 aebc ddf6 093e efe0 7dbc 0000 0000
000000c0: 2f42 b2bb 4d16 95bc 4146 4cbc 37c6 8abc
000000d0: da58 b53d dad4 03bb 8833 49bc 9d9b 8fbb
000000e0: 1786 15bb 3271 a8bb cf52 87bc a7b9 d0bb
000000f0: 72ba 62bc 5e12 c9bb 0f7c 613b 0e88 c0bb

_actor_critic.actor.conv2.lin.weight f4 [64, 64]
-0.04161346 0.026455227 -0.0008292323 -0.15182304 -0.15138169 0.061418436 0.022973426 -0.049204685
0.011456574 -0.020655142 -0.04147127 -0.058306616 -0.025825556 -0.16336167 -0.14293651 0.24789198
0.043287992 0.00058902055 -0.044291236 0.029369079 -0.18027386 0.19333044 -0.07632146 0.0018226657
0.23483439 0.07581204 0.25875145 -0.13101438 0.025942199 -0.021639215 -0.06574452 0.104370095
0.02323536 -0.18418796 0.13561511 0.051073503 -0.0024560532 0.062026013 0.008497356 0.06695365
0.17713487 -0.14324717 0.052095033 -0.11542971 -0.26008952 -0.011087242 0.020603873 0.0790119
-0.09617723 -0.057845358 0.010356212 0.1173716 0.23518807 0.008500935 0.07376407 0.27179176
0.15625347 0.08027545 -0.3466208 -0.15453255 -0.0042248075 0.0016618902 0.04870134 0.16308606
-0.09578768 -0.061195545 -0.056509603 0.14481488 -0.019247752 -0.17375027 0.11804816 0.14232698
0.22187588 -0.21387754 -0.049938362 -0.01968941 0.13317738 0.00724572 -0.04583454 -0.15504357
0.0101385405 -0.020323351 -0.108478 -0.12641168 0.15793505 -0.13342093 -0.07125875 0.1218082
0.0935384 -0.11657413 -0.063295186 -0.00022041301 -0.21668284 -0.02949272 -0.074286565 0.0853041
0.18959466 -0.09937369 0.17828646 -0.24020241 0.056890246 0.16108993 -0.005763069 -0.114374585
0.029990181 -0.11120894 -0.0092051085 -0.0036351308 0.15728569 0.04279622 0.013596096 -0.0668582
-0.3109073 0.04413777 0.1035819 -0.023383714 0.102016024 0.034063626 0.0632164 -0.09226693
0.3991439 -0.08743808 -3.431365e-05 0.04192638 0.065888844 0.09363068 0.20007864 0.040451027
0.06901624 -0.054221943 -0.106612995 -0.13657893 -0.09482239 0.0031888701 0.0063039963 0.23815495
0.10685135 -0.22097404 0.17635404 0.071134485 0.10134951 0.03413253 0.16919881 0.0057267253
0.07779866 -0.1856271 0.014682838 0.18225336 0.046034385 -0.075602144 -0.09256912 -0.22042897
0.09248929 0.13766758 0.073549554 -0.088477306 0.002354851 0.024655065 -0.13832088 0.13013238
0.016312169 -0.021241555 -0.05823204 0.035609182 0.015010809 0.17123297 -0.03761128 0.28818434
-0.3195692 0.12564991 0.08514355 0.057804186 -0.18146993 0.09878218 0.031782623 -0.19893382
-0.12910436 -0.12780082 -0.08401005 0.07224781 -0.0058173356 0.054530572 -0.30332366 0.06803517
-0.026270408 -0.120240435 0.06920693 0.18768862 -0.022328276 0.08623049 -0.07149917 0.039898515
-0.24681853 0.19421953 -0.087299876 0.01909392 -0.009489391 -0.02755469 -0.12551178 -0.058994107
0.053405944 0.1350694 0.11530457 -0.16631274 -0.039456453 0.05745685 -0.24881303 -0.03226908
-0.07659733 -0.22592089 0.08841183 -0.055718977 -0.12345476 -0.06919009 -0.10408172 -0.20482337
-0.10751505 0.044367738 -0.039968517 -0.12610462 -0.038128503 -0.004284795 0.08496576 -0.06400712
0.12339896 0.09414426 -0.1979734 -0.085180186 0.103638865 0.17222497 -0.11004247 -0.101689495
0.03466576 -0.12238404 -0.0832432 -0.070787765 0.15792355 0.15618642 -0.061072953 0.03185073
0.056907073 -0.26881793 0.16138303 0.033420414 0.0025000868 0.019859998 -0.21869862 0.13937175
0.13257417 0.13452014 0.08197125 0.045357376 0.12022537 -0.08906415 -0.16290344 -0.013084971
00000000: e072 2abd a2b8 d83c d660 59ba 8077 1bbe
00000010: cd03 1bbe e691 7b3d c432 bc3c da8a 49bd
00000020: 5bb4 3b3c f934 a9bc c7dd 29bd ebd2 6ebd
00000030: 1e90 d3bc 4848 27be f35d 12be 65d7 7d3e
00000040: c04e 313d 8068 1a3a ba6a 35bd 6c97 f03c
00000050: b699 38be 6af8 453e 6d4e 9cbd 83e6 ee3a
00000060: 6d78 703e 5843 9b3d 127b 843e a228 06be
00000070: bc84 d43c b944 b1bc 10a5 86bd fdbf d53d
00000080: 1558 be3c c59b 3cbe b0de 0a3e 7332 513d
00000090: bcf5 20bb fd0e 7e3d 7f38 0b3c ff1e 893d
000000a0: d862 353e 63af 12be 9a61 553d 6966 ecbd
000000b0: 742a 85be 43a7 35bc 74c9 a83c fed0 a13d
000000c0: 91f8 c4bd 41ef 6cbd 1aad 293c 8560 f03d
000000d0: 24d5 703e 8147 0b3c 9e11 973d 4a28 8b3e
000000e0: e900 203e 7567 a43d 4878 b1be c83d 1ebe
000000f0: 4170 8abb c8d3 d93a 0e7b 473d 0800 273e
00000100: 552c c4bd 2ea8 7abd 9d76 67bd 5a4a 143e
00000110: 76ad 9dbc 97eb 31be 3cc3 f13d 2abe 113e
00000120: 6e33 633e b702 5bbe 2b8c 4cbd b04b a1bc
00000130: a75f 083e 816d ed3b 00bd 3bbd bec3 1ebe
00000140: 1f1c 263c 287d a6bc b729 debd 1072 01be
00000150: bab9 213e 7f9f 08be 1cf0 91bd 9476 f93d
00000160: 1091 bf3d 6bbe eebd e8a0 81bd ab1e 67b9
00000170: 1be2 5dbe b79a f1bc 8e23 98bd eab3 ae3d
00000180: 1a25 423e 6f84 cbbd ba90 363e 9ff7 75be
00000190: bf05 693d c2f4 243e 20d8 bcbb 393d eabd
000001a0: f8ad f53c 83c1 e3bd 06d1 16bc 603b 6ebb
000001b0: 800f 213e 174b 2f3d 29c2 5e3c f4ec 88bd
000001c0: 3e2f 9fbe cec9 343d bf22 d43d 348f bfbc
000001d0: c7ed d03d 4d86 0b3d 9a77 813d 72f6 bcbd
000001e0: 975c cc3e bc12 b3bd 00ec 0fb8 ffba 2b3d
000001f0: bbf0 863d 71c1 bf3d 6ae1 4c3e faaf 253d
00000200: 6358 8d3d d417 5ebd ea57 dabd 59db 0bbe
00000210: 3e32 c2bd 5dfc 503b c191 ce3b e4de 733e
00000220: e1d4 da3d 0547 62be 2796 343e f5ae 913d
00000230: 5590 cf3d 8dce 0b3d 7442 2d3e 41a7 bb3b
00000240: e754 9f3d 0815 3ebe 4990 703c a0a0 3a3e
00000250: 8d8e 3c3d 4cd5 9abd e194 bdbd 22b8 61be
00000260: 066b bd3d bbf8 0c3e 26a1 963d 9733 b5bd
00000270: d853 1a3b 6bf9 c93c fda3 0dbe 6c41 053e
00000280: 19a1 853c c502 aebc b884 6ebd efda 113d
00000290: e5ef 753c b257 2f3e 490e 1abd e68c 933e
000002a0: 939e a3be 5faa 003e be5f ae3d 15c4 6c3d
000002b0: 41d3 39be 504e ca3d 7f2e 023d 4fb5 4bbe
000002c0: ef33 04be 38de 02be 760d acbd a9f6 933d
000002d0: 599f bebb 735b 5f3d 3d4d 9bbe 0656 8b3d
000002e0: 0a35 d7bc 9e40 f6bd 5dbc 8d3d 7231 403e
000002f0: cae9 b6bc 9c99 b03d 286e 92bd a06c 233d
00000300: ffbd 7cbe 7ce1 463e 47ca b2bd da6a 9c3c
00000310: 6479 1bbc 60ba e1bc 2986 00be cea3 71bd
00000320: 31c0 5a3d a24f 0a3e cd24 ec3d e34d 2abe
00000330: 179d 21bd e057 6b3d d8c8 7ebe 952c 04bd
00000340: 10df 9cbd ce57 67be 4311 b53d 9539 64bd
00000350: d9d5 fcbd 89b3 8dbd cc28 d5bd 38bd 51be
00000360: da30 dcbd f2ba 353d 07b6 23bd 9221 01be
00000370: a22c 1cbd 7767 8cbb 8702 ae3d 2a16 83bd
00000380: 98b8 fc3d b5ce c03d 8ab9 4abe f372 aebd
00000390: 9d40 d43d be5b 303e f25d e1bd 9542 d0bd
000003a0: affd 0d3d 7ca4 fabd 697b aabd 2df9 90bd
000003b0: b6b6 213e 55ef 1f3e a227 7abd e975 023d
000003c0: 6417 693d 81a2 89be 9841 253e d8e3 083d
000003d0: 7fd8 233b 6fb1 a23c 88f2 5fbe 78b7 0e3e
000003e0: 86c1 073e a6bf 093e 8be0 a73d a8c8 393d
000003f0: b838 f63d 4467 b6bd 29d0 26be 5962 56bc

_actor_critic.actor.fc_mu.weight f4 [2, 65]
0.0005552688 0.007859687 0.0062144496 0.00023486039 0.0015651806 0.00364027 -0.0022722755 -1.6614253e-05
-0.012163891 0.020446679 -0.013042472 -0.0011015025 -0.0033289187 -0.0037451938 0.0035629873 0.16965632
0.17726329 -0.0043708845 -0.0010553756 -0.010235269 0.016382819 -0.0018701074 0.17565952 0.014497441
0.131602 0.033601984 0.25344682 -0.0011209402 0.00355938 0.0013297196 -0.0029734788 0.18473837
0.022069903 0.21062398 0.26467085 0.2035332 0.0006761674 -0.0007012777 0.0051253294 -0.0043806187
0.00083812565 -0.0026065398 -0.0037966105 0.0007559896 0.02131555 0.19121796 0.008363983 -0.0014608578
0.0016092637 0.004683091 0.004227538 0.0020564487 0.1726417 -0.0020211297 0.004645928 0.0042792093
0.006491062 0.0043099103 -0.0017394271 -0.0015470821 -0.01610834 -0.003742716 0.0021871144 0.0020235847
0.11110196 -0.0012447514 -0.0021048859 0.0012619012 -0.00029867192 -0.0026858742 -0.0011328096 -0.0058133225
0.0032106887 0.010678859 -0.00073376443 -0.015198242 -0.001038361 -0.0027474253 -0.00015894607 -0.0034901157
0.008602614 -0.0036684168 -0.0043380144 -0.00264597 -0.006757176 -0.021001576 -0.0038855034 0.0028902164
-0.012685044 0.02936954 0.010824904 -0.006774714 -0.009286591 0.00571786 -0.0018620552 0.004246519
-0.0072820103 0.004041724 -0.0153408665 -0.014085783 -0.0074847327 -0.002470371 -0.0015504683 0.0021851214
-0.0031144451 0.0002729634 -0.002708339 -0.0018150788 0.001157581 0.021479363 -0.0026642857 0.0032029317
0.00034049328 0.0007281411 -0.008809698 0.0024301047 -0.00033021407 0.029430263 0.00031833284 0.0006878982
0.006601782 -0.003194937 -0.0029714464 -0.003625342 -0.0017339189 -0.014990941 -0.00018352842 -0.0099019185
0.0046739858 -0.13380648
00000000: 758f 113a ebc5 003c 95a2 cb3b db44 7639
00000010: bf26 cd3a 9991 6e3b 75ea 14bb d65e 8bb7
00000020: 0f4b 47bc cb7f a73c 18b0 55bc 4a60 90ba
00000030: fd29 5abb ed71 75bb 0281 693b 63ba 2d3e
00000040: 8284 353e a339 8fbb 8754 8aba d4b1 27bc
00000050: 4335 863c 641e f5ba 17e0 333e ad86 6d3c
00000060: adc2 063e 3ca2 093d c8c3 813e 83ec 92ba
00000070: 7d44 693b fc49 ae3a b2de 42bb 0e2c 3d3e
00000080: f1cb b43c d0ad 573e f082 873e 026b 503e
00000090: d340 313a f3d5 37ba 61f2 a73b 4b8b 8fbb
000000a0: a9b5 5b3a 7bd2 2abb 8ed0 78bb 9a2d 463a
000000b0: f39d ae3c a4ce 433e 1609 093c 417a bfba
000000c0: eeed d23a 9d74 993b 2987 8a3b 7cc5 063b
000000d0: fcc8 303e ee74 04bb de3c 983b 9c38 8c3b
000000e0: fab2 d43b 263a 8d3b 7dfd e3ba 76c7 caba
000000f0: a3f5 83bc 5b48 75bb b155 0f3b 1e9e 043b
00000100: 6d89 e33d ed26 a3ba 20f2 09bb 6166 a53a
00000110: 1197 9cb9 7e05 30bb c87a 94ba af7d bebb
00000120: 6b6a 523b 62f6 2e3c 195a 40ba 0c02 79bc
00000130: 9d19 88ba 260e 34bb c3aa 26b9 6dba 64bb
00000140: faf1 0c3c d269 70bb e725 8ebb 0368 2dbb
00000150: 4d6b ddbb 7f0b acbc eea3 7ebb c969 3d3b
00000160: eed4 4fbc 6498 f03c f05a 313c 6cfe ddbb
00000170: c926 18bc e35c bb3b 3410 f4ba 6226 8b3b
00000180: ee9d eebb 7070 843b 4258 7bbc 0ec8 66bc
00000190: 7d42 f5bb f3e5 21bb 1539 cbba 4134 0f3b
000001a0: b81b 4cbb 871c 8f39 637e 31bb f0e7 edba
000001b0: f9b9 973a 7df5 af3c 4c9b 2ebb 47e8 513b
000001c0: 3c84 b239 b9e0 3e3a 8d56 10bc 6442 1f3b
000001d0: 9520 adb9 bc17 f13c e9e5 a639 1154 343a
000001e0: c353 d83b 2662 51bb 99bc 42bb 2597 6dbb
000001f0: aa44 e3ba 909c 75bc 8971 40b9 a83b 22bc
00000200: 3c28 993b 9104 09be

_actor_critic.actor.fc_mu.bias f4 [2]
0.17252457 -0.0050257826
00000000: 48aa 303e 52af a4bb

_actor_critic.critic.conv1.bias f4 [64]
-0.044558525 0.020216601 0.0 0.0 0.12537561 0.0 -0.041721217 0.02632529
-0.001731542 -0.017936412 -0.025545768 0.0 -0.014779554 0.04535792 0.0 -0.045272414
0.0 0.056116585 0.022181764 0.0 0.0 -0.05930865 0.0 0.029984012
0.0 0.040971145 0.0 -0.041464556 -0.03011606 0.015845574 0.0 0.029085828
0.012591681 -0.04924767 0.0 -0.018139757 0.0290319 0.0 -0.08074706 0.03071784
0.033250146 0.02821623 0.0 0.010507578 0.022494167 -0.06391969 0.010306953 0.02513353
-0.06430071 0.017575573 0.0 0.20982446 -0.041532766 0.07710632 0.016241947 0.024214463
-0.04116623 -0.003066029 0.02509638 -0.05987192 0.0 0.0 -0.0016976045 0.03136084
00000000: 0083 36bd 499d a53c 0000 0000 0000 0000
00000010: 7762 003e 0000 0000 dee3 2abd 22a8 d73c
00000020: e9f4 e2ba 62ef 92bc 5c45 d1bc 0000 0000
00000030: f125 72bc 3ac9 393d 0000 0000 916f 39bd
00000040: 0000 0000 81da 653d 88b6 b53c 0000 0000
00000050: 0000 0000 a1ed 72bd 0000 0000 08a1 f53c
00000060: 0000 0000 5cd1 273d 0000 0000 bdd6 29bd
00000070: f5b5 f6bc 94ce 813c 0000 0000 6745 ee3c
00000080: 574d 4e3c edb7 49bd 0000 0000 d499 94bc
00000090: 4fd4 ed3c 0000 0000 b75e a5bd fba3 fb3c
000000a0: 4e31 083d b925 e73c 0000 0000 fa27 2c3c
000000b0: b045 b83c 54e8 82bd 7fde 283c d5e4 cd3c
000000c0: 17b0 83bd a6fa 8f3c 0000 0000 39dc 563e
000000d0: 431e 2abd ebe9 9d3d d50d 853c 695d c63c
000000e0: ec9d 28bd 6eef 48bb ec96 cd3c 423c 75bd
000000f0: 0000 0000 0000 0000 2882 deba 3974 003d

_actor_critic.critic.conv1.lin.weight f4 [64, 2]
0.15949985 0.1851225 0.0542222 0.09692524 -0.007855984 -0.09080335 -0.0451985 -0.21155035
-0.33275026 0.11110071 -0.049811814 -0.1126224 0.02235509 0.19519906 0.24083242 0.09746257
0.17211269 -0.1512686 0.030006936 -0.20640469 0.08188855 -0.2048586 -0.035383023 -0.18253963
0.023746727 -0.060000017 0.049145814 -0.040959798 -0.05007153 -0.09416963 0.02251926 0.089393176
-0.2558568 -0.28711987 0.1261055 -0.088889234 -0.060559638 0.15213667 -0.17415488 -0.051162828
-0.106339954 -0.08128128 0.4039554 0.21584149 -0.09267053 -0.09433401 0.11978512 -0.02749492
-0.21410826 -0.08771776 0.12491747 -0.07727062 -0.14969273 -0.024612756 0.22174035 0.15962154
0.2520756 0.072544485 0.009820834 0.043191593 -0.061007984 -0.026696922 0.13613856 0.115021825
-0.03528433 0.039927147 -0.04139628 0.12521783 -0.0026323437 -0.044110175 0.06979838 -0.11807208
0.26486883 -0.0657417 -0.075834826 -0.11552495 0.105630934 0.13351755 0.08382297 0.09082338
-0.07492089 0.062181477 0.17901197 0.030735571 -0.006429051 -0.053096402 0.22830586 -0.03826535
0.18528725 0.15711135 0.3367231 0.27068993 0.33018595 -0.29357827 -0.0427487 0.14591353
0.27783465 0.27652556 0.1790721 0.028232023 -0.021706684 -0.1402378 0.46451437 0.3229754
0.15389238 0.1651242 0.13170813 -0.122221895 -0.06762125 0.13223982 0.11606571 0.020064658
0.14404581 0.1676622 -0.1789614 0.0978367 0.04586062 0.09589728 0.1453831 0.27389777
-0.0388211 -0.06822673 -0.014534984 -0.076787114 0.21209864 -0.11287969 0.21614367 -0.0048186923
00000000: ee53 233e c190 3d3e 1918 5e3d bd80 c63d
00000010: 63b6 00bc 1bf7 b9bd 1022 39bd a8a0 58be
00000020: 3e5e aabe c588 e33d 7907 4cbd 93a6 e6bd
00000030: 0622 b73c 43e2 473e c69c 763e 759a c73d
00000040: 4f3e 303e 28e6 1abe 1bd1 f53c c05b 53be
00000050: 2fb5 a73d 74c6 51be caed 10bd abeb 3abe
00000060: 7f88 c23c 94c2 75bd 1f4d 493d 76c5 27bd
00000070: ce17 4dbd 02dc c0bd 507a b83c c513 b73d
00000080: aaff 82be 6001 93be cd21 013e 8f0b b6bd
00000090: 620d 78bd b7c9 1b3e a855 32be 1d90 51bd
000000a0: c3c8 d9bd cd76 a6bd 3ed3 ce3e 8d05 5d3e
000000b0: 0cca bdbd 3032 c1bd e751 f53d 073d e1bc
000000c0: 323f 5bbe 5ea5 b3bd bbd4 ff3d 0f40 9ebd
000000d0: 0d49 19be b1a0 c9bc e70f 633e d473 233e
000000e0: 0e10 813e 3492 943d 90e7 203c abe9 303d
000000f0: 82e3 79bd 81b3 dabc e867 0b3e 9090 eb3d
00000100: 4d86 10bd a68a 233d 258f 29bd 1a39 003e
00000110: 6683 2cbb dfac 34bd 74f2 8e3d c6cf f1bd
00000120: e39c 873e 96a3 86bd 4a4f 9bbd 5898 ecbd
00000130: 0855 d83d d3b8 083e 61ab ab3d 9c01 ba3d
00000140: 2070 99bd 01b2 7e3d ea4e 373e 2ac9 fb3c
00000150: caaa d2bb 9d7b 59bd 03c9 693e 21bc 1cbd
00000160: f1bb 3d3e cce1 203e f866 ac3e df97 8a3e
00000170: 220e a93e e44f 96be 4319 2fbd 5b6a 153e
00000180: 5840 8e3e c294 8d3e ad5e 373e d846 e73c
00000190: 37d2 b1bc 7f9a 0fbe d4d4 ed3e 085d a53e
000001a0: f795 1d3e 5116 293e 7fde 063e 794f fabd
000001b0: 037d 8abd e069 073e dcb3 ed3d a35e a43c
000001c0: bf80 133e a4af 2b3e a841 37be 9c5e c83d
000001d0: 58d8 3b3d cb65 c43d 4fdf 143e 543c 8c3e
000001e0: e002 1fbd 75ba 8bbd 2424 6ebc 9042 9dbd
000001f0: 6330 593e 782d e7bd c454 5d3e 1fe6 9dbb
