rl_environments/trained_models/PPO_routing_2_obj_20/policy.pth (torch, 41822 bytes, 24 tensors)

actor.sigma_param f4 [2, 1]
00000000: ef1e 65be 5413 fbbf
-0.22375081 -1.9615273

actor.conv1.bias f4 [64]
00000000: 31bd 15bd d269 1cbc d1a1 0abe 0000 0000
00000010: 0000 0000 32db cf3b 0f29 29be 4d29 89bd
00000020: 0000 0000 0000 0000 47ac a4bb 1779 0abc
00000030: 8d31 043e 0000 0000 0000 0000 7f32 19bd
00000040: ffbb 23be 6989 33be 2eeb 13bc 930f a6bd
00000050: e343 48bc 0000 0000 3bfa 483e 0000 0000
00000060: 0000 0000 d7c2 f4bd ce3e 7abd fe11 87bd
00000070: 8462 ebbd 3572 17be 7a0a 00bd 2680 26be
00000080: 0000 0000 361b 03bd 0000 0000 5d0e 363e
00000090: b501 b4bd 0078 0bbe 7b87 b8bd 0000 0000
000000a0: 48f9 4dbd c259 1dbe 87b8 76bd 6c0e 43bd
000000b0: 0000 0000 0000 0000 5130 d9bc 7cc6 f2bd
000000c0: 0b10 5ebc 1e6e 2abc 020f 1ebe 0000 0000
000000d0: 29c2 bdbc 0000 0000 82d7 e2bd d8f1 d4bd
000000e0: e302 88bc 195c afbd 0000 0000 5ac8 4bbd
000000f0: 9d90 60bd 761f c03d db44 6ebd 3393 80bd
-0.03655738 -0.009546714 -0.1353829 0.0 0.0 0.006343269 -0.16519569 -0.066973306
0.0 0.0 -0.00502542 -0.008451722 0.12909527 0.0 0.0 -0.037401672
-0.15989684 -0.17532887 -0.009028239 -0.08108439 -0.012223217 0.0 0.19626705 0.0
0.0 -0.11951225 -0.06109505 -0.065952286 -0.114934 -0.1478966 -0.03125999 -0.16259822
0.0 -0.032008372 0.0 0.17778917 -0.08789388 -0.13619995 -0.09010216 0.0
-0.05028656 -0.15366271 -0.060234573 -0.047621176 0.0 0.0 -0.026512297 -0.11854264
-0.01355363 -0.010402231 -0.15435413 0.0 -0.023163872 0.0 -0.11076261 -0.103976905
-0.016602939 -0.08562488 0.0 -0.049751617 -0.054825414 0.09381001 -0.058171134 -0.06278076

actor.conv1.lin.weight f4 [64, 2]
00000000: c5d1 ef3c 519a 08bd a8d6 913b 4c98 f2bd
00000010: 29d4 62bc a503 173e 05f6 93be bc37 75bd
00000020: 1bb7 89bb a765 87bd c444 0ebd dde6 533e
00000030: c696 a33d f032 983e 9374 39b9 a58e 883d
00000040: 5ec6 fbbd 658b 48be b9ab 03be 36a5 19bd
00000050: 00df dbbc 0c9e a43b ddbc aabd 65e2 e0ba
00000060: 6247 613e 7707 2f3e 51a4 8fbd 72fb ffbb
00000070: d6f6 efbc ac91 16bc 35ea 08bd 0d5f b43c
00000080: ed80 053e 013f 383e ebb0 9c3d bb12 4a3e
00000090: f7ea c73b ed47 e5bd f038 a43d 15a8 643a
000000a0: b665 87bc b039 2d3e 57a9 4dbe ce87 2cbe
000000b0: 72b9 30be fd9d 923e e944 cebd e6a8 11bd
000000c0: a9a7 a7bd 8df0 9abd e8ac ad3b 0685 e83d
000000d0: 148b b5bd c7a5 763d 7754 10be b475 6e3e
000000e0: 30e6 49bd c46f 5a3e 2631 01bb 337f 173e
000000f0: 6e2f df3c 2f7b eabd 35c8 d53d 567e 343e
00000100: af86 68bb 76fb 9abd 523a 80bd 3f26 fc3c
00000110: c2c5 82be 2e51 37be 5196 4b3e 8e34 8d3d
00000120: 0670 753d 823a e33c f7f0 d0bd 4806 3a3e
00000130: ac5a 983e 9d7b 653e a61d efbd 8be8 8dbd
00000140: f4d4 033d 581a 01bd 4b60 16bd 394c 253e
00000150: 5e59 a0bd 3784 003e 6b27 da3c dd45 96bd
00000160: 95c6 edbd f2dd 10bd 847b 7dbd 99be 1ebe
00000170: e12d f6bd a4da 263c bc46 bfbc 867a 013e
00000180: 86be bb3b d249 26bb 467f 06b9 c640 293c
00000190: 8bee 273e 5699 aabe 6353 90bc e874 89bd
000001a0: cac5 823e 9a91 74bd 1d92 3dbe 6914 90ba
000001b0: b9d5 31bc c208 f83d 2e74 5fbd 2fdc e23d
000001c0: 2296 6a3c 4ada bfbc 0983 d83d 0bb8 803e
000001d0: 729d e0bd da4a 99bd ae1c 203d a993 c9be
000001e0: c772 603d c540 34be 5d21 13be d310 a23e
000001f0: 5efa 833e a368 8fbd 545e 673d f263 4abd
0.02927483 -0.033350293 0.004450638 -0.118454546 -0.013844528 0.14747484 -0.28898636 -0.059867606
-0.004202736 -0.066111855 -0.03473355 0.20693536 0.07987742 0.29726362 -0.00017686402 0.06667832
-0.12293695 -0.19584425 -0.12858476 -0.037511073 -0.026839733 0.0050237235 -0.08336804 -0.0017157315
0.21999887 0.17092691 -0.07013763 -0.007811957 -0.029292505 -0.009190004 -0.033426482 0.02201798
0.13037463 0.17992784 0.07650932 0.19733708 0.006101008 -0.111953594 0.080186725 0.0008722556
-0.016527992 0.16916537 -0.2008413 -0.1684868 -0.17258242 0.2863616 -0.10071737 -0.035561465
-0.081862755 -0.07565413 0.005300153 0.11353497 -0.08864418 0.06021669 -0.14094721 0.23287088
-0.04929179 0.21331698 -0.0019713133 0.14794616 0.027244296 -0.11449277 0.10438577 0.17626318
-0.0035480668 -0.075674936 -0.06261124 0.030779956 -0.25541502 -0.17902061 0.1988156 0.0689479
0.059921287 0.02773786 -0.102022104 0.18166459 0.29756677 0.22410436 -0.11675577 -0.0692912
0.03218551 -0.031519264 -0.036712926 0.16142358 -0.078295454 0.12550436 0.026630124 -0.07337544
-0.11610142 -0.035367914 -0.06188537 -0.15502395 -0.120204695 0.010183964 -0.023349158 0.12644395
0.0057294993 -0.002537359 -0.00012826649 0.010330385 0.1639959 -0.3332011 -0.017617887 -0.06711751
0.25541526 -0.05970917 -0.18512769 -0.0010992411 -0.010854178 0.121110454 -0.054554157 0.11077153
0.014318021 -0.023419518 0.10571868 0.25140414 -0.1096753 -0.0748498 0.03908985 -0.39370468
0.05479696 -0.17602833 -0.14368196 0.3165346 0.25776953 -0.0700238 0.056486443 -0.04941172

actor.conv2.bias f4 [64]
00000000: 75b9 95bd 759a 39bd bd19 e13d f1b5 11bd
00000010: a1da f8bd 42c0 2abd 5785 32bc 4135 09bc
00000020: 8b37 45bc a579 ebbc 83a6 16bd 6215 99bd
00000030: fc72 74bd 726a ecbc e0c8 1b3e 4108 86bc
00000040: 34e6 92bc 0000 0000 dff2 98bd 1d63 bcbc
00000050: 7420 e9bb 1e09 3dbc 7e26 02be 6921 c0bc
00000060: c088 b7bb cb5c 16bd 10e3 c4bc 30bf 52bd
00000070: 7f91 b3bb e2e9 0dbd 8147 34bc 8135 4bbc
00000080: 984a d9bc 6a6c 01bd 03dc 54bd d373 1abe
00000090: 026c c4bc b0e5 b7bd 8a64 adbc 6091 4bbd
000000a0: 91d4 13bd 31d1 6abd aa41 2bbd efa3 f7bc
000000b0: 9f13 b0bb 482f cbbc 4197 23bc 0600 05bd
000000c0: 5fdc f1bb 0053 8cbb 8d90 a2bd c9e1 88bd
000000d0: a0d9 01bd f4e4 00be 6dd7 a3bd d6a4 ed3d
000000e0: 39c0 43bd ae70 c4bb 9434 44bc 1355 73bd
000000f0: be9a 8ebc f6b9 fcbc a04e 2abd 57a2 3fbd
-0.07310764 -0.045313317 0.10991237 -0.035573903 -0.12151075 -0.041687258 -0.0108960485 -0.008374513
-0.012037168 -0.028744528 -0.03677989 -0.074747816 -0.05967997 -0.02885935 0.15213346 -0.016361358
-0.017932035 0.0 -0.07468199 -0.02299648 -0.0071144644 -0.011537818 -0.12709996 -0.023453431
-0.0056010187 -0.036709588 -0.024034053 -0.05145186 -0.005479991 -0.034646876 -0.011003376 -0.012402893
-0.026524827 -0.031597532 -0.051967632 -0.15083246 -0.023977283 -0.08979356 -0.021166105 -0.049699187
-0.03609139 -0.057328407 -0.04181067 -0.030229537 -0.0053734328 -0.024802819 -0.009984792 -0.032470725
-0.0073810066 -0.0042823553 -0.07937727 -0.0668369 -0.031701684 -0.12587339 -0.080000736 0.116037056
-0.04779074 -0.005994878 -0.011975426 -0.059407305 -0.017407771 -0.030850392 -0.04157889 -0.04678568

actor.conv2.lin.weight f4 [64, 64]
00000000: b798 813c 728f 14bd 1712 a2bd b0df a3bc
00000010: 9ade 49bd 1c58 c4bd 5eb5 f43c 3c98 003e
00000020: b466 2c3e 3862 adbd d9e8 123e b400 95bd
00000030: de1d db3b 1810 4bbe 2044 24bd 2234 17bd
00000040: 4183 563e f019 ac3e 6b0d ec3d c49c ff3c
00000050: 38b4 613d 8fba 38be d139 c6be c542 aa3d
00000060: 617b 72be 7fb6 2c3d 47ec f03c 0ade 43bd
00000070: 60ee 823e 4cda 0d3d 6a9b 883d f12b 243e
00000080: 3a6c fd3d 2595 8e3d 9781 08be af20 9cbe
00000090: ae70 0a3e 10c5 e13c 0885 2e3e 1d4d 21be
000000a0: bf7c a2bc 25a8 23be 6993 8fbc 5b32 13bd
000000b0: b72c 60bd 4d41 473d 8fea 70be 1057 813e
000000c0: 8d78 80bd fe65 57ba 82e7 d1bd 2688 88bd
000000d0: e95a e9bd 5f2b cdbc e78a 853c 5c5f b63c
000000e0: 0b18 c93d 2f08 4f3e 2fd3 8c3d 25be 193d
000000f0: f7be 90be 2ef1 333e 0655 05be a27b 32be
00000100: 0b0b 32bd fec4 81bd 510a 9b3d f934 2cbe
00000110: f5ce ae3d 4244 c6bd 4209 28be e3de b93e
00000120: fa94 473c 0d7e 74be 1e2f 1b3e 9c86 10be
00000130: ec1f a13d aa96 8f3d 0fd6 76bd 5d19 bd3c
00000140: b6c3 633b 62b8 f6bd 0bce 40bd 3370 633e
00000150: 7fd5 dd3d 7775 f23d 00bd 88bd f1c0 133e
00000160: 18d0 e43c c208 2f3d aa9a 9cbc 7317 10be
00000170: b4e2 a33d e73d 013d eaa4 59be b815 62be
00000180: 0c93 0abe 21a5 093e eae7 96bc 8fbe bcbd
00000190: 680a 093e 3880 3dbd 3fae 39be 2908 e83d
000001a0: 1825 00bd 34bd 423e 6458 793e 81d7 29be
000001b0: 15b9 02bd 8611 1cbc eef3 2b3d 5f62 5abe
000001c0: 6121 813d 0fc1 97bd d2bb eabd 7db6 37be
000001d0: b386 963d 51f7 bebd 600e e4bc 31e1 0fbd
000001e0: 010d 6b3e ccd6 d03c 8a2c 83bd 4822 c1bd
000001f0: a4f9 cebd 41ff 5ebd 3a97 0e3e 7798 8c3d
00000200: 8e3d e03d e6b0 9a3d ddd9 0e3d 8745 e33d
00000210: effb 0f3d aafd 9c3d a0d6 1fbd 3ca9 47bd
00000220: 2ced b13c 0c62 32bd 302c ca3d d19b 5d3e
00000230: 0a03 b13e c4af 373d 1d63 38be 013f ba3d
00000240: d9e8 d7bc 1eb2 073e 1b6f 383d 50d1 56be
00000250: 23b9 0b3e d2b1 69bd 9e3e 5c3e 35a5 253d
00000260: f65b 87bd 4abd 2cbd 865d 0ebe 5858 f6bc
00000270: 901f 033e 5fbc 76bd 93b7 133e 4515 a3be
00000280: 294f bb3d dac6 88bd a4de 1cbe 9d99 ff3d
00000290: 92ef f03d 7804 793d bbc0 47be 7f67 23bc
000002a0: 883a 2cbe 9e20 1f3e a734 1b3e 1e2f 1a3e
000002b0: 05bd 37be c4dd 2c3e 8807 453d f2c9 8bbe
000002c0: 5966 b4bd 2143 1bbe c8d9 663d 7eb6 2b3e
000002d0: 692b a5bc a81a d83d bc0d ad3c 0e95 123e
000002e0: 2630 c73d 7881 c43d e9f5 20bc 8be6 d63d
000002f0: c264 843d da79 7a3d d1b8 093e 5ffe fc3c
00000300: 266d db3c a255 e03d de51 96bb 906e 3a3e
00000310: ece0 d8bc 3405 c4be 8d73 75be bbd1 2fbd
00000320: 246f 12be 4f10 b43d c728 5b3b 5cdf c7bd
00000330: a450 afbd d706 893d b75b 84bd 0819 d33d
00000340: 135f b0bd 5d17 bebd 421d ca3c 4fa3 d8bd
00000350: fd2a f53d f258 1c3d 1fd8 513e 7ead 2d3d
00000360: 02ea a5bc 06b1 57be 24a6 33be a1cd b3bc
00000370: 29ac 4abe 86b2 acbe 6cae cbbd b121 9abe
00000380: 23b2 f2bd 5975 0abe be90 02be 0580 903c
00000390: 1628 00bd 0db5 233d c886 13be 1b8f 29bd
000003a0: 84b5 633e 886d 17be 085e 61bd 03f1 07be
000003b0: 0c38 873d a2c2 07be f326 71bd f151 633d
000003c0: ab13 89bc 5968 bd3c 91d9 13be 1331 243e
000003d0: 5931 d3bd b0fc 493d 4010 2c3e fab1 e83d
000003e0: b3d2 b53c 3e97 ddbd cc5b 93bc 6441 e9bc
000003f0: 4d74 8abe ecbb 6bbd bd88 41be 6059 b9bd
0.01581989 -0.036269613 -0.079136066 -0.020004123 -0.049284555 -0.09587118 0.029871639 0.12558073
0.16836053 -0.08465999 0.14346637 -0.07275525 0.00668691 -0.19830358 -0.04010403 -0.036914952
0.20948507 0.3361354 0.11525997 0.031202681 0.05510351 -0.18039916 -0.38715985 0.083135165
-0.23679878 0.04216623 0.02940954 -0.047819175 0.2557249 0.034632012 0.06670268 0.16032387
0.12374158 0.06962041 -0.13330685 -0.30493686 0.13519546 0.027559787 0.17042935 -0.15752073
-0.019834874 -0.15982111 -0.017526345 -0.035936695 -0.054730143 0.04864626 -0.23526977 0.25261736
-0.06272993 -0.0008216797 -0.10249235 -0.06666593 -0.11394293 -0.025045095 0.016301585 0.022262268
0.09819039 0.20217966 0.068762176 0.03753485 -0.28270695 0.17572471 -0.13020715 -0.17429975
-0.043467563 -0.063364014 0.07570327 -0.16817082 0.08535568 -0.09680988 -0.16409782 0.36302862
0.012181515 -0.2387621 0.15154693 -0.1411385 0.07867417 0.07011159 -0.060262736 0.023083383
0.0034754104 -0.12046887 -0.047071498 0.2221077 0.10831737 0.11838811 -0.06676674 0.1442907
0.027931258 0.04273296 -0.019116718 -0.14071445 0.080022246 0.031553175 -0.21254316 -0.22078598
-0.13532656 0.13441898 -0.018421132 -0.09216034 0.13382876 -0.046264857 -0.18132876 0.113296814
-0.031285375 0.19017488 0.24350125 -0.16586114 -0.03191479 -0.009525662 0.041980676 -0.21326588
0.06305195 -0.0740987 -0.11461605 -0.17940708 0.073499106 -0.093245156 -0.027838886 -0.03512687
0.2295418 0.025493048 -0.064049795 -0.09430367 -0.10106209 -0.054442648 0.13924876 0.06865018
0.109492406 0.07553272 0.03487574 0.11097246 0.035152372 0.0766557 -0.03902304 -0.04874538
0.021719538 -0.043550536 0.09871709 0.2164147 0.3457263 0.044845358 -0.18006559 0.09094048
-0.026356148 0.1325154 0.045027833 -0.20978284 0.13644843 -0.05705435 0.21508262 0.040440757
-0.06609337 -0.042172708 -0.13902864 -0.030071422 0.12805009 -0.06023824 0.14425497 -0.31852165
0.09145958 -0.06678553 -0.15319306 0.12480471 0.117644444 0.060795277 -0.19507115 -0.009973406
-0.16819203 0.15539786 0.15156804 0.15057036 -0.17943199 0.16881472 0.048102885 -0.2730251
-0.08808584 -0.15162326 0.056360036 0.16768834 -0.020162301 0.10551959 0.021124713 0.14314672
0.097259805 0.09595007 -0.009824255 0.10493191 0.064645305 0.061151363 0.13449408 0.030883012
0.026785444 0.10953833 -0.004587396 0.18206239 -0.026474439 -0.3828522 -0.2396986 -0.042924624
-0.1430021 0.08792173 0.0033441053 -0.09759399 -0.08560303 0.06690758 -0.06462806 0.10307509
-0.08611884 -0.092818 0.024672154 -0.10578024 0.1197109 0.038170762 0.204926 0.042401783
-0.020253185 -0.21063623 -0.17543846 -0.021948637 -0.19792236 -0.33729953 -0.09945378 -0.3010383
-0.11850383 -0.13521327 -0.12750527 0.01763917 -0.03128823 0.039967585 -0.14406884 -0.04139624
0.22237211 -0.14787877 -0.055021316 -0.13275532 0.06602487 -0.1325784 -0.058875035 0.055498067
-0.016733011 0.023121046 -0.14438464 0.16034345 -0.10312147 0.049313247 0.16803074 0.11362071
0.022195196 -0.10819863 -0.017988108 -0.028473563 -0.27041855 -0.057552263 -0.18899818 -0.0905025

actor.fc_mu.weight f4 [2, 65]
00000000: 29cf 1fbc b064 8a3c 45fa 02bc a1a6 963b
00000010: 4ce6 25bd 04e4 903c d4f6 0f3c 7d58 abba
00000020: 4a97 a93a 797f 8b3b 5aee 0a3c a906 17bd
00000030: 541b 33bc 44fd 9ebb 156d 62bd f347 8abb
00000040: 3267 3bbb 09bf 1dbb 77c5 663d a94c e63b
00000050: 83b7 31bc 112f b7bb abce fc3b 0501 9d3c
00000060: 9044 b93a 024e 913b cc1f e8bc 1884 01bd
00000070: 2141 ec3a f03c 16bc 8f21 283a 348f 88ba
00000080: 34f7 53bb 4829 5d3b bcbd 6a3a c05c ed3c
00000090: 2515 24bb e830 32bd cd56 dcba e8fe 3a3c
000000a0: 3c94 6fbc cf6f 9f3b 99b6 b6bc 1b89 fbba
000000b0: 6de5 ef3b b33c 91ba b735 b7bb 8d06 93bb
000000c0: 5394 35bb 825d 9a3b 492a ff3a 8b4e 303d
000000d0: 750d f4ba c191 92bc 1a82 a03c b83d 063d
000000e0: dbf8 6abc 8e6a 693b 6f3d b13c 1f51 d5bb
000000f0: 3639 7e3b de28 ddbb 89e9 f3bb 9bcd ce3b
00000100: 1193 83bd 303d de3d 5fc2 ce3c 0ff5 18be
00000110: c5b0 ecbb 8b17 153e 1afd 213c e22f a9ba
00000120: 5f0a 5a3b c0bc b53a 2d41 6e3c a08c fe3b
00000130: 97a1 7c3d 3597 8c3d 621d 0eba b95b 5ebe
00000140: 4be3 df39 accb 803a 8c57 e63a 0e47 093d
00000150: 71a0 c93b 7e82 dbbb e6fd d9bb ecea e63d
00000160: 6d6b c8bc 2cde 78bb 5843 96bb 034c 93bc
00000170: 2853 53bb 61dd 213a 74df 2b3c 76b1 e3bc
00000180: ca20 0d3a b1cd 59bc b06c 1a3c b49f 8aba
00000190: 2a97 ed3d c9c3 3c3b 179e e93d f49e 91bb
000001a0: e3c7 413b b545 deba ea0a dcbc 6037 efbc
000001b0: fac8 3c3c 63d1 a7bc eef2 843b 6730 b6bb
000001c0: e9e5 63ba 01f7 b7ba b324 63bb c95f 303a
000001d0: b287 d53b 679e d639 fe71 e13d 2313 a2bb
000001e0: b199 29be 3648 f5b9 b625 3dbb e7ee 35bc
000001f0: 0a03 b23b 38ff 363b dd72 85ba 0268 23bc
00000200: af64 ddbb c844 62be
-0.009753981 0.016893715 -0.007994239 0.0045975004 -0.04050283 0.017686851 0.008786876 -0.0013072636
0.0012938764 0.0042571393 0.008479679 -0.036871586 -0.0109318085 -0.004851969 -0.05527981 -0.004220003
-0.0028595445 -0.0024070165 0.05634066 0.0070281816 -0.010846975 -0.0055903275 0.0077150664 0.019165525
0.0014134813 0.004434348 -0.028335474 -0.031620115 0.0018024781 -0.009169802 0.0006413692 -0.0010418654
-0.003234339 0.003374653 0.0008954664 0.02897489 -0.0025037017 -0.043503672 -0.0016810537 0.011413313
-0.014622744 0.0048656235 -0.022303866 -0.0019190641 0.007321051 -0.0011080712 -0.00559112 -0.004486865
-0.0027706816 0.004710854 0.0019467558 0.043043654 -0.0018619733 -0.017891767 0.019593287 0.032773703
-0.014341558 0.003561649 0.02163574 -0.0065099145 0.0038791425 -0.0067492565 -0.007443611 0.006311131
-0.06424535 0.10851514 0.025239168 -0.14937232 -0.007223221 0.14559762 0.009887004 -0.0012907947
0.0033270342 0.0013865456 0.014541906 0.0077682287 0.06167754 0.06864778 -0.00054212485 -0.21714677
0.0004270322 0.0009826324 0.0017573698 0.03351503 0.0061531593 -0.0066989055 -0.0066525815 0.112752765
-0.024465287 -0.0037974222 -0.0045856647 -0.017980581 -0.003224561 0.00061746506 0.010490287 -0.02779458
0.0005383609 -0.01329367 0.009425327 -0.001057616 0.11601098 0.002880322 0.11407106 -0.0044439975
0.0029568605 -0.001695803 -0.026860673 -0.02920121 0.011522526 -0.020485586 0.00405728 -0.005559969
-0.0008693622 -0.0014035405 -0.0034659326 0.000672814 0.0065164203 0.0004093528 0.110080704 -0.004946129
-0.16562535 -0.00046783843 -0.0028861589 -0.011104322 0.005432491 0.0027923118 -0.0010181327 -0.009973528
-0.006756387 -0.2209655

actor.fc_mu.bias f4 [2]
00000000: fc1c edbd 97a5 30be
-0.11577794 -0.17250668

critic.conv1.bias f4 [64]
00000000: aa78 58bd bec8 e43d a9f8 ff3d 1843 42bd
00000010: 5203 1cbc 62ea 82bd 19d0 df3d 53fa 57bd
00000020: 63b4 31bd ea7e 163d 0000 0000 15ff 143d
00000030: 0000 0000 0000 0000 1c9a 0e3e f8e1 e83d
00000040: 154d f63d 42ee e33d 65d1 fb3d 2261 ed3d
00000050: 1cbf e93d 0000 0000 2004 d33d 0000 0000
00000060: 74be d73d 48b8 23bd 0000 0000 2e61 35bd
00000070: 0000 0000 a50b 1abc 0000 0000 3f2c c93d
00000080: 0000 0000 02e5 e53d 14f4 013e c1f5 803c
00000090: 4827 e13d 3292 af3d dace 4abd ccb8 f33d
000000a0: 0000 0000 9f70 db3c 40c7 debc 69fa b83a
000000b0: 20c4 d83d e00a e73d c7b3 4bbd 5344 97bc
000000c0: afe3 41bd 7b8f c13d 6551 7dbc 1462 41bd
000000d0: c5e2 b0bc 0000 0000 6846 dd3d 96cf 56bc
000000e0: 0000 0000 ba8f d53d 0000 0000 0000 0000
000000f0: 0000 0000 eb53 b5bd 88fe 4dbd 8a8c bd3d
-0.05284945 0.11171101 0.124986 -0.047427267 -0.009522276 -0.06392361 0.10928363 -0.052728962
-0.04338492 0.03674213 0.0 0.036376078 0.0 0.0 0.13925976 0.11371225
0.12026421 0.111294284 0.12295798 0.11590792 0.11413404 0.0 0.10303521 0.0
0.10534373 -0.039970666 0.0 -0.04428213 0.0 -0.00940219 0.0 0.098228924
0.0 0.112253204 0.12690765 0.015742185 0.109938204 0.085728064 -0.049513675 0.119004816
0.0 0.0267871 -0.02719462 0.0014112714 0.10584283 0.11281371 -0.049731996 -0.018465197
-0.047336277 0.09451195 -0.0154613005 -0.047212675 -0.021592507 0.0 0.108044446 -0.013111016
0.0 0.10427804 0.0 0.0 0.0 -0.08853897 -0.050291568 0.09255321

critic.conv1.lin.weight f4 [64, 2]
00000000: 34b5 733e 3439 6d3e bf44 6c3e 2ecb 06be
00000010: def7 7a3e 5adb 113c 048d 683e 8fea 4a3e
00000020: 1b32 8cbd 67bb af3b e93b b53e 1cfe 0a3e
00000030: b539 953d 89c2 243d 6df1 843e 2db2 5e3e
00000040: a179 503e c853 3a3e dd62 a2bc 8ef0 ac3e
00000050: 34d0 02bd b726 22be 7bfe 833d 534f 9cbe
00000060: 51c1 dbbd e0f6 a3bd efac 85bb 7c29 cbbd
00000070: 9460 ba3c 39a7 1f3d 46d4 bf3d 637d b9bd
00000080: bea5 363e 11ac 9dbd 6bb4 4bbe 864a 7b3d
00000090: 5828 333e 451c d1bd 1a0e 5f3d 7fb1 193d
000000a0: 6d85 b9bd 70ce 673e 790d ecbd 03ac eabc
000000b0: a6ce 0a3e c70a 90bd 0206 8ebe e56c 15be
000000c0: c332 b939 19c2 743d 357b 113e 7ea5 593e
000000d0: 4359 c7bd 1c3c a2bd 34e1 3f3e f9f6 473e
000000e0: d379 c8bd e4ae d6bd 1911 003c c1fd f9bd
000000f0: 5726 60be d637 4cbd c83f 213e f0a0 f93d
00000100: 3111 e8bd 211c 41be 6d38 963e bbc4 7cbc
00000110: 0c57 933e fea4 253d af4e b2be 54db f13d
00000120: a57e 1e3d a650 443a 3192 69be 81ce 023e
00000130: 5a89 613e 38e3 5a3e 2859 393e 436e b93d
00000140: 8a99 eebc 64b4 c9bc 8e00 a53d 4d04 c7be
00000150: bc3c 2bbe e94d 8e3e 000d ca3e 89d9 d6bc
00000160: 839e 883e b3a8 213d 723a b33a 61cf 203d
00000170: 5ddc 723e f31d 5e3e b210 c53e 3a28 b0be
00000180: d51c 693e d6ef 4a3e 7a88 183d 7c74 a83e
00000190: deb4 bd3e 524e bdbe 9ba0 533e 0451 653e
000001a0: b764 75be 562e 4e3e 461e 3abe e9cd d9bd
000001b0: 93fe 85bd b88a b0bb 9940 03be 2b19 3d3e
000001c0: cb0a 08be 2ca7 04bd 231f 043f 5634 fdbd
000001d0: dfcb 08be a0a7 99bd 8cd5 66be ca18 14be
000001e0: f256 0fbe c27f a2be 378a c43e 70e3 db3e
000001f0: 8bad 603e 665b 633e 72df 86bd acfd 6eba
0.23799592 0.23166353 0.230731 -0.13163444 0.24508616 0.008902395 0.22710043 0.1981604
-0.06845494 0.0053629163 0.3539727 0.13573498 0.07286397 0.040224586 0.25965443 0.21747656
0.20358898 0.18196023 -0.019822532 0.3377728 -0.03193684 -0.15835081 0.06445023 -0.3052927
-0.107302316 -0.08006072 -0.004079453 -0.09920022 0.02275113 0.038977835 0.0936666 -0.09057119
0.17836663 -0.07698835 -0.19893043 0.061350368 0.17495859 -0.1021047 0.054456808 0.03752279
-0.09058652 0.22637343 -0.11526007 -0.028646475 0.13555393 -0.070333056 -0.2773896 -0.14592321
0.0003532377 0.05975542 0.14207156 0.21254537 -0.09733822 -0.07921621 0.18738252 0.19527806
-0.09788861 -0.104825765 0.007816576 -0.12206603 -0.21889625 -0.049857937 0.15746987 0.121888995
-0.11331404 -0.18858387 0.29339924 -0.015427764 0.2877735 0.040440552 -0.34825656 0.11809412
0.038694996 0.0007488824 -0.22809674 0.12774087 0.22025052 0.2137574 0.18100417 0.09054234
-0.029125948 -0.02462215 0.080567464 -0.3887047 -0.16722387 0.27793816 0.39463043 -0.026226776
0.26683435 0.039467525 0.0013674034 0.039260272 0.23716874 0.21691112 0.384893 -0.3440569
0.22764905 0.19818053 0.03723953 0.3290137 0.37052053 -0.36973816 0.20666735 0.22394186
-0.23964201 0.20134863 -0.18175611 -0.10634977 -0.06542697 -0.0053876303 -0.12817611 0.18466632
-0.13285367 -0.03238599 0.5161001 -0.12363498 -0.1335902 -0.07502675 -0.22542399 -0.14462581
-0.13998011 -0.31738096 0.383867 0.4294696 0.21941201 0.22202834 -0.065855876 -0.00091167795

critic.conv2.bias f4 [64]
00000000: 98fd 7abc 0000 0000 a57b d23d 23f2 aabc
00000010: 4417 8a3d 2055 80bc b254 08bd 4be1 7abc
00000020: c937 3b3e 7e1b b6bb b0d6 f53d b4f9 17bd
00000030: aac3 93bc ac43 75bc 0000 0000 7744 d0bd
00000040: ee1c b6bb cbd4 be3d 49d5 553d 0000 0000
00000050: 0e80 a2bc 26ba e93d f31f d0bb 5840 5bbc
00000060: c535 0e3e fca0 0fbd aaf7 7f3e 2919 513d
00000070: fc08 afbb b124 b9bc d25a 803e 8fe0 30bc
00000080: 9065 df3d 8dde d33d 0000 0000 6d3b 47bd
00000090: 0000 0000 2303 6dbc e788 90bc 7f6f 44bb
000000a0: 5211 47bc fa04 70bc 0000 0000 f64d 0c3e
000000b0: 5ed0 91bd 7dec 81bc b29e d4bb 3aea fabc
000000c0: e205 31bb 5acd dd3d 290e 34bc ae5e 353e
000000d0: 7017 fe3d 6fb8 093d 5f05 cb3e 9ac9 f13d
000000e0: 4f76 de3d b904 e83d 0000 0000 8d20 e43d
000000f0: 0000 0000 bd63 38bd 0000 0000 ab0a e53d
-0.0153192505 0.0 0.102774896 -0.020867413 0.06742719 -0.01566559 -0.033283897 -0.015312503
0.18282999 -0.0055574765 0.12003839 -0.03710337 -0.018037636 -0.0149697475 0.0 -0.10169309
-0.005557648 0.09317931 0.052205358 0.0 -0.019836452 0.11412458 -0.006351465 -0.01338204
0.13887699 -0.035065636 0.2499682 0.051049385 -0.005341647 -0.022600504 0.2506929 -0.010795726
0.109080434 0.103451826 0.0 -0.048640657 0.0 -0.01446608 -0.017643405 -0.0029973683
-0.012150126 -0.014649624 0.0 0.13701615 -0.07119821 -0.015859837 -0.0064886445 -0.030629266
-0.0027011563 0.10830183 -0.010989704 0.17711899 0.12406814 0.033623155 0.39652535 0.118060306
0.10862409 0.11329026 0.0 0.11139021 0.0 -0.045016993 0.0 0.111836754

critic.conv2.lin.weight f4 [64, 64]
00000000: f5bd 0ebe 2fd4 0fbe de6a a33d cfe0 8f3c
00000010: aae2 1fbe 8157 f83b 991f f83b 51fe 773d
00000020: 8e05 d63c 61df 12be 6a82 603e 9312 b13d
00000030: cc48 c13d 9e60 d2bd 6e8a 29bc f224 c53d
00000040: 547c 69be bff9 3d3e 4709 9cbe 4e7d 24be
00000050: fbb6 e63d b104 ef3d c17f 8ebd 5288 123c
00000060: a346 47bb ad35 f7bc d262 96bd 3657 33bd
00000070: 972e 0cbe 2641 cfbd c97e 673e 6dc1 11be
00000080: b543 7e3c 0ad9 8f3e 81b6 33bd f091 04be
00000090: 31a0 84bd 276f a7bd 3ba4 713d 8fc2 f4bc
000000a0: cb9e 6a3e 747e 31bc 7efa 843d 9b1f 33be
000000b0: 259a ce3d ed94 b03d e080 3d3e ee1b b63d
000000c0: 1c2d 133e f074 a83d a496 36bd 38da 123e
000000d0: c2e7 e53d c64d 173b 3ce1 16be 3047 dbbd
000000e0: 1a10 2a3d 1185 86be dde9 af3d d024 8239
000000f0: 0b7b 6a3d cb36 d7bd 4941 38bc 9389 363e
00000100: d7a8 20be 8034 7b3c 7381 c0bc 0432 36be
00000110: b589 77be fd58 c83c 2062 523a 4f39 a53d
00000120: cbdb 55bd fa1b 823d e112 9bbc 1342 78bc
00000130: 7e84 723e e1e3 74bd 2e5c 0cbe 0e29 6c3d
00000140: 5647 823e 60eb e5bd 68eb c6bb 8e0e ac3d
00000150: dbf4 af3e 9a2f 1abe d90b df3d a411 e33d
00000160: 557d 90bd 9ed5 0abe 9d4b d13c 7b62 21be
00000170: f7b5 133d 4037 373e 605a e83c 8c93 c8bd
00000180: ea53 f4bd ecb4 9dbd d3f0 91be c8ab cd3d
00000190: d092 37bd acc8 8a3d b001 e13c f108 99bd
000001a0: 50a0 cb3c dd5a d5bd 12ca 8ebc dc76 1bbe
000001b0: 09f2 023e dae2 c6bd 09ff 11bd eb63 0b3d
000001c0: 510b 8b3d c24a edbd 3420 bc3d e3a7 12be
000001d0: f864 68be c2f5 1dbe 6c94 37bd 703b c3bd
000001e0: f753 983d 64a6 5ebe 22bf a93d 7b71 4dbe
000001f0: 9460 a83c ac62 af3d 7551 e3bc 039d 05be
00000200: b99a 2b3d b180 d0bd 9c8b 29be 8c1b b33a
00000210: 9365 07bd 22d5 db3b 8650 643d 7bce 9d3c
00000220: 1186 df3b d4a3 35be 0300 163e b546 473c
00000230: 52cb cdbd 3a19 cb3d 7de2 803e cdfc 4f3d
00000240: c890 593d dfb0 903d 7040 873e 1914 bd3c
00000250: c556 8f3c 6ab0 2cbd 1cde 933d 5d39 8d3d
00000260: 6fe0 903d 5204 2bbe faf4 2c3e 9e39 8dbd
00000270: 4eb2 4a3d 8611 47be ff28 91be 619b 03be
00000280: 7064 c43c 6731 02bd dd34 dcbd 682f ae3d
00000290: c440 2f3d 038b fc3c 9c10 083e 8d11 6dbd
000002a0: c650 62be 38d9 d93d a62c ab3e 2d57 8fbd
000002b0: c690 3e3e c5bf 08bd 30ad 413e a24e 973e
000002c0: 5c6a 87be 00c4 e6bd d136 0a3e 38eb 4f3e
000002d0: db4c bf3e abe3 ac3d ec2d f33d c652 58be
000002e0: 2e81 bb3b 2f2b fb3c 29f2 be3c fc0c 72be
000002f0: 35ae 873e 92ac a43d bbed 60bd 2021 3f3e
00000300: 9084 60bd 6823 faba 5044 ad3c e24d d5bd
00000310: 4fe8 3cbe b1c7 403e 4459 28be 0428 4dbe
00000320: 52fd f7bc 686b 6a3d fabe 533d 09c9 713e
00000330: f2a0 713d dba5 03be fa93 91be 50df 483d
00000340: b4c1 1e3e ff5e 2dbe 2e2c 2a3e 2756 10be
00000350: 1a1a 683d 0b36 17be ea8b 05be d1ce 2cbe
00000360: 70d3 6cbd 06d0 60be 2c84 153e 927c a0bd
00000370: 72c7 083e b137 56be 7593 36be fc7f 97bd
00000380: 4234 2cbd d178 0a3e 944d d03e 6eca 4dbd
00000390: e468 2a3c b614 59bd ff2e 2b3e 1be9 1b3e
000003a0: da75 433d 5322 74bd 42d8 d93d 4a42 363d
000003b0: 413e 58be 2a68 7a3c ac29 fc3d a906 4fbe
000003c0: 1385 653d ec1a c4bd ce5e c2bd abfa 49be
000003d0: a21f 823c 04c3 773e 5206 13be dd5c 43bd
000003e0: d66b 02be 55af 913d 1b3c 15be 2553 ba3d
000003f0: 633f 6d3d 282e fabb a278 2a3d ed7c 26bd
-0.1393965 -0.14045785 0.07979368 0.017563252 -0.15613809 0.0075787907 0.007572126 0.06054527
0.026125696 -0.14343025 0.21924749 0.08646121 0.09437713 -0.102723345 -0.010347946 0.096261874
-0.22801334 0.18552302 -0.30475828 -0.16063425 0.112653695 0.11670817 -0.06957961 0.008943634
-0.0030407093 -0.030176962 -0.07343067 -0.043784343 -0.13689648 -0.10119848 0.22606958 -0.14233942
0.015519072 0.28095275 -0.04387522 -0.12946296 -0.064758666 -0.081754975 0.058994513 -0.029877929
0.22912137 -0.010833371 0.0649309 -0.17492525 0.100879945 0.08622155 0.18506193 0.08892046
0.14372677 0.08225429 -0.044577256 0.14341056 0.11225845 0.0023087128 -0.14734358 -0.10706937
0.041519262 -0.26273397 0.08589528 0.0002482296 0.05724625 -0.10508498 -0.011246034 0.17825918
-0.15689407 0.015332341 -0.023499226 -0.17792517 -0.24173625 0.024456495 0.0008025486 0.08067571
-0.052211564 0.06352992 -0.0189299 -0.015152472 0.23683354 -0.059787635 -0.13707039 0.05765634
0.2544505 -0.11226535 -0.006070543 0.084012136 0.34366497 -0.15057221 0.10890932 0.11087349
-0.07055155 -0.13558051 0.02554875 -0.15760224 0.036062207 0.1789217 0.028363407 -0.09793767
-0.11930068 -0.07700524 -0.28504047 0.1004253 -0.044817746 0.067765564 0.027466625 -0.074724086
0.024856716 -0.104177214 -0.017430339 -0.1518206 0.12787642 -0.09711237 -0.03564361 0.034030836
0.06789268 -0.115865245 0.0918583 -0.14321856 -0.22694767 -0.1542578 -0.04481928 -0.09532821
0.0743789 -0.2174316 0.08288409 -0.2006282 0.020553865 0.08563742 -0.027748803 -0.13048176
0.041895602 -0.10180796 -0.16557163 0.0013664826 -0.033055853 0.006708757 0.055740856 0.019263497
0.006821402 -0.17738277 0.14648442 0.012162854 -0.10048546 0.09916921 0.25172797 0.0507782
0.05311659 0.070649855 0.2641635 0.023080872 0.01749743 -0.04216043 0.072200984 0.06895707
0.07074057 -0.16700867 0.16890326 -0.06895755 0.04948645 -0.19440278 -0.2835159 -0.12852241
0.023973674 -0.031785395 -0.1075227 0.08505136 0.042786375 0.030828005 0.13287586 -0.057878066
-0.22101125 0.10637134 0.33432502 -0.06999049 0.18609914 -0.03338601 0.18913722 0.2955218
-0.26448333 -0.11267853 0.13497473 0.20304573 0.37363324 0.08441862 0.11873993 -0.21125326
0.0057221865 0.03066024 0.02330883 -0.23637766 0.26500097 0.08040728 -0.054914217 0.1866498
-0.05481392 -0.0019084038 0.021150738 -0.104152456 -0.18447994 0.18826176 -0.16440302 -0.20034796
-0.03027216 0.057231337 0.0516958 0.23611845 0.05899138 -0.12856238 -0.2843321 0.049041092
0.1550358 -0.1693077 0.16618416 -0.14095365 0.056665517 -0.1476671 -0.13041654 -0.16875769
-0.05781883 -0.21954355 0.14601201 -0.0783626 0.13357332 -0.20919682 -0.17829688 -0.07397458
-0.042042024 0.1352265 0.40684187 -0.05024188 0.010400984 -0.052998267 0.16717146 0.15225641
0.047719814 -0.059603047 0.10636951 0.044496812 -0.21117498 0.015283624 0.12312636 -0.20217384
0.056035113 -0.095754474 -0.09490739 -0.19724528 0.015884224 0.24195486 -0.1435788 -0.047695983
-0.12736449 0.0711352 -0.1457371 0.0909789 0.05792178 -0.007634897 0.04161895 -0.040646482

critic.fc.weight f4 [1, 65]
00000000: 7321 ddb9 f173 f1bb 9da7 e33d b821 023d
00000010: d7c8 063d 8837 a8be 849e 2d3d fbaa c7bd
00000020: 365d 993e 79be b5bd b632 5c3e dbc3 78bd
00000030: 832b 99bd d160 d5be 4647 843e c3ad 34bf
00000040: 25a2 3fbe 4fb1 9b3d 42e9 ec3c fe39 b5bd
00000050: e840 4e3d 0b14 0b3e 90e5 9dbd 41a6 8dbc
00000060: da7c 1b3e 8487 0cbd c063 313f 345a 0a3f
00000070: 7291 0ebe 5528 9bbd 9018 373f 5753 0fbb
00000080: 258d 0f3e d55b f63d aa5e 46bc 0719 bbbb
00000090: bb10 693b 8fdb 61bd c5ab 80bd 5347 0ebb
000000a0: 2be9 de3d eafa a3be 3e12 633e 6b8a e13e
000000b0: 4b9c 91be 8577 38be 65b3 dcbe ab6f f3bb
000000c0: 7b24 64bb 6d67 a33d b3e1 bdbe bb32 093f
000000d0: 48ea 923e dded 073b e3f2 e03e fb67 543e
000000e0: e764 053e 301a 7a3e 3e47 7cbc 7d66 af3d
000000f0: dc68 32be 7095 0cbe 11fd 063e fcdf 083e
00000100: 6769 75c0
-0.00042177326 -0.0073685576 0.11115954 0.031770438 0.03290638 -0.32854867 0.0423875 -0.09749409
0.29953927 -0.088742204 0.2150372 -0.060733657 -0.07479002 -0.41675428 0.25835627 -0.7057764
-0.18714197 0.07602178 0.02891982 -0.08848952 0.05035487 0.13581865 -0.07709801 -0.01729119
0.15184346 -0.034308925 0.6929283 0.5404389 -0.1392267 -0.07576052 0.71521854 -0.0021869743
0.14018686 0.12029234 -0.012107531 -0.0057097706 0.003556295 -0.055141028 -0.062827624 -0.0021709993
0.10884317 -0.3202737 0.22174928 0.44050917 -0.28439555 -0.18014343 -0.43105617 -0.0074290833
-0.0034811783 0.07978711 -0.37086257 0.53593034 0.28694367 0.0020741143 0.43935308 0.2074279
0.13026772 0.24424052 -0.015397845 0.0856447 -0.17422813 -0.13728881 0.13182475 0.13366693
-3.8345582

_actor_critic.actor.sigma_param f4 [2, 1]
00000000: ef1e 65be 5413 fbbf
-0.22375081 -1.9615273

_actor_critic.actor.conv1.bias f4 [64]
00000000: 31bd 15bd d269 1cbc d1a1 0abe 0000 0000
00000010: 0000 0000 32db cf3b 0f29 29be 4d29 89bd
00000020: 0000 0000 0000 0000 47ac a4bb 1779 0abc
00000030: 8d31 043e 0000 0000 0000 0000 7f32 19bd
00000040: ffbb 23be 6989 33be 2eeb 13bc 930f a6bd
00000050: e343 48bc 0000 0000 3bfa 483e 0000 0000
00000060: 0000 0000 d7c2 f4bd ce3e 7abd fe11 87bd
00000070: 8462 ebbd 3572 17be 7a0a 00bd 2680 26be
00000080: 0000 0000 361b 03bd 0000 0000 5d0e 363e
00000090: b501 b4bd 0078 0bbe 7b87 b8bd 0000 0000
000000a0: 48f9 4dbd c259 1dbe 87b8 76bd 6c0e 43bd
000000b0: 0000 0000 0000 0000 5130 d9bc 7cc6 f2bd
000000c0: 0b10 5ebc 1e6e 2abc 020f 1ebe 0000 0000
000000d0: 29c2 bdbc 0000 0000 82d7 e2bd d8f1 d4bd
000000e0: e302 88bc 195c afbd 0000 0000 5ac8 4bbd
000000f0: 9d90 60bd 761f c03d db44 6ebd 3393 80bd
-0.03655738 -0.009546714 -0.1353829 0.0 0.0 0.006343269 -0.16519569 -0.066973306
0.0 0.0 -0.00502542 -0.008451722 0.12909527 0.0 0.0 -0.037401672
-0.15989684 -0.17532887 -0.009028239 -0.08108439 -0.012223217 0.0 0.19626705 0.0
0.0 -0.11951225 -0.06109505 -0.065952286 -0.114934 -0.1478966 -0.03125999 -0.16259822
0.0 -0.032008372 0.0 0.17778917 -0.08789388 -0.13619995 -0.09010216 0.0
-0.05028656 -0.15366271 -0.060234573 -0.047621176 0.0 0.0 -0.026512297 -0.11854264
-0.01355363 -0.010402231 -0.15435413 0.0 -0.023163872 0.0 -0.11076261 -0.103976905
-0.016602939 -0.08562488 0.0 -0.049751617 -0.054825414 0.09381001 -0.058171134 -0.06278076

_actor_critic.actor.conv1.lin.weight f4 [64, 2]
00000000: c5d1 ef3c 519a 08bd a8d6 913b 4c98 f2bd
00000010: 29d4 62bc a503 173e 05f6 93be bc37 75bd
00000020: 1bb7 89bb a765 87bd c444 0ebd dde6 533e
00000030: c696 a33d f032 983e 9374 39b9 a58e 883d
00000040: 5ec6 fbbd 658b 48be b9ab 03be 36a5 19bd
00000050: 00df dbbc 0c9e a43b ddbc aabd 65e2 e0ba
00000060: 6247 613e 7707 2f3e 51a4 8fbd 72fb ffbb
00000070: d6f6 efbc ac91 16bc 35ea 08bd 0d5f b43c
00000080: ed80 053e 013f 383e ebb0 9c3d bb12 4a3e
00000090: f7ea c73b ed47 e5bd f038 a43d 15a8 643a
000000a0: b665 87bc b039 2d3e 57a9 4dbe ce87 2cbe
000000b0: 72b9 30be fd9d 923e e944 cebd e6a8 11bd
000000c0: a9a7 a7bd 8df0 9abd e8ac ad3b 0685 e83d
000000d0: 148b b5bd c7a5 763d 7754 10be b475 6e3e
000000e0: 30e6 49bd c46f 5a3e 2631 01bb 337f 173e
000000f0: 6e2f df3c 2f7b eabd 35c8 d53d 567e 343e
00000100: af86 68bb 76fb 9abd 523a 80bd 3f26 fc3c
00000110: c2c5 82be 2e51 37be 5196 4b3e 8e34 8d3d
00000120: 0670 753d 823a e33c f7f0 d0bd 4806 3a3e
00000130: ac5a 983e 9d7b 653e a61d efbd 8be8 8dbd
00000140: f4d4 033d 581a 01bd 4b60 16bd 394c 253e
00000150: 5e59 a0bd 3784 003e 6b27 da3c dd45 96bd
00000160: 95c6 edbd f2dd 10bd 847b 7dbd 99be 1ebe
00000170: e12d f6bd a4da 263c bc46 bfbc 867a 013e
00000180: 86be bb3b d249 26bb 467f 06b9 c640 293c
00000190: 8bee 273e 5699 aabe 6353 90bc e874 89bd
000001a0: cac5 823e 9a91 74bd 1d92 3dbe 6914 90ba
000001b0: b9d5 31bc c208 f83d 2e74 5fbd 2fdc e23d
000001c0: 2296 6a3c 4ada bfbc 0983 d83d 0bb8 803e
000001d0: 729d e0bd da4a 99bd ae1c 203d a993 c9be
000001e0: c772 603d c540 34be 5d21 13be d310 a23e
000001f0: 5efa 833e a368 8fbd 545e 673d f263 4abd
0.02927483 -0.033350293 0.004450638 -0.118454546 -0.013844528 0.14747484 -0.28898636 -0.059867606
-0.004202736 -0.066111855 -0.03473355 0.20693536 0.07987742 0.29726362 -0.00017686402 0.06667832
-0.12293695 -0.19584425 -0.12858476 -0.037511073 -0.026839733 0.0050237235 -0.08336804 -0.0017157315
0.21999887 0.17092691 -0.07013763 -0.007811957 -0.029292505 -0.009190004 -0.033426482 0.02201798
0.13037463 0.17992784 0.07650932 0.19733708 0.006101008 -0.111953594 0.080186725 0.0008722556
-0.016527992 0.16916537 -0.2008413 -0.1684868 -0.17258242 0.2863616 -0.10071737 -0.035561465
-0.081862755 -0.07565413 0.005300153 0.11353497 -0.08864418 0.06021669 -0.14094721 0.23287088
-0.04929179 0.21331698 -0.0019713133 0.14794616 0.027244296 -0.11449277 0.10438577 0.17626318
-0.0035480668 -0.075674936 -0.06261124 0.030779956 -0.25541502 -0.17902061 0.1988156 0.0689479
0.059921287 0.02773786 -0.102022104 0.18166459 0.29756677 0.22410436 -0.11675577 -0.0692912
0.03218551 -0.031519264 -0.036712926 0.16142358 -0.078295454 0.12550436 0.026630124 -0.07337544
-0.11610142 -0.035367914 -0.06188537 -0.15502395 -0.120204695 0.010183964 -0.023349158 0.12644395
0.0057294993 -0.002537359 -0.00012826649 0.010330385 0.1639959 -0.3332011 -0.017617887 -0.06711751
0.25541526 -0.05970917 -0.18512769 -0.0010992411 -0.010854178 0.121110454 -0.054554157 0.11077153
0.014318021 -0.023419518 0.10571868 0.25140414 -0.1096753 -0.0748498 0.03908985 -0.39370468
0.05479696 -0.17602833 -0.14368196 0.3165346 0.25776953 -0.0700238 0.056486443 -0.04941172

_actor_critic.actor.conv2.bias f4 [64]
00000000: 75b9 95bd 759a 39bd bd19 e13d f1b5 11bd
00000010: a1da f8bd 42c0 2abd 5785 32bc 4135 09bc
00000020: 8b37 45bc a579 ebbc 83a6 16bd 6215 99bd
00000030: fc72 74bd 726a ecbc e0c8 1b3e 4108 86bc
00000040: 34e6 92bc 0000 0000 dff2 98bd 1d63 bcbc
00000050: 7420 e9bb 1e09 3dbc 7e26 02be 6921 c0bc
00000060: c088 b7bb cb5c 16bd 10e3 c4bc 30bf 52bd
00000070: 7f91 b3bb e2e9 0dbd 8147 34bc 8135 4bbc
00000080: 984a d9bc 6a6c 01bd 03dc 54bd d373 1abe
00000090: 026c c4bc b0e5 b7bd 8a64 adbc 6091 4bbd
000000a0: 91d4 13bd 31d1 6abd aa41 2bbd efa3 f7bc
000000b0: 9f13 b0bb 482f cbbc 4197 23bc 0600 05bd
000000c0: 5fdc f1bb 0053 8cbb 8d90 a2bd c9e1 88bd
000000d0: a0d9 01bd f4e4 00be 6dd7 a3bd d6a4 ed3d
000000e0: 39c0 43bd ae70 c4bb 9434 44bc 1355 73bd
000000f0: be9a 8ebc f6b9 fcbc a04e 2abd 57a2 3fbd
-0.07310764 -0.045313317 0.10991237 -0.035573903 -0.12151075 -0.041687258 -0.0108960485 -0.008374513
-0.012037168 -0.028744528 -0.03677989 -0.074747816 -0.05967997 -0.02885935 0.15213346 -0.016361358
-0.017932035 0.0 -0.07468199 -0.02299648 -0.0071144644 -0.011537818 -0.12709996 -0.023453431
-0.0056010187 -0.036709588 -0.024034053 -0.05145186 -0.005479991 -0.034646876 -0.011003376 -0.012402893
-0.026524827 -0.031597532 -0.051967632 -0.15083246 -0.023977283 -0.08979356 -0.021166105 -0.049699187
-0.03609139 -0.057328407 -0.04181067 -0.030229537 -0.0053734328 -0.024802819 -0.009984792 -0.032470725
-0.0073810066 -0.0042823553 -0.07937727 -0.0668369 -0.031701684 -0.12587339 -0.080000736 0.116037056
-0.04779074 -0.005994878 -0.011975426 -0.059407305 -0.017407771 -0.030850392 -0.04157889 -0.04678568

_actor_critic.actor.conv2.lin.weight f4 [64, 64]
00000000: b798 813c 728f 14bd 1712 a2bd b0df a3bc
00000010: 9ade 49bd 1c58 c4bd 5eb5 f43c 3c98 003e
00000020: b466 2c3e 3862 adbd d9e8 123e b400 95bd
00000030: de1d db3b 1810 4bbe 2044 24bd 2234 17bd
00000040: 4183 563e f019 ac3e 6b0d ec3d c49c ff3c
00000050: 38b4 613d 8fba 38be d139 c6be c542 aa3d
00000060: 617b 72be 7fb6 2c3d 47ec f03c 0ade 43bd
00000070: 60ee 823e 4cda 0d3d 6a9b 883d f12b 243e
00000080: 3a6c fd3d 2595 8e3d 9781 08be af20 9cbe
00000090: ae70 0a3e 10c5 e13c 0885 2e3e 1d4d 21be
000000a0: bf7c a2bc 25a8 23be 6993 8fbc 5b32 13bd
000000b0: b72c 60bd 4d41 473d 8fea 70be 1057 813e
000000c0: 8d78 80bd fe65 57ba 82e7 d1bd 2688 88bd
000000d0: e95a e9bd 5f2b cdbc e78a 853c 5c5f b63c
000000e0: 0b18 c93d 2f08 4f3e 2fd3 8c3d 25be 193d
000000f0: f7be 90be 2ef1 333e 0655 05be a27b 32be
00000100: 0b0b 32bd fec4 81bd 510a 9b3d f934 2cbe
00000110: f5ce ae3d 4244 c6bd 4209 28be e3de b93e
00000120: fa94 473c 0d7e 74be 1e2f 1b3e 9c86 10be
00000130: ec1f a13d aa96 8f3d 0fd6 76bd 5d19 bd3c
00000140: b6c3 633b 62b8 f6bd 0bce 40bd 3370 633e
00000150: 7fd5 dd3d 7775 f23d 00bd 88bd f1c0 133e
00000160: 18d0 e43c c208 2f3d aa9a 9cbc 7317 10be
00000170: b4e2 a33d e73d 013d eaa4 59be b815 62be
00000180: 0c93 0abe 21a5 093e eae7 96bc 8fbe bcbd
00000190: 680a 093e 3880 3dbd 3fae 39be 2908 e83d
000001a0: 1825 00bd 34bd 423e 6458 793e 81d7 29be
000001b0: 15b9 02bd 8611 1cbc eef3 2b3d 5f62 5abe
000001c0: 6121 813d 0fc1 97bd d2bb eabd 7db6 37be
000001d0: b386 963d 51f7 bebd 600e e4bc 31e1 0fbd
000001e0: 010d 6b3e ccd6 d03c 8a2c 83bd 4822 c1bd
000001f0: a4f9 cebd 41ff 5ebd 3a97 0e3e 7798 8c3d
00000200: 8e3d e03d e6b0 9a3d ddd9 0e3d 8745 e33d
00000210: effb 0f3d aafd 9c3d a0d6 1fbd 3ca9 47bd
00000220: 2ced b13c 0c62 32bd 302c ca3d d19b 5d3e
00000230: 0a03 b13e c4af 373d 1d63 38be 013f ba3d
00000240: d9e8 d7bc 1eb2 073e 1b6f 383d 50d1 56be
00000250: 23b9 0b3e d2b1 69bd 9e3e 5c3e 35a5 253d
00000260: f65b 87bd 4abd 2cbd 865d 0ebe 5858 f6bc
00000270: 901f 033e 5fbc 76bd 93b7 133e 4515 a3be
00000280: 294f bb3d dac6 88bd a4de 1cbe 9d99 ff3d
00000290: 92ef f03d 7804 793d bbc0 47be 7f67 23bc
000002a0: 883a 2cbe 9e20 1f3e a734 1b3e 1e2f 1a3e
000002b0: 05bd 37be c4dd 2c3e 8807 453d f2c9 8bbe
000002c0: 5966 b4bd 2143 1bbe c8d9 663d 7eb6 2b3e
000002d0: 692b a5bc a81a d83d bc0d ad3c 0e95 123e
000002e0: 2630 c73d 7881 c43d e9f5 20bc 8be6 d63d
000002f0: c264 843d da79 7a3d d1b8 093e 5ffe fc3c
00000300: 266d db3c a255 e03d de51 96bb 906e 3a3e
00000310: ece0 d8bc 3405 c4be 8d73 75be bbd1 2fbd
00000320: 246f 12be 4f10 b43d c728 5b3b 5cdf c7bd
00000330: a450 afbd d706 893d b75b 84bd 0819 d33d
00000340: 135f b0bd 5d17 bebd 421d ca3c 4fa3 d8bd
00000350: fd2a f53d f258 1c3d 1fd8 513e 7ead 2d3d
00000360: 02ea a5bc 06b1 57be 24a6 33be a1cd b3bc
00000370: 29ac 4abe 86b2 acbe 6cae cbbd b121 9abe
00000380: 23b2 f2bd 5975 0abe be90 02be 0580 903c
00000390: 1628 00bd 0db5 233d c886 13be 1b8f 29bd
000003a0: 84b5 633e 886d 17be 085e 61bd 03f1 07be
000003b0: 0c38 873d a2c2 07be f326 71bd f151 633d
000003c0: ab13 89bc 5968 bd3c 91d9 13be 1331 243e
000003d0: 5931 d3bd b0fc 493d 4010 2c3e fab1 e83d
000003e0: b3d2 b53c 3e97 ddbd cc5b 93bc 6441 e9bc
000003f0: 4d74 8abe ecbb 6bbd bd88 41be 6059 b9bd
0.01581989 -0.036269613 -0.079136066 -0.020004123 -0.049284555 -0.09587118 0.029871639 0.12558073
0.16836053 -0.08465999 0.14346637 -0.07275525 0.00668691 -0.19830358 -0.04010403 -0.036914952
0.20948507 0.3361354 0.11525997 0.031202681 0.05510351 -0.18039916 -0.38715985 0.083135165
-0.23679878 0.04216623 0.02940954 -0.047819175 0.2557249 0.034632012 0.06670268 0.16032387
0.12374158 0.06962041 -0.13330685 -0.30493686 0.13519546 0.027559787 0.17042935 -0.15752073
-0.019834874 -0.15982111 -0.017526345 -0.035936695 -0.054730143 0.04864626 -0.23526977 0.25261736
-0.06272993 -0.0008216797 -0.10249235 -0.06666593 -0.11394293 -0.025045095 0.016301585 0.022262268
0.09819039 0.20217966 0.068762176 0.03753485 -0.28270695 0.17572471 -0.13020715 -0.17429975
-0.043467563 -0.063364014 0.07570327 -0.16817082 0.08535568 -0.09680988 -0.16409782 0.36302862
0.012181515 -0.2387621 0.15154693 -0.1411385 0.07867417 0.07011159 -0.060262736 0.023083383
0.0034754104 -0.12046887 -0.047071498 0.2221077 0.10831737 0.11838811 -0.06676674 0.1442907
0.027931258 0.04273296 -0.019116718 -0.14071445 0.080022246 0.031553175 -0.21254316 -0.22078598
-0.13532656 0.13441898 -0.018421132 -0.09216034 0.13382876 -0.046264857 -0.18132876 0.113296814
-0.031285375 0.19017488 0.24350125 -0.16586114 -0.03191479 -0.009525662 0.041980676 -0.21326588
0.06305195 -0.0740987 -0.11461605 -0.17940708 0.073499106 -0.093245156 -0.027838886 -0.03512687
0.2295418 0.025493048 -0.064049795 -0.09430367 -0.10106209 -0.054442648 0.13924876 0.06865018
0.109492406 0.07553272 0.03487574 0.11097246 0.035152372 0.0766557 -0.03902304 -0.04874538
0.021719538 -0.043550536 0.09871709 0.2164147 0.3457263 0.044845358 -0.18006559 0.09094048
-0.026356148 0.1325154 0.045027833 -0.20978284 0.13644843 -0.05705435 0.21508262 0.040440757
-0.06609337 -0.042172708 -0.13902864 -0.030071422 0.12805009 -0.06023824 0.14425497 -0.31852165
0.09145958 -0.06678553 -0.15319306 0.12480471 0.117644444 0.060795277 -0.19507115 -0.009973406
-0.16819203 0.15539786 0.15156804 0.15057036 -0.17943199 0.16881472 0.048102885 -0.2730251
-0.08808584 -0.15162326 0.056360036 0.16768834 -0.020162301 0.10551959 0.021124713 0.14314672
0.097259805 0.09595007 -0.009824255 0.10493191 0.064645305 0.061151363 0.13449408 0.030883012
0.026785444 0.10953833 -0.004587396 0.18206239 -0.026474439 -0.3828522 -0.2396986 -0.042924624
-0.1430021 0.08792173 0.0033441053 -0.09759399 -0.08560303 0.06690758 -0.06462806 0.10307509
-0.08611884 -0.092818 0.024672154 -0.10578024 0.1197109 0.038170762 0.204926 0.042401783
-0.020253185 -0.21063623 -0.17543846 -0.021948637 -0.19792236 -0.33729953 -0.09945378 -0.3010383
-0.11850383 -0.13521327 -0.12750527 0.01763917 -0.03128823 0.039967585 -0.14406884 -0.04139624
0.22237211 -0.14787877 -0.055021316 -0.13275532 0.06602487 -0.1325784 -0.058875035 0.055498067
-0.016733011 0.023121046 -0.14438464 0.16034345 -0.10312147 0.049313247 0.16803074 0.11362071
0.022195196 -0.10819863 -0.017988108 -0.028473563 -0.27041855 -0.057552263 -0.18899818 -0.0905025

_actor_critic.actor.fc_mu.weight f4 [2, 65]
00000000: 29cf 1fbc b064 8a3c 45fa 02bc a1a6 963b
00000010: 4ce6 25bd 04e4 903c d4f6 0f3c 7d58 abba
00000020: 4a97 a93a 797f 8b3b 5aee 0a3c a906 17bd
00000030: 541b 33bc 44fd 9ebb 156d 62bd f347 8abb
00000040: 3267 3bbb 09bf 1dbb 77c5 663d a94c e63b
00000050: 83b7 31bc 112f b7bb abce fc3b 0501 9d3c
00000060: 9044 b93a 024e 913b cc1f e8bc 1884 01bd
00000070: 2141 ec3a f03c 16bc 8f21 283a 348f 88ba
00000080: 34f7 53bb 4829 5d3b bcbd 6a3a c05c ed3c
00000090: 2515 24bb e830 32bd cd56 dcba e8fe 3a3c
000000a0: 3c94 6fbc cf6f 9f3b 99b6 b6bc 1b89 fbba
000000b0: 6de5 ef3b b33c 91ba b735 b7bb 8d06 93bb
000000c0: 5394 35bb 825d 9a3b 492a ff3a 8b4e 303d
000000d0: 750d f4ba c191 92bc 1a82 a03c b83d 063d
000000e0: dbf8 6abc 8e6a 693b 6f3d b13c 1f51 d5bb
000000f0: 3639 7e3b de28 ddbb 89e9 f3bb 9bcd ce3b
00000100: 1193 83bd 303d de3d 5fc2 ce3c 0ff5 18be
00000110: c5b0 ecbb 8b17 153e 1afd 213c e22f a9ba
00000120: 5f0a 5a3b c0bc b53a 2d41 6e3c a08c fe3b
00000130: 97a1 7c3d 3597 8c3d 621d 0eba b95b 5ebe
00000140: 4be3 df39 accb 803a 8c57 e63a 0e47 093d
00000150: 71a0 c93b 7e82 dbbb e6fd d9bb ecea e63d
00000160: 6d6b c8bc 2cde 78bb 5843 96bb 034c 93bc
00000170: 2853 53bb 61dd 213a 74df 2b3c 76b1 e3bc
00000180: ca20 0d3a b1cd 59bc b06c 1a3c b49f 8aba
00000190: 2a97 ed3d c9c3 3c3b 179e e93d f49e 91bb
000001a0: e3c7 413b b545 deba ea0a dcbc 6037 efbc
000001b0: fac8 3c3c 63d1 a7bc eef2 843b 6730 b6bb
000001c0: e9e5 63ba 01f7 b7ba b324 63bb c95f 303a
000001d0: b287 d53b 679e d639 fe71 e13d 2313 a2bb
000001e0: b199 29be 3648 f5b9 b625 3dbb e7ee 35bc
000001f0: 0a03 b23b 38ff 363b dd72 85ba 0268 23bc
00000200: af64 ddbb c844 62be
-0.009753981 0.016893715 -0.007994239 0.0045975004 -0.04050283 0.017686851 0.008786876 -0.0013072636
0.0012938764 0.0042571393 0.008479679 -0.036871586 -0.0109318085 -0.004851969 -0.05527981 -0.004220003
-0.0028595445 -0.0024070165 0.05634066 0.0070281816 -0.010846975 -0.0055903275 0.0077150664 0.019165525
0.0014134813 0.004434348 -0.028335474 -0.031620115 0.0018024781 -0.009169802 0.0006413692 -0.0010418654
-0.003234339 0.003374653 0.0008954664 0.02897489 -0.0025037017 -0.043503672 -0.0016810537 0.011413313
-0.014622744 0.0048656235 -0.022303866 -0.0019190641 0.007321051 -0.0011080712 -0.00559112 -0.004486865
-0.0027706816 0.004710854 0.0019467558 0.043043654 -0.0018619733 -0.017891767 0.019593287 0.032773703
-0.014341558 0.003561649 0.02163574 -0.0065099145 0.0038791425 -0.0067492565 -0.007443611 0.006311131
-0.06424535 0.10851514 0.025239168 -0.14937232 -0.007223221 0.14559762 0.009887004 -0.0012907947
0.0033270342 0.0013865456 0.014541906 0.0077682287 0.06167754 0.06864778 -0.00054212485 -0.21714677
0.0004270322 0.0009826324 0.0017573698 0.03351503 0.0061531593 -0.0066989055 -0.0066525815 0.112752765
-0.024465287 -0.0037974222 -0.0045856647 -0.017980581 -0.003224561 0.00061746506 0.010490287 -0.02779458
0.0005383609 -0.01329367 0.009425327 -0.001057616 0.11601098 0.002880322 0.11407106 -0.0044439975
0.0029568605 -0.001695803 -0.026860673 -0.02920121 0.011522526 -0.020485586 0.00405728 -0.005559969
-0.0008693622 -0.0014035405 -0.0034659326 0.000672814 0.0065164203 0.0004093528 0.110080704 -0.004946129
-0.16562535 -0.00046783843 -0.0028861589 -0.011104322 0.005432491 0.0027923118 -0.0010181327 -0.009973528
-0.006756387 -0.2209655

_actor_critic.actor.fc_mu.bias f4 [2]
00000000: fc1c edbd 97a5 30be
-0.11577794 -0.17250668

_actor_critic.critic.conv1.bias f4 [64]
00000000: aa78 58bd bec8 e43d a9f8 ff3d 1843 42bd
00000010: 5203 1cbc 62ea 82bd 19d0 df3d 53fa 57bd
00000020: 63b4 31bd ea7e 163d 0000 0000 15ff 143d
00000030: 0000 0000 0000 0000 1c9a 0e3e f8e1 e83d
00000040: 154d f63d 42ee e33d 65d1 fb3d 2261 ed3d
00000050: 1cbf e93d 0000 0000 2004 d33d 0000 0000
00000060: 74be d73d 48b8 23bd 0000 0000 2e61 35bd
00000070: 0000 0000 a50b 1abc 0000 0000 3f2c c93d
00000080: 0000 0000 02e5 e53d 14f4 013e c1f5 803c
00000090: 4827 e13d 3292 af3d dace 4abd ccb8 f33d
000000a0: 0000 0000 9f70 db3c 40c7 debc 69fa b83a
000000b0: 20c4 d83d e00a e73d c7b3 4bbd 5344 97bc
000000c0: afe3 41bd 7b8f c13d 6551 7dbc 1462 41bd
000000d0: c5e2 b0bc 0000 0000 6846 dd3d 96cf 56bc
000000e0: 0000 0000 ba8f d53d 0000 0000 0000 0000
000000f0: 0000 0000 eb53 b5bd 88fe 4dbd 8a8c bd3d
-0.05284945 0.11171101 0.124986 -0.047427267 -0.009522276 -0.06392361 0.10928363 -0.052728962
-0.04338492 0.03674213 0.0 0.036376078 0.0 0.0 0.13925976 0.11371225
0.12026421 0.111294284 0.12295798 0.11590792 0.11413404 0.0 0.10303521 0.0
0.10534373 -0.039970666 0.0 -0.04428213 0.0 -0.00940219 0.0 0.098228924
0.0 0.112253204 0.12690765 0.015742185 0.109938204 0.085728064 -0.049513675 0.119004816
0.0 0.0267871 -0.02719462 0.0014112714 0.10584283 0.11281371 -0.049731996 -0.018465197
-0.047336277 0.09451195 -0.0154613005 -0.047212675 -0.021592507 0.0 0.108044446 -0.013111016
0.0 0.10427804 0.0 0.0 0.0 -0.08853897 -0.050291568 0.09255321

_actor_critic.critic.conv1.lin.weight f4 [64, 2]
00000000: 34b5 733e 3439 6d3e bf44 6c3e 2ecb 06be
00000010: def7 7a3e 5adb 113c 048d 683e 8fea 4a3e
00000020: 1b32 8cbd 67bb af3b e93b b53e 1cfe 0a3e
00000030: b539 953d 89c2 243d 6df1 843e 2db2 5e3e
00000040: a179 503e c853 3a3e dd62 a2bc 8ef0 ac3e
00000050: 34d0 02bd b726 22be 7bfe 833d 534f 9cbe
00000060: 51c1 dbbd e0f6 a3bd efac 85bb 7c29 cbbd
00000070: 9460 ba3c 39a7 1f3d 46d4 bf3d 637d b9bd
00000080: bea5 363e 11ac 9dbd 6bb4 4bbe 864a 7b3d
00000090: 5828 333e 451c d1bd 1a0e 5f3d 7fb1 193d
000000a0: 6d85 b9bd 70ce 673e 790d ecbd 03ac eabc
000000b0: a6ce 0a3e c70a 90bd 0206 8ebe e56c 15be
000000c0: c332 b939 19c2 743d 357b 113e 7ea5 593e
000000d0: 4359 c7bd 1c3c a2bd 34e1 3f3e f9f6 473e
000000e0: d379 c8bd e4ae d6bd 1911 003c c1fd f9bd
000000f0: 5726 60be d637 4cbd c83f 213e f0a0 f93d
00000100: 3111 e8bd 211c 41be 6d38 963e bbc4 7cbc
00000110: 0c57 933e fea4 253d af4e b2be 54db f13d
00000120: a57e 1e3d a650 443a 3192 69be 81ce 023e
00000130: 5a89 613e 38e3 5a3e 2859 393e 436e b93d
00000140: 8a99 eebc 64b4 c9bc 8e00 a53d 4d04 c7be
00000150: bc3c 2bbe e94d 8e3e 000d ca3e 89d9 d6bc
00000160: 839e 883e b3a8 213d 723a b33a 61cf 203d
00000170: 5ddc 723e f31d 5e3e b210 c53e 3a28 b0be
00000180: d51c 693e d6ef 4a3e 7a88 183d 7c74 a83e
00000190: deb4 bd3e 524e bdbe 9ba0 533e 0451 653e
000001a0: b764 75be 562e 4e3e 461e 3abe e9cd d9bd
000001b0: 93fe 85bd b88a b0bb 9940 03be 2b19 3d3e
000001c0: cb0a 08be 2ca7 04bd 231f 043f 5634 fdbd
000001d0: dfcb 08be a0a7 99bd 8cd5 66be ca18 14be
000001e0: f256 0fbe c27f a2be 378a c43e 70e3 db3e
000001f0: 8bad 603e 665b 633e 72df 86bd acfd 6eba
0.23799592 0.23166353 0.230731 -0.13163444 0.24508616 0.008902395 0.22710043 0.1981604
-0.06845494 0.0053629163 0.3539727 0.13573498 0.07286397 0.040224586 0.25965443 0.21747656
0.20358898 0.18196023 -0.019822532 0.3377728 -0.03193684 -0.15835081 0.06445023 -0.3052927
-0.107302316 -0.08006072 -0.004079453 -0.09920022 0.02275113 0.038977835 0.0936666 -0.09057119
0.17836663 -0.07698835 -0.19893043 0.061350368 0.17495859 -0.1021047 0.054456808 0.03752279
-0.09058652 0.22637343 -0.11526007 -0.028646475 0.13555393 -0.070333056 -0.2773896 -0.14592321
0.0003532377 0.05975542 0.14207156 0.21254537 -0.09733822 -0.07921621 0.18738252 0.19527806
-0.09788861 -0.104825765 0.007816576 -0.12206603 -0.21889625 -0.049857937 0.15746987 0.121888995
-0.11331404 -0.18858387 0.29339924 -0.015427764 0.2877735 0.040440552 -0.34825656 0.11809412
0.038694996 0.0007488824 -0.22809674 0.12774087 0.22025052 0.2137574 0.18100417 0.09054234
-0.029125948 -0.02462215 0.080567464 -0.3887047 -0.16722387 0.27793816 0.39463043 -0.026226776
0.26683435 0.039467525 0.0013674034 0.039260272 0.23716874 0.21691112 0.384893 -0.3440569
0.22764905 0.19818053 0.03723953 0.3290137 0.37052053 -0.36973816 0.20666735 0.22394186
-0.23964201 0.20134863 -0.18175611 -0.10634977 -0.06542697 -0.0053876303 -0.12817611 0.18466632
-0.13285367 -0.03238599 0.5161001 -0.12363498 -0.1335902 -0.07502675 -0.22542399 -0.14462581
-0.13998011 -0.31738096 0.383867 0.4294696 0.21941201 0.22202834 -0.065855876 -0.00091167795
