rl_environments/trained_models/PPO_scheduling_3_obj_j25m5/policy.pth (torch, 42334 bytes, 24 tensors)

actor.sigma_param f4 [2, 1]
0	0x00000000	0.0
1	0x00000000	0.0

actor.conv1.bias f4 [64]
0	0x00000000	0.0
1	0x00000000	0.0
2	0x00000000	0.0
3	0x00000000	0.0
4	0x00000000	0.0
5	0x00000000	0.0
6	0x00000000	0.0
7	0x00000000	0.0
8	0x00000000	0.0
9	0x00000000	0.0
10	0x00000000	0.0
11	0x00000000	0.0
12	0x00000000	0.0
13	0x00000000	0.0
14	0x00000000	0.0
15	0x00000000	0.0
16	0x00000000	0.0
17	0x00000000	0.0
18	0x00000000	0.0
19	0x00000000	0.0
20	0x00000000	0.0
21	0x00000000	0.0
22	0x00000000	0.0
23	0x00000000	0.0
24	0x00000000	0.0
25	0x00000000	0.0
26	0x00000000	0.0
27	0x00000000	0.0
28	0x00000000	0.0
29	0x00000000	0.0
30	0x00000000	0.0
31	0x00000000	0.0
32	0x00000000	0.0
33	0x00000000	0.0
34	0x00000000	0.0
35	0x00000000	0.0
36	0x00000000	0.0
37	0x00000000	0.0
38	0x00000000	0.0
39	0x00000000	0.0
40	0x00000000	0.0
41	0x00000000	0.0
42	0x00000000	0.0
43	0x00000000	0.0
44	0x00000000	0.0
45	0x00000000	0.0
46	0x00000000	0.0
47	0x00000000	0.0
48	0x00000000	0.0
49	0x00000000	0.0
50	0x00000000	0.0
51	0x00000000	0.0
52	0x00000000	0.0
53	0x00000000	0.0
54	0x00000000	0.0
55	0x00000000	0.0
56	0x00000000	0.0
57	0x00000000	0.0
58	0x00000000	0.0
59	0x00000000	0.0
60	0x00000000	0.0
61	0x00000000	0.0
62	0x00000000	0.0
63	0x00000000	0.0

actor.conv1.lin.weight f4 [64, 3]
0	0xbd5733c0	-0.052539587
1	0xbe4c6e2c	-0.19963902
2	0xbd389df0	-0.045072496
3	0xbe3bf4aa	-0.1835505
4	0x3decda13	0.11565032
5	0xbd9bbd94	-0.076045185
6	0x3cc6a278	0.024247393
7	0xbd036909	-0.03208259
8	0x3d190bc8	0.03736475
9	0xbddc0682	-0.10743429
10	0x3d018dbd	0.031629313
11	0xbc1910cc	-0.009342384
12	0x3d7540f0	0.059876382
13	0x3bd1888e	0.0063944524
14	0xbdb4693c	-0.08809134
15	0x3d01f19c	0.031724557
16	0xbb7056a1	-0.0036672729
17	0xbd1e9274	-0.038713887
18	0x3dcdaaf4	0.10042372
19	0xbe4debd0	-0.20109487
20	0x3dfb24b0	0.12262857
21	0xbdab4740	-0.08363199
22	0x3db70d92	0.08938135
23	0x3dd778b3	0.105210684
24	0x3e81570f	0.25261733
25	0xbd09d6f2	-0.033652253
26	0x3d02fec7	0.031981256
27	0xbde58528	-0.11207038
28	0xbe2a8f5d	-0.16656251
29	0x3ce88468	0.028383449
30	0x3e37c473	0.17946033
31	0x3dbdac98	0.09261435
32	0xbe6466b1	-0.22304799
33	0xbd1b7b77	-0.037959542
34	0x3e6142d8	0.21998155
35	0x3d3e4dd7	0.046460953
36	0xbddff1f3	-0.1093482
37	0xbe805717	-0.25066444
38	0x3b0046bd	0.0019573413
39	0xbd87d846	-0.06633048
40	0xbda35024	-0.0797427
41	0x3d71bdcd	0.0590189
42	0x3d931765	0.071821965
43	0x3dcef10c	0.1010457
44	0xbc581c75	-0.013190378
45	0xbd5aac0e	-0.05338674
46	0x3c8bb4e7	0.017054034
47	0x3daf10da	0.08548136
48	0xbe26a426	-0.16273555
49	0xbd06e427	-0.032932427
50	0x3e26294d	0.16226692
51	0x3d686690	0.056738436
52	0x3e5e3244	0.21698862
53	0xbdea86d5	-0.114514984
54	0xbdeca228	-0.11554366
55	0xbcfa2fda	-0.030540396
56	0x3e1eb508	0.15498745
57	0xbd07daa6	-0.033167504
58	0xbe50fcba	-0.20408908
59	0xbe0bea95	-0.13663705
60	0xbb6bd393	-0.0035984262
61	0xbe3cf73c	-0.18453687
62	0x3d23b004	0.039962783
63	0x3dd70951	0.10499824
64	0xbe54535c	-0.20734924
65	0xbdc6432d	-0.096807815
66	0xbe48ca21	-0.19608356
67	0x3e4f94b2	0.20271567
68	0x3d45d443	0.04829813
69	0xbe55b970	-0.2087152
70	0x3c24ac78	0.010050885
71	0xbdfefd71	-0.12450684
72	0xbdac1154	-0.084017426
73	0xbdcbea5a	-0.099568084
74	0x3e1071a8	0.14105856
75	0x3e0d89f7	0.1382216
76	0xbbfb6d00	-0.007672906
77	0xbde6921a	-0.112583354
78	0xbceb4966	-0.028721523
79	0x3db0b69a	0.086285785
80	0x3b830f3f	0.00399962
81	0xbde06b8e	-0.109580144
82	0xbcbd1b2f	-0.023084251
83	0xbdf35987	-0.1188231
84	0x3b4975f3	0.003074047
85	0xbd971e94	-0.07378879
86	0x3e5be10c	0.21472567
87	0x3d3dbb89	0.046321426
88	0x3df301cb	0.11865576
89	0x3db30877	0.08741849
90	0x3e4afcbf	0.19822977
91	0xbd5ec877	-0.054390397
92	0x3d8e30e9	0.069429226
93	0x3dff6221	0.124698885
94	0xbd4562f0	-0.048190057
95	0xbd3b62ff	-0.045748707
96	0xbddf99b5	-0.10917989
97	0x3db5bedf	0.088742964
98	0xbe4dda1d	-0.20102735
99	0x3deb2324	0.11481312
100	0x3dda23a9	0.10651333
101	0x3c55732f	0.01302795
102	0xbe2b3b3f	-0.1672182
103	0xbd8fbb9a	-0.07018204
104	0x3e365321	0.17805149
105	0x3e5c532f	0.21516107
106	0x3d3bbb40	0.045832872
107	0x3d1351aa	0.035966553
108	0x3dcadb3d	0.09905098
109	0x3d9b0c8c	0.075707525
110	0x3c74cca5	0.014941369
111	0xbdef6399	-0.116889186
112	0x3d8be94d	0.06831608
113	0xbc587a69	-0.013212779
114	0x3d468051	0.048462216
115	0xbe1a5adc	-0.15073723
116	0xbd893ee2	-0.06701447
117	0x3e144e8f	0.14483093
118	0x3d54a44e	0.051914506
119	0xbc71edb2	-0.014766144
120	0x3d1c0230	0.038088024
121	0x3e47f3bf	0.19526576
122	0xbdb278b8	-0.087144315
123	0xbca67819	-0.020320939
124	0xbdafdd02	-0.08587076
125	0x3ce2dd17	0.027693314
126	0x3d9ca22c	0.07648119
127	0x3bccb089	0.0062466306
128	0x3d25c252	0.04046852
129	0x3e01c467	0.12672578
130	0x3e0d4a37	0.13797842
131	0x3e891f30	0.26781607
132	0xbe9e857b	-0.30961213
133	0x3dcd60df	0.10028242
134	0x3de61f54	0.11236444
135	0x3e09ac50	0.13444638
136	0x3dbc5bc9	0.09197194
137	0x3e64e1c2	0.22351745
138	0xbcd81d42	-0.026381139
139	0x3d8584ad	0.065194465
140	0xbe9d978d	-0.30779687
141	0xbdd34a0e	-0.10316859
142	0x3d9862aa	0.07440694
143	0xbe0c5ef1	-0.13708092
144	0xbce25069	-0.027626233
145	0xbd83727a	-0.06418319
146	0xbd507f08	-0.050902396
147	0xbe66b490	-0.22529817
148	0x3deed1d9	0.11661119
149	0xbe70e4c9	-0.23524775
150	0xbe4f1a26	-0.20224819
151	0x3e99ce97	0.30040428
152	0x3e0b8944	0.13626581
153	0xbdc3fc87	-0.0956965
154	0xbd9293c0	-0.07157087
155	0x3e2bceea	0.1677815
156	0xbc9b6b13	-0.018971955
157	0x3d3ec1d9	0.046571586
158	0xbe456e5a	-0.19280377
159	0x3d99d3cc	0.075111
160	0x3e53fb3a	0.20701304
161	0x3e0e0735	0.13869937
162	0xbe07e1ca	-0.13269725
163	0xbcd860ac	-0.026413284
164	0x3d9fa55f	0.07795214
165	0xbe13ad87	-0.14421664
166	0x3d9f1813	0.07768264
167	0x3df028a9	0.11726505
168	0x3db1caa7	0.08681231
169	0xbca1910f	-0.01972249
170	0x3e1266ec	0.14297074
171	0xbd736d48	-0.05943039
172	0xbe786bb0	-0.2425983
173	0x3e04f607	0.12984477
174	0xbe01d434	-0.12678605
175	0xbdaaa96e	-0.083330974
176	0x3d3f7ce2	0.046749957
177	0x3ddaafbe	0.106780514
178	0x3e82758e	0.25480312
179	0x3d6e4e3e	0.058180086
180	0xbc21a804	-0.009866718
181	0xbce83ceb	-0.02834936
182	0xbdb8500e	-0.08999644
183	0x3bc3ca05	0.0059750103
184	0xbdee39ad	-0.116320945
185	0x3d075983	0.03304435
186	0x3bc1c491	0.005913325
187	0x3db61875	0.088913836
188	0x3ea11459	0.31460837
189	0x3e92d6c5	0.2867948
190	0x3d9c6f6a	0.07638438
191	0x3d7eb88b	0.062187713

actor.conv2.bias f4 [64]
0	0x00000000	0.0
1	0x00000000	0.0
2	0x00000000	0.0
3	0x00000000	0.0
4	0x00000000	0.0
5	0x00000000	0.0
6	0x00000000	0.0
7	0x00000000	0.0
8	0x00000000	0.0
9	0x00000000	0.0
10	0x00000000	0.0
11	0x00000000	0.0
12	0x00000000	0.0
13	0x00000000	0.0
14	0x00000000	0.0
15	0x00000000	0.0
16	0x00000000	0.0
17	0x00000000	0.0
18	0x00000000	0.0
19	0x00000000	0.0
20	0x00000000	0.0
21	0x00000000	0.0
22	0x00000000	0.0
23	0x00000000	0.0
24	0x00000000	0.0
25	0x00000000	0.0
26	0x00000000	0.0
27	0x00000000	0.0
28	0x00000000	0.0
29	0x00000000	0.0
30	0x00000000	0.0
31	0x00000000	0.0
32	0x00000000	0.0
33	0x00000000	0.0
34	0x00000000	0.0
35	0x00000000	0.0
36	0x00000000	0.0
37	0x00000000	0.0
38	0x00000000	0.0
39	0x00000000	0.0
40	0x00000000	0.0
41	0x00000000	0.0
42	0x00000000	0.0
43	0x00000000	0.0
44	0x00000000	0.0
45	0x00000000	0.0
46	0x00000000	0.0
47	0x00000000	0.0
48	0x00000000	0.0
49	0x00000000	0.0
50	0x00000000	0.0
51	0x00000000	0.0
52	0x00000000	0.0
53	0x00000000	0.0
54	0x00000000	0.0
55	0x00000000	0.0
56	0x00000000	0.0
57	0x00000000	0.0
58	0x00000000	0.0
59	0x00000000	0.0
60	0x00000000	0.0
61	0x00000000	0.0
62	0x00000000	0.0
63	0x00000000	0.0

actor.conv2.lin.weight f4 [64, 64]
0	0x3dc183e0	0.09448981
1	0x3e75fd5a	0.24022427
2	0x3c7fdd78	0.015616767
3	0xbe1ea98a	-0.15494362
4	0x3be6dbb0	0.0070452318
5	0x3ca2bb16	0.0198646
6	0x3cdb97d2	0.026805792
7	0xbe84005b	-0.2578152
8	0xbd255b34	-0.04037018
9	0xbd1133ab	-0.035449665
10	0xbe0e928e	-0.13923094
11	0xbb962cd0	-0.004582979
12	0x3d8789d2	0.06618084
13	0xbbd37bb0	-0.0064539537
14	0x3e013311	0.12617137
15	0xbc8114b0	-0.015756935
16	0x3d25e006	0.04049685
17	0x3c34eff7	0.01104354
18	0xbd0d5824	-0.034507886
19	0x3dc30a3f	0.09523439
20	0xbe0fdda1	-0.14049388
21	0xbd69d1a1	-0.057084683
22	0x3c4a5be3	0.012351009
23	0xbd024d78	-0.03181216
24	0xbe4c273e	-0.19936845
25	0x3dbd24bb	0.092355214
26	0xbd82c3e1	-0.06385017
27	0xbda5fba5	-0.08104638
28	0xbd3f1266	-0.046648405
29	0x3d91586b	0.070969425
30	0xbcad1567	-0.02112837
31	0x3c4afaeb	0.012388925
32	0x3db409e6	0.087909505
33	0x3d108649	0.035284314
34	0xbd9273f9	-0.07151026
35	0x3d6a8d03	0.057263386
36	0x3dd589d8	0.10426682
37	0xbce5c989	-0.028050201
38	0x3e88c064	0.26709282
39	0x3e1d8947	0.15384398
40	0x3e5121fa	0.20423117
41	0x3caa1662	0.020762626
42	0xbe3179e3	-0.17331652
43	0x3d81d5c8	0.06339604
44	0xbe637230	-0.22211528
45	0xbd5d7981	-0.054070953
46	0xbc16427b	-0.009171124
47	0x3c19aede	0.0093800705
48	0xbe278f83	-0.16363339
49	0xbd19300c	-0.037399337
50	0xbe6d8fb7	-0.23199354
51	0x3e110c7e	0.14164922
52	0xbd3fc75e	-0.04682099
53	0xbd7dca37	-0.061960425
54	0xbdcf1b8d	-0.10112677
55	0xbe1745d0	-0.14772725
56	0xbe4b763f	-0.19869326
57	0xbe9cbc06	-0.306122
58	0x3e282eb2	0.16424063
59	0xbeafe445	-0.34353843
60	0xbdc425ef	-0.09577548
61	0x3d85ffbb	0.06542917
62	0x3dcb0b6e	0.099142894
63	0xbd19e11c	-0.037568197
64	0x3e70ac9c	0.23503345
65	0xbe93e5c0	-0.28886223
66	0x3dd6cd8b	0.10488423
67	0xbd8a5dd8	-0.067561805
68	0xbdbb3bd4	-0.09142271
69	0xbd4ba891	-0.049721304
70	0xbe7340ea	-0.23755231
71	0x3e04771d	0.12936063
72	0xbcc34d6f	-0.023840634
73	0x3da1ac53	0.07894196
74	0x3e84fc4d	0.2597374
75	0x3e31d0d9	0.17364825
76	0x3d10fee3	0.03539933
77	0x3e35f6c9	0.17769922
78	0x3d1392e3	0.036028754
79	0xbce40c29	-0.02783783
80	0x3d4b3600	0.049612045
81	0xbdcb53cd	-0.09928093
82	0x3dff2651	0.1245848
83	0xbe08e818	-0.13369787
84	0xbd52a60c	-0.051427886
85	0x3d69b66a	0.05705873
86	0x3d3f364f	0.046682652
87	0x3e65842e	0.22413704
88	0x3d63a472	0.05557675
89	0x3e3d670e	0.18496343
90	0x3e133cc5	0.1437865
91	0x3e11b944	0.1423083
92	0xbe1881ef	-0.14893316
93	0xbd03774a	-0.032096185
94	0x3e6892c7	0.22712241
95	0x3b077f00	0.0020675063
96	0x3d40b483	0.04704715
97	0x3d6415aa	0.055684723
98	0x3d4d32d1	0.05009729
99	0x3d4acebd	0.049513567
100	0x3d859d1f	0.06524109
101	0x3d01eb0b	0.031718295
102	0x3be1bbe8	0.0068888552
103	0x3db968b4	0.09053174
104	0x3dd5af26	0.104337975
105	0xbccd5b9f	-0.025068102
106	0x3e25de3f	0.16198061
107	0xbd835a2c	-0.06413683
108	0xbe19849e	-0.14991996
109	0xbea1ea89	-0.3162425
110	0xbc839848	-0.016063824
111	0x3b17d9d1	0.00231706
112	0x3b8ee278	0.0043604933
113	0x3e0b38ba	0.13595858
114	0xbd80cd14	-0.062891155
115	0xbdcc6e87	-0.09982019
116	0x3d107346	0.035266183
117	0x3cd2aa47	0.02571596
118	0xbe7481c2	-0.23877624
119	0xbc1e59ba	-0.009664947
120	0x3d47199d	0.04860841
121	0x3d599c4a	0.053127564
122	0x3d30c269	0.043154154
123	0xbe7c2de2	-0.24626878
124	0xbce54de0	-0.027991235
125	0x3c435bce	0.011923743
126	0xbdf49013	-0.119415425
127	0xbd537308	-0.051623374
128	0x3e1b1b6f	0.15147184
129	0xbd8aade6	-0.0677145
130	0xbe27cbe0	-0.16386366
131	0xbd567b8c	-0.052363917
132	0xbe8bf958	-0.27338672
133	0x3dfdd3e0	0.123939276
134	0x3b9d8480	0.004807055
135	0x3e318141	0.17334463
136	0xbd3d9db6	-0.046292983
137	0x3c3f1436	0.0116625335
138	0xbe91f3d1	-0.2850633
139	0x3d7605f2	0.060064264
140	0x3dab8928	0.0837577
141	0xbe254482	-0.16139415
142	0x3d48aa1a	0.048990346
143	0x3e90ce03	0.28282174
144	0x3c8eaafc	0.017415516
145	0x3e2481de	0.16065165
146	0x3dce969b	0.100873195
147	0xbe04c79f	-0.12966774
148	0x3deb37be	0.11485241
149	0xbe0c5683	-0.13704877
150	0xbe239ab7	-0.15976988
151	0x3d67c0e8	0.056580454
152	0xbdfd25d6	-0.12360732
153	0x3db86eee	0.09005533
154	0xbd584f80	-0.052810192
155	0xbdacc3cf	-0.08435785
156	0x3cefb5e1	0.029261531
157	0xbc86be7e	-0.016448256
158	0x3d1972a9	0.037462864
159	0xbd95e373	-0.07318773
160	0x3d86d4a2	0.06583525
161	0x3e850ca9	0.2598622
162	0x3cd281c5	0.025696645
163	0x3e08e29b	0.13367693
164	0x3d9fd415	0.07804123
165	0x3d9dd46d	0.077065326
166	0xbdba8c04	-0.09108737
167	0x3db7531e	0.089514
168	0x3e4b62c6	0.19861898
169	0xbe1d8563	-0.15382914
170	0x3db26240	0.08710146
171	0x3e369c24	0.17833
172	0x3d9f393c	0.077745885
173	0xbcb8765e	-0.02251738
174	0xbd56aa8a	-0.052408732
175	0x3dad3627	0.08457594
176	0x3e238861	0.15969993
177	0xbc76b314	-0.015057344
178	0xbd8e5664	-0.069500715
179	0xbd328e44	-0.043592706
180	0x3dec32da	0.11533137
181	0x3b9e6c1f	0.0048346664
182	0x3d8292d5	0.06375662
183	0xbe45018e	-0.19238874
184	0xbd9980e2	-0.074952856
185	0xbcc06074	-0.023483492
186	0xbe898226	-0.26857108
187	0x3e1afaa0	0.15134668
188	0xbc9982d3	-0.01873914
189	0x3e49ba5f	0.19700001
190	0x3c31f79c	0.010862257
191	0xbc1ba96c	-0.009500843
192	0x3e5f8439	0.21827783
193	0x3cedf98c	0.029049657
194	0x3e101f7e	0.14074513
195	0x3e25e878	0.16201961
196	0x3e34c77a	0.1765422
197	0x3e2a51ef	0.16632818
198	0x3e4cf55b	0.2001547
199	0x3e0b516e	0.13605282
200	0xbdcfe382	-0.101508155
201	0xbdc39935	-0.09550706
202	0x39962580	0.0002863817
203	0x3e3fe7e9	0.1874081
204	0xbd4bea7e	-0.049784176
205	0xbdfcd5d3	-0.12345471
206	0x3dd47692	0.10374178
207	0x3cd3b716	0.025844138
208	0xbd91ecca	-0.07125242
209	0xbde27c48	-0.11058861
210	0x3d18e23a	0.03732512
211	0x3da4e972	0.08052339
212	0x3c64c3a8	0.013962664
213	0x3c8266db	0.015918186
214	0xbe9a0c6b	-0.300876
215	0x3df95acd	0.12175522
216	0xbdecd1d8	-0.11563462
217	0xbde29055	-0.110626854
218	0x3e37c822	0.17947438
219	0xbd393736	-0.04521867
220	0xbd0c54ae	-0.034260444
221	0xbdeb3dab	-0.114863716
222	0x3c3f290f	0.011667504
223	0x3db6f707	0.089338355
224	0x3de056ad	0.10954032
225	0x3d18522c	0.03718774
226	0x3c566f06	0.0130879935
227	0x3cab4e3b	0.020911327
228	0xbe175712	-0.14779308
229	0xbdfb43df	-0.12268805
230	0x3e29bc2c	0.16575688
231	0xbc5d5a12	-0.013510244
232	0xbe1f66e4	-0.15566593
233	0xbd330677	-0.043707337
234	0x3da3c4a4	0.079964906
235	0x3dee3bd2	0.116325036
236	0x3e2d131c	0.16901821
237	0xbdb297af	-0.087203376
238	0x3d94e5a3	0.07270362
239	0xbe3ecd70	-0.18633056
240	0xbd8dbafe	-0.069204316
241	0x3e035118	0.12823904
242	0x3dceb22e	0.10092579
243	0xbd2bc741	-0.04193807
244	0x3cbfa306	0.023393165
245	0xbe44648e	-0.19178984
246	0xbd35c36f	-0.044375833
247	0x3e386036	0.18005452
248	0xbe2170a5	-0.15765627
249	0xbe977192	-0.29578835
250	0xbe0ad448	-0.13557541
251	0xbcf846a0	-0.030307114
252	0x3de7d85f	0.113205664
253	0xbe3f01d9	-0.18653049
254	0xbd521ff7	-0.051300015
255	0x3d7057b9	0.05867741

actor.fc_mu.weight f4 [2, 65]
0	0xb99f1aef	-0.0003034691
1	0x3aec7f29	0.0018043268
2	0x3b0913d8	0.0020916369
3	0xba67d472	-0.00088436075
4	0x3b3b13b7	0.0028545687
5	0xba93acec	-0.0011266745
6	0x3991b69b	0.00027792607
7	0xbae4da95	-0.0017460162
8	0xb9622166	-0.00021565481
9	0x3b46f9a4	0.00303612
10	0xbb5c41a4	-0.003360846
11	0x39fa851b	0.00047782887
12	0xbaefdfa2	-0.0018300901
13	0x39e205d9	0.00043110436
14	0xbb0e75f9	-0.0021737798
15	0xbbb651e4	-0.0055639613
16	0x3ad69dc7	0.0016373926
17	0xbad8b16b	-0.0016532367
18	0x3b842692	0.0040329183
19	0x3b105549	0.002202349
20	0x392e3029	0.00016611874
21	0xba69b479	-0.0008915137
22	0x3b2a4130	0.0025978796
23	0xb92745e1	-0.00015952393
24	0x3b79415e	0.0038033347
25	0xb9472f46	-0.0001899573
26	0x39a8e1ef	0.0003221179
27	0x3afd1bf3	0.0019310698
28	0x39f8f76e	0.00047486596
29	0x3a8b21d2	0.0010614938
30	0xb9bab9c7	-0.000356151
31	0x395064b0	0.00019873935
32	0xba7de689	-0.00096855365
33	0xbadb3bdb	-0.0016726212
34	0xb9e5aa7d	-0.00043805307
35	0xbaaf5cbb	-0.0013379076
36	0x39e30db2	0.00043307018
37	0x3999c230	0.00029327115
38	0xb9810aeb	-0.00024612932
39	0x38e9758a	0.00011132199
40	0x3ac8c9a4	0.0015318883
41	0x3ae7a9e4	0.0017674533
42	0xb71e21e6	-9.4254265e-06
43	0xba9cd592	-0.0011965504
44	0x3a1d0fe3	0.0005991442
45	0x3ae70237	0.0017624561
46	0x369a29bf	4.5944175e-06
47	0x39b1200b	0.00033783945
48	0x39df58fe	0.0004260018
49	0x39bb8509	0.00035766538
50	0xba899127	-0.0010495529
51	0xbb5d50f3	-0.0033770173
52	0x3af56833	0.001872307
53	0xba03d64b	-0.00050291856
54	0x39ca4dd0	0.00038586417
55	0x3a8d5477	0.0010782619
56	0x3a0b9b18	0.000532554
57	0x3ad28482	0.0016061219
58	0x39498c2a	0.00019221069
59	0xbb418d2a	-0.0029533603
60	0xb996bca7	-0.00028750786
61	0xbaadc990	-0.0013258923
62	0xbb11309f	-0.0022154225
63	0x3b1ca526	0.0023902147
64	0x3b267458	0.0025398936
65	0x3b32715b	0.002722821
66	0x39d5722f	0.000407116
67	0x3b44174d	0.0029921115
68	0xbae5bb6e	-0.0017527172
69	0xba926f94	-0.0011172169
70	0xbaea396e	-0.0017869899
71	0xbb2ef992	-0.0026699048
72	0xb7025312	-7.767945e-06
73	0x3aa0d170	0.0012269448
74	0xbae6a087	-0.0017595448
75	0x3a61fddc	0.0008620897
76	0xbb1acc2b	-0.0023620229
77	0x3a13eaa0	0.0005642567
78	0x3a0827af	0.00051939016
79	0x3abdb83e	0.0014474464
80	0x39125b6d	0.00013957704
81	0xba2b5aea	-0.00065366796
82	0xbb19261e	-0.0023368667
83	0xbb2e3a04	-0.0026584873
84	0x3a7c5670	0.00096259173
85	0xba369698	-0.0006965189
86	0xba7df518	-0.0009687706
87	0x3abf4113	0.0014591537
88	0x3b1a2039	0.0023517741
89	0xb9fcc534	-0.00048212113
90	0xbac77452	-0.0015217161
91	0x3a586574	0.0008254864
92	0xbb26486b	-0.0025372754
93	0xba3713d4	-0.00069838506
94	0xbb18e61b	-0.0023330513
95	0x396760f7	0.00022065999
96	0xba092763	-0.00052320043
97	0xbb1c37b2	-0.0023836908
98	0xba736e62	-0.00092861627
99	0x3aabd898	0.0013110815
100	0x3a75943c	0.0009368097
101	0xbb0a86a9	-0.0021137393
102	0xb902590b	-0.00012430937
103	0xbbb307c4	-0.005463572
104	0xba122ea6	-0.0005576409
105	0xb9115f00	-0.00013863668
106	0x3abbc6d5	0.0014326224
107	0x3aa489e2	0.0012553299
108	0x3ab9d2ca	0.00141772
109	0x3ae6468b	0.0017568631
110	0xbad80dc5	-0.0016483596
111	0x3afe2765	0.0019390403
112	0x3b58d1d8	0.003308406
113	0x3b60ad37	0.0034282932
114	0x3aadb5c1	0.001325302
115	0xba8a8ff5	-0.0010571467
116	0x3a99d9bd	0.0011737865
117	0x3ab9c655	0.0014173487
118	0xbb02a034	-0.0019931914
119	0x3a9a9b3b	0.001179553
120	0x38a7b12f	7.9961836e-05
121	0x3ae44a4e	0.0017417164
122	0xbb01f004	-0.0019826898
123	0xba549150	-0.00081088115
124	0xbaa8e78a	-0.0012886387
125	0xbb23d37e	-0.0024997885
126	0xba17d176	-0.0005791405
127	0xbac936f4	-0.001535146
128	0x3aabc8b2	0.0013106077
129	0x3ae45475	0.001742019

actor.fc_mu.bias f4 [2]
0	0x00000000	0.0
1	0x00000000	0.0

critic.conv1.bias f4 [64]
0	0x00000000	0.0
1	0x00000000	0.0
2	0x00000000	0.0
3	0x00000000	0.0
4	0x00000000	0.0
5	0x00000000	0.0
6	0x00000000	0.0
7	0x00000000	0.0
8	0x00000000	0.0
9	0x00000000	0.0
10	0x00000000	0.0
11	0x00000000	0.0
12	0x00000000	0.0
13	0x00000000	0.0
14	0x00000000	0.0
15	0x00000000	0.0
16	0x00000000	0.0
17	0x00000000	0.0
18	0x00000000	0.0
19	0x00000000	0.0
20	0x00000000	0.0
21	0x00000000	0.0
22	0x00000000	0.0
23	0x00000000	0.0
24	0x00000000	0.0
25	0x00000000	0.0
26	0x00000000	0.0
27	0x00000000	0.0
28	0x00000000	0.0
29	0x00000000	0.0
30	0x00000000	0.0
31	0x00000000	0.0
32	0x00000000	0.0
33	0x00000000	0.0
34	0x00000000	0.0
35	0x00000000	0.0
36	0x00000000	0.0
37	0x00000000	0.0
38	0x00000000	0.0
39	0x00000000	0.0
40	0x00000000	0.0
41	0x00000000	0.0
42	0x00000000	0.0
43	0x00000000	0.0
44	0x00000000	0.0
45	0x00000000	0.0
46	0x00000000	0.0
47	0x00000000	0.0
48	0x00000000	0.0
49	0x00000000	0.0
50	0x00000000	0.0
51	0x00000000	0.0
52	0x00000000	0.0
53	0x00000000	0.0
54	0x00000000	0.0
55	0x00000000	0.0
56	0x00000000	0.0
57	0x00000000	0.0
58	0x00000000	0.0
59	0x00000000	0.0
60	0x00000000	0.0
61	0x00000000	0.0
62	0x00000000	0.0
63	0x00000000	0.0

critic.conv1.lin.weight f4 [64, 3]
0	0xbcfe8380	-0.031068563
1	0x3d8efea2	0.06982161
2	0xbc81d4c0	-0.015848517
3	0xb8c5136d	-9.39731e-05
4	0x3b300ac4	0.0026861886
5	0x3dd24237	0.10266536
6	0xbe15f280	-0.14643288
7	0x3d488783	0.04895736
8	0x3cbabde0	0.022795618
9	0x3dcbb125	0.09945897
10	0x3e1c81b9	0.1528386
11	0x3df39df6	0.11895363
12	0x3dce80de	0.10083173
13	0x3db43d49	0.08800752
14	0xbcc9bd56	-0.024626415
15	0x3d6d8742	0.05799032
16	0x3c663530	0.014050767
17	0xbdf522a9	-0.119695015
18	0xbc884a8b	-0.016637107
19	0x3d45b204	0.048265472
20	0xbdaad4e5	-0.08341388
21	0x3e05f53e	0.13081834
22	0x3d914a35	0.07094232
23	0xbdcf3213	-0.10116973
24	0x3d6d86a9	0.05798975
25	0x3dc78fa7	0.097441964
26	0x3db15334	0.08658448
27	0x3dc67b9e	0.09691547
28	0x3ddb510a	0.10708816
29	0x3db9ee1f	0.09078621
30	0x3e2be0c7	0.16784965
31	0xbc0f4bff	-0.008746146
32	0x3d8f9866	0.070114896
33	0xbcee2899	-0.029072093
34	0x3e0e158c	0.13875407
35	0x3deab6c9	0.11460645
36	0x3d1ef8a6	0.03881135
37	0xbdbe35d7	-0.09287613
38	0x3e6a215f	0.22864293
39	0xbe0def31	-0.13860776
40	0xbeb4760b	-0.3524631
41	0x3a658368	0.0008755238
42	0xbe1a5ac4	-0.15073687
43	0x3e05eeed	0.13079424
44	0x3d5e5a5f	0.054285403
45	0xbd3c0648	-0.045904428
46	0x3e1cb4c8	0.15303338
47	0x3d8a3413	0.067482136
48	0xbd9374ae	-0.07199989
49	0xbd72f9c6	-0.059320234
50	0xbcdc5cce	-0.026899721
51	0x3e18980f	0.14901756
52	0x3d3c7ab4	0.046015456
53	0x3e6c4e45	0.23076732
54	0x3dddb687	0.1082583
55	0x3e3254d0	0.17415166
56	0xbe11d1a5	-0.1424013
57	0x3ebb81eb	0.36622557
58	0x3cdf85e3	0.027285522
59	0xbd978c53	-0.073998116
60	0x3e80df9f	0.2517061
61	0xbe361644	-0.17781931
62	0xbd163d6b	-0.036679666
63	0x3c0a6e80	0.008449197
64	0xbdc04dc4	-0.093898326
65	0xbe1f6945	-0.15567501
66	0xbd2377b0	-0.039909065
67	0xbe9665a3	-0.29374418
68	0x3dfd4b58	0.12367886
69	0x3def0ba9	0.11672146
70	0xbd82140d	-0.06351481
71	0xbddd979e	-0.10819934
72	0xbd89e193	-0.06732478
73	0x3dfc0c29	0.12307007
74	0xbd136bf8	-0.03599164
75	0x3e086156	0.1331838
76	0xbba5ecb7	-0.005063619
77	0x3d1ee42c	0.03879182
78	0x3d62b9ad	0.055352855
79	0xbdb64d22	-0.08901431
80	0x3db45561	0.08805347
81	0xbe1a6ed9	-0.15081348
82	0xbc1b449c	-0.009476807
83	0xbdfe7bda	-0.124259666
84	0xbe2e75af	-0.1703708
85	0x3e1c0e91	0.15239932
86	0x3dc1270c	0.09431276
87	0xbd8d8bde	-0.06911443
88	0x3cf53ac7	0.029935254
89	0xbd5f33d1	-0.054492775
90	0xbd02422e	-0.031801395
91	0xbe39ae74	-0.18132955
92	0xbe369eb8	-0.17833984
93	0x3dcb24da	0.09919138
94	0x3d5a03fd	0.05322646
95	0xbadfaf99	-0.0017065882
96	0x3d89cfa2	0.06729056
97	0xbe398451	-0.18116881
98	0x3e4507a0	0.1924119
99	0xbc91bf2e	-0.017791357
100	0xbdb2acef	-0.08724391
101	0xbd6d00d1	-0.057862107
102	0xbdb9a061	-0.09063793
103	0x3dc8ecdd	0.09810803
104	0xbdd4ae84	-0.10384849
105	0x3de14d82	0.110011116
106	0x3e012919	0.12613334
107	0x3e8a76b7	0.27043697
108	0xbe8044bd	-0.25052443
109	0xbdde196a	-0.10844691
110	0xbce648f5	-0.02811096
111	0xbdf41a03	-0.11919024
112	0x3e362681	0.17788126
113	0x3cfc2e48	0.030783787
114	0xbdf793d0	-0.1208874
115	0x3e2c93d0	0.16853261
116	0x3dd77cda	0.105218604
117	0x3cc4c084	0.02401758
118	0x3e39397c	0.18088335
119	0x3d6c6109	0.057709727
120	0x3d22e373	0.039767694
121	0xbd0586f4	-0.032599404
122	0x3df4c349	0.1195131
123	0xbdd5e501	-0.1044407
124	0xbe4b3c17	-0.19847141
125	0x3e0a09fb	0.1348037
126	0x3e02a5e1	0.1275859
127	0x3ceff892	0.029293332
128	0x3db03181	0.08603192
129	0xbd6ccf63	-0.057814967
130	0xbd816d6b	-0.06319698
131	0xbe64b418	-0.22334325
132	0x3da52ea5	0.08065537
133	0x3d7e53b0	0.06209153
134	0xbd5b74b7	-0.053578105
135	0x3dfe7af4	0.12425795
136	0xbd8d6d1a	-0.06905575
137	0xbdbee3da	-0.09320803
138	0xbdac1428	-0.08402282
139	0x3d6ec2e4	0.05829133
140	0xbc859e2c	-0.016310774
141	0xbe215246	-0.15754041
142	0xbd6d828c	-0.057985827
143	0xbd2de209	-0.042451892
144	0x3d19373a	0.037406184
145	0xbc4d2611	-0.012521283
146	0xbe8fd92f	-0.28095385
147	0xbc79a28e	-0.01523651
148	0x3e1d12c9	0.15339197
149	0xbd9961ad	-0.07489333
150	0x3e0c88d7	0.13724075
151	0xbe2ace11	-0.1668017
152	0xbc80547d	-0.015665287
153	0x3e29b309	0.16572203
154	0xbccebe46	-0.025237214
155	0xbca94be0	-0.020666063
156	0x3c191bb3	0.009344983
157	0xbc756d13	-0.014979619
158	0x3e7e4dd7	0.24834381
159	0xbe111a1b	-0.14170115
160	0xbe3746c1	-0.17898084
161	0x3e462e19	0.19353522
162	0x3ea2a2e2	0.31764895
163	0xbde9b036	-0.11410563
164	0x3d644dc6	0.055738233
165	0x3d12435b	0.035708766
166	0xbdf2c0da	-0.1185319
167	0x3df6266a	0.12019046
168	0x3d5f6d76	0.05454775
169	0x3e05b5c1	0.13057615
170	0xbdbae0a6	-0.091248795
171	0x3e75bcb1	0.23997761
172	0x3e0dc589	0.13844885
173	0xbd8c60eb	-0.06854423
174	0xbe48749b	-0.19575731
175	0x3d65e34e	0.056124978
176	0x3d703f78	0.05865428
177	0x3ddc90a8	0.107697785
178	0x3dd6a0ff	0.10479926
179	0xbc645516	-0.013936302
180	0xbe090445	-0.13380535
181	0x3e87056d	0.26371327
182	0xbc5a0b7b	-0.013308401
183	0x3b2a9c50	0.002603311
184	0xbdf07fe0	-0.1174314
185	0xbcd9d36e	-0.026590075
186	0x3be398e7	0.0069457176
187	0x3d533336	0.05156251
188	0x3edad4d0	0.42740488
189	0x3d5bc5a7	0.053655293
190	0x3dd5c248	0.10437447
191	0xbcfc544d	-0.030801916

critic.conv2.bias f4 [64]
0	0x00000000	0.0
1	0x00000000	0.0
2	0x00000000	0.0
3	0x00000000	0.0
4	0x00000000	0.0
5	0x00000000	0.0
6	0x00000000	0.0
7	0x00000000	0.0
8	0x00000000	0.0
9	0x00000000	0.0
10	0x00000000	0.0
11	0x00000000	0.0
12	0x00000000	0.0
13	0x00000000	0.0
14	0x00000000	0.0
15	0x00000000	0.0
16	0x00000000	0.0
17	0x00000000	0.0
18	0x00000000	0.0
19	0x00000000	0.0
20	0x00000000	0.0
21	0x00000000	0.0
22	0x00000000	0.0
23	0x00000000	0.0
24	0x00000000	0.0
25	0x00000000	0.0
26	0x00000000	0.0
27	0x00000000	0.0
28	0x00000000	0.0
29	0x00000000	0.0
30	0x00000000	0.0
31	0x00000000	0.0
32	0x00000000	0.0
33	0x00000000	0.0
34	0x00000000	0.0
35	0x00000000	0.0
36	0x00000000	0.0
37	0x00000000	0.0
38	0x00000000	0.0
39	0x00000000	0.0
40	0x00000000	0.0
41	0x00000000	0.0
42	0x00000000	0.0
43	0x00000000	0.0
44	0x00000000	0.0
45	0x00000000	0.0
46	0x00000000	0.0
47	0x00000000	0.0
48	0x00000000	0.0
49	0x00000000	0.0
50	0x00000000	0.0
51	0x00000000	0.0
52	0x00000000	0.0
53	0x00000000	0.0
54	0x00000000	0.0
55	0x00000000	0.0
56	0x00000000	0.0
57	0x00000000	0.0
58	0x00000000	0.0
59	0x00000000	0.0
60	0x00000000	0.0
61	0x00000000	0.0
62	0x00000000	0.0
63	0x00000000	0.0

critic.conv2.lin.weight f4 [64, 64]
0	0xbdb2e800	-0.08735657
1	0x3d1207b4	0.035651878
2	0x3d6990c0	0.05702281
3	0x3e6a4e7d	0.22881503
4	0x3d60878c	0.054816768
5	0xbdf6b406	-0.120460555
6	0xbe2dcc54	-0.16972476
7	0x3c47625f	0.01216945
8	0xbd5cb464	-0.05388297
9	0x3d706182	0.05868674
10	0xbcb80e7c	-0.022467844
11	0xbe886da6	-0.26646155
12	0x3cc69ac8	0.024243727
13	0x3cd8d5c0	0.026469111
14	0x3d692b50	0.05692607
15	0x3dfeb3d2	0.12436642
16	0x3dc3950b	0.09549912
17	0xbcab7ecc	-0.020934485
18	0x3ac9f396	0.0015407677
19	0x3de37d15	0.11107842
20	0x3c818391	0.015809806
21	0x3ce73389	0.028222816
22	0xbe4800a4	-0.19531494
23	0xbe0ce246	-0.13758191
24	0xbeaad28e	-0.33363765
25	0x3c8cd8d9	0.017193245
26	0xbe07879c	-0.13235325
27	0x3c00021c	0.007813003
28	0x3e0f928a	0.14020744
29	0x3d629b57	0.055323925
30	0xbe5d9374	-0.2163828
31	0xbda2f5fa	-0.079570726
32	0xbdb3e3d1	-0.08783687
33	0xbdaef623	-0.085430406
34	0xbca514e0	-0.020151556
35	0xbc55845c	-0.013032045
36	0x3d89989d	0.06718562
37	0xbc8c3b66	-0.017118167
38	0x3db582f8	0.08862871
39	0xbe803daa	-0.25047046
40	0x3e83a3bf	0.25710866
41	0xbdda3139	-0.1065392
42	0x3e85cd6e	0.26133293
43	0xbd6916c4	-0.056906477
44	0x3e34bc76	0.17650017
45	0xbd4411f5	-0.047868688
46	0x3cfa1e80	0.030532122
47	0x3e11bca9	0.14232124
48	0xbe095721	-0.13412143
49	0x3e2dc416	0.16969332
50	0xbe1843c2	-0.14869598
51	0xbcd324ba	-0.025774349
52	0x3e049bf0	0.1295011
53	0x3d8c1b38	0.06841129
54	0xbbe5b3cf	-0.0070099602
55	0xbdfb0ac4	-0.12257913
56	0xbd5636bb	-0.05229829
57	0xbe132c00	-0.14372253
58	0x3c7aa9a5	0.0152992355
59	0xbe2fa763	-0.17153697
60	0x3df64919	0.12025661
61	0x3de0d82b	0.10978731
62	0xbe2437b6	-0.16036877
63	0x3c2dbcb4	0.010604072
64	0xbe0bdeb1	-0.13659169
65	0x3cd95200	0.026528358
66	0xbcc1cf2d	-0.02365836
67	0x3cad0d21	0.021124424
68	0xbcbfdab2	-0.023419712
69	0x3dcfeaa7	0.10152178
70	0x3c5a29ea	0.013315657
71	0xbccc356a	-0.024927814
72	0xbe20c253	-0.15699129
73	0xbe94d3c0	-0.29067802
74	0xbd964778	-0.0733785
75	0x3d35faa2	0.044428475
76	0x3d93a8bf	0.0720992
77	0xbd82cffe	-0.063873276
78	0x3e06453f	0.13112353
79	0x3e645414	0.22297698
80	0xbe29185e	-0.16513202
81	0xbe823807	-0.2543337
82	0x3cc58803	0.024112707
83	0xbd745044	-0.05964686
84	0x3e094a5a	0.13407269
85	0x3e0fed91	0.14055468
86	0xbe449634	-0.19197923
87	0x3c2a5446	0.010396069
88	0xbda73dec	-0.081661075
89	0x3df6a308	0.120428145
90	0x3dbdf2d8	0.092748344
91	0xbe179023	-0.14801078
92	0x3e1ec04b	0.15503041
93	0xbe146696	-0.14492258
94	0xbda61ca6	-0.08110933
95	0x3dc206ee	0.09473978
96	0x3d19d094	0.03755243
97	0x3e0b38ab	0.13595836
98	0x3e2fc45a	0.17164746
99	0x3d83ee3e	0.064419255
100	0x3e304298	0.17212903
101	0xbcac71b6	-0.021050315
102	0x3e69ced5	0.22832806
103	0x3ce7ba8a	0.028287191
104	0x3d8d9ef2	0.06915082
105	0x3e0ccfc3	0.1375113
106	0xbe67f1bc	-0.22650808
107	0x3d8f8a18	0.07008761
108	0xbe6309ca	-0.22171703
109	0x3c49629d	0.012291578
110	0x3dac9cc7	0.084283404
111	0xbe20488a	-0.15652671
112	0xbdf096c2	-0.11747505
113	0xbdd50cb4	-0.104028136
114	0xbdd82d46	-0.1055551
115	0xbe161fe7	-0.14660607
116	0x3dba406d	0.090943195
117	0x3dd9de8a	0.10638149
118	0x3b91b1e1	0.0044462536
119	0x3dde0e3d	0.108425595
120	0xbe3f03be	-0.18653771
121	0xbd56c5ed	-0.05243485
122	0x3c4cb4be	0.012494264
123	0xbd0e89dc	-0.03479944
124	0xbdc68366	-0.09693031
125	0xbe423638	-0.18965995
126	0xbdf03943	-0.11729672
127	0xbdb9d881	-0.09074498
128	0xbd531084	-0.051529422
129	0x3ded1929	0.115770645
130	0x3d8dfb40	0.06932688
131	0x3e673342	0.22578147
132	0xbe0677f7	-0.131317
133	0x3dcd76ed	0.10032449
134	0x3d8f781c	0.07005331
135	0x3e1547c7	0.14578162
136	0xbddf185f	-0.1089332
137	0x3d8f7554	0.070048004
138	0xbe0a8ce0	-0.13530302
139	0x3d9c71d4	0.076388985
140	0x3e3a889e	0.18216178
141	0x3d2c6aaa	0.04209391
142	0x3d8a099b	0.06740113
143	0xbdffbf50	-0.12487662
144	0x3cb84678	0.02249454
145	0xbc973c7e	-0.018461462
146	0x3e807743	0.2509099
147	0x3dbbc469	0.09168322
148	0xbd2b8127	-0.041871216
149	0x3d06c1b6	0.03289958
150	0xbce9c743	-0.028537398
151	0x3df4ed92	0.119593754
152	0xbdb7e6a8	-0.08979541
153	0x3d44da74	0.048059896
154	0xbda82152	-0.0820948
155	0xbca6a60f	-0.020342855
156	0xbe53406e	-0.20630047
157	0xbe956fe7	-0.29186937
158	0x3e1d9318	0.15388143
159	0x3e8753ab	0.2643102
160	0xbd503b8a	-0.05083803
161	0x3c996c49	0.018728392
162	0x3d4b64da	0.049656726
163	0x3c840d06	0.016119491
164	0xbd63f106	-0.05564978
165	0x3da54cf1	0.08071316
166	0xbd3b965c	-0.04579769
167	0xbe419983	-0.18906216
168	0x3dd07a8f	0.10179626
169	0x3b84d6f0	0.004053943
170	0xbab96378	-0.0014144024
171	0x3e19acbd	0.150073
172	0x3d42e0ba	0.047577597
173	0xbd699a91	-0.05703217
174	0x3e168169	0.14697804
175	0x3e8c57f6	0.2741086
176	0xbb24e2a8	-0.0025159512
177	0xbe36a683	-0.17836957
178	0x3cb7cd06	0.02243663
179	0x3c96442a	0.01834305
180	0xbcfd75d2	-0.03093997
181	0xbe303aea	-0.17209974
182	0xbdc2718b	-0.09494313
183	0x3e8a9f4e	0.27074665
184	0xbcd2c1ff	-0.02572727
185	0xbd190d2b	-0.037366074
186	0x3d209106	0.039200805
187	0xbde194d6	-0.11014716
188	0xbe0031ce	-0.12518999
189	0x3e41a5aa	0.18910852
190	0x3e35dd6f	0.17760251
191	0x3e06342e	0.13105842
192	0xbd0b3c9f	-0.03399336
193	0xbe4a4b74	-0.19755346
194	0xbd7497ae	-0.059714966
195	0x3c726380	0.01479423
196	0xbd87e89f	-0.06636166
197	0x3daa45ca	0.083140925
198	0xbe9a6c05	-0.30160537
199	0xbb7754fb	-0.0037739861
200	0xbdada65a	-0.08478995
201	0x3e3222c0	0.17396069
202	0x3dec8d08	0.11550337
203	0x3e3dea04	0.18546301
204	0x3da73b5d	0.081656195
205	0x3d308954	0.043099716
206	0x3e846a3a	0.25862294
207	0x3d48a3e2	0.048984416
208	0x3d84167d	0.06449602
209	0x3c9a5e17	0.018843694
210	0x3cbf7e11	0.023375543
211	0xbd61f6ac	-0.055166885
212	0xbd03280f	-0.032020625
213	0x3d966a23	0.07344463
214	0xbd31bcfb	-0.043393116
215	0x3e8f4d22	0.27988535
216	0x3d574b85	0.052562255
217	0xbe454ee8	-0.19268382
218	0xbd238635	-0.03992291
219	0x3e038efc	0.12847513
220	0x3dac4596	0.0841171
221	0x3e2323f0	0.15931678
222	0x3b9ffbcf	0.004882313
223	0x3da54604	0.08069995
224	0xbdd2c381	-0.10291196
225	0x3c911204	0.017708786
226	0x3ba2f9c8	0.004973624
227	0x3db72f48	0.08944565
228	0x3dc0cb0c	0.09413728
229	0x3e640e97	0.2227119
230	0x3dff81a4	0.12475899
231	0xbd391b77	-0.04519221
232	0xbc209c90	-0.009802952
233	0xbd153f63	-0.036437403
234	0x3e001a1c	0.1250996
235	0x3e1a804c	0.15088004
236	0xbdaf5836	-0.08561747
237	0x3e95dc52	0.29269654
238	0xbe56f780	-0.20992851
239	0xbdc9e151	-0.09857429
240	0xbd114abc	-0.035471663
241	0xbb7333f0	-0.0037109815
242	0xbddb41c9	-0.10705907
243	0xbe0dcf54	-0.1384862
244	0xbe4f5114	-0.20245773
245	0xbe660852	-0.22464111
246	0x3e4e752e	0.20161888
247	0xbdc0297d	-0.09382913
248	0xbbabd148	-0.005243454
249	0xbe39cd03	-0.18144612
250	0x3bbe20b4	0.0058022384
251	0x3c807a6b	0.015683373
252	0xbd8d8741	-0.06910563
253	0x3bfe77bc	0.0077657383
254	0x3d1ba2a3	0.0379969
255	0x3d919c97	0.07109945

critic.fc.weight f4 [1, 65]
0	0x3ed53e41	0.41649058
1	0x3e8b8bfb	0.27255234
2	0x3e896f42	0.26842695
3	0xbed05c05	-0.40695205
4	0xbe2b91e1	-0.16754867
5	0x3b0f526f	0.0021869203
6	0x3d3bc4c2	0.04584194
7	0xbd27adca	-0.040937223
8	0xbeae39e5	-0.34028545
9	0xbd12d076	-0.035843335
10	0x3e1635d0	0.14668965
11	0xbdd29883	-0.102829956
12	0x3e6e7b7c	0.23289293
13	0xbb819bf6	-0.0039553596
14	0xbd8d6d96	-0.069056675
15	0xbe23fd7d	-0.16014667
16	0x3e824d71	0.25449708
17	0x3e2e4a63	0.17020564
18	0x3e81eeaa	0.253774
19	0x3e9eaa3b	0.3098925
20	0xbd854377	-0.065070085
21	0xbdcbf576	-0.09958927
22	0x3d222dc2	0.03959442
23	0x3de4e1ae	0.111758575
24	0x3ccba578	0.024859175
25	0x3d1b6ade	0.037943713
26	0x3e31601c	0.17321819
27	0xbddcda2b	-0.107838
28	0x3c208154	0.009796459
29	0xbe15d055	-0.14630254
30	0xbe8ed357	-0.27895615
31	0xbe74e065	-0.23913725
32	0xbdcfbd2a	-0.10143502
33	0x3dc7e31e	0.09760116
34	0x3e8114b0	0.25211096
35	0x3da25a48	0.07927376
36	0x3db23e39	0.08703274
37	0xbd2aa5a9	-0.041661892
38	0xbe96b7d2	-0.2943712
39	0x3e6512ef	0.22370504
40	0xbd380e37	-0.04493543
41	0x3cd3a1e5	0.025834033
42	0xbcf904a1	-0.030397715
43	0xbdd03384	-0.10166076
44	0xbe088d0d	-0.13335057
45	0x3dfc295e	0.12312578
46	0x3e50ce85	0.20391281
47	0xbd887cdf	-0.06664442
48	0xb9eb836e	-0.00044920616
49	0xbc865010	-0.016395599
50	0x3e033a09	0.12815107
51	0xbe90c75d	-0.28277102
52	0xbd7743d3	-0.060367417
53	0x3cf00765	0.029300401
54	0xbcee9338	-0.029122934
55	0x3ea6f54b	0.3260902
56	0x3e247a2e	0.16062233
57	0xbe9d3a3f	-0.307085
58	0x3cfb69cb	0.030690094
59	0x3e72b6c7	0.23702537
60	0x3d4f7b0b	0.050654452
61	0xbe105b91	-0.1409743
62	0xbe0b4ee3	-0.13604312
63	0x3dacb5d9	0.08433122
64	0x3d836626	0.06415968

_actor_critic.actor.sigma_param f4 [2, 1]
0	0x00000000	0.0
1	0x00000000	0.0

_actor_critic.actor.conv1.bias f4 [64]
0	0x00000000	0.0
1	0x00000000	0.0
2	0x00000000	0.0
3	0x00000000	0.0
4	0x00000000	0.0
5	0x00000000	0.0
6	0x00000000	0.0
7	0x00000000	0.0
8	0x00000000	0.0
9	0x00000000	0.0
10	0x00000000	0.0
11	0x00000000	0.0
12	0x00000000	0.0
13	0x00000000	0.0
14	0x00000000	0.0
15	0x00000000	0.0
16	0x00000000	0.0
17	0x00000000	0.0
18	0x00000000	0.0
19	0x00000000	0.0
20	0x00000000	0.0
21	0x00000000	0.0
22	0x00000000	0.0
23	0x00000000	0.0
24	0x00000000	0.0
25	0x00000000	0.0
26	0x00000000	0.0
27	0x00000000	0.0
28	0x00000000	0.0
29	0x00000000	0.0
30	0x00000000	0.0
31	0x00000000	0.0
32	0x00000000	0.0
33	0x00000000	0.0
34	0x00000000	0.0
35	0x00000000	0.0
36	0x00000000	0.0
37	0x00000000	0.0
38	0x00000000	0.0
39	0x00000000	0.0
40	0x00000000	0.0
41	0x00000000	0.0
42	0x00000000	0.0
43	0x00000000	0.0
44	0x00000000	0.0
45	0x00000000	0.0
46	0x00000000	0.0
47	0x00000000	0.0
48	0x00000000	0.0
49	0x00000000	0.0
50	0x00000000	0.0
51	0x00000000	0.0
52	0x00000000	0.0
53	0x00000000	0.0
54	0x00000000	0.0
55	0x00000000	0.0
56	0x00000000	0.0
57	0x00000000	0.0
58	0x00000000	0.0
59	0x00000000	0.0
60	0x00000000	0.0
61	0x00000000	0.0
62	0x00000000	0.0
63	0x00000000	0.0

_actor_critic.actor.conv1.lin.weight f4 [64, 3]
0	0xbd5733c0	-0.052539587
1	0xbe4c6e2c	-0.19963902
2	0xbd389df0	-0.045072496
3	0xbe3bf4aa	-0.1835505
4	0x3decda13	0.11565032
5	0xbd9bbd94	-0.076045185
6	0x3cc6a278	0.024247393
7	0xbd036909	-0.03208259
8	0x3d190bc8	0.03736475
9	0xbddc0682	-0.10743429
10	0x3d018dbd	0.031629313
11	0xbc1910cc	-0.009342384
12	0x3d7540f0	0.059876382
13	0x3bd1888e	0.0063944524
14	0xbdb4693c	-0.08809134
15	0x3d01f19c	0.031724557
16	0xbb7056a1	-0.0036672729
17	0xbd1e9274	-0.038713887
18	0x3dcdaaf4	0.10042372
19	0xbe4debd0	-0.20109487
20	0x3dfb24b0	0.12262857
21	0xbdab4740	-0.08363199
22	0x3db70d92	0.08938135
23	0x3dd778b3	0.105210684
24	0x3e81570f	0.25261733
25	0xbd09d6f2	-0.033652253
26	0x3d02fec7	0.031981256
27	0xbde58528	-0.11207038
28	0xbe2a8f5d	-0.16656251
29	0x3ce88468	0.028383449
30	0x3e37c473	0.17946033
31	0x3dbdac98	0.09261435
32	0xbe6466b1	-0.22304799
33	0xbd1b7b77	-0.037959542
34	0x3e6142d8	0.21998155
35	0x3d3e4dd7	0.046460953
36	0xbddff1f3	-0.1093482
37	0xbe805717	-0.25066444
38	0x3b0046bd	0.0019573413
39	0xbd87d846	-0.06633048
40	0xbda35024	-0.0797427
41	0x3d71bdcd	0.0590189
42	0x3d931765	0.071821965
43	0x3dcef10c	0.1010457
44	0xbc581c75	-0.013190378
45	0xbd5aac0e	-0.05338674
46	0x3c8bb4e7	0.017054034
47	0x3daf10da	0.08548136
48	0xbe26a426	-0.16273555
49	0xbd06e427	-0.032932427
50	0x3e26294d	0.16226692
51	0x3d686690	0.056738436
52	0x3e5e3244	0.21698862
53	0xbdea86d5	-0.114514984
54	0xbdeca228	-0.11554366
55	0xbcfa2fda	-0.030540396
56	0x3e1eb508	0.15498745
57	0xbd07daa6	-0.033167504
58	0xbe50fcba	-0.20408908
59	0xbe0bea95	-0.13663705
60	0xbb6bd393	-0.0035984262
61	0xbe3cf73c	-0.18453687
62	0x3d23b004	0.039962783
63	0x3dd70951	0.10499824
64	0xbe54535c	-0.20734924
65	0xbdc6432d	-0.096807815
66	0xbe48ca21	-0.19608356
67	0x3e4f94b2	0.20271567
68	0x3d45d443	0.04829813
69	0xbe55b970	-0.2087152
70	0x3c24ac78	0.010050885
71	0xbdfefd71	-0.12450684
72	0xbdac1154	-0.084017426
73	0xbdcbea5a	-0.099568084
74	0x3e1071a8	0.14105856
75	0x3e0d89f7	0.1382216
76	0xbbfb6d00	-0.007672906
77	0xbde6921a	-0.112583354
78	0xbceb4966	-0.028721523
79	0x3db0b69a	0.086285785
80	0x3b830f3f	0.00399962
81	0xbde06b8e	-0.109580144
82	0xbcbd1b2f	-0.023084251
83	0xbdf35987	-0.1188231
84	0x3b4975f3	0.003074047
85	0xbd971e94	-0.07378879
86	0x3e5be10c	0.21472567
87	0x3d3dbb89	0.046321426
88	0x3df301cb	0.11865576
89	0x3db30877	0.08741849
90	0x3e4afcbf	0.19822977
91	0xbd5ec877	-0.054390397
92	0x3d8e30e9	0.069429226
93	0x3dff6221	0.124698885
94	0xbd4562f0	-0.048190057
95	0xbd3b62ff	-0.045748707
96	0xbddf99b5	-0.10917989
97	0x3db5bedf	0.088742964
98	0xbe4dda1d	-0.20102735
99	0x3deb2324	0.11481312
100	0x3dda23a9	0.10651333
101	0x3c55732f	0.01302795
102	0xbe2b3b3f	-0.1672182
103	0xbd8fbb9a	-0.07018204
104	0x3e365321	0.17805149
105	0x3e5c532f	0.21516107
106	0x3d3bbb40	0.045832872
107	0x3d1351aa	0.035966553
108	0x3dcadb3d	0.09905098
109	0x3d9b0c8c	0.075707525
110	0x3c74cca5	0.014941369
111	0xbdef6399	-0.116889186
112	0x3d8be94d	0.06831608
113	0xbc587a69	-0.013212779
114	0x3d468051	0.048462216
115	0xbe1a5adc	-0.15073723
116	0xbd893ee2	-0.06701447
117	0x3e144e8f	0.14483093
118	0x3d54a44e	0.051914506
119	0xbc71edb2	-0.014766144
120	0x3d1c0230	0.038088024
121	0x3e47f3bf	0.19526576
122	0xbdb278b8	-0.087144315
123	0xbca67819	-0.020320939
124	0xbdafdd02	-0.08587076
125	0x3ce2dd17	0.027693314
126	0x3d9ca22c	0.07648119
127	0x3bccb089	0.0062466306
128	0x3d25c252	0.04046852
129	0x3e01c467	0.12672578
130	0x3e0d4a37	0.13797842
131	0x3e891f30	0.26781607
132	0xbe9e857b	-0.30961213
133	0x3dcd60df	0.10028242
134	0x3de61f54	0.11236444
135	0x3e09ac50	0.13444638
136	0x3dbc5bc9	0.09197194
137	0x3e64e1c2	0.22351745
138	0xbcd81d42	-0.026381139
139	0x3d8584ad	0.065194465
140	0xbe9d978d	-0.30779687
141	0xbdd34a0e	-0.10316859
142	0x3d9862aa	0.07440694
143	0xbe0c5ef1	-0.13708092
144	0xbce25069	-0.027626233
145	0xbd83727a	-0.06418319
146	0xbd507f08	-0.050902396
147	0xbe66b490	-0.22529817
148	0x3deed1d9	0.11661119
149	0xbe70e4c9	-0.23524775
150	0xbe4f1a26	-0.20224819
151	0x3e99ce97	0.30040428
152	0x3e0b8944	0.13626581
153	0xbdc3fc87	-0.0956965
154	0xbd9293c0	-0.07157087
155	0x3e2bceea	0.1677815
156	0xbc9b6b13	-0.018971955
157	0x3d3ec1d9	0.046571586
158	0xbe456e5a	-0.19280377
159	0x3d99d3cc	0.075111
160	0x3e53fb3a	0.20701304
161	0x3e0e0735	0.13869937
162	0xbe07e1ca	-0.13269725
163	0xbcd860ac	-0.026413284
164	0x3d9fa55f	0.07795214
165	0xbe13ad87	-0.14421664
166	0x3d9f1813	0.07768264
167	0x3df028a9	0.11726505
168	0x3db1caa7	0.08681231
169	0xbca1910f	-0.01972249
170	0x3e1266ec	0.14297074
171	0xbd736d48	-0.05943039
172	0xbe786bb0	-0.2425983
173	0x3e04f607	0.12984477
174	0xbe01d434	-0.12678605
175	0xbdaaa96e	-0.083330974
176	0x3d3f7ce2	0.046749957
177	0x3ddaafbe	0.106780514
178	0x3e82758e	0.25480312
179	0x3d6e4e3e	0.058180086
180	0xbc21a804	-0.009866718
181	0xbce83ceb	-0.02834936
182	0xbdb8500e	-0.08999644
183	0x3bc3ca05	0.0059750103
184	0xbdee39ad	-0.116320945
185	0x3d075983	0.03304435
186	0x3bc1c491	0.005913325
187	0x3db61875	0.088913836
188	0x3ea11459	0.31460837
189	0x3e92d6c5	0.2867948
190	0x3d9c6f6a	0.07638438
191	0x3d7eb88b	0.062187713

_actor_critic.actor.conv2.bias f4 [64]
0	0x00000000	0.0
1	0x00000000	0.0
2	0x00000000	0.0
3	0x00000000	0.0
4	0x00000000	0.0
5	0x00000000	0.0
6	0x00000000	0.0
7	0x00000000	0.0
8	0x00000000	0.0
9	0x00000000	0.0
10	0x00000000	0.0
11	0x00000000	0.0
12	0x00000000	0.0
13	0x00000000	0.0
14	0x00000000	0.0
15	0x00000000	0.0
16	0x00000000	0.0
17	0x00000000	0.0
18	0x00000000	0.0
19	0x00000000	0.0
20	0x00000000	0.0
21	0x00000000	0.0
22	0x00000000	0.0
23	0x00000000	0.0
24	0x00000000	0.0
25	0x00000000	0.0
26	0x00000000	0.0
27	0x00000000	0.0
28	0x00000000	0.0
29	0x00000000	0.0
30	0x00000000	0.0
31	0x00000000	0.0
32	0x00000000	0.0
33	0x00000000	0.0
34	0x00000000	0.0
35	0x00000000	0.0
36	0x00000000	0.0
37	0x00000000	0.0
38	0x00000000	0.0
39	0x00000000	0.0
40	0x00000000	0.0
41	0x00000000	0.0
42	0x00000000	0.0
43	0x00000000	0.0
44	0x00000000	0.0
45	0x00000000	0.0
46	0x00000000	0.0
47	0x00000000	0.0
48	0x00000000	0.0
49	0x00000000	0.0
50	0x00000000	0.0
51	0x00000000	0.0
52	0x00000000	0.0
53	0x00000000	0.0
54	0x00000000	0.0
55	0x00000000	0.0
56	0x00000000	0.0
57	0x00000000	0.0
58	0x00000000	0.0
59	0x00000000	0.0
60	0x00000000	0.0
61	0x00000000	0.0
62	0x00000000	0.0
63	0x00000000	0.0

_actor_critic.actor.conv2.lin.weight f4 [64, 64]
0	0x3dc183e0	0.09448981
1	0x3e75fd5a	0.24022427
2	0x3c7fdd78	0.015616767
3	0xbe1ea98a	-0.15494362
4	0x3be6dbb0	0.0070452318
5	0x3ca2bb16	0.0198646
6	0x3cdb97d2	0.026805792
7	0xbe84005b	-0.2578152
8	0xbd255b34	-0.04037018
9	0xbd1133ab	-0.035449665
10	0xbe0e928e	-0.13923094
11	0xbb962cd0	-0.004582979
12	0x3d8789d2	0.06618084
13	0xbbd37bb0	-0.0064539537
14	0x3e013311	0.12617137
15	0xbc8114b0	-0.015756935
16	0x3d25e006	0.04049685
17	0x3c34eff7	0.01104354
18	0xbd0d5824	-0.034507886
19	0x3dc30a3f	0.09523439
20	0xbe0fdda1	-0.14049388
21	0xbd69d1a1	-0.057084683
22	0x3c4a5be3	0.012351009
23	0xbd024d78	-0.03181216
24	0xbe4c273e	-0.19936845
25	0x3dbd24bb	0.092355214
26	0xbd82c3e1	-0.06385017
27	0xbda5fba5	-0.08104638
28	0xbd3f1266	-0.046648405
29	0x3d91586b	0.070969425
30	0xbcad1567	-0.02112837
31	0x3c4afaeb	0.012388925
32	0x3db409e6	0.087909505
33	0x3d108649	0.035284314
34	0xbd9273f9	-0.07151026
35	0x3d6a8d03	0.057263386
36	0x3dd589d8	0.10426682
37	0xbce5c989	-0.028050201
38	0x3e88c064	0.26709282
39	0x3e1d8947	0.15384398
40	0x3e5121fa	0.20423117
41	0x3caa1662	0.020762626
42	0xbe3179e3	-0.17331652
43	0x3d81d5c8	0.06339604
44	0xbe637230	-0.22211528
45	0xbd5d7981	-0.054070953
46	0xbc16427b	-0.009171124
47	0x3c19aede	0.0093800705
48	0xbe278f83	-0.16363339
49	0xbd19300c	-0.037399337
50	0xbe6d8fb7	-0.23199354
51	0x3e110c7e	0.14164922
52	0xbd3fc75e	-0.04682099
53	0xbd7dca37	-0.061960425
54	0xbdcf1b8d	-0.10112677
55	0xbe1745d0	-0.14772725
56	0xbe4b763f	-0.19869326
57	0xbe9cbc06	-0.306122
58	0x3e282eb2	0.16424063
59	0xbeafe445	-0.34353843
60	0xbdc425ef	-0.09577548
61	0x3d85ffbb	0.06542917
62	0x3dcb0b6e	0.099142894
63	0xbd19e11c	-0.037568197
64	0x3e70ac9c	0.23503345
65	0xbe93e5c0	-0.28886223
66	0x3dd6cd8b	0.10488423
67	0xbd8a5dd8	-0.067561805
68	0xbdbb3bd4	-0.09142271
69	0xbd4ba891	-0.049721304
70	0xbe7340ea	-0.23755231
71	0x3e04771d	0.12936063
72	0xbcc34d6f	-0.023840634
73	0x3da1ac53	0.07894196
74	0x3e84fc4d	0.2597374
75	0x3e31d0d9	0.17364825
76	0x3d10fee3	0.03539933
77	0x3e35f6c9	0.17769922
78	0x3d1392e3	0.036028754
79	0xbce40c29	-0.02783783
80	0x3d4b3600	0.049612045
81	0xbdcb53cd	-0.09928093
82	0x3dff2651	0.1245848
83	0xbe08e818	-0.13369787
84	0xbd52a60c	-0.051427886
85	0x3d69b66a	0.05705873
86	0x3d3f364f	0.046682652
87	0x3e65842e	0.22413704
88	0x3d63a472	0.05557675
89	0x3e3d670e	0.18496343
90	0x3e133cc5	0.1437865
91	0x3e11b944	0.1423083
92	0xbe1881ef	-0.14893316
93	0xbd03774a	-0.032096185
94	0x3e6892c7	0.22712241
95	0x3b077f00	0.0020675063
96	0x3d40b483	0.04704715
97	0x3d6415aa	0.055684723
98	0x3d4d32d1	0.05009729
99	0x3d4acebd	0.049513567
100	0x3d859d1f	0.06524109
101	0x3d01eb0b	0.031718295
102	0x3be1bbe8	0.0068888552
103	0x3db968b4	0.09053174
104	0x3dd5af26	0.104337975
105	0xbccd5b9f	-0.025068102
106	0x3e25de3f	0.16198061
107	0xbd835a2c	-0.06413683
108	0xbe19849e	-0.14991996
109	0xbea1ea89	-0.3162425
110	0xbc839848	-0.016063824
111	0x3b17d9d1	0.00231706
112	0x3b8ee278	0.0043604933
113	0x3e0b38ba	0.13595858
114	0xbd80cd14	-0.062891155
115	0xbdcc6e87	-0.09982019
116	0x3d107346	0.035266183
117	0x3cd2aa47	0.02571596
118	0xbe7481c2	-0.23877624
119	0xbc1e59ba	-0.009664947
120	0x3d47199d	0.04860841
121	0x3d599c4a	0.053127564
122	0x3d30c269	0.043154154
123	0xbe7c2de2	-0.24626878
124	0xbce54de0	-0.027991235
125	0x3c435bce	0.011923743
126	0xbdf49013	-0.119415425
127	0xbd537308	-0.051623374
128	0x3e1b1b6f	0.15147184
129	0xbd8aade6	-0.0677145
130	0xbe27cbe0	-0.16386366
131	0xbd567b8c	-0.052363917
132	0xbe8bf958	-0.27338672
133	0x3dfdd3e0	0.123939276
134	0x3b9d8480	0.004807055
135	0x3e318141	0.17334463
136	0xbd3d9db6	-0.046292983
137	0x3c3f1436	0.0116625335
138	0xbe91f3d1	-0.2850633
139	0x3d7605f2	0.060064264
140	0x3dab8928	0.0837577
141	0xbe254482	-0.16139415
142	0x3d48aa1a	0.048990346
143	0x3e90ce03	0.28282174
144	0x3c8eaafc	0.017415516
145	0x3e2481de	0.16065165
146	0x3dce969b	0.100873195
147	0xbe04c79f	-0.12966774
148	0x3deb37be	0.11485241
149	0xbe0c5683	-0.13704877
150	0xbe239ab7	-0.15976988
151	0x3d67c0e8	0.056580454
152	0xbdfd25d6	-0.12360732
153	0x3db86eee	0.09005533
154	0xbd584f80	-0.052810192
155	0xbdacc3cf	-0.08435785
156	0x3cefb5e1	0.029261531
157	0xbc86be7e	-0.016448256
158	0x3d1972a9	0.037462864
159	0xbd95e373	-0.07318773
160	0x3d86d4a2	0.06583525
161	0x3e850ca9	0.2598622
162	0x3cd281c5	0.025696645
163	0x3e08e29b	0.13367693
164	0x3d9fd415	0.07804123
165	0x3d9dd46d	0.077065326
166	0xbdba8c04	-0.09108737
167	0x3db7531e	0.089514
168	0x3e4b62c6	0.19861898
169	0xbe1d8563	-0.15382914
170	0x3db26240	0.08710146
171	0x3e369c24	0.17833
172	0x3d9f393c	0.077745885
173	0xbcb8765e	-0.02251738
174	0xbd56aa8a	-0.052408732
175	0x3dad3627	0.08457594
176	0x3e238861	0.15969993
177	0xbc76b314	-0.015057344
178	0xbd8e5664	-0.069500715
179	0xbd328e44	-0.043592706
180	0x3dec32da	0.11533137
181	0x3b9e6c1f	0.0048346664
182	0x3d8292d5	0.06375662
183	0xbe45018e	-0.19238874
184	0xbd9980e2	-0.074952856
185	0xbcc06074	-0.023483492
186	0xbe898226	-0.26857108
187	0x3e1afaa0	0.15134668
188	0xbc9982d3	-0.01873914
189	0x3e49ba5f	0.19700001
190	0x3c31f79c	0.010862257
191	0xbc1ba96c	-0.009500843
192	0x3e5f8439	0.21827783
193	0x3cedf98c	0.029049657
194	0x3e101f7e	0.14074513
195	0x3e25e878	0.16201961
196	0x3e34c77a	0.1765422
197	0x3e2a51ef	0.16632818
198	0x3e4cf55b	0.2001547
199	0x3e0b516e	0.13605282
200	0xbdcfe382	-0.101508155
201	0xbdc39935	-0.09550706
202	0x39962580	0.0002863817
203	0x3e3fe7e9	0.1874081
204	0xbd4bea7e	-0.049784176
205	0xbdfcd5d3	-0.12345471
206	0x3dd47692	0.10374178
207	0x3cd3b716	0.025844138
208	0xbd91ecca	-0.07125242
209	0xbde27c48	-0.11058861
210	0x3d18e23a	0.03732512
211	0x3da4e972	0.08052339
212	0x3c64c3a8	0.013962664
213	0x3c8266db	0.015918186
214	0xbe9a0c6b	-0.300876
215	0x3df95acd	0.12175522
216	0xbdecd1d8	-0.11563462
217	0xbde29055	-0.110626854
218	0x3e37c822	0.17947438
219	0xbd393736	-0.04521867
220	0xbd0c54ae	-0.034260444
221	0xbdeb3dab	-0.114863716
222	0x3c3f290f	0.011667504
223	0x3db6f707	0.089338355
224	0x3de056ad	0.10954032
225	0x3d18522c	0.03718774
226	0x3c566f06	0.0130879935
227	0x3cab4e3b	0.020911327
228	0xbe175712	-0.14779308
229	0xbdfb43df	-0.12268805
230	0x3e29bc2c	0.16575688
231	0xbc5d5a12	-0.013510244
232	0xbe1f66e4	-0.15566593
233	0xbd330677	-0.043707337
234	0x3da3c4a4	0.079964906
235	0x3dee3bd2	0.116325036
236	0x3e2d131c	0.16901821
237	0xbdb297af	-0.087203376
238	0x3d94e5a3	0.07270362
239	0xbe3ecd70	-0.18633056
240	0xbd8dbafe	-0.069204316
241	0x3e035118	0.12823904
242	0x3dceb22e	0.10092579
243	0xbd2bc741	-0.04193807
244	0x3cbfa306	0.023393165
245	0xbe44648e	-0.19178984
246	0xbd35c36f	-0.044375833
247	0x3e386036	0.18005452
248	0xbe2170a5	-0.15765627
249	0xbe977192	-0.29578835
250	0xbe0ad448	-0.13557541
251	0xbcf846a0	-0.030307114
252	0x3de7d85f	0.113205664
253	0xbe3f01d9	-0.18653049
254	0xbd521ff7	-0.051300015
255	0x3d7057b9	0.05867741
