rl_environments/trained_models/PPO_routing_2_obj_100/policy.pth (torch, 41822 bytes, 24 tensors)

actor.sigma_param f4 [2, 1]
0	0x3dffcd90	0.1249038
1	0xc0374187	-2.8633745

actor.conv1.bias f4 [64]
0	0x3e1a52bd	0.15070625
1	0x3d899085	0.06717018
2	0xbe30b0cc	-0.17254943
3	0x3de503ec	0.11182389
4	0x3e1a6aa9	0.1507975
5	0x00000000	0.0
6	0x00000000	0.0
7	0x00000000	0.0
8	0x00000000	0.0
9	0xbc1d3de9	-0.00959728
10	0x3dffcc6f	0.124901645
11	0x00000000	0.0
12	0xbd6535f2	-0.05595965
13	0xbb52567f	-0.0032095013
14	0x3d92cf0f	0.071683995
15	0x00000000	0.0
16	0xba52d8d1	-0.00080431724
17	0x3c391f37	0.011298946
18	0x00000000	0.0
19	0x3dfb5ab1	0.122731574
20	0x3dbd5bd5	0.09246031
21	0xbca089b9	-0.019596921
22	0x3e048681	0.12941934
23	0x3c83a5e5	0.016070316
24	0xbe300ad1	-0.17191626
25	0xbd7b13bf	-0.06129813
26	0xbe0d5cf2	-0.13804987
27	0x00000000	0.0
28	0x00000000	0.0
29	0x00000000	0.0
30	0xbcc6ce47	-0.024268283
31	0xbd7d13c9	-0.061786447
32	0x00000000	0.0
33	0xbcf6a075	-0.030105809
34	0xbdd7648a	-0.10517223
35	0xbe13cbf2	-0.14433268
36	0xbdc7dd05	-0.09758953
37	0xbadb296a	-0.0016720716
38	0x00000000	0.0
39	0xbdf1ee9b	-0.118130885
40	0xbd3679ba	-0.04454968
41	0xbc1dafd2	-0.009624438
42	0x3d923cf5	0.07140533
43	0x3d9983fc	0.07495877
44	0x3dd7a91f	0.10530304
45	0xbd6cd20e	-0.05781751
46	0xbe176877	-0.14785944
47	0x3d7fe1d4	0.062471226
48	0xbc63e77a	-0.013910169
49	0x00000000	0.0
50	0xbd5aa90d	-0.053383876
51	0x00000000	0.0
52	0x00000000	0.0
53	0xbd119bbf	-0.03554892
54	0xbe445335	-0.19172366
55	0xbe2d0c72	-0.16899279
56	0x3dbb00e5	0.0913103
57	0xbc774175	-0.01509129
58	0x3e172a1b	0.14762156
59	0x00000000	0.0
60	0xbc1d59e9	-0.009603956
61	0xbb9f8333	-0.004867935
62	0x00000000	0.0
63	0xbdedb117	-0.11606043

actor.conv1.lin.weight f4 [64, 2]
0	0x3e29ab29	0.16569199
1	0xbe13cc5e	-0.14433429
2	0x3e342ff4	0.17596418
3	0xbd8154e4	-0.0631502
4	0x3e16994f	0.1470692
5	0x3de86c69	0.113488026
6	0x3de9225c	0.11383507
7	0x3c6b509d	0.014362481
8	0xbe09055b	-0.13380949
9	0x3e49c722	0.1970487
10	0xbc2086e8	-0.009797789
11	0xbd22c09a	-0.03973446
12	0xbe44bfff	-0.19213866
13	0xbdc22edd	-0.09481595
14	0xbe15309e	-0.14569327
15	0xbe66e54e	-0.2254841
16	0xbddd9efe	-0.10821341
17	0xbe25f357	-0.16206108
18	0x3c17c87f	0.009264111
19	0xbdd54993	-0.10414424
20	0x3d5f7278	0.054552525
21	0x3e8b9b54	0.27266943
22	0xbdd8cbca	-0.10585745
23	0xbea6bf05	-0.3256761
24	0x3d5ea737	0.054358687
25	0xbe0e69fe	-0.1390762
26	0x3d194d7a	0.037427403
27	0x3d8e3273	0.06943216
28	0xbd058bd9	-0.032604072
29	0x3e35418c	0.17700785
30	0xbe8968b2	-0.2683769
31	0xbd5f00ea	-0.05444423
32	0xbe484f5a	-0.1956152
33	0xbd151cd9	-0.036404464
34	0xbe1e5f88	-0.1546613
35	0x3e3993ae	0.18122742
36	0xbdaad177	-0.083407335
37	0xbe5acd69	-0.2136742
38	0x3dd34b79	0.1031713
39	0x3ddd35e0	0.108012915
40	0xbd5bba76	-0.05364462
41	0x3e290a80	0.16507912
42	0x3c9f1721	0.019420208
43	0xbdad7f09	-0.08471496
44	0xbd31ba08	-0.043390304
45	0x3e0ecf7e	0.1394634
46	0x3daddb41	0.08489085
47	0xbe4cf10e	-0.2001383
48	0x3eadb45a	0.3392666
49	0x3e06d319	0.13166465
50	0x3d742447	0.05960491
51	0xbe1128dd	-0.14175744
52	0x3de20b34	0.11037293
53	0x3cdafe03	0.02673245
54	0xbd942b55	-0.072348274
55	0xbd60f5b7	-0.054921832
56	0xbe0d0eb4	-0.1377514
57	0xbdc61a6f	-0.096730106
58	0xbe5a272c	-0.21304005
59	0xbd228e64	-0.039686576
60	0x3c7fb183	0.015606287
61	0xbe962e2b	-0.29332098
62	0x3d6f8cd8	0.05848393
63	0xbe1af0b9	-0.15130891
64	0xbe8f831a	-0.2802971
65	0xbdfacf2d	-0.12246547
66	0x3cf0c381	0.029390099
67	0xbe243b8b	-0.16038339
68	0x3dd5ffe2	0.104491964
69	0xbcd1ce26	-0.025610995
70	0x3db22647	0.08698707
71	0x3da605a9	0.08106548
72	0xbde5ddeb	-0.11223968
73	0x3e4e9445	0.20173748
74	0x3a835e15	0.0010022545
75	0xbd507a94	-0.05089815
76	0xbb8a688a	-0.004223888
77	0xbe32a046	-0.17443952
78	0xbd80a864	-0.06282118
79	0x3df59ff6	0.11993401
80	0x3cc82780	0.024432898
81	0x3ca1efa1	0.019767584
82	0xbb91aea1	-0.004445866
83	0xbb021b92	-0.001985286
84	0x3c63b1a8	0.013897337
85	0x3e012703	0.12612538
86	0xbd52fe2a	-0.05151192
87	0x3e0b366d	0.1359498
88	0xbd650439	-0.05591223
89	0x3e1ed419	0.15510596
90	0xbcc4b69a	-0.024012852
91	0x3d653fb0	0.05596894
92	0x3d971ccc	0.073785394
93	0x3d94df47	0.07269149
94	0xbd94e09d	-0.07269404
95	0x3dbeb3d6	0.09311645
96	0x3bcea88f	0.006306715
97	0xbd8ad416	-0.067787334
98	0xbcd5e50f	-0.0261102
99	0xbe44f5e1	-0.1923442
100	0x3d1ecfb2	0.038772292
101	0x3c6bd1d5	0.01439329
102	0xbe71c9ec	-0.23612183
103	0xbca03247	-0.019555224
104	0xbcc08a37	-0.023503406
105	0xba758d9a	-0.00093671086
106	0xbdb75a5d	-0.08952782
107	0x3d591fb0	0.053008735
108	0x3e696362	0.22791818
109	0x3de1a59a	0.11017914
110	0x3e280554	0.16408283
111	0x3dab1265	0.08353118
112	0x3ce68435	0.028139213
113	0x3e4f2842	0.20230201
114	0x3d8484a7	0.06470614
115	0x3d7cf95a	0.061761238
116	0xbd9abd69	-0.07555658
117	0x3e044d12	0.12920025
118	0xbcc6f721	-0.024287762
119	0xbd9bb71d	-0.076032855
120	0x3e534e26	0.2063528
121	0x3d35636a	0.04428426
122	0xbd08d643	-0.03340746
123	0x3a8695ef	0.0010268072
124	0xbd910a92	-0.07082094
125	0xbdc41d18	-0.09575862
126	0x3de31cb6	0.110894606
127	0xbe3d8537	-0.18507849

actor.conv2.bias f4 [64]
0	0xbd084df1	-0.033277456
1	0xbcd19042	-0.025581483
2	0xbc69579e	-0.014242081
3	0xbcda4913	-0.026646173
4	0xbd81520f	-0.063144796
5	0xbd69d3c3	-0.057086717
6	0xbd15ff48	-0.03662041
7	0xbd23c206	-0.039979957
8	0xbcf41bc5	-0.029798398
9	0xbbb7f828	-0.0056142993
10	0xbbf93261	-0.0076048826
11	0x3dd828e0	0.10554671
12	0xbdb62026	-0.088928506
13	0xbca134a7	-0.019678427
14	0x3dba7ce6	0.09105854
15	0xbc21da0b	-0.009878646
16	0xbce4b323	-0.02791745
17	0x3e05ce91	0.1306708
18	0xbcaff39a	-0.021478463
19	0xbc93ad47	-0.018026961
20	0xbc7d8eee	-0.015475972
21	0x3e0d9750	0.13827252
22	0xbc9c697f	-0.019093273
23	0xbbd54f7d	-0.00650972
24	0xbd605c13	-0.05477531
25	0x3e10bc6f	0.14134382
26	0xbc304d60	-0.010760635
27	0xbc9675c9	-0.018366711
28	0xbcdf60fc	-0.027267925
29	0x3e391386	0.18073854
30	0xbd6e14ad	-0.058125187
31	0xbc5967c5	-0.0132693695
32	0xbcf75f5c	-0.030196838
33	0xbc144044	-0.009048525
34	0xbc448ec1	-0.011996926
35	0xbc920b17	-0.017827554
36	0x3e253949	0.16135134
37	0xbc67421b	-0.014114882
38	0xbd0d8597	-0.03455123
39	0xbb97908f	-0.004625387
40	0xbc9fb963	-0.019497579
41	0xbd2d945f	-0.042377826
42	0xbcb5bad4	-0.022183813
43	0xbcbeada1	-0.023276152
44	0x3e57a54b	0.21059148
45	0xbbc4a526	-0.0060011325
46	0xbc436502	-0.011925938
47	0xbd1d15c5	-0.03835084
48	0xba5081b0	-0.0007953895
49	0xbcc69527	-0.024241043
50	0xbc5d7e13	-0.013518828
51	0xbb84a54b	-0.004048025
52	0x3de99511	0.11405385
53	0xbcbd8d12	-0.023138557
54	0xbcf8b971	-0.030361863
55	0xbc26e9ee	-0.010187609
56	0xbc425339	-0.011860662
57	0xbd1c40dc	-0.038147792
58	0xbcd16b98	-0.025564
59	0xbcbfb333	-0.023400879
60	0xbcba5d7c	-0.022749655
61	0xbd28c266	-0.041201018
62	0xbcc3c462	-0.023897354
63	0xbc33a8bd	-0.010965523

actor.conv2.lin.weight f4 [64, 64]
0	0x3e57dd29	0.2108046
1	0x3ded3e12	0.115841046
2	0xbd3b0aad	-0.045664478
3	0x3d8cb2c0	0.06870031
4	0xbe1699d0	-0.14707112
5	0x3e87b847	0.2650778
6	0x3e6bedf4	0.2303999
7	0xbe1baa24	-0.15201622
8	0xbda5f728	-0.08103782
9	0xbd5c8e48	-0.053846627
10	0xbdd98974	-0.1062192
11	0x3c7e9b60	0.015539974
12	0xbe272b7d	-0.16325183
13	0xbe315e86	-0.17321214
14	0xbb9de6c2	-0.0048187682
15	0xbea542fc	-0.32277668
16	0x3d5a02c1	0.053225283
17	0x3e76763f	0.24068545
18	0x3e01417a	0.12622634
19	0xbda6a79e	-0.08137439
20	0x3d2d6d14	0.042340353
21	0xbdf0fe0d	-0.11767206
22	0xbdd70f57	-0.10500973
23	0x3d86f3cf	0.065894715
24	0xbe0be5a3	-0.13661818
25	0x3dc7c3ad	0.09754119
26	0x3e5ef52f	0.21773218
27	0xbc60e101	-0.01372552
28	0xbe20ee71	-0.15715958
29	0x3d1b988b	0.037987273
30	0x3da04f4f	0.07827627
31	0xbc1cfef3	-0.009582269
32	0x3d141836	0.0361559
33	0x3b81f208	0.00396562
34	0x3da2c16d	0.07947049
35	0xba52c279	-0.0008039843
36	0x3e7b97b1	0.24569584
37	0x3d573f7d	0.05255078
38	0x3d3bf34e	0.04588633
39	0xbe16f3a9	-0.14741386
40	0x3def4e62	0.11684872
41	0xbd9f31de	-0.07773183
42	0xbd06e2c9	-0.032931123
43	0x3daa5ac6	0.08318095
44	0xbdabd073	-0.08389368
45	0x3da2e1d7	0.07953232
46	0xbc9b6847	-0.018970622
47	0xbdde0ff4	-0.108428866
48	0x3b972a92	0.004613229
49	0x3e2be6d3	0.16787271
50	0xbdca006b	-0.09863361
51	0xbd9e85e5	-0.07740382
52	0x3d9faad1	0.077962525
53	0xbe0147df	-0.12625073
54	0xbd1a3cfe	-0.037655823
55	0xbeaa65e7	-0.3328087
56	0xbe33ef8a	-0.17571846
57	0x3cfceb40	0.030873895
58	0x3d22a6f1	0.03970999
59	0x3a1e0b3e	0.0006028897
60	0xbca467f5	-0.020069102
61	0x3e2da44f	0.1695721
62	0x3b717244	0.003684179
63	0xbce24e9e	-0.027625378
64	0xbe1237ab	-0.14279048
65	0xbcdaf319	-0.026727246
66	0x3df55aa2	0.119801775
67	0x3dbc28c9	0.09187467
68	0x3e81b545	0.2533361
69	0x3e36fd5a	0.17870083
70	0x3d263db6	0.040586196
71	0xbe2cc24d	-0.16870995
72	0xbe66e64c	-0.22548789
73	0x3d8ffce8	0.0703066
74	0xbe9ecd3e	-0.31015962
75	0xbd46b63b	-0.048513632
76	0x3ddf514e	0.109041795
77	0xbe23ab66	-0.15983352
78	0x3d2dc84a	0.04242734
79	0xbdaa654e	-0.083201036
80	0xbe2bc62b	-0.16774814
81	0xbda46cee	-0.08028589
82	0x3dce96fc	0.10087392
83	0x3e24f618	0.16109502
84	0xbdca7e59	-0.0988738
85	0x3e13bd2f	0.14427637
86	0xbe3b2a7b	-0.18277924
87	0xbe146152	-0.1449025
88	0xbd561b65	-0.05227222
89	0x3e105f1a	0.14098778
90	0xbddce424	-0.10785702
91	0x3dfca4ca	0.123361185
92	0x3e0b839d	0.13624425
93	0xbcc2d883	-0.023784881
94	0xbcb0f3d1	-0.021600636
95	0x3ce4c7d8	0.027927324
96	0xbe0b2c6c	-0.13591164
97	0xbe219a9b	-0.15781634
98	0x3e530b47	0.2060977
99	0xbdc00869	-0.09376604
100	0xbd94c1af	-0.07263505
101	0x3da536e1	0.08067108
102	0x3cfc2b4d	0.030782366
103	0x3e1ff1d1	0.1561959
104	0x3be3d149	0.006952439
105	0x3dc7677e	0.097365364
106	0x3d115a1a	0.03548632
107	0xbb26d8b8	-0.0025458764
108	0xbdd35f78	-0.103209436
109	0x3deba4b2	0.115060225
110	0xbe164be8	-0.14677393
111	0xbd62811a	-0.055298902
112	0x3e2d933b	0.16950695
113	0xbdf2bb4c	-0.1185213
114	0x3d974fbd	0.07388256
115	0x3da6d76a	0.08146556
116	0x3e13a4e3	0.14418368
117	0x3e5e1076	0.21685967
118	0x3c2c21fa	0.0105061475
119	0xbdf46441	-0.119331844
120	0x3d05880b	0.032600444
121	0xbde2d709	-0.11076171
122	0x3e124de2	0.14287522
123	0x3d8234ea	0.06357749
124	0xbda196f2	-0.07890119
125	0x3c30c422	0.010788949
126	0x3e123b55	0.14280446
127	0x3ccd2d71	0.025046082
128	0xbdd3fd29	-0.10351021
129	0xbd93249c	-0.07184717
130	0xbc7f2663	-0.015573117
131	0x3dd58649	0.104260035
132	0x3dd749e7	0.10512143
133	0xbce669b4	-0.028126575
134	0x3e2b33bf	0.16718958
135	0x3dac6236	0.0841717
136	0x3d80c942	0.06288387
137	0x3c2fae8f	0.01072277
138	0xbe0d83a4	-0.13819748
139	0x3d9eb0f2	0.077485934
140	0x3d4cef73	0.050033044
141	0x3e362d40	0.17790699
142	0xbd893850	-0.06700194
143	0x3d9316ea	0.07182105
144	0xbe60c94e	-0.21951792
145	0x3e7178c7	0.23581229
146	0x3e89ad73	0.26890144
147	0xbd44dd27	-0.04806247
148	0xbe2ac093	-0.16675024
149	0xbe5111ee	-0.20416996
150	0xbe3513a6	-0.17683277
151	0xbdfd16e0	-0.12357879
152	0x3dc05df4	0.0939292
153	0x3e0554aa	0.13020578
154	0xbe59db94	-0.21275169
155	0xbe46c131	-0.19409634
156	0x3cc43dcc	0.023955248
157	0x3d2a1356	0.041522346
158	0x3d8862b1	0.06659449
159	0x3e0aaebb	0.13543217
160	0xb6c69800	-5.918555e-06
161	0xbd665299	-0.056231115
162	0xbd95a978	-0.07307714
163	0x3e4ea05f	0.20178364
164	0x3e370451	0.1787274
165	0xbe8b6b95	-0.27230516
166	0xbe3f9969	-0.18710865
167	0x3de75ab4	0.11296597
168	0x3e08d247	0.13361464
169	0x3d12bffd	0.035827626
170	0xbdeb4b34	-0.11488953
171	0x3d3c1db5	0.04592677
172	0x39e34c9d	0.00043353895
173	0x3c8ca6bc	0.017169349
174	0x3e22a7cb	0.1588432
175	0xbd54022c	-0.051759884
176	0xbe414320	-0.18873262
177	0x3db7c9b0	0.08974016
178	0x3ddd5a9a	0.108082965
179	0x3d52e351	0.051486317
180	0xbc90e727	-0.017688347
181	0xbb542096	-0.0032368056
182	0xbe14a839	-0.14517297
183	0xbc6ec45e	-0.014573185
184	0xbdf8ad4c	-0.12142429
185	0xbd18bbb1	-0.03728837
186	0xbdc061a8	-0.093936265
187	0x3d7321a3	0.05935825
188	0x3e15b8a2	0.14621213
189	0xbe29fae4	-0.16599613
190	0x3bd006b6	0.0063484563
191	0x3cdeb397	0.027185244
192	0x3ca45034	0.020057775
193	0xbe0e2995	-0.1388305
194	0xbc9e0aa1	-0.019292178
195	0x3c67a2c8	0.014137931
196	0x3d30b266	0.043138884
197	0xbb9741e0	-0.004616007
198	0x3c2b8547	0.0104687875
199	0xb7c69c00	-2.3676082e-05
200	0xbe23bb76	-0.1598948
201	0xbdf7841b	-0.12085744
202	0x3c3502a2	0.011047991
203	0xbe90ba24	-0.28267014
204	0x3d0d2c0d	0.03446584
205	0xbe56ffe8	-0.20996058
206	0xbe1669f2	-0.14688852
207	0x3c729018	0.014804862
208	0xbd9857e2	-0.07438637
209	0xbd1ef09f	-0.038803693
210	0xbe53c0f6	-0.20679078
211	0xbe834d76	-0.25645036
212	0xbb891b50	-0.004184164
213	0xbe50c450	-0.20387387
214	0x3d53e368	0.051730543
215	0xbe8290b8	-0.25501037
216	0x3e1a0597	0.15041195
217	0xbddf7178	-0.10910314
218	0xbe296277	-0.16541468
219	0xbd87da4a	-0.06633432
220	0xbd227c58	-0.039669365
221	0x3d9e7b3d	0.077383496
222	0xbe7df20b	-0.24799363
223	0xbd89b161	-0.067232855
224	0xbb820d90	-0.003968902
225	0xbd91f0a4	-0.07125977
226	0xbe308c67	-0.17241059
227	0xbd3a8e37	-0.045545783
228	0x3d4f7415	0.050647814
229	0xbe15cfab	-0.1463
230	0xbe082be3	-0.13297991
231	0xbda5c7a2	-0.080947176
232	0x3de85a53	0.11345353
233	0xbe676d08	-0.22600186
234	0xbd8a519b	-0.06753846
235	0xbe1706ee	-0.14748737
236	0x3dc5c629	0.09656937
237	0x3d31038e	0.04321628
238	0xbe338ab1	-0.17533375
239	0xbdb63507	-0.08896833
240	0xbd822f35	-0.0635666
241	0xbd88195d	-0.06645463
242	0xbdfd0acd	-0.12355576
243	0x3e085f8b	0.13317697
244	0xbe14a517	-0.14516102
245	0x3d4ee3f6	0.05051037
246	0xbd7c5760	-0.061606765
247	0xbe32d53c	-0.17464155
248	0x3d94054b	0.07227572
249	0x3de9e8c2	0.11421348
250	0x3e2e805e	0.17041156
251	0x3de1502d	0.110016204
252	0xbd2b579c	-0.041831598
253	0x3e2d5dfd	0.16930385
254	0x3dac9bb4	0.084281355
255	0x3e11a649	0.14223589

actor.fc_mu.weight f4 [2, 65]
0	0x3b9c4ae9	0.004769672
1	0xbbd9bdbc	-0.0066449326
2	0x3b90f528	0.004423756
3	0xbcc6aab3	-0.024251318
4	0xbd1e1cc4	-0.03860165
5	0x3c0352e0	0.008015364
6	0xba7ae029	-0.00095701456
7	0x3bb3873a	0.0054787667
8	0x3b8e42e5	0.0043414705
9	0x3acbf28d	0.0015559957
10	0x3b309ee1	0.0026950168
11	0x3d00d120	0.031449437
12	0xbca483dc	-0.020082407
13	0xbbc1cac2	-0.005914063
14	0x3c850f01	0.016242506
15	0x3ba0ecda	0.0049110474
16	0xb7eb9932	-2.808552e-05
17	0xbab78c1e	-0.001400355
18	0x3c6b5cb0	0.01436536
19	0x3bd24afa	0.0064176293
20	0x3cb160c0	0.02165258
21	0xbaffb388	-0.001950846
22	0xba6e9b90	-0.000910216
23	0xbc3e0ee6	-0.011600232
24	0x3c15e362	0.009148451
25	0x3c5de85b	0.013544167
26	0xbbe88687	-0.007096115
27	0x3b0e0928	0.0021672938
28	0x3b4ee311	0.0031568448
29	0x3b82aa7a	0.0039876075
30	0x3c21ed6b	0.009883265
31	0x3bed4f87	0.0072421464
32	0xbb04b0c4	-0.0020246962
33	0x390faedd	0.00013702684
34	0xbb844f81	-0.004037798
35	0x3c85172c	0.0162464
36	0x3c723494	0.014783043
37	0x3bc24173	0.0059282123
38	0x3c6bec0b	0.014399539
39	0xba26d49a	-0.00063640776
40	0x3b6c76d5	0.0036081572
41	0x3c35837f	0.011078714
42	0x3cef0c18	0.029180571
43	0x3c043615	0.008069535
44	0xbbefa213	-0.007313022
45	0x3b2b72ef	0.0026161035
46	0xbcdcd1b5	-0.026955465
47	0x3c870b12	0.01648477
48	0x3b5c4545	0.0033610624
49	0xbbedf079	-0.0072613326
50	0xbb939d2d	-0.004504821
51	0xba188dc9	-0.00058194675
52	0x3ae4c410	0.0017453451
53	0x3b800052	0.003906288
54	0x3ba954ae	0.0051675653
55	0x3baecd07	0.0053344998
56	0xba1d893d	-0.0006009525
57	0xbab27909	-0.0013616394
58	0xbb7cadda	-0.0038555772
59	0x391f6504	0.00015201053
60	0x3be76c39	0.0070624617
61	0xbc35db51	-0.011099652
62	0x3cb0bc74	0.021574236
63	0x3b416c74	0.0029514106
64	0xbd7faab9	-0.062418673
65	0x3ba574c9	0.0050493223
66	0xba53e999	-0.000808382
67	0xbb6967e6	-0.0035614907
68	0xbc37571b	-0.011190201
69	0x3c30bfba	0.010787899
70	0x397b7cbf	0.00023983697
71	0xbc1ef18d	-0.009701145
72	0xbaa538bf	-0.0012605413
73	0xb901c292	-0.00012374882
74	0xb89ed14a	-7.57301e-05
75	0xbb2619bb	-0.0025344926
76	0xbdcf9f2a	-0.1013778
77	0x3ca8f2a3	0.02062351
78	0xbb9ffcb5	-0.00488242
79	0xbd9829ea	-0.074298695
80	0xbb8e8d4c	-0.00435034
81	0xbaef36c9	-0.001825058
82	0xbdfcb06c	-0.12338337
83	0x3c425d51	0.011863069
84	0x3b8aa809	0.004231457
85	0xbb27197e	-0.0025497372
86	0xbe0802a1	-0.13282253
87	0xbac02b45	-0.0014661333
88	0x3c12431a	0.008927131
89	0x3c2cbf9e	0.010543732
90	0xbe02e3f6	-0.12782273
91	0xbbecef75	-0.007230694
92	0xbaaf4349	-0.0013371493
93	0x3ba43c7a	0.005012092
94	0xbe360520	-0.17775393
95	0x3c1fc62a	0.009751836
96	0x3bd71b76	0.006564553
97	0x3af04edf	0.0018334052
98	0xba153e4f	-0.00056931836
99	0x3b5829c5	0.003298388
100	0x3bfaa269	0.0076487553
101	0xbe1e9ddf	-0.1548991
102	0x3aaaa33f	0.0013018622
103	0xbc673dcc	-0.014113855
104	0x3bb8c257	0.0056384015
105	0x3b231bbf	0.0024888364
106	0xbc19b031	-0.009380386
107	0xb9e3e09d	-0.00043464164
108	0xbc515a4f	-0.012777879
109	0xbe5adf5b	-0.21374266
110	0xbbc4c39e	-0.0060047647
111	0x3c1af83b	0.009458597
112	0xbc26be13	-0.010177153
113	0x3add9975	0.0016906696
114	0xbc0b2abb	-0.008494074
115	0x3b6e211a	0.0036335648
116	0xbb83254e	-0.00400225
117	0xbde31ef9	-0.11089892
118	0xbc25f14c	-0.01012833
119	0x39ece413	0.00045183356
120	0xbb8ecebe	-0.0043581417
121	0xbb1cb985	-0.002391429
122	0xbbc86041	-0.00611499
123	0xbc044d73	-0.008075106
124	0xbbcf7276	-0.0063307835
125	0x3a8f6f80	0.0010943264
126	0x3c8add64	0.01695127
127	0xbb66a8b4	-0.003519577
128	0xbb37ee56	-0.0028065643
129	0xbe485b8d	-0.19566174

actor.fc_mu.bias f4 [2]
0	0xbd292308	-0.041293174
1	0xbe4dab15	-0.20084794

critic.conv1.bias f4 [64]
0	0x00000000	0.0
1	0x00000000	0.0
2	0x3d99a757	0.07502621
3	0x3d7948e7	0.06086054
4	0x00000000	0.0
5	0x3d84a841	0.064774044
6	0xbd0eecf0	-0.03489393
7	0x3e60ca0d	0.21952076
8	0x3e4a3b48	0.19749177
9	0x3e9888ae	0.29791778
10	0x3dce1d30	0.10064161
11	0x3d4430da	0.04789815
12	0x3dbee9d3	0.09321942
13	0xbdb81cbb	-0.08989855
14	0x3dd68564	0.10474661
15	0xbc25f90c	-0.010130178
16	0x3dad0e88	0.08450037
17	0x00000000	0.0
18	0x00000000	0.0
19	0xbd953ec0	-0.07287359
20	0x3d96abda	0.07356997
21	0xbd799f99	-0.06094322
22	0x3cb46b44	0.022023804
23	0xbb418705	-0.002952994
24	0xbc90ec0d	-0.017690683
25	0xbdb6dfe2	-0.08929421
26	0x00000000	0.0
27	0x3dc59c8f	0.09649002
28	0x00000000	0.0
29	0x3cb51e6e	0.022109237
30	0x3db57af3	0.08861341
31	0x3e188cd4	0.14897472
32	0x3e0cbd21	0.13744022
33	0x00000000	0.0
34	0xbd90237e	-0.070380196
35	0xbdcb59f3	-0.09929266
36	0x00000000	0.0
37	0xbd9a054a	-0.0752054
38	0x3e19609d	0.14978261
39	0x00000000	0.0
40	0x3cb9edd2	0.02269641
41	0x3dcbd35f	0.09952425
42	0x00000000	0.0
43	0x3da20189	0.07910449
44	0x3d91a822	0.07112147
45	0x3d6b8936	0.0575039
46	0xbd83bc38	-0.06432384
47	0x3dd4c241	0.103886135
48	0x3e33e830	0.17569041
49	0x00000000	0.0
50	0x3d430cec	0.047619745
51	0x00000000	0.0
52	0x3ccd9cb4	0.025099136
53	0x3d75879f	0.05994379
54	0x3dabc63c	0.083874196
55	0xbd9c8593	-0.07642665
56	0x00000000	0.0
57	0xbbe4fcbe	-0.006988137
58	0xbbf5b8b2	-0.007498824
59	0xbdcdd850	-0.10051024
60	0x3d682603	0.056676876
61	0x3d122a4c	0.03568487
62	0x3e53ea44	0.20694834
63	0x3d4951c4	0.049150243

critic.conv1.lin.weight f4 [64, 2]
0	0xbdff7940	-0.124742985
1	0xbd5a8acc	-0.053355023
2	0xbc14a894	-0.009073395
3	0xbdd527ba	-0.10407968
4	0x3da59605	0.080852546
5	0x3d686a56	0.056742035
6	0xbeb6e9c2	-0.35725218
7	0xbc0340db	-0.008011068
8	0xbd68d835	-0.056846816
9	0xbc5846a5	-0.013200437
10	0xbde2544c	-0.110512346
11	0x3e017474	0.1264208
12	0x3e2195b1	0.15779759
13	0xbeda77c2	-0.42669493
14	0xbc826779	-0.01591848
15	0xbe06f56d	-0.1317956
16	0xbe0de72b	-0.13857715
17	0x3cdde316	0.027085822
18	0xbe6bfc21	-0.23045398
19	0x3cd143b9	0.025544988
20	0x3e4fbe3c	0.20287412
21	0x3bc26220	0.0059321076
22	0xbcdda5a8	-0.02705653
23	0xbd4b574d	-0.049643803
24	0x3db08641	0.08619357
25	0xbdfc054b	-0.12305697
26	0x3e911fa9	0.28344467
27	0x3eb6b1c5	0.35682502
28	0x3e0e6b15	0.13908036
29	0x3e28fc5e	0.1650252
30	0xbe24dd68	-0.16100085
31	0x3bdd97b4	0.006762469
32	0x3efc30a5	0.49255863
33	0x3e0dd69a	0.13851395
34	0xbcb7c28a	-0.02243163
35	0xbe830758	-0.2559154
36	0xbd26031f	-0.04053032
37	0xbc679ddb	-0.014136757
38	0x3ecac243	0.39601335
39	0x3e86d9cc	0.2633804
40	0x3d95845b	0.073006354
41	0x3e4ea9a1	0.20181896
42	0x3e565a9d	0.20933004
43	0x3e455e37	0.19274221
44	0xbe2c901c	-0.16851848
45	0xbc228150	-0.009918526
46	0xbdec03fe	-0.11524199
47	0x3c955118	0.018227145
48	0x3e6a5df9	0.2288741
49	0xbe3ed257	-0.18634926
50	0x3eb0c27b	0.34523377
51	0x3ea7e69d	0.3279313
52	0xbd6211e3	-0.05519284
53	0xb9693bec	-0.00022242934
54	0x3e3e0562	0.18556741
55	0x3e3a98c3	0.18222336
56	0xbaa2a05b	-0.0012407409
57	0xbe24a0ed	-0.16077013
58	0x3ec52526	0.38504905
59	0x3e50c0c0	0.20386028
60	0x3ecee4f5	0.40409055
61	0x3d27f050	0.041000664
62	0xbe9e0b8c	-0.30868185
63	0xbc28af09	-0.010295638
64	0x3dc8a653	0.09797349
65	0xbd12d955	-0.035851795
66	0xbe0b553b	-0.13606732
67	0xbce0106f	-0.027351586
68	0x3f029881	0.5101395
69	0x3ea424d1	0.3205934
70	0x3f5dd646	0.8665508
71	0x3ed78223	0.42091474
72	0xbdb0a224	-0.08624676
73	0xbc91e1ee	-0.017807927
74	0x3e3dbfd0	0.18530202
75	0x3ece1de8	0.40257192
76	0x3c989f71	0.018630715
77	0x3e254bfe	0.1614227
78	0xbdabb23e	-0.083836064
79	0xbd8b0a7e	-0.067891106
80	0x3ca7252a	0.020403463
81	0xbdc6e3b4	-0.097114
82	0x3e9d0fa6	0.30676
83	0xbea42ff1	-0.32067826
84	0xbdcc8e64	-0.09988096
85	0xbd30a987	-0.043130424
86	0xbedae94b	-0.42756113
87	0xbd0324a6	-0.032017373
88	0x3d3d4ebb	0.04621766
89	0xbc1f9dbe	-0.0097421985
90	0xbed7c962	-0.4214583
91	0x3c8311ae	0.015999641
92	0x3e6b580a	0.22982803
93	0x3e632b4b	0.22184484
94	0xbd714998	-0.058908075
95	0xbeaf7b22	-0.3427363
96	0xbc868d9d	-0.016424948
97	0xbd9ac48d	-0.0755702
98	0xbe167861	-0.14694358
99	0xbccf0092	-0.025268827
100	0xbea43787	-0.32073614
101	0xbbbb8c2e	-0.005723498
102	0xbed65c0e	-0.41867107
103	0xbd10ac1d	-0.03532039
104	0x3db47e5a	0.08813162
105	0xbdfce0d4	-0.1234757
106	0xbc930060	-0.017944515
107	0x3e03efa9	0.12884392
108	0x3ceb4d56	0.0287234
109	0x3e1e45a1	0.15456249
110	0x3e8a42aa	0.27003986
111	0x3e7d4d20	0.24736452
112	0xbdc9ec7f	-0.09859561
113	0xbe0a380a	-0.1349794
114	0xbd9ceda6	-0.07662515
115	0xbc6e312c	-0.014538091
116	0xba597aed	-0.00082962104
117	0xbca1ead0	-0.019765288
118	0x3ec1e3db	0.37869152
119	0x3e98be28	0.29832578
120	0xbdcb5d03	-0.0992985
121	0xba172467	-0.0005765617
122	0xbd9248d5	-0.07142798
123	0x3e1bb50e	0.15205786
124	0xbc0d24bd	-0.008614716
125	0x3c4378be	0.011930643
126	0x3e451ef4	0.19250089
127	0xbe947d93	-0.29002056

critic.conv2.bias f4 [64]
0	0x3de03f95	0.10949627
1	0x3c8a5bc4	0.01688946
2	0x3dba82b6	0.091069624
3	0xbc043f0e	-0.008071674
4	0x00000000	0.0
5	0x3ddf5cbf	0.10906362
6	0xbd44ecd8	-0.048077434
7	0x3e9d59df	0.3073263
8	0x3dd1cc56	0.10244052
9	0xbc93d563	-0.018046087
10	0xbbcb21a5	-0.006199079
11	0xbcbda6ef	-0.02315089
12	0x3ea05364	0.31313622
13	0x3e4c511a	0.19952813
14	0x00000000	0.0
15	0xbcc3ebbc	-0.023916118
16	0x3db6ac2f	0.0891956
17	0x3dd2b0da	0.10287638
18	0xbba0bff0	-0.0049056932
19	0x3d77f8a0	0.06053984
20	0x3dc90a35	0.098164
21	0x3de3b3f9	0.111183114
22	0x3dd8e78e	0.105910406
23	0x3df98110	0.1218282
24	0x3de0994d	0.1096674
25	0x3e8b3574	0.2718922
26	0x3dbf91f8	0.09354013
27	0xbcaa3a23	-0.020779675
28	0xbcacf1c9	-0.021111386
29	0xbc88dd1e	-0.016707
30	0xbc09cef8	-0.008411162
31	0x3de7d73e	0.11320351
32	0xbd810d36	-0.06301348
33	0x3d8e1650	0.069378495
34	0x3dd7e6c1	0.1054206
35	0x3dd76f7e	0.10519312
36	0xbd4e5b94	-0.050380304
37	0xbd0abadd	-0.033869613
38	0x3dcd1586	0.10013871
39	0xbc4968c3	-0.012293044
40	0xbc780710	-0.015138403
41	0xbd6199e9	-0.05507842
42	0xbbfda040	-0.0077400506
43	0xbc7dc8c7	-0.015489764
44	0xbc4fd88d	-0.012685907
45	0x3da197bf	0.078902714
46	0xbc22dc7a	-0.009940261
47	0x3dc66395	0.096869625
48	0x3dd7681d	0.10517905
49	0xbd47ca8c	-0.048777148
50	0x3de1d309	0.1102658
51	0x00000000	0.0
52	0x3dfd32df	0.123632185
53	0xbc87c219	-0.016572045
54	0x3dedc521	0.11609865
55	0xbd96c464	-0.07361677
56	0x00000000	0.0
57	0xbc4f41ed	-0.012649995
58	0x3dcd7a5d	0.100331046
59	0xbce41398	-0.027841374
60	0xbc58d7c8	-0.01323504
61	0x3e30d731	0.17269589
62	0x3e0299b5	0.12753947
63	0xbcd3c75f	-0.025851903

critic.conv2.lin.weight f4 [64, 64]
0	0x3e212178	0.15735424
1	0x3cb67c20	0.022275984
2	0x3e67b025	0.22625788
3	0x3e11a53d	0.1422319
4	0x3cb4b8cc	0.022060774
5	0x3d8e9176	0.06961338
6	0xbde69a0c	-0.11259851
7	0x3e77e38e	0.24207899
8	0x3dcffd7b	0.101557694
9	0x3ea633fc	0.32461536
10	0x3e6491c9	0.22321238
11	0xbd0980b1	-0.033569995
12	0x3b6c9a45	0.0036102694
13	0xbdbf0d02	-0.09328653
14	0xbdc5f44b	-0.09665736
15	0xbdeadd31	-0.1146797
16	0xbc151011	-0.009098069
17	0xbe025075	-0.12726004
18	0xbe11ff90	-0.14257646
19	0x3e1b863a	0.15187922
20	0x3d938a23	0.07204082
21	0xbe0c7734	-0.13717347
22	0xbc9b3f70	-0.018951148
23	0x3df929bd	0.12166164
24	0x3d0db073	0.034592103
25	0x3d31af7b	0.04338024
26	0xbdb3e44b	-0.08783778
27	0xbdbd3ae3	-0.092397474
28	0xbe945c5a	-0.2897671
29	0xbdfc2647	-0.12311988
30	0x3ea24dc7	0.31699964
31	0x3dc047c5	0.09388689
32	0x3e596cb0	0.21232867
33	0xbdb5f4f3	-0.08884611
34	0xbdbdde5b	-0.092709266
35	0xbcb10d3f	-0.021612762
36	0xbe030c59	-0.12797679
37	0x3bb9f88f	0.0056753824
38	0xbd1a073d	-0.03760456
39	0xbdaff2ff	-0.0859127
40	0xbad16a03	-0.0015977029
41	0x3e6ee84d	0.23330803
42	0xbd7324e9	-0.059361372
43	0x3dc74c39	0.09731335
44	0x3ea5afbe	0.32360643
45	0x3d815bd5	0.06316344
46	0x3de784ca	0.113046244
47	0xbc887033	-0.016655063
48	0x3eb26fe0	0.3485098
49	0xbda8be8d	-0.0823947
50	0xbdb71845	-0.08940176
51	0xbe688be9	-0.22709621
52	0x3e8e3d04	0.27780926
53	0xbc26838f	-0.010163202
54	0x3e268960	0.16263342
55	0xbc36160c	-0.011113655
56	0xbdfe76b9	-0.12424988
57	0xbd028a52	-0.031870194
58	0xbd57191b	-0.052514177
59	0x3d54a183	0.051911842
60	0x3c069a76	0.008215537
61	0x3d6945d1	0.056951348
62	0x3ec1df91	0.3786588
63	0x3c8f94dd	0.017527038
64	0xbd92ce15	-0.07168213
65	0x3e2c06e8	0.1679951
66	0xbe3281c8	-0.1743232
67	0xbb044cbf	-0.0020187346
68	0xbda88e3e	-0.082302555
69	0xbcccf334	-0.025018312
70	0xbd21a07b	-0.039459687
71	0x3dd0fd9a	0.10204621
72	0x3c88dd5e	0.016707119
73	0x3d8f7329	0.07004387
74	0xbe5c7308	-0.21528256
75	0xbc89730d	-0.016778493
76	0xbda80c82	-0.08205511
77	0x3cba18da	0.022716928
78	0x3dd97d0a	0.106195524
79	0xbe235052	-0.15948609
80	0xbd39bbae	-0.045345
81	0x3d0b8bc4	0.034068838
82	0xbd8be2f7	-0.068303995
83	0xbe3d7263	-0.18500666
84	0xbda75540	-0.08170557
85	0x3db491c8	0.08816868
86	0xbdd40fde	-0.10354589
87	0xbe2977e2	-0.16549638
88	0xbd6cf961	-0.057855014
89	0xbe0fc25c	-0.14038986
90	0x3e45ef6f	0.19329618
91	0xbe2263bf	-0.15858363
92	0xbc38561c	-0.011250999
93	0xbcbafbdf	-0.02282518
94	0xbd7cb82b	-0.061699074
95	0x3be44302	0.0069659958
96	0x3e6ee2d0	0.2332871
97	0xbeb84ab4	-0.35994494
98	0xbe4a3c6c	-0.19749612
99	0xbb04fdc5	-0.002029286
100	0xbe897e98	-0.26854396
101	0xbe682166	-0.2266899
102	0xbe240c49	-0.16020311
103	0x3e62e3c7	0.22157203
104	0xbca20b44	-0.019780762
105	0x3db0bc68	0.08629686
106	0x3e1fe89e	0.1561608
107	0x3d8b03c8	0.067878306
108	0xbd1f42c6	-0.03888204
109	0x3d5d54f7	0.054036107
110	0xbd03c970	-0.032174528
111	0xbe2bf907	-0.16794215
112	0x3d88d940	0.06682062
113	0x3dffb710	0.12486088
114	0x3e1de446	0.1541911
115	0xbd6f6c87	-0.05845311
116	0x3bf7a19a	0.007557106
117	0xb9b23600	-0.0003399104
118	0xbe28129f	-0.16413353
119	0xbd9f5ad7	-0.07780998
120	0xbe749b4c	-0.23887366
121	0x3d670cd9	0.056408737
122	0xbcf9e1a1	-0.030503096
123	0x3dc837fa	0.09776302
124	0x3da1fcc3	0.079095386
125	0x3d9b1d0e	0.07573901
126	0xbd60a03d	-0.054840315
127	0xbe381f23	-0.17980628
128	0xbeaa44d9	-0.33255652
129	0x3d4c6a88	0.049906284
130	0x3e498eac	0.19683331
131	0x3d338f8c	0.04383807
132	0xbd837107	-0.06418043
133	0x3d10bce6	0.035336398
134	0x3dcc54d6	0.09977119
135	0x3eb9facd	0.36324158
136	0x3e95e379	0.2927511
137	0x3e659c2c	0.22422856
138	0xbc7ec89c	-0.015550759
139	0xbe5dcbf0	-0.21659827
140	0x3d36b1f1	0.044603292
141	0xbcc0ef02	-0.023551468
142	0xbe2b27f3	-0.16714458
143	0x3cd01ab5	0.02540336
144	0x3e109470	0.14119124
145	0x3d583c76	0.052792035
146	0xbd327f36	-0.04357835
147	0x3db3c581	0.08777905
148	0xbdd0f77a	-0.102034524
149	0x3e01639a	0.12635651
150	0x3d0eec98	0.034893602
151	0x3da8e3f6	0.08246605
152	0x3dd2e8e0	0.10298324
153	0x3c866ba4	0.016408749
154	0x3d6460d2	0.055756398
155	0x3d0b95a7	0.034078266
156	0x3dffed1a	0.124963954
157	0xbe2b4385	-0.16724975
158	0x3bcb023c	0.0061953347
159	0x3e331edd	0.17492242
160	0x3e9fae4b	0.31187662
161	0x3ca7fd6e	0.020506587
162	0x3e29efb4	0.16595346
163	0xbe7a8835	-0.24466021
164	0xbd9a2d60	-0.07528186
165	0xbd2f3f63	-0.04278506
166	0x3ebe33ca	0.37148887
167	0xbdb90053	-0.09033265
168	0xbe8fdcec	-0.28098238
169	0xbd9a1f73	-0.0752553
170	0x3daf3385	0.085547484
171	0x3dcb7681	0.09934712
172	0x3cf0cb18	0.029393718
173	0xbd0df907	-0.03466132
174	0xbda0aa12	-0.07844938
175	0xbd961617	-0.07328432
176	0x3e0cf935	0.1376694
177	0xbdf26e48	-0.11837441
178	0x3d95ea45	0.07320074
179	0xbe137dbe	-0.14403436
180	0x3de97243	0.11398747
181	0xbdd53c3e	-0.10411881
182	0xbd8605cc	-0.065440744
183	0x3db71588	0.08939654
184	0x3cb07ea6	0.021544766
185	0x3e688da2	0.22710279
186	0xbd0f2a0f	-0.03495222
187	0xbc7cb993	-0.015425104
188	0xbca1c65b	-0.019747904
189	0x3de8c051	0.113648064
190	0x3d4b0f5a	0.049575187
191	0x3e37e918	0.17960012
192	0xbe4d5232	-0.20050886
193	0xbe2445e1	-0.16042282
194	0x3e21ac58	0.157884
195	0x3ddc9390	0.10770333
196	0x3c21f5eb	0.009885292
197	0xbe9395d9	-0.28825262
198	0x3bff1374	0.0077843014
199	0xbdc1dc91	-0.09465898
200	0xbe31fc2c	-0.17381352
201	0x3ddaa554	0.10676065
202	0xbe0bf178	-0.13666332
203	0xbd9fbbf6	-0.077995226
204	0x3e3b9311	0.1831782
205	0xbde7d878	-0.11320585
206	0xbda106d8	-0.078626335
207	0xbc9e5eb4	-0.019332267
208	0x3d3593d4	0.044330433
209	0x3d1cd6c4	0.038290754
210	0x3e0e3128	0.13885939
211	0xbada8739	-0.001667238
212	0xbea79bdd	-0.32736102
213	0xbc88166a	-0.01661225
214	0xbe1d400a	-0.1535646
215	0xbe27953b	-0.1636552
216	0xbe2d938b	-0.16950814
217	0xbdab0409	-0.08350379
218	0xbe03200a	-0.1280519
219	0xba891aee	-0.0010460296
220	0xbd45bac3	-0.048273813
221	0x3c4d74ff	0.012540101
222	0xbe3b0998	-0.18265378
223	0xbdd5d286	-0.10440545
224	0x3e4dd3d5	0.20100339
225	0x3d9a3aac	0.07530722
226	0x3dad88de	0.08473371
227	0x3de2704e	0.11056577
228	0x3db884d8	0.09009713
229	0xbc70a871	-0.014688597
230	0xbdcc0ace	-0.09962998
231	0x3ecf54f8	0.40494514
232	0x3cbce90a	0.02306034
233	0xbd2c9932	-0.042138286
234	0xbd4985be	-0.049199812
235	0xbcbf4c19	-0.023351716
236	0x3d7cb6c9	0.061697755
237	0x3d780dd4	0.060560063
238	0xbc8823da	-0.016618658
239	0xbe300379	-0.17188825
240	0x3c1da1b7	0.009621075
241	0xbc994f90	-0.018714696
242	0xbd109e5c	-0.035307273
243	0xbca57906	-0.02019931
244	0x3e110b20	0.141644
245	0xbb95ece0	-0.004575357
246	0x3d56e8e2	0.052468188
247	0xbda9bd88	-0.08288103
248	0x3e2274af	0.15864824
249	0xbdc37769	-0.0954426
250	0xbc71c5a8	-0.014756598
251	0x3d1f85c3	0.038945924
252	0x3bf38b08	0.0074323453
253	0xbe0d4154	-0.13794452
254	0x3e0e2337	0.13880621
255	0x3d91bb00	0.071157455

critic.fc.weight f4 [1, 65]
0	0x3ec063ce	0.37576145
1	0x3b066ece	0.0020512822
2	0x3e05a267	0.13050233
3	0xbe5eced4	-0.21758586
4	0xbd2eada9	-0.042646084
5	0x3e63f556	0.22261557
6	0xbda798a1	-0.081834085
7	0x3f18f887	0.5975422
8	0x3e63c5d0	0.22243428
9	0xbe1183ab	-0.14210384
10	0xbd7a5a64	-0.06112136
11	0xbdf56a41	-0.11983157
12	0x3e8da1fa	0.2766264
13	0x3e54ef8f	0.2079451
14	0x3d0c9857	0.03432497
15	0xbe1ffd58	-0.15623987
16	0x3deb28a2	0.114823595
17	0x3e77c523	0.24196295
18	0xbd991a9d	-0.07475779
19	0x3d56ab4a	0.052409448
20	0x3e3bda29	0.1834494
21	0x3edfa575	0.4368092
22	0x3e8e3419	0.27774122
23	0x3ec05ce3	0.37570867
24	0x3ed025fb	0.40653977
25	0x3e89b429	0.26895264
26	0x3e24250d	0.16029759
27	0xbdf30848	-0.11866814
28	0xbe1392ad	-0.14411421
29	0xbc133305	-0.008984332
30	0xbb6eff70	-0.003646817
31	0x3e57ac2e	0.21061775
32	0x3e3f11e4	0.18659168
33	0x3d982600	0.07429123
34	0x3e716b87	0.23576175
35	0x3e8d23dd	0.27566424
36	0x3df61aa7	0.12016802
37	0x377ae276	1.4953888e-05
38	0x3e4b3aa1	0.19846584
39	0xbe5a8ec1	-0.21343519
40	0xbe940d68	-0.28916478
41	0x3e837e4e	0.256823
42	0xbe4fe7be	-0.20303246
43	0xbe55e166	-0.20886764
44	0xbe8e6835	-0.2781388
45	0x3dcbc3bc	0.09949443
46	0xbeadedab	-0.3397039
47	0x3e05eb24	0.1307798
48	0x3e89f639	0.26945665
49	0x3e9115b2	0.28336865
50	0x3e92bf0b	0.2866138
51	0x3de7029f	0.11279797
52	0xbf9c243b	-1.2198557
53	0xbdc94083	-0.09826758
54	0x3e863f85	0.26220337
55	0xbf309606	-0.6897892
56	0x3e9c85ff	0.3057098
57	0x3b760b45	0.0037543338
58	0x3e3f6634	0.18691331
59	0x3e9bc8c6	0.30426615
60	0xbd42d160	-0.047562957
61	0x3df9c547	0.12195831
62	0x3e985d8b	0.29758868
63	0xbda085df	-0.07838034
64	0xc07a33bf	-3.9094083

_actor_critic.actor.sigma_param f4 [2, 1]
0	0x3dffcd90	0.1249038
1	0xc0374187	-2.8633745

_actor_critic.actor.conv1.bias f4 [64]
0	0x3e1a52bd	0.15070625
1	0x3d899085	0.06717018
2	0xbe30b0cc	-0.17254943
3	0x3de503ec	0.11182389
4	0x3e1a6aa9	0.1507975
5	0x00000000	0.0
6	0x00000000	0.0
7	0x00000000	0.0
8	0x00000000	0.0
9	0xbc1d3de9	-0.00959728
10	0x3dffcc6f	0.124901645
11	0x00000000	0.0
12	0xbd6535f2	-0.05595965
13	0xbb52567f	-0.0032095013
14	0x3d92cf0f	0.071683995
15	0x00000000	0.0
16	0xba52d8d1	-0.00080431724
17	0x3c391f37	0.011298946
18	0x00000000	0.0
19	0x3dfb5ab1	0.122731574
20	0x3dbd5bd5	0.09246031
21	0xbca089b9	-0.019596921
22	0x3e048681	0.12941934
23	0x3c83a5e5	0.016070316
24	0xbe300ad1	-0.17191626
25	0xbd7b13bf	-0.06129813
26	0xbe0d5cf2	-0.13804987
27	0x00000000	0.0
28	0x00000000	0.0
29	0x00000000	0.0
30	0xbcc6ce47	-0.024268283
31	0xbd7d13c9	-0.061786447
32	0x00000000	0.0
33	0xbcf6a075	-0.030105809
34	0xbdd7648a	-0.10517223
35	0xbe13cbf2	-0.14433268
36	0xbdc7dd05	-0.09758953
37	0xbadb296a	-0.0016720716
38	0x00000000	0.0
39	0xbdf1ee9b	-0.118130885
40	0xbd3679ba	-0.04454968
41	0xbc1dafd2	-0.009624438
42	0x3d923cf5	0.07140533
43	0x3d9983fc	0.07495877
44	0x3dd7a91f	0.10530304
45	0xbd6cd20e	-0.05781751
46	0xbe176877	-0.14785944
47	0x3d7fe1d4	0.062471226
48	0xbc63e77a	-0.013910169
49	0x00000000	0.0
50	0xbd5aa90d	-0.053383876
51	0x00000000	0.0
52	0x00000000	0.0
53	0xbd119bbf	-0.03554892
54	0xbe445335	-0.19172366
55	0xbe2d0c72	-0.16899279
56	0x3dbb00e5	0.0913103
57	0xbc774175	-0.01509129
58	0x3e172a1b	0.14762156
59	0x00000000	0.0
60	0xbc1d59e9	-0.009603956
61	0xbb9f8333	-0.004867935
62	0x00000000	0.0
63	0xbdedb117	-0.11606043

_actor_critic.actor.conv1.lin.weight f4 [64, 2]
0	0x3e29ab29	0.16569199
1	0xbe13cc5e	-0.14433429
2	0x3e342ff4	0.17596418
3	0xbd8154e4	-0.0631502
4	0x3e16994f	0.1470692
5	0x3de86c69	0.113488026
6	0x3de9225c	0.11383507
7	0x3c6b509d	0.014362481
8	0xbe09055b	-0.13380949
9	0x3e49c722	0.1970487
10	0xbc2086e8	-0.009797789
11	0xbd22c09a	-0.03973446
12	0xbe44bfff	-0.19213866
13	0xbdc22edd	-0.09481595
14	0xbe15309e	-0.14569327
15	0xbe66e54e	-0.2254841
16	0xbddd9efe	-0.10821341
17	0xbe25f357	-0.16206108
18	0x3c17c87f	0.009264111
19	0xbdd54993	-0.10414424
20	0x3d5f7278	0.054552525
21	0x3e8b9b54	0.27266943
22	0xbdd8cbca	-0.10585745
23	0xbea6bf05	-0.3256761
24	0x3d5ea737	0.054358687
25	0xbe0e69fe	-0.1390762
26	0x3d194d7a	0.037427403
27	0x3d8e3273	0.06943216
28	0xbd058bd9	-0.032604072
29	0x3e35418c	0.17700785
30	0xbe8968b2	-0.2683769
31	0xbd5f00ea	-0.05444423
32	0xbe484f5a	-0.1956152
33	0xbd151cd9	-0.036404464
34	0xbe1e5f88	-0.1546613
35	0x3e3993ae	0.18122742
36	0xbdaad177	-0.083407335
37	0xbe5acd69	-0.2136742
38	0x3dd34b79	0.1031713
39	0x3ddd35e0	0.108012915
40	0xbd5bba76	-0.05364462
41	0x3e290a80	0.16507912
42	0x3c9f1721	0.019420208
43	0xbdad7f09	-0.08471496
44	0xbd31ba08	-0.043390304
45	0x3e0ecf7e	0.1394634
46	0x3daddb41	0.08489085
47	0xbe4cf10e	-0.2001383
48	0x3eadb45a	0.3392666
49	0x3e06d319	0.13166465
50	0x3d742447	0.05960491
51	0xbe1128dd	-0.14175744
52	0x3de20b34	0.11037293
53	0x3cdafe03	0.02673245
54	0xbd942b55	-0.072348274
55	0xbd60f5b7	-0.054921832
56	0xbe0d0eb4	-0.1377514
57	0xbdc61a6f	-0.096730106
58	0xbe5a272c	-0.21304005
59	0xbd228e64	-0.039686576
60	0x3c7fb183	0.015606287
61	0xbe962e2b	-0.29332098
62	0x3d6f8cd8	0.05848393
63	0xbe1af0b9	-0.15130891
64	0xbe8f831a	-0.2802971
65	0xbdfacf2d	-0.12246547
66	0x3cf0c381	0.029390099
67	0xbe243b8b	-0.16038339
68	0x3dd5ffe2	0.104491964
69	0xbcd1ce26	-0.025610995
70	0x3db22647	0.08698707
71	0x3da605a9	0.08106548
72	0xbde5ddeb	-0.11223968
73	0x3e4e9445	0.20173748
74	0x3a835e15	0.0010022545
75	0xbd507a94	-0.05089815
76	0xbb8a688a	-0.004223888
77	0xbe32a046	-0.17443952
78	0xbd80a864	-0.06282118
79	0x3df59ff6	0.11993401
80	0x3cc82780	0.024432898
81	0x3ca1efa1	0.019767584
82	0xbb91aea1	-0.004445866
83	0xbb021b92	-0.001985286
84	0x3c63b1a8	0.013897337
85	0x3e012703	0.12612538
86	0xbd52fe2a	-0.05151192
87	0x3e0b366d	0.1359498
88	0xbd650439	-0.05591223
89	0x3e1ed419	0.15510596
90	0xbcc4b69a	-0.024012852
91	0x3d653fb0	0.05596894
92	0x3d971ccc	0.073785394
93	0x3d94df47	0.07269149
94	0xbd94e09d	-0.07269404
95	0x3dbeb3d6	0.09311645
96	0x3bcea88f	0.006306715
97	0xbd8ad416	-0.067787334
98	0xbcd5e50f	-0.0261102
99	0xbe44f5e1	-0.1923442
100	0x3d1ecfb2	0.038772292
101	0x3c6bd1d5	0.01439329
102	0xbe71c9ec	-0.23612183
103	0xbca03247	-0.019555224
104	0xbcc08a37	-0.023503406
105	0xba758d9a	-0.00093671086
106	0xbdb75a5d	-0.08952782
107	0x3d591fb0	0.053008735
108	0x3e696362	0.22791818
109	0x3de1a59a	0.11017914
110	0x3e280554	0.16408283
111	0x3dab1265	0.08353118
112	0x3ce68435	0.028139213
113	0x3e4f2842	0.20230201
114	0x3d8484a7	0.06470614
115	0x3d7cf95a	0.061761238
116	0xbd9abd69	-0.07555658
117	0x3e044d12	0.12920025
118	0xbcc6f721	-0.024287762
119	0xbd9bb71d	-0.076032855
120	0x3e534e26	0.2063528
121	0x3d35636a	0.04428426
122	0xbd08d643	-0.03340746
123	0x3a8695ef	0.0010268072
124	0xbd910a92	-0.07082094
125	0xbdc41d18	-0.09575862
126	0x3de31cb6	0.110894606
127	0xbe3d8537	-0.18507849

_actor_critic.actor.conv2.bias f4 [64]
0	0xbd084df1	-0.033277456
1	0xbcd19042	-0.025581483
2	0xbc69579e	-0.014242081
3	0xbcda4913	-0.026646173
4	0xbd81520f	-0.063144796
5	0xbd69d3c3	-0.057086717
6	0xbd15ff48	-0.03662041
7	0xbd23c206	-0.039979957
8	0xbcf41bc5	-0.029798398
9	0xbbb7f828	-0.0056142993
10	0xbbf93261	-0.0076048826
11	0x3dd828e0	0.10554671
12	0xbdb62026	-0.088928506
13	0xbca134a7	-0.019678427
14	0x3dba7ce6	0.09105854
15	0xbc21da0b	-0.009878646
16	0xbce4b323	-0.02791745
17	0x3e05ce91	0.1306708
18	0xbcaff39a	-0.021478463
19	0xbc93ad47	-0.018026961
20	0xbc7d8eee	-0.015475972
21	0x3e0d9750	0.13827252
22	0xbc9c697f	-0.019093273
23	0xbbd54f7d	-0.00650972
24	0xbd605c13	-0.05477531
25	0x3e10bc6f	0.14134382
26	0xbc304d60	-0.010760635
27	0xbc9675c9	-0.018366711
28	0xbcdf60fc	-0.027267925
29	0x3e391386	0.18073854
30	0xbd6e14ad	-0.058125187
31	0xbc5967c5	-0.0132693695
32	0xbcf75f5c	-0.030196838
33	0xbc144044	-0.009048525
34	0xbc448ec1	-0.011996926
35	0xbc920b17	-0.017827554
36	0x3e253949	0.16135134
37	0xbc67421b	-0.014114882
38	0xbd0d8597	-0.03455123
39	0xbb97908f	-0.004625387
40	0xbc9fb963	-0.019497579
41	0xbd2d945f	-0.042377826
42	0xbcb5bad4	-0.022183813
43	0xbcbeada1	-0.023276152
44	0x3e57a54b	0.21059148
45	0xbbc4a526	-0.0060011325
46	0xbc436502	-0.011925938
47	0xbd1d15c5	-0.03835084
48	0xba5081b0	-0.0007953895
49	0xbcc69527	-0.024241043
50	0xbc5d7e13	-0.013518828
51	0xbb84a54b	-0.004048025
52	0x3de99511	0.11405385
53	0xbcbd8d12	-0.023138557
54	0xbcf8b971	-0.030361863
55	0xbc26e9ee	-0.010187609
56	0xbc425339	-0.011860662
57	0xbd1c40dc	-0.038147792
58	0xbcd16b98	-0.025564
59	0xbcbfb333	-0.023400879
60	0xbcba5d7c	-0.022749655
61	0xbd28c266	-0.041201018
62	0xbcc3c462	-0.023897354
63	0xbc33a8bd	-0.010965523

_actor_critic.actor.conv2.lin.weight f4 [64, 64]
0	0x3e57dd29	0.2108046
1	0x3ded3e12	0.115841046
2	0xbd3b0aad	-0.045664478
3	0x3d8cb2c0	0.06870031
4	0xbe1699d0	-0.14707112
5	0x3e87b847	0.2650778
6	0x3e6bedf4	0.2303999
7	0xbe1baa24	-0.15201622
8	0xbda5f728	-0.08103782
9	0xbd5c8e48	-0.053846627
10	0xbdd98974	-0.1062192
11	0x3c7e9b60	0.015539974
12	0xbe272b7d	-0.16325183
13	0xbe315e86	-0.17321214
14	0xbb9de6c2	-0.0048187682
15	0xbea542fc	-0.32277668
16	0x3d5a02c1	0.053225283
17	0x3e76763f	0.24068545
18	0x3e01417a	0.12622634
19	0xbda6a79e	-0.08137439
20	0x3d2d6d14	0.042340353
21	0xbdf0fe0d	-0.11767206
22	0xbdd70f57	-0.10500973
23	0x3d86f3cf	0.065894715
24	0xbe0be5a3	-0.13661818
25	0x3dc7c3ad	0.09754119
26	0x3e5ef52f	0.21773218
27	0xbc60e101	-0.01372552
28	0xbe20ee71	-0.15715958
29	0x3d1b988b	0.037987273
30	0x3da04f4f	0.07827627
31	0xbc1cfef3	-0.009582269
32	0x3d141836	0.0361559
33	0x3b81f208	0.00396562
34	0x3da2c16d	0.07947049
35	0xba52c279	-0.0008039843
36	0x3e7b97b1	0.24569584
37	0x3d573f7d	0.05255078
38	0x3d3bf34e	0.04588633
39	0xbe16f3a9	-0.14741386
40	0x3def4e62	0.11684872
41	0xbd9f31de	-0.07773183
42	0xbd06e2c9	-0.032931123
43	0x3daa5ac6	0.08318095
44	0xbdabd073	-0.08389368
45	0x3da2e1d7	0.07953232
46	0xbc9b6847	-0.018970622
47	0xbdde0ff4	-0.108428866
48	0x3b972a92	0.004613229
49	0x3e2be6d3	0.16787271
50	0xbdca006b	-0.09863361
51	0xbd9e85e5	-0.07740382
52	0x3d9faad1	0.077962525
53	0xbe0147df	-0.12625073
54	0xbd1a3cfe	-0.037655823
55	0xbeaa65e7	-0.3328087
56	0xbe33ef8a	-0.17571846
57	0x3cfceb40	0.030873895
58	0x3d22a6f1	0.03970999
59	0x3a1e0b3e	0.0006028897
60	0xbca467f5	-0.020069102
61	0x3e2da44f	0.1695721
62	0x3b717244	0.003684179
63	0xbce24e9e	-0.027625378
64	0xbe1237ab	-0.14279048
65	0xbcdaf319	-0.026727246
66	0x3df55aa2	0.119801775
67	0x3dbc28c9	0.09187467
68	0x3e81b545	0.2533361
69	0x3e36fd5a	0.17870083
70	0x3d263db6	0.040586196
71	0xbe2cc24d	-0.16870995
72	0xbe66e64c	-0.22548789
73	0x3d8ffce8	0.0703066
74	0xbe9ecd3e	-0.31015962
75	0xbd46b63b	-0.048513632
76	0x3ddf514e	0.109041795
77	0xbe23ab66	-0.15983352
78	0x3d2dc84a	0.04242734
79	0xbdaa654e	-0.083201036
80	0xbe2bc62b	-0.16774814
81	0xbda46cee	-0.08028589
82	0x3dce96fc	0.10087392
83	0x3e24f618	0.16109502
84	0xbdca7e59	-0.0988738
85	0x3e13bd2f	0.14427637
86	0xbe3b2a7b	-0.18277924
87	0xbe146152	-0.1449025
88	0xbd561b65	-0.05227222
89	0x3e105f1a	0.14098778
90	0xbddce424	-0.10785702
91	0x3dfca4ca	0.123361185
92	0x3e0b839d	0.13624425
93	0xbcc2d883	-0.023784881
94	0xbcb0f3d1	-0.021600636
95	0x3ce4c7d8	0.027927324
96	0xbe0b2c6c	-0.13591164
97	0xbe219a9b	-0.15781634
98	0x3e530b47	0.2060977
99	0xbdc00869	-0.09376604
100	0xbd94c1af	-0.07263505
101	0x3da536e1	0.08067108
102	0x3cfc2b4d	0.030782366
103	0x3e1ff1d1	0.1561959
104	0x3be3d149	0.006952439
105	0x3dc7677e	0.097365364
106	0x3d115a1a	0.03548632
107	0xbb26d8b8	-0.0025458764
108	0xbdd35f78	-0.103209436
109	0x3deba4b2	0.115060225
110	0xbe164be8	-0.14677393
111	0xbd62811a	-0.055298902
112	0x3e2d933b	0.16950695
113	0xbdf2bb4c	-0.1185213
114	0x3d974fbd	0.07388256
115	0x3da6d76a	0.08146556
116	0x3e13a4e3	0.14418368
117	0x3e5e1076	0.21685967
118	0x3c2c21fa	0.0105061475
119	0xbdf46441	-0.119331844
120	0x3d05880b	0.032600444
121	0xbde2d709	-0.11076171
122	0x3e124de2	0.14287522
123	0x3d8234ea	0.06357749
124	0xbda196f2	-0.07890119
125	0x3c30c422	0.010788949
126	0x3e123b55	0.14280446
127	0x3ccd2d71	0.025046082
128	0xbdd3fd29	-0.10351021
129	0xbd93249c	-0.07184717
130	0xbc7f2663	-0.015573117
131	0x3dd58649	0.104260035
132	0x3dd749e7	0.10512143
133	0xbce669b4	-0.028126575
134	0x3e2b33bf	0.16718958
135	0x3dac6236	0.0841717
136	0x3d80c942	0.06288387
137	0x3c2fae8f	0.01072277
138	0xbe0d83a4	-0.13819748
139	0x3d9eb0f2	0.077485934
140	0x3d4cef73	0.050033044
141	0x3e362d40	0.17790699
142	0xbd893850	-0.06700194
143	0x3d9316ea	0.07182105
144	0xbe60c94e	-0.21951792
145	0x3e7178c7	0.23581229
146	0x3e89ad73	0.26890144
147	0xbd44dd27	-0.04806247
148	0xbe2ac093	-0.16675024
149	0xbe5111ee	-0.20416996
150	0xbe3513a6	-0.17683277
151	0xbdfd16e0	-0.12357879
152	0x3dc05df4	0.0939292
153	0x3e0554aa	0.13020578
154	0xbe59db94	-0.21275169
155	0xbe46c131	-0.19409634
156	0x3cc43dcc	0.023955248
157	0x3d2a1356	0.041522346
158	0x3d8862b1	0.06659449
159	0x3e0aaebb	0.13543217
160	0xb6c69800	-5.918555e-06
161	0xbd665299	-0.056231115
162	0xbd95a978	-0.07307714
163	0x3e4ea05f	0.20178364
164	0x3e370451	0.1787274
165	0xbe8b6b95	-0.27230516
166	0xbe3f9969	-0.18710865
167	0x3de75ab4	0.11296597
168	0x3e08d247	0.13361464
169	0x3d12bffd	0.035827626
170	0xbdeb4b34	-0.11488953
171	0x3d3c1db5	0.04592677
172	0x39e34c9d	0.00043353895
173	0x3c8ca6bc	0.017169349
174	0x3e22a7cb	0.1588432
175	0xbd54022c	-0.051759884
176	0xbe414320	-0.18873262
177	0x3db7c9b0	0.08974016
178	0x3ddd5a9a	0.108082965
179	0x3d52e351	0.051486317
180	0xbc90e727	-0.017688347
181	0xbb542096	-0.0032368056
182	0xbe14a839	-0.14517297
183	0xbc6ec45e	-0.014573185
184	0xbdf8ad4c	-0.12142429
185	0xbd18bbb1	-0.03728837
186	0xbdc061a8	-0.093936265
187	0x3d7321a3	0.05935825
188	0x3e15b8a2	0.14621213
189	0xbe29fae4	-0.16599613
190	0x3bd006b6	0.0063484563
191	0x3cdeb397	0.027185244
192	0x3ca45034	0.020057775
193	0xbe0e2995	-0.1388305
194	0xbc9e0aa1	-0.019292178
195	0x3c67a2c8	0.014137931
196	0x3d30b266	0.043138884
197	0xbb9741e0	-0.004616007
198	0x3c2b8547	0.0104687875
199	0xb7c69c00	-2.3676082e-05
200	0xbe23bb76	-0.1598948
201	0xbdf7841b	-0.12085744
202	0x3c3502a2	0.011047991
203	0xbe90ba24	-0.28267014
204	0x3d0d2c0d	0.03446584
205	0xbe56ffe8	-0.20996058
206	0xbe1669f2	-0.14688852
207	0x3c729018	0.014804862
208	0xbd9857e2	-0.07438637
209	0xbd1ef09f	-0.038803693
210	0xbe53c0f6	-0.20679078
211	0xbe834d76	-0.25645036
212	0xbb891b50	-0.004184164
213	0xbe50c450	-0.20387387
214	0x3d53e368	0.051730543
215	0xbe8290b8	-0.25501037
216	0x3e1a0597	0.15041195
217	0xbddf7178	-0.10910314
218	0xbe296277	-0.16541468
219	0xbd87da4a	-0.06633432
220	0xbd227c58	-0.039669365
221	0x3d9e7b3d	0.077383496
222	0xbe7df20b	-0.24799363
223	0xbd89b161	-0.067232855
224	0xbb820d90	-0.003968902
225	0xbd91f0a4	-0.07125977
226	0xbe308c67	-0.17241059
227	0xbd3a8e37	-0.045545783
228	0x3d4f7415	0.050647814
229	0xbe15cfab	-0.1463
230	0xbe082be3	-0.13297991
231	0xbda5c7a2	-0.080947176
232	0x3de85a53	0.11345353
233	0xbe676d08	-0.22600186
234	0xbd8a519b	-0.06753846
235	0xbe1706ee	-0.14748737
236	0x3dc5c629	0.09656937
237	0x3d31038e	0.04321628
238	0xbe338ab1	-0.17533375
239	0xbdb63507	-0.08896833
240	0xbd822f35	-0.0635666
241	0xbd88195d	-0.06645463
242	0xbdfd0acd	-0.12355576
243	0x3e085f8b	0.13317697
244	0xbe14a517	-0.14516102
245	0x3d4ee3f6	0.05051037
246	0xbd7c5760	-0.061606765
247	0xbe32d53c	-0.17464155
248	0x3d94054b	0.07227572
249	0x3de9e8c2	0.11421348
250	0x3e2e805e	0.17041156
251	0x3de1502d	0.110016204
252	0xbd2b579c	-0.041831598
253	0x3e2d5dfd	0.16930385
254	0x3dac9bb4	0.084281355
255	0x3e11a649	0.14223589

_actor_critic.actor.fc_mu.weight f4 [2, 65]
0	0x3b9c4ae9	0.004769672
1	0xbbd9bdbc	-0.0066449326
2	0x3b90f528	0.004423756
3	0xbcc6aab3	-0.024251318
4	0xbd1e1cc4	-0.03860165
5	0x3c0352e0	0.008015364
6	0xba7ae029	-0.00095701456
7	0x3bb3873a	0.0054787667
8	0x3b8e42e5	0.0043414705
9	0x3acbf28d	0.0015559957
10	0x3b309ee1	0.0026950168
11	0x3d00d120	0.031449437
12	0xbca483dc	-0.020082407
13	0xbbc1cac2	-0.005914063
14	0x3c850f01	0.016242506
15	0x3ba0ecda	0.0049110474
16	0xb7eb9932	-2.808552e-05
17	0xbab78c1e	-0.001400355
18	0x3c6b5cb0	0.01436536
19	0x3bd24afa	0.0064176293
20	0x3cb160c0	0.02165258
21	0xbaffb388	-0.001950846
22	0xba6e9b90	-0.000910216
23	0xbc3e0ee6	-0.011600232
24	0x3c15e362	0.009148451
25	0x3c5de85b	0.013544167
26	0xbbe88687	-0.007096115
27	0x3b0e0928	0.0021672938
28	0x3b4ee311	0.0031568448
29	0x3b82aa7a	0.0039876075
30	0x3c21ed6b	0.009883265
31	0x3bed4f87	0.0072421464
32	0xbb04b0c4	-0.0020246962
33	0x390faedd	0.00013702684
34	0xbb844f81	-0.004037798
35	0x3c85172c	0.0162464
36	0x3c723494	0.014783043
37	0x3bc24173	0.0059282123
38	0x3c6bec0b	0.014399539
39	0xba26d49a	-0.00063640776
40	0x3b6c76d5	0.0036081572
41	0x3c35837f	0.011078714
42	0x3cef0c18	0.029180571
43	0x3c043615	0.008069535
44	0xbbefa213	-0.007313022
45	0x3b2b72ef	0.0026161035
46	0xbcdcd1b5	-0.026955465
47	0x3c870b12	0.01648477
48	0x3b5c4545	0.0033610624
49	0xbbedf079	-0.0072613326
50	0xbb939d2d	-0.004504821
51	0xba188dc9	-0.00058194675
52	0x3ae4c410	0.0017453451
53	0x3b800052	0.003906288
54	0x3ba954ae	0.0051675653
55	0x3baecd07	0.0053344998
56	0xba1d893d	-0.0006009525
57	0xbab27909	-0.0013616394
58	0xbb7cadda	-0.0038555772
59	0x391f6504	0.00015201053
60	0x3be76c39	0.0070624617
61	0xbc35db51	-0.011099652
62	0x3cb0bc74	0.021574236
63	0x3b416c74	0.0029514106
64	0xbd7faab9	-0.062418673
65	0x3ba574c9	0.0050493223
66	0xba53e999	-0.000808382
67	0xbb6967e6	-0.0035614907
68	0xbc37571b	-0.011190201
69	0x3c30bfba	0.010787899
70	0x397b7cbf	0.00023983697
71	0xbc1ef18d	-0.009701145
72	0xbaa538bf	-0.0012605413
73	0xb901c292	-0.00012374882
74	0xb89ed14a	-7.57301e-05
75	0xbb2619bb	-0.0025344926
76	0xbdcf9f2a	-0.1013778
77	0x3ca8f2a3	0.02062351
78	0xbb9ffcb5	-0.00488242
79	0xbd9829ea	-0.074298695
80	0xbb8e8d4c	-0.00435034
81	0xbaef36c9	-0.001825058
82	0xbdfcb06c	-0.12338337
83	0x3c425d51	0.011863069
84	0x3b8aa809	0.004231457
85	0xbb27197e	-0.0025497372
86	0xbe0802a1	-0.13282253
87	0xbac02b45	-0.0014661333
88	0x3c12431a	0.008927131
89	0x3c2cbf9e	0.010543732
90	0xbe02e3f6	-0.12782273
91	0xbbecef75	-0.007230694
92	0xbaaf4349	-0.0013371493
93	0x3ba43c7a	0.005012092
94	0xbe360520	-0.17775393
95	0x3c1fc62a	0.009751836
96	0x3bd71b76	0.006564553
97	0x3af04edf	0.0018334052
98	0xba153e4f	-0.00056931836
99	0x3b5829c5	0.003298388
100	0x3bfaa269	0.0076487553
101	0xbe1e9ddf	-0.1548991
102	0x3aaaa33f	0.0013018622
103	0xbc673dcc	-0.014113855
104	0x3bb8c257	0.0056384015
105	0x3b231bbf	0.0024888364
106	0xbc19b031	-0.009380386
107	0xb9e3e09d	-0.00043464164
108	0xbc515a4f	-0.012777879
109	0xbe5adf5b	-0.21374266
110	0xbbc4c39e	-0.0060047647
111	0x3c1af83b	0.009458597
112	0xbc26be13	-0.010177153
113	0x3add9975	0.0016906696
114	0xbc0b2abb	-0.008494074
115	0x3b6e211a	0.0036335648
116	0xbb83254e	-0.00400225
117	0xbde31ef9	-0.11089892
118	0xbc25f14c	-0.01012833
119	0x39ece413	0.00045183356
120	0xbb8ecebe	-0.0043581417
121	0xbb1cb985	-0.002391429
122	0xbbc86041	-0.00611499
123	0xbc044d73	-0.008075106
124	0xbbcf7276	-0.0063307835
125	0x3a8f6f80	0.0010943264
126	0x3c8add64	0.01695127
127	0xbb66a8b4	-0.003519577
128	0xbb37ee56	-0.0028065643
129	0xbe485b8d	-0.19566174

_actor_critic.actor.fc_mu.bias f4 [2]
0	0xbd292308	-0.041293174
1	0xbe4dab15	-0.20084794
