rl_environments/trained_models/PPO_scheduling_2_obj_j25m5/policy.pth (torch, 41822 bytes, 24 tensors)

actor.sigma_param f4 [2, 1]
0.0 0.0
00000000: 0000 0000 0000 0000

actor.conv1.bias f4 [64]
0.0 0.0 0.0 0.0 0.0 0.0 0.0 0.0
0.0 0.0 0.0 0.0 0.0 0.0 0.0 0.0
0.0 0.0 0.0 0.0 0.0 0.0 0.0 0.0
0.0 0.0 0.0 0.0 0.0 0.0 0.0 0.0
0.0 0.0 0.0 0.0 0.0 0.0 0.0 0.0
0.0 0.0 0.0 0.0 0.0 0.0 0.0 0.0
0.0 0.0 0.0 0.0 0.0 0.0 0.0 0.0
0.0 0.0 0.0 0.0 0.0 0.0 0.0 0.0
00000000: 0000 0000 0000 0000 0000 0000 0000 0000
00000010: 0000 0000 0000 0000 0000 0000 0000 0000
00000020: 0000 0000 0000 0000 0000 0000 0000 0000
00000030: 0000 0000 0000 0000 0000 0000 0000 0000
00000040: 0000 0000 0000 0000 0000 0000 0000 0000
00000050: 0000 0000 0000 0000 0000 0000 0000 0000
00000060: 0000 0000 0000 0000 0000 0000 0000 0000
00000070: 0000 0000 0000 0000 0000 0000 0000 0000
00000080: 0000 0000 0000 0000 0000 0000 0000 0000
00000090: 0000 0000 0000 0000 0000 0000 0000 0000
000000a0: 0000 0000 0000 0000 0000 0000 0000 0000
000000b0: 0000 0000 0000 0000 0000 0000 0000 0000
000000c0: 0000 0000 0000 0000 0000 0000 0000 0000
000000d0: 0000 0000 0000 0000 0000 0000 0000 0000
000000e0: 0000 0000 0000 0000 0000 0000 0000 0000
000000f0: 0000 0000 0000 0000 0000 0000 0000 0000

actor.conv1.lin.weight f4 [64, 2]
-0.10859537 -0.20562504 -0.12772603 -0.24452627 0.22281398 -0.08610407 0.06832006 -0.033961564
0.016931862 -0.23582074 -0.08368985 -0.15550672 -0.122935034 -0.121394016 -0.017600682 0.043507997
0.010784565 -0.09830042 -0.0072960607 -0.13514008 0.0066937655 -0.24141376 -0.31870595 -0.16614662
-0.1531891 0.26550388 0.06578312 -0.055532288 0.03868463 0.20010059 0.06980029 -0.03062627
0.22180502 -0.15790531 -0.03641128 0.0013080471 -0.011681366 0.08614899 -0.11635122 -0.068929195
0.01465378 0.03096224 0.058357738 0.182849 0.099485785 0.018059941 -0.10863789 0.01802008
0.04838257 -0.20838748 -0.22105077 0.034593407 -0.009884222 -0.11725998 -0.03789579 -0.15971479
0.1116159 0.1336272 0.06032166 -0.19433261 0.19547634 -0.08562339 0.058709417 0.0013937213
0.13832128 -0.05565978 -0.45878285 -0.0048190467 0.040441748 -0.1405254 -0.054623574 -0.020725753
0.25310338 0.11791301 0.16130346 -0.06048268 0.13196437 -0.09952624 -0.15258835 -0.010282266
0.017359896 -0.11315128 -0.08488759 -0.052359566 -0.15223527 -0.017768875 0.08932516 -0.06877842
0.16392487 -0.078071855 0.10907256 -0.11893703 0.04450783 -0.16537374 -0.0949719 0.06464159
0.16454558 0.13752656 0.018326018 -0.14810754 -0.10295742 0.20478773 0.051494632 -0.16125111
0.10577224 0.12143944 0.08458071 0.045351077 -0.058037244 -0.015018259 0.01198435 -0.052837085
0.14577253 0.05901853 0.008019187 0.15657863 0.096518904 0.045274734 0.0575863 -0.1983002
0.04841725 0.0053319475 0.03761173 0.15321296 0.00015958918 -0.024026455 -0.07239611 0.01696938
00000000: 4067 debd 5f8f 52be 9dca 02be 1865 7abe
00000010: 5929 643e 5557 b0bd 63eb 8b3d 481b 0bbd
00000020: b0b4 8a3c fe7a 71be 9665 abbd 273d 1fbe
00000030: 5dc5 fbbd 6d9d f8bd 4e2f 90bc 7135 323d
00000040: beb1 303c bb51 c9bd cb13 efbb 2962 0abe
00000050: 6057 db3b 2b35 77be 6d2d a3be 5722 2abe
00000060: 9add 1cbe 20f0 873e 4db9 863d d375 63bd
00000070: c673 1e3d 2be7 4c3e 74f3 8e3d f2e3 fabc
00000080: db20 633e eeb1 21be ff23 15bd c772 ab3a
00000090: 3363 3fbc e26e b03d 8c49 eebd c02a 8dbd
000000a0: 6816 703c 86a4 fd3c 8608 6f3d c53c 3b3e
000000b0: 34bf cb3d 71f2 933c 8b7d debd d99e 933c
000000c0: cd2c 463d 8763 55be 225b 62be d1b1 0d3d
000000d0: 6ff1 21bc 0026 f0bd 9e38 1bbd 468c 23be
000000e0: e196 e43d 92d5 083e d813 773d 21ff 46be
000000f0: f32a 483e 515b afbd 4979 703d 87ad b63a
00000100: 18a4 0d3e 82fb 63bd 96e5 eabe 18e9 9dbb
00000110: 3fa6 253d e4e5 0fbe f8bc 5fbd 0ec9 a9bc
00000120: c496 813e 607c f13d bc2c 253e b0bc 77bd
00000130: ab21 073e 6ad4 cbbd 1f40 1cbe f376 28bc
00000140: 5736 8e3c dcbb e7bd 8bd9 adbd fc76 56bd
00000150: 90e3 1bbe 0890 91bc 1cf0 b63d b3db 8cbd
00000160: ecdb 273e 23e4 9fbd 6f61 df3d 4295 f3bd
00000170: d84d 363d bc57 29be a180 c2bd cf62 843d
00000180: a37e 283e c3d3 0c3e 7220 963c 81a9 17be
00000190: 57db d2bd e0b3 513e 09ec 523d 031f 25be
000001a0: 1e9f d83d 3eb5 f83d a738 ad3d 0dc2 393d
000001b0: 76b8 6dbd 250f 76bc 025a 443c b36b 58bd
000001c0: 6545 153e 6abd 713d e862 033c 2656 203e
000001d0: b4ab c53d 0072 393d 9ddf 6b3d 350f 4bbe
000001e0: 2b51 463d 9eb7 ae3b c20e 1a3d dce3 1c3e
000001f0: 6557 2739 21d3 c4bc 6944 94bd 5f03 8b3c

actor.conv2.bias f4 [64]
0.0 0.0 0.0 0.0 0.0 0.0 0.0 0.0
0.0 0.0 0.0 0.0 0.0 0.0 0.0 0.0
0.0 0.0 0.0 0.0 0.0 0.0 0.0 0.0
0.0 0.0 0.0 0.0 0.0 0.0 0.0 0.0
0.0 0.0 0.0 0.0 0.0 0.0 0.0 0.0
0.0 0.0 0.0 0.0 0.0 0.0 0.0 0.0
0.0 0.0 0.0 0.0 0.0 0.0 0.0 0.0
0.0 0.0 0.0 0.0 0.0 0.0 0.0 0.0
00000000: 0000 0000 0000 0000 0000 0000 0000 0000
00000010: 0000 0000 0000 0000 0000 0000 0000 0000
00000020: 0000 0000 0000 0000 0000 0000 0000 0000
00000030: 0000 0000 0000 0000 0000 0000 0000 0000
00000040: 0000 0000 0000 0000 0000 0000 0000 0000
00000050: 0000 0000 0000 0000 0000 0000 0000 0000
00000060: 0000 0000 0000 0000 0000 0000 0000 0000
00000070: 0000 0000 0000 0000 0000 0000 0000 0000
00000080: 0000 0000 0000 0000 0000 0000 0000 0000
00000090: 0000 0000 0000 0000 0000 0000 0000 0000
000000a0: 0000 0000 0000 0000 0000 0000 0000 0000
000000b0: 0000 0000 0000 0000 0000 0000 0000 0000
000000c0: 0000 0000 0000 0000 0000 0000 0000 0000
000000d0: 0000 0000 0000 0000 0000 0000 0000 0000
000000e0: 0000 0000 0000 0000 0000 0000 0000 0000
000000f0: 0000 0000 0000 0000 0000 0000 0000 0000

actor.conv2.lin.weight f4 [64, 64]
0.024158716 -0.026565552 0.052297525 -0.14815739 -0.21403065 0.12096599 -0.0035694689 -0.071462244
-0.15252793 -0.095941655 -0.25219107 0.13903318 -0.10802735 -0.050508626 -0.39427125 -0.13442156
0.012178101 -0.03864913 -0.111464575 0.032010663 -0.09527782 -0.13603225 -0.18226367 0.090726
0.032680564 0.07985633 -0.11227238 -0.14415962 -0.053662997 0.00041736037 -0.07536174 -0.02220845
0.06730239 0.14215034 -0.021645356 -0.07258526 -0.20995826 0.08985126 -0.07216615 -0.019133544
0.053151622 -0.011904164 0.04268826 0.018761322 0.080180906 -0.086180806 -0.13263947 0.018187158
-0.03495224 -0.31033283 -0.16509317 0.024183298 0.18606365 0.03917906 -0.07455236 0.021765513
0.11638438 0.055078685 -0.0056532696 -0.078429066 0.11902061 0.12951502 -0.20474808 -0.2881141
-0.20295288 0.0052605867 0.022419708 0.041413777 -0.10549075 -0.15840165 -0.141549 -0.019879807
0.02062569 -0.068764776 0.10683301 0.11443363 -0.023372624 -0.0027482817 0.16077909 -0.057139993
-0.10708139 -0.037214443 0.038764834 0.1169231 0.017117871 -0.08491485 0.016793834 0.101099506
0.1302522 -0.17783222 0.0025105346 -0.042240344 -0.09240368 0.08502103 -0.06326508 -0.19995964
0.2588103 -0.079763 0.10669985 -0.07858779 0.0061895214 -0.0986423 0.035096172 0.13276851
0.061797697 -0.03417892 0.029444233 0.08794884 0.18579388 0.15579994 -0.057268493 0.111165844
-0.091406904 -0.016045105 0.032505915 -0.14692509 0.14088202 -0.09531223 0.11745248 0.07421559
0.19613202 0.3301827 -0.30836615 0.31536746 0.027997201 0.051934548 0.20690843 -0.09510796
-0.10999697 0.17908712 -0.03020072 -0.022199487 -0.16606039 -0.10624225 0.077129304 0.08773932
0.07030912 -0.035858467 -0.03622438 -0.082528025 0.11480078 -0.121071205 -0.021817513 0.041014593
-0.18477526 -0.0655138 -0.15175943 0.041102193 0.20150554 -0.0013150722 0.008817074 -0.21745956
-0.17845185 -0.18475026 0.08501021 -0.011714764 0.06682366 -0.1424907 -0.20586997 0.07274283
0.035833437 -0.027271375 0.15375373 -0.065738246 -0.290212 -0.19035894 -0.047320068 -0.07820204
0.22874738 -0.15457363 -0.17081833 -0.14564662 -0.14576477 -0.027838169 -0.14026475 -0.17184092
-0.0039117634 0.077327214 0.10810314 0.16039768 0.028806087 -0.0097574415 -0.0820915 -0.12532786
0.1480395 0.14272642 0.12185943 0.08059097 -0.17591816 -0.12831393 -0.16182078 0.0023275465
0.07376878 -0.102722585 0.06849263 0.10858822 0.02815366 0.19445573 -0.006640373 0.12036903
0.036363997 0.08421129 0.039385103 -0.044886827 0.17805956 0.096730515 0.036051337 0.004584398
-0.19134483 -0.20128116 0.06274803 -0.12389375 -0.3231238 0.374635 -0.18783695 0.09810295
-0.028897524 0.022759778 -0.055508975 0.08415519 0.15634753 -0.025074812 0.053360984 -0.072566316
0.09195498 0.022970878 0.16395392 -0.015395062 -0.033210903 0.02072246 -0.30630723 0.011709919
0.06686965 0.0374088 0.12172629 0.0040996466 -0.22214878 0.24984214 -0.03142737 0.15056172
0.03714949 0.012688462 0.062644586 0.19258529 0.039229516 -0.061352085 -0.15991203 0.028441254
-0.03001679 0.113359764 -0.01628474 0.070742704 0.1406365 -0.09843296 -0.03042455 -0.13363348
00000000: 80e8 c53c 00a0 d9bc ee35 563d 92b6 17be
00000010: da2a 5bbe 04bd f73d c0ed 69bb cc5a 92bd
00000020: 4830 1cbe 0f7d c4bd 301f 81be b75e 0e3e
00000030: 713d ddbd 22e2 4ebd ecdd c9be cea5 09be
00000040: a886 473c 8d4e 1ebd 8a47 e4bd 9d1d 033d
00000050: 0521 c3bd 0a4c 0bbe 54a3 3abe 8ece b93d
00000060: 0edc 053d b78b a33d 10ef e5bd 949e 13be
00000070: bbcd 5bbd 29d1 da39 4257 9abd 7fee b5bc
00000080: d6d5 893d dc8f 113e 9a51 b1bc 95a7 94bd
00000090: 4cff 56be f003 b83d d9cb 93bd f3bd 9cbc
000000a0: 84b5 593d af09 43bc e3d9 2e3d 58b1 993c
000000b0: e335 a43d 907f b0bd a4d2 07be 3cfd 943c
000000c0: 142a 0fbd f2e3 9ebe 2f0e 29be 0d1c c63c
000000d0: 7887 3e3e 397a 203d e8ae 98bd 974d b23c
000000e0: ef5a ee3d 309a 613d 103f b9bb 6b9f a0bd
000000f0: 14c1 f33d 969f 043e 7ba9 51be b183 93be
00000100: e1d2 4fbe 0061 ac3b 89a9 b73c 7ea1 293d
00000110: 890b d8bd 0b34 22be 39f2 10be fada a2bc
00000120: 35f7 a83c 8cd4 8cbd 44cb da3d 2e5c ea3d
00000130: f277 bfbc 841c 34bb 46a3 243e a00b 6abd
00000140: 7d4d dbbd 2c6e 18bd e0c7 1e3d 6175 ef3d
00000150: c73a 8c3c d6e7 adbd 3993 893c 420d cf3d
00000160: d560 053e a619 36be c887 243b 3604 2dbd
00000170: 243e bdbd 811f ae3d 1f91 81bd 38c2 4cbe
00000180: c982 843e c95a a3bd 7385 da3d a3f2 a0bd
00000190: 78d1 ca3b f904 cabd 01c1 0f3d 78f4 073e
000001a0: 951f 7d3d 32ff 0bbd 0835 f13c 851e b43d
000001b0: c040 3e3e 058a 1f3e 5e92 6abd ebaa e33d
000001c0: 8b33 bbbd 0671 83bc ec24 053d 8873 16be
000001d0: 6043 103e 0f33 c3bd ed8a f03d 58fe 973d
000001e0: d5d6 483e b50d a93e 2be2 9dbe d877 a13e
000001f0: 635a e53c 52b9 543d cedf 533e f6c7 c2bd
00000200: 1746 e1bd 9d62 373e 8067 f7bc b3db b5bc
00000210: bc0b 2abe 8995 d9bd f8f5 9d3d acb0 b33d
00000220: 3afe 8f3d 54e0 12bd 0460 14bd 7404 a9bd
00000230: ac1c eb3d 2ef4 f7bd a4ba b2bc ebfe 273d
00000240: ba35 3dbe 192c 86bd d366 1bbe c65a 283d
00000250: 7857 4e3e 805e acba 7d75 103c b8ad 5ebe
00000260: 15bc 36be 2c2f 3dbe d519 ae3d 48ef 3fbc
00000270: d8da 883d 15e9 11be 94cf 52be 31fa 943d
00000280: 15c6 123d 3868 dfbc 9e71 1d3e c6a1 86bd
00000290: ab96 94be 74ed 42be b0d2 41bd 6428 a0bd
000002a0: c13c 6a3e 8d48 1ebe 00eb 2ebe 6324 15be
000002b0: 5c43 15be df0c e4bc 90a1 0fbe 11f7 2fbe
000002c0: 402e 80bb bb5d 9e3d 2e65 dd3d 4a3f 243e
000002d0: befa eb3c addd 1fbc 971f a8bd f255 00be
000002e0: ab97 173e e026 123e 7091 f93d e10c a53d
000002f0: e423 34be ba64 03be 59b4 25be c089 183b
00000300: 1614 973d 3860 d2bd dd45 8c3d 8063 de3d
00000310: 81a2 e63c 671f 473e 7c97 d9bb 0a84 f63d
00000320: 6af2 143d f876 ac3d 4652 213d 40db 37bd
00000330: 3f55 363e a61a c63d 91aa 133d b838 963b
00000340: e6ef 43be a61c 4ebe 0a82 803d 02bc fdbd
00000350: 7c70 a5be 29d0 bf3e 5458 40be 33ea c83d
00000360: 80ba ecbc b772 ba3c 615d 63bd 8e59 ac3d
00000370: 9119 203e b169 cdbc 0c91 5a3d a69d 94bd
00000380: e452 bc3d 6c2d bc3c 89e3 273e 923b 7cbc
00000390: 2808 08bd 26c2 a93c 4dd4 9cbe f6da 3f3c
000003a0: f4f2 883d f839 193d a24b f93d 5456 863b
000003b0: f87a 63be 9ed6 7f3e fcb9 00bd da2c 1a3e
000003c0: 102a 183d 44e3 4f3c ce4b 803d 1435 453e
000003d0: 21af 203d 534c 7bbd fbbf 23be a2fd e83c
000003e0: c5e5 f5bc 2a29 e83d 9367 85bc 8de1 903d
000003f0: 0403 103e 3897 c9bd e83c f9bc 37d7 08be

actor.fc_mu.weight f4 [2, 65]
0.0027474856 -0.0008121979 0.0001506892 -0.0012214248 0.0035987075 -0.0013698874 0.00043069496 0.00047897256
-0.00043175343 -0.0028464 0.0007414002 0.0021029352 -0.0011350039 0.0020904026 -0.0008382128 -0.0011843208
0.002111748 0.00034736303 0.0012060971 0.0023061435 -0.0014993844 0.00022516519 0.00037019743 0.0033248083
-0.00015749423 0.00030155646 0.0009597741 -0.0003497879 0.0019155554 -0.0021340926 5.0923143e-05 0.00042924087
-0.0009904194 -0.00041997118 0.00039738353 0.0008333311 0.0017270905 -0.0009597138 0.0020098647 -0.0012557791
-0.0015997057 -0.0025056337 -0.0015185778 -0.005132492 0.0005467398 0.0009269332 0.000946587 -0.0005578141
-0.0021849028 -0.00061835494 -0.00018052268 -0.0018263514 -0.0019792009 -0.002948726 0.0020936604 0.0026074075
-0.00017604478 0.0010408234 0.0030737435 -0.0025056615 -0.00030086035 0.0026528006 -0.0016884593 0.00072810904
0.0029238483 -0.000435223 -0.0007044231 0.00016251321 0.0024944365 0.002993581 -0.0009097989 -0.0017397567
-0.0013087421 -8.65283e-05 -0.0023763306 -2.5773941e-05 0.00087236334 0.0027972013 0.00016515852 -0.0005222845
0.0010817652 -0.0026048026 -0.0006390526 0.0035055631 0.003385687 0.0011013877 0.0005469312 0.0011434432
-0.0022823904 -0.001021516 -0.00044222074 -0.00076684344 -0.0005279562 -0.0007489766 -0.00040359763 0.0019330883
-0.0009930633 -0.0025556623 -0.00045447942 0.0035887875 0.00090290594 -0.0014826831 -0.00038574543 0.0018196143
0.00040372543 -0.0005573316 0.001930909 5.527742e-05 0.00092629506 -0.002676064 -0.0009321805 0.0021169332
-0.0004391527 0.0027337158 -0.0030844782 0.00081614195 -0.0028838827 -0.0020241977 0.00078121625 0.002364743
0.0001234136 -0.00059264177 -0.0021841647 -0.00020324043 -0.0017586785 0.00047934247 -0.0011826466 0.0013808055
0.0030381598 -0.0038902943
00000000: 290f 343b aee9 54ba 5302 1e39 3718 a0ba
00000010: 4bd8 6b3b cb8d b3ba e6ce e139 9c1e fb39
00000020: f75c e2b9 ab8a 3abb 865a 423a 66d1 093b
00000030: 69c4 94ba 23ff 083b 82bb 5bba 363b 9bba
00000040: 4165 0a3b 471e b639 e715 9e3a ab22 173b
00000050: fe86 c4ba 521a 6c39 0f17 c239 07e5 593b
00000060: 0925 25b9 391a 9e39 5999 7b3a bd63 b7b9
00000070: 6013 fb3a 22dc 0bbb 4f96 5538 bc0b e139
00000080: f6d0 81ba 942f dcb9 ea57 d039 e773 5a3a
00000090: 8a5f e23a 4e95 7bba efb7 033b f498 a4ba
000000a0: 37ad d1ba 8f35 24bb 040b c7ba 772e a8bb
000000b0: 1653 0f3a 6ffd 723a 6124 783a 453a 12ba
000000c0: 9630 0fbb 1919 22ba b04a 3db9 2f62 efba
000000d0: 7bb5 01bb 6a3f 41bb cb35 093b 0ae1 2a3b
000000e0: a998 38b9 3d6c 883a dc70 493b 0636 24bb
000000f0: cbbc 9db9 9cda 2d3b 4b4f ddba 92de 3e3a
00000100: 099e 3f3b a42e e4b9 09a9 38ba 4f68 2a39
00000110: b379 233b f42f 443b 927f 6eba 8c08 e4ba
00000120: 198a abba 8776 b5b8 36bc 1bbb 1e35 d8b7
00000130: 50af 643a 4051 373b 672e 2d39 ebe9 08ba
00000140: 04ca 8d3a 56b5 2abb 1886 27ba 97bd 653b
00000150: 67e2 5d3b 705c 903a ee5f 0f3a 96df 953a
00000160: 2894 15bb 64e4 85ba ddd9 e7b9 fe05 49ba
00000170: 8a66 0aba f856 44ba f599 d3b9 ae5f fd3a
00000180: ad29 82ba e67c 27bb 3247 eeb9 dd31 6b3b
00000190: feb0 6c3a 9756 c2ba e03d cab9 2080 ee3a
000001a0: 1cab d339 e419 12ba 8e16 fd3a aed9 6738
000001b0: 9cd2 723a e760 2fbb 935d 74ba 3fbc 0a3b
000001c0: 143e e6b9 2428 333b f524 4abb 5cf2 553a
000001d0: 86ff 3cbb 67a8 04bb 89ca 4c3a cef9 1a3b
000001e0: 9668 0139 845b 1bba 3424 0fbb f01c 55b9
000001f0: 7583 e6ba 4250 fb39 0903 9bba 25fc b43a
00000200: dd1b 473b 4ff4 7ebb

actor.fc_mu.bias f4 [2]
0.0 0.0
00000000: 0000 0000 0000 0000

critic.conv1.bias f4 [64]
0.0 0.0 0.0 0.0 0.0 0.0 0.0 0.0
0.0 0.0 0.0 0.0 0.0 0.0 0.0 0.0
0.0 0.0 0.0 0.0 0.0 0.0 0.0 0.0
0.0 0.0 0.0 0.0 0.0 0.0 0.0 0.0
0.0 0.0 0.0 0.0 0.0 0.0 0.0 0.0
0.0 0.0 0.0 0.0 0.0 0.0 0.0 0.0
0.0 0.0 0.0 0.0 0.0 0.0 0.0 0.0
0.0 0.0 0.0 0.0 0.0 0.0 0.0 0.0
00000000: 0000 0000 0000 0000 0000 0000 0000 0000
00000010: 0000 0000 0000 0000 0000 0000 0000 0000
00000020: 0000 0000 0000 0000 0000 0000 0000 0000
00000030: 0000 0000 0000 0000 0000 0000 0000 0000
00000040: 0000 0000 0000 0000 0000 0000 0000 0000
00000050: 0000 0000 0000 0000 0000 0000 0000 0000
00000060: 0000 0000 0000 0000 0000 0000 0000 0000
00000070: 0000 0000 0000 0000 0000 0000 0000 0000
00000080: 0000 0000 0000 0000 0000 0000 0000 0000
00000090: 0000 0000 0000 0000 0000 0000 0000 0000
000000a0: 0000 0000 0000 0000 0000 0000 0000 0000
000000b0: 0000 0000 0000 0000 0000 0000 0000 0000
000000c0: 0000 0000 0000 0000 0000 0000 0000 0000
000000d0: 0000 0000 0000 0000 0000 0000 0000 0000
000000e0: 0000 0000 0000 0000 0000 0000 0000 0000
000000f0: 0000 0000 0000 0000 0000 0000 0000 0000

critic.conv1.lin.weight f4 [64, 2]
0.08994365 0.039761413 -0.09013438 0.188162 -0.17896314 -0.13296488 -0.054290783 -0.08700495
0.0422208 0.20185316 -0.16411017 -0.04617938 0.101463154 -0.15388066 0.16130932 -0.109787926
-0.107524335 0.087506615 -0.040777776 0.0040224465 0.087988906 -0.18536882 -0.061878297 -0.022350643
0.09030038 -0.1126038 0.16163063 0.06841026 -0.084068306 0.04271884 0.12898636 0.013190374
-0.09896189 -0.25056443 -0.053478856 0.08098024 0.08777313 -0.133544 -0.20578282 -0.15877998
-0.1279212 -0.23385744 -0.19084686 0.047723148 0.12319338 0.055203125 0.10863557 -0.0735676
0.008953437 0.06777358 0.07482147 -0.011909581 -0.09607764 -0.10985122 0.009692428 0.1587938
-0.2684039 0.10119281 0.24335138 0.1875253 -0.12534848 -0.13732994 0.17022836 -0.050240986
-0.011977992 -0.0008881736 -0.031127071 0.014550864 0.061720315 0.02782972 -0.07617772 0.10378548
-0.032892335 0.018733803 -0.19113223 -0.0825067 -0.06299125 0.062101766 -0.07427777 0.21204899
-0.10445689 -0.051849842 0.2719817 0.029917886 -0.08541451 0.31859216 0.1459567 0.003286415
-0.0037050792 -0.13304098 -0.028070347 -0.075135015 0.123651825 -0.005108757 -0.12116607 -0.088369615
0.073504746 0.13435866 0.038150784 0.039046902 -0.03604898 -0.008416105 -0.10887686 -0.1062219
-0.25269005 0.106217675 -0.19962405 0.22194749 -0.14730218 -0.07134853 0.044050675 0.051154844
-0.031513244 -0.23933427 -0.26452324 -0.05573603 -0.089207456 0.0108558815 0.049009673 -0.047390543
-0.10285421 0.011893519 -0.12357103 0.36765933 0.09259597 0.061720837 0.048969306 -0.07464646
00000000: 6034 b83d dddc 223d 6098 b8bd 8aad 403e
00000010: 1d42 37be f227 08be 0360 5ebd a72f b2bd
00000020: b8ef 2c3d 98b2 4e3e 7f0c 28be 9726 3dbd
00000030: eacb cf3d e492 1dbe 452e 253e 7ed8 e0bd
00000040: b835 dcbd ab36 b33d 9906 27bd bace 833b
00000050: 8733 b43d 53d1 3dbe 1974 7dbd b218 b7bc
00000060: 68ef b83d d29c e6bd 8082 253e ae1a 8c3d
00000070: 012c acbd f3f9 2e3d 0015 043e 701c 583c
00000080: 88ac cabd fb49 80be a50c 5bbd f8d8 a53d
00000090: 66c2 b33d c2bf 08be bbb8 52be 3897 22be
000000a0: c6fd 02be 5378 6fbe 5c6d 43be 5979 433d
000000b0: d04c fc3d ac1c 623d 537c de3d 9caa 96bd
000000c0: 70b1 123c e0cc 8a3d 003c 993d 6720 43bc
000000d0: 5bc4 c4bd adf9 e0bd fdcc 1e3c d89a 223e
000000e0: 3c6c 89be 2d3e cf3d 1b31 793e a206 403e
000000f0: 5a5b 00be 38a0 0cbe 5850 2e3e 7ec9 4dbd
00000100: 573f 44bc 52d4 68ba 33fe febc bf66 6e3c
00000110: 71ce 7c3d 27fb e33c 1103 9cbd 7b8d d43d
00000120: 1dba 06bd a277 993c 2bb8 43be 46f9 a8bd
00000130: 8e01 81bd 6c5e 7e3d f21e 98bd 5f23 593e
00000140: 7eed d5bd 8060 54bd 2f41 8b3e 5b16 f53c
00000150: cded aebd 831e a33e ac75 153e e560 573b
00000160: ead0 72bb e53b 08be c9f3 e5bc 63e0 99bd
00000170: 2b3d fd3d 5c67 a7bb eb25 f8bd 21fb b4bd
00000180: a889 963d 5195 093e ff43 1c3d a5ef 1f3d
00000190: 18a8 13bd b4e3 09bc d5fa debd de8a d9bd
000001a0: 9760 81be a788 d93d 3f6a 4cbe 3446 633e
000001b0: 62d6 16be 2e1f 92bd 7b6e 343d be87 513d
000001c0: 0814 01bd 0b14 75be 976f 87be 774b 64bd
000001d0: 66b2 b6bd dedc 313c 5ebe 483d 961c 42bd
000001e0: 3aa5 d2bd 09dd 423c cf12 fdbd d83d bc3e
000001f0: f5a2 bd3d fdce 7c3d 0a94 483d 3ee0 98bd

critic.conv2.bias f4 [64]
0.0 0.0 0.0 0.0 0.0 0.0 0.0 0.0
0.0 0.0 0.0 0.0 0.0 0.0 0.0 0.0
0.0 0.0 0.0 0.0 0.0 0.0 0.0 0.0
0.0 0.0 0.0 0.0 0.0 0.0 0.0 0.0
0.0 0.0 0.0 0.0 0.0 0.0 0.0 0.0
0.0 0.0 0.0 0.0 0.0 0.0 0.0 0.0
0.0 0.0 0.0 0.0 0.0 0.0 0.0 0.0
0.0 0.0 0.0 0.0 0.0 0.0 0.0 0.0
00000000: 0000 0000 0000 0000 0000 0000 0000 0000
00000010: 0000 0000 0000 0000 0000 0000 0000 0000
00000020: 0000 0000 0000 0000 0000 0000 0000 0000
00000030: 0000 0000 0000 0000 0000 0000 0000 0000
00000040: 0000 0000 0000 0000 0000 0000 0000 0000
00000050: 0000 0000 0000 0000 0000 0000 0000 0000
00000060: 0000 0000 0000 0000 0000 0000 0000 0000
00000070: 0000 0000 0000 0000 0000 0000 0000 0000
00000080: 0000 0000 0000 0000 0000 0000 0000 0000
00000090: 0000 0000 0000 0000 0000 0000 0000 0000
000000a0: 0000 0000 0000 0000 0000 0000 0000 0000
000000b0: 0000 0000 0000 0000 0000 0000 0000 0000
000000c0: 0000 0000 0000 0000 0000 0000 0000 0000
000000d0: 0000 0000 0000 0000 0000 0000 0000 0000
000000e0: 0000 0000 0000 0000 0000 0000 0000 0000
000000f0: 0000 0000 0000 0000 0000 0000 0000 0000

critic.conv2.lin.weight f4 [64, 64]
0.15427768 0.063646376 0.14454103 0.089777224 -0.09012304 -0.047984757 0.07358888 -0.2005839
0.015183806 0.19523829 -0.059245214 0.21439789 -0.009571795 0.10131958 0.1400931 -0.120441675
0.1993674 0.0319099 0.022790618 -0.17398588 -0.0840631 -0.047004595 -0.048461154 0.08351519
-0.23302154 -0.09448765 0.13523203 0.059571348 -0.002609118 -0.05320395 0.08902638 -0.14923428
0.19282937 -0.04451516 0.11062714 -0.022748968 -0.10780087 0.10599094 0.2055764 -0.098854244
-0.032104015 -0.09086235 0.028261786 -0.068498455 0.025267523 -0.030327696 -0.109756924 -0.010062232
-0.24544491 0.034642864 -0.03791467 -0.15159564 0.18440278 -0.16679329 -0.11968654 -0.1730162
-0.08307232 -0.24176393 0.21410029 0.23011364 0.10018816 -0.07096823 -0.06414833 -0.12642953
0.029314417 -0.15764701 0.34815264 0.23012958 -0.030659562 0.03571217 -0.24435914 -0.19935583
-0.122360796 -0.031106573 -0.05270003 0.101902254 0.048320174 -0.17089121 0.002717373 0.03910619
0.04577387 0.13891503 -0.101427846 0.090648234 0.05669162 -0.010725113 0.13531218 -0.12978777
0.052213877 -0.25011662 -0.09480769 -0.15580027 -0.07211372 0.06630026 0.18881147 0.03730661
-0.06669754 0.09278523 0.1914033 -0.012692344 -0.27379888 0.07720988 -0.021771815 0.03552612
-0.12005617 0.088252425 0.0034893486 -0.07939412 -0.007089441 -0.13607955 7.88921e-05 0.06372858
-0.08594126 0.0076104985 0.0993158 0.17006242 -0.012127619 0.14990044 -0.14626548 0.23232508
-0.037279174 0.17094304 0.08472673 -0.06620806 -0.16218911 -0.06569053 -0.10205322 -0.04025069
-0.13917272 -0.052785892 0.0835824 0.037356704 0.11586716 0.048905335 -0.039338686 0.053835623
0.15742898 -0.053907216 0.11993171 0.13502555 0.002236978 0.07917366 -0.062139872 0.2799309
-0.0058146603 -0.00067828724 -0.03677446 0.17027497 0.14118877 0.25221646 -0.001142554 -0.06181726
0.056947023 0.06281605 -0.06470784 -0.24940744 0.07452812 0.045848772 0.048891958 -0.042701047
-0.052745253 -0.2579581 0.00017814664 0.060702775 0.003976344 0.101768024 -0.024179963 -0.21442853
-0.028770832 -0.1546858 -0.019734995 -0.015220156 0.12965849 0.036247592 -0.16493317 -0.18850468
-0.14494124 0.10668709 -0.21648432 -0.07438496 -0.15143158 0.012111715 -0.13038874 0.03389357
0.04548623 0.060394395 0.1654709 0.15245321 0.30170453 0.269194 -0.018669698 0.12172792
0.13505116 -0.0041629598 -0.15786466 -0.08425903 -0.061629724 -0.17386797 0.18859033 0.057413366
0.078542925 -0.14780287 0.04882282 -0.11172567 0.05936536 -0.059659384 -0.07429899 -0.06638119
-0.01492201 0.19874513 -0.25993556 -0.060336277 0.1636052 -0.11486417 0.002735798 0.07089272
0.113315925 -0.12105042 -0.026434708 -0.15372615 -0.18778263 0.1300551 -0.24334604 0.10562867
0.00028725713 -0.059480373 0.15898469 -0.35242844 0.14250623 0.095813766 -0.05606614 0.041987132
0.04322662 -0.070299424 0.20127553 0.073205724 0.17942183 -0.14740476 -0.13141972 -0.10124357
-0.017884504 0.071268916 -0.013771601 0.18687528 0.16138849 -0.009144641 0.03464055 0.060874395
-0.080587834 0.019622937 0.14454386 0.09424427 0.13083701 -0.17235258 -0.09518428 -0.031934604
00000000: f8fa 1d3e 0859 823d 9002 143e 1fdd b73d
00000010: 6e92 b8bd aa8b 44bd c4b5 963d de65 4dbe
00000020: 80c5 783c 8cec 473e 1cab 72bd 1f8b 5b3e
00000030: 05d3 1cbc a480 cf3d 9174 0f3e 20aa f6bd
00000040: f826 4c3e f5b3 023d 64b3 ba3c 5b29 32be
00000050: 4629 acbd e487 40bd 347f 46bd 030a ab3d
00000060: 339d 6ebe be82 c1bd 447a 0a3e 1601 743d
00000070: bcfd 2abb 63ec 59bd 7653 b63d dfd0 18be
00000080: 1075 453e 8755 36bd 7b90 e23d 0b5c babc
00000090: b4c6 dcbd c711 d93d 9f82 523e 1874 cabd
000000a0: 807f 03bd 0a16 babd 4385 e73c eb48 8cbd
000000b0: d6fd ce3c ca71 f8bc 3dc8 e0bd 0fdc 24bc
000000c0: e955 7bbe ade5 0d3d 6a4c 1bbd e33b 1bbe
000000d0: 15d4 3c3e dccb 2abe 371e f5bd 292b 31be
000000e0: d221 aabd f790 77be 1b3d 5b3e e9a2 6b3e
000000f0: 732f cd3d cb57 91bd 3360 83bd be76 01be
00000100: ca24 f03c 386e 21be 1041 b23e 17a7 6b3e
00000110: c329 fbbc ed46 123d 4839 7abe ef23 4cbe
00000120: 4c98 fabd 36d3 febc fddb 57bd 21b2 d03d
00000130: 60eb 453d 1bfe 2ebe f415 323b d02d 203d
00000140: 627d 3b3d be3f 0e3e 67b9 cfbd c8a5 b93d
00000150: 7935 683d 62b8 2fbc 478f 0a3e 16e7 04be
00000160: 38de 553d 490f 80be 892a c2bd 1b8a 1fbe
00000170: 5cb0 93bd 6ec8 873d cb57 413e d1ce 183d
00000180: b898 88bd 2f06 be3d 3aff 433e 8df3 4fbc
00000190: 5e2f 8cbe 3720 9e3d ce5a b2bc d683 113d
000001a0: 02e0 f5bd b0bd b43d 8ead 643b 6299 a2bd
000001b0: 8b4e e8bb 7058 0bbe e072 a538 2184 823d
000001c0: f901 b0bd 7d61 f93b 1566 cb3d d824 2e3e
000001d0: ecb2 46bc 807f 193e 9ec6 15be a0e6 6d3e
000001e0: 0cb2 18bd b10b 2f3e 3585 ad3d 1798 87bd
000001f0: e714 26be c288 86bd 4701 d1bd e8dd 24bd
00000200: 4b83 0ebe 0536 58bd 402d ab3d 5803 193d
00000210: c34b ed3d f650 483d 9a21 21bd be82 5c3d
00000220: 1035 213e d0cd 5cbd c29e f53d 2344 0a3e
00000230: 439a 123b cd25 a23d 6186 7ebd 1a53 8f3e
00000240: e888 bebb 16cf 31ba d1a0 16bd 905c 2e3e
00000250: ca93 103e 8422 813e c0c1 95ba 1834 7dbd
00000260: 4841 693d b4a5 803d 8b85 84bd aa64 7fbe
00000270: 33a2 983d eccb 3b3d ef42 483d 4be7 2ebd
00000280: 680b 58bd 1613 84be e0cc 3a39 79a3 783d
00000290: fe4b 823b c16b d03d 0f15 c6bc 2793 5bbe
000002a0: cfb0 ebbc f465 1ebe 49ab a1bc f65d 79bc
000002b0: 32c5 043e 5b78 143d 3ee4 28be 5f07 41be
000002c0: 7a6b 14be c37e da3d 11ae 5dbe 2457 98bd
000002d0: e110 1bbe 3770 463c a084 05be fcd3 0a3d
000002e0: c54f 3a3d 1d60 773d 3471 293e b21c 1c3e
000002f0: 0479 9a3e ccd3 893e 32f1 98bc 7d4c f93d
00000300: da4a 0a3e 7069 88bb 46a7 21be 0090 acbd
00000310: 736f 7cbd 720a 32be d31d 413e 472a 6b3d
00000320: 1ddb a03d a359 17be 70fa 473d 6ed0 e4bd
00000330: 1729 733d 665d 74bd 122a 98bd ddf2 87bd
00000340: 727b 74bc d883 4b3e 4616 85be 2c23 77bd
00000350: 1f88 273e e83d ebbd 134b 333b 3430 913d
00000360: 2e12 e83d 48e9 f7bd 9a8d d8bc 636a 1dbe
00000370: 174a 40be 2a2d 053e b42f 79be d853 d83d
00000380: 009b 9639 b1a1 73bd e2cc 223e 8071 b4be
00000390: 27ed 113e 023a c43d 9ca5 65bd b3fa 2b3d
000003a0: 650e 313d 25f9 8fbd 2c1b 4e3e e2ec 953d
000003b0: 5bba 373e 46f1 16be e492 06be ca58 cfbd
000003c0: 8682 92bc 70f5 913d 48a2 61bc 3c5c 3f3e
000003d0: 0643 253e 68d3 15bc 40e3 0d3d 6e57 793d
000003e0: 3c0b a5bd 48c0 a03c 4e03 143e 2403 c13d
000003f0: 23fa 053e 327d 30be faef c2bd dccd 02bd

critic.fc.weight f4 [1, 65]
0.3109431 -0.2231341 -0.1573469 -0.07659322 0.06436685 0.03172719 0.34270832 -0.44545636
-0.0799052 -0.13379622 -0.36361185 0.37302178 -0.16802718 -0.018868951 0.031630944 -0.0036637716
0.13699043 0.20486152 -0.103583455 -0.26066098 -0.0819847 0.06274473 -0.027863769 0.044106234
0.02208221 -0.056705255 -0.09328265 0.10702076 0.0784367 -0.0005075463 -0.036985155 0.0648673
0.002634401 0.09949144 -0.10452506 0.26536885 -0.07044009 0.08088234 -0.057927493 0.0043810676
0.2696302 0.33883855 -0.312976 -0.020637196 -0.1845621 0.015860762 -0.02300587 0.24595739
0.22810014 -0.2669579 0.33837247 -0.009469451 -0.41521156 -0.077380046 0.1878153 -0.047639124
-0.011589253 -0.08860882 -0.011072401 0.026142275 -0.086509295 0.0044891387 -0.116567425 -0.027822236
-0.12812042
00000000: ef33 9f3e 447d 64be 8c1f 21be e8dc 9cbd
00000010: c4d2 833d 5ff4 013d 7777 af3e db12 e4be
00000020: 56a5 a3bd e001 09be 552b babe b6fc be3e
00000030: 510f 2cbe 0f93 9abc 738f 013d e31b 70bb
00000040: 3847 0c3e 38c7 513e 9023 d4bd 5b75 85be
00000050: 98e7 a7bd 4f80 803d 8f42 e4bc bda8 343d
00000060: c0e5 b43c c543 68bd f90a bfbd b32d db3d
00000070: 6ca3 a03d db0c 05ba bf7d 17bd 26d9 843d
00000080: eaa5 2c3b 2bc2 cb3d 3c11 d6bd 6dde 873e
00000090: e542 90bd a4a5 a53d 6145 6dbd 0f8f 8f3b
000000a0: f80c 8a3e 3f7c ad3e 643e a0be 560f a9bc
000000b0: d9fd 3cbe 6eee 813c ce76 bcbc 41dc 7b3e
000000c0: 1593 693e b5ae 88be 283f ad3e c225 1bbc
000000d0: 9c96 d4be 6e79 9ebd a752 403e 3e21 43bd
000000e0: dae0 3dbc 8b78 b5bd 0469 35bc 5328 d63c
000000f0: c92b b1bd a019 933b e7ba eebd 75eb e3bc
00000100: 0032 03be

_actor_critic.actor.sigma_param f4 [2, 1]
0.0 0.0
00000000: 0000 0000 0000 0000

_actor_critic.actor.conv1.bias f4 [64]
0.0 0.0 0.0 0.0 0.0 0.0 0.0 0.0
0.0 0.0 0.0 0.0 0.0 0.0 0.0 0.0
0.0 0.0 0.0 0.0 0.0 0.0 0.0 0.0
0.0 0.0 0.0 0.0 0.0 0.0 0.0 0.0
0.0 0.0 0.0 0.0 0.0 0.0 0.0 0.0
0.0 0.0 0.0 0.0 0.0 0.0 0.0 0.0
0.0 0.0 0.0 0.0 0.0 0.0 0.0 0.0
0.0 0.0 0.0 0.0 0.0 0.0 0.0 0.0
00000000: 0000 0000 0000 0000 0000 0000 0000 0000
00000010: 0000 0000 0000 0000 0000 0000 0000 0000
00000020: 0000 0000 0000 0000 0000 0000 0000 0000
00000030: 0000 0000 0000 0000 0000 0000 0000 0000
00000040: 0000 0000 0000 0000 0000 0000 0000 0000
00000050: 0000 0000 0000 0000 0000 0000 0000 0000
00000060: 0000 0000 0000 0000 0000 0000 0000 0000
00000070: 0000 0000 0000 0000 0000 0000 0000 0000
00000080: 0000 0000 0000 0000 0000 0000 0000 0000
00000090: 0000 0000 0000 0000 0000 0000 0000 0000
000000a0: 0000 0000 0000 0000 0000 0000 0000 0000
000000b0: 0000 0000 0000 0000 0000 0000 0000 0000
000000c0: 0000 0000 0000 0000 0000 0000 0000 0000
000000d0: 0000 0000 0000 0000 0000 0000 0000 0000
000000e0: 0000 0000 0000 0000 0000 0000 0000 0000
000000f0: 0000 0000 0000 0000 0000 0000 0000 0000

_actor_critic.actor.conv1.lin.weight f4 [64, 2]
-0.10859537 -0.20562504 -0.12772603 -0.24452627 0.22281398 -0.08610407 0.06832006 -0.033961564
0.016931862 -0.23582074 -0.08368985 -0.15550672 -0.122935034 -0.121394016 -0.017600682 0.043507997
0.010784565 -0.09830042 -0.0072960607 -0.13514008 0.0066937655 -0.24141376 -0.31870595 -0.16614662
-0.1531891 0.26550388 0.06578312 -0.055532288 0.03868463 0.20010059 0.06980029 -0.03062627
0.22180502 -0.15790531 -0.03641128 0.0013080471 -0.011681366 0.08614899 -0.11635122 -0.068929195
0.01465378 0.03096224 0.058357738 0.182849 0.099485785 0.018059941 -0.10863789 0.01802008
0.04838257 -0.20838748 -0.22105077 0.034593407 -0.009884222 -0.11725998 -0.03789579 -0.15971479
0.1116159 0.1336272 0.06032166 -0.19433261 0.19547634 -0.08562339 0.058709417 0.0013937213
0.13832128 -0.05565978 -0.45878285 -0.0048190467 0.040441748 -0.1405254 -0.054623574 -0.020725753
0.25310338 0.11791301 0.16130346 -0.06048268 0.13196437 -0.09952624 -0.15258835 -0.010282266
0.017359896 -0.11315128 -0.08488759 -0.052359566 -0.15223527 -0.017768875 0.08932516 -0.06877842
0.16392487 -0.078071855 0.10907256 -0.11893703 0.04450783 -0.16537374 -0.0949719 0.06464159
0.16454558 0.13752656 0.018326018 -0.14810754 -0.10295742 0.20478773 0.051494632 -0.16125111
0.10577224 0.12143944 0.08458071 0.045351077 -0.058037244 -0.015018259 0.01198435 -0.052837085
0.14577253 0.05901853 0.008019187 0.15657863 0.096518904 0.045274734 0.0575863 -0.1983002
0.04841725 0.0053319475 0.03761173 0.15321296 0.00015958918 -0.024026455 -0.07239611 0.01696938
00000000: 4067 debd 5f8f 52be 9dca 02be 1865 7abe
00000010: 5929 643e 5557 b0bd 63eb 8b3d 481b 0bbd
00000020: b0b4 8a3c fe7a 71be 9665 abbd 273d 1fbe
00000030: 5dc5 fbbd 6d9d f8bd 4e2f 90bc 7135 323d
00000040: beb1 303c bb51 c9bd cb13 efbb 2962 0abe
00000050: 6057 db3b 2b35 77be 6d2d a3be 5722 2abe
00000060: 9add 1cbe 20f0 873e 4db9 863d d375 63bd
00000070: c673 1e3d 2be7 4c3e 74f3 8e3d f2e3 fabc
00000080: db20 633e eeb1 21be ff23 15bd c772 ab3a
00000090: 3363 3fbc e26e b03d 8c49 eebd c02a 8dbd
000000a0: 6816 703c 86a4 fd3c 8608 6f3d c53c 3b3e
000000b0: 34bf cb3d 71f2 933c 8b7d debd d99e 933c
000000c0: cd2c 463d 8763 55be 225b 62be d1b1 0d3d
000000d0: 6ff1 21bc 0026 f0bd 9e38 1bbd 468c 23be
000000e0: e196 e43d 92d5 083e d813 773d 21ff 46be
000000f0: f32a 483e 515b afbd 4979 703d 87ad b63a
00000100: 18a4 0d3e 82fb 63bd 96e5 eabe 18e9 9dbb
00000110: 3fa6 253d e4e5 0fbe f8bc 5fbd 0ec9 a9bc
00000120: c496 813e 607c f13d bc2c 253e b0bc 77bd
00000130: ab21 073e 6ad4 cbbd 1f40 1cbe f376 28bc
00000140: 5736 8e3c dcbb e7bd 8bd9 adbd fc76 56bd
00000150: 90e3 1bbe 0890 91bc 1cf0 b63d b3db 8cbd
00000160: ecdb 273e 23e4 9fbd 6f61 df3d 4295 f3bd
00000170: d84d 363d bc57 29be a180 c2bd cf62 843d
00000180: a37e 283e c3d3 0c3e 7220 963c 81a9 17be
00000190: 57db d2bd e0b3 513e 09ec 523d 031f 25be
000001a0: 1e9f d83d 3eb5 f83d a738 ad3d 0dc2 393d
000001b0: 76b8 6dbd 250f 76bc 025a 443c b36b 58bd
000001c0: 6545 153e 6abd 713d e862 033c 2656 203e
000001d0: b4ab c53d 0072 393d 9ddf 6b3d 350f 4bbe
000001e0: 2b51 463d 9eb7 ae3b c20e 1a3d dce3 1c3e
000001f0: 6557 2739 21d3 c4bc 6944 94bd 5f03 8b3c

_actor_critic.actor.conv2.bias f4 [64]
0.0 0.0 0.0 0.0 0.0 0.0 0.0 0.0
0.0 0.0 0.0 0.0 0.0 0.0 0.0 0.0
0.0 0.0 0.0 0.0 0.0 0.0 0.0 0.0
0.0 0.0 0.0 0.0 0.0 0.0 0.0 0.0
0.0 0.0 0.0 0.0 0.0 0.0 0.0 0.0
0.0 0.0 0.0 0.0 0.0 0.0 0.0 0.0
0.0 0.0 0.0 0.0 0.0 0.0 0.0 0.0
0.0 0.0 0.0 0.0 0.0 0.0 0.0 0.0
00000000: 0000 0000 0000 0000 0000 0000 0000 0000
00000010: 0000 0000 0000 0000 0000 0000 0000 0000
00000020: 0000 0000 0000 0000 0000 0000 0000 0000
00000030: 0000 0000 0000 0000 0000 0000 0000 0000
00000040: 0000 0000 0000 0000 0000 0000 0000 0000
00000050: 0000 0000 0000 0000 0000 0000 0000 0000
00000060: 0000 0000 0000 0000 0000 0000 0000 0000
00000070: 0000 0000 0000 0000 0000 0000 0000 0000
00000080: 0000 0000 0000 0000 0000 0000 0000 0000
00000090: 0000 0000 0000 0000 0000 0000 0000 0000
000000a0: 0000 0000 0000 0000 0000 0000 0000 0000
000000b0: 0000 0000 0000 0000 0000 0000 0000 0000
000000c0: 0000 0000 0000 0000 0000 0000 0000 0000
000000d0: 0000 0000 0000 0000 0000 0000 0000 0000
000000e0: 0000 0000 0000 0000 0000 0000 0000 0000
000000f0: 0000 0000 0000 0000 0000 0000 0000 0000

_actor_critic.actor.conv2.lin.weight f4 [64, 64]
0.024158716 -0.026565552 0.052297525 -0.14815739 -0.21403065 0.12096599 -0.0035694689 -0.071462244
-0.15252793 -0.095941655 -0.25219107 0.13903318 -0.10802735 -0.050508626 -0.39427125 -0.13442156
0.012178101 -0.03864913 -0.111464575 0.032010663 -0.09527782 -0.13603225 -0.18226367 0.090726
0.032680564 0.07985633 -0.11227238 -0.14415962 -0.053662997 0.00041736037 -0.07536174 -0.02220845
0.06730239 0.14215034 -0.021645356 -0.07258526 -0.20995826 0.08985126 -0.07216615 -0.019133544
0.053151622 -0.011904164 0.04268826 0.018761322 0.080180906 -0.086180806 -0.13263947 0.018187158
-0.03495224 -0.31033283 -0.16509317 0.024183298 0.18606365 0.03917906 -0.07455236 0.021765513
0.11638438 0.055078685 -0.0056532696 -0.078429066 0.11902061 0.12951502 -0.20474808 -0.2881141
-0.20295288 0.0052605867 0.022419708 0.041413777 -0.10549075 -0.15840165 -0.141549 -0.019879807
0.02062569 -0.068764776 0.10683301 0.11443363 -0.023372624 -0.0027482817 0.16077909 -0.057139993
-0.10708139 -0.037214443 0.038764834 0.1169231 0.017117871 -0.08491485 0.016793834 0.101099506
0.1302522 -0.17783222 0.0025105346 -0.042240344 -0.09240368 0.08502103 -0.06326508 -0.19995964
0.2588103 -0.079763 0.10669985 -0.07858779 0.0061895214 -0.0986423 0.035096172 0.13276851
0.061797697 -0.03417892 0.029444233 0.08794884 0.18579388 0.15579994 -0.057268493 0.111165844
-0.091406904 -0.016045105 0.032505915 -0.14692509 0.14088202 -0.09531223 0.11745248 0.07421559
0.19613202 0.3301827 -0.30836615 0.31536746 0.027997201 0.051934548 0.20690843 -0.09510796
-0.10999697 0.17908712 -0.03020072 -0.022199487 -0.16606039 -0.10624225 0.077129304 0.08773932
0.07030912 -0.035858467 -0.03622438 -0.082528025 0.11480078 -0.121071205 -0.021817513 0.041014593
-0.18477526 -0.0655138 -0.15175943 0.041102193 0.20150554 -0.0013150722 0.008817074 -0.21745956
-0.17845185 -0.18475026 0.08501021 -0.011714764 0.06682366 -0.1424907 -0.20586997 0.07274283
0.035833437 -0.027271375 0.15375373 -0.065738246 -0.290212 -0.19035894 -0.047320068 -0.07820204
0.22874738 -0.15457363 -0.17081833 -0.14564662 -0.14576477 -0.027838169 -0.14026475 -0.17184092
-0.0039117634 0.077327214 0.10810314 0.16039768 0.028806087 -0.0097574415 -0.0820915 -0.12532786
0.1480395 0.14272642 0.12185943 0.08059097 -0.17591816 -0.12831393 -0.16182078 0.0023275465
0.07376878 -0.102722585 0.06849263 0.10858822 0.02815366 0.19445573 -0.006640373 0.12036903
0.036363997 0.08421129 0.039385103 -0.044886827 0.17805956 0.096730515 0.036051337 0.004584398
-0.19134483 -0.20128116 0.06274803 -0.12389375 -0.3231238 0.374635 -0.18783695 0.09810295
-0.028897524 0.022759778 -0.055508975 0.08415519 0.15634753 -0.025074812 0.053360984 -0.072566316
0.09195498 0.022970878 0.16395392 -0.015395062 -0.033210903 0.02072246 -0.30630723 0.011709919
0.06686965 0.0374088 0.12172629 0.0040996466 -0.22214878 0.24984214 -0.03142737 0.15056172
0.03714949 0.012688462 0.062644586 0.19258529 0.039229516 -0.061352085 -0.15991203 0.028441254
-0.03001679 0.113359764 -0.01628474 0.070742704 0.1406365 -0.09843296 -0.03042455 -0.13363348
00000000: 80e8 c53c 00a0 d9bc ee35 563d 92b6 17be
00000010: da2a 5bbe 04bd f73d c0ed 69bb cc5a 92bd
00000020: 4830 1cbe 0f7d c4bd 301f 81be b75e 0e3e
00000030: 713d ddbd 22e2 4ebd ecdd c9be cea5 09be
00000040: a886 473c 8d4e 1ebd 8a47 e4bd 9d1d 033d
00000050: 0521 c3bd 0a4c 0bbe 54a3 3abe 8ece b93d
00000060: 0edc 053d b78b a33d 10ef e5bd 949e 13be
00000070: bbcd 5bbd 29d1 da39 4257 9abd 7fee b5bc
00000080: d6d5 893d dc8f 113e 9a51 b1bc 95a7 94bd
00000090: 4cff 56be f003 b83d d9cb 93bd f3bd 9cbc
000000a0: 84b5 593d af09 43bc e3d9 2e3d 58b1 993c
000000b0: e335 a43d 907f b0bd a4d2 07be 3cfd 943c
000000c0: 142a 0fbd f2e3 9ebe 2f0e 29be 0d1c c63c
000000d0: 7887 3e3e 397a 203d e8ae 98bd 974d b23c
000000e0: ef5a ee3d 309a 613d 103f b9bb 6b9f a0bd
000000f0: 14c1 f33d 969f 043e 7ba9 51be b183 93be
00000100: e1d2 4fbe 0061 ac3b 89a9 b73c 7ea1 293d
00000110: 890b d8bd 0b34 22be 39f2 10be fada a2bc
00000120: 35f7 a83c 8cd4 8cbd 44cb da3d 2e5c ea3d
00000130: f277 bfbc 841c 34bb 46a3 243e a00b 6abd
00000140: 7d4d dbbd 2c6e 18bd e0c7 1e3d 6175 ef3d
00000150: c73a 8c3c d6e7 adbd 3993 893c 420d cf3d
00000160: d560 053e a619 36be c887 243b 3604 2dbd
00000170: 243e bdbd 811f ae3d 1f91 81bd 38c2 4cbe
00000180: c982 843e c95a a3bd 7385 da3d a3f2 a0bd
00000190: 78d1 ca3b f904 cabd 01c1 0f3d 78f4 073e
000001a0: 951f 7d3d 32ff 0bbd 0835 f13c 851e b43d
000001b0: c040 3e3e 058a 1f3e 5e92 6abd ebaa e33d
000001c0: 8b33 bbbd 0671 83bc ec24 053d 8873 16be
000001d0: 6043 103e 0f33 c3bd ed8a f03d 58fe 973d
000001e0: d5d6 483e b50d a93e 2be2 9dbe d877 a13e
000001f0: 635a e53c 52b9 543d cedf 533e f6c7 c2bd
00000200: 1746 e1bd 9d62 373e 8067 f7bc b3db b5bc
00000210: bc0b 2abe 8995 d9bd f8f5 9d3d acb0 b33d
00000220: 3afe 8f3d 54e0 12bd 0460 14bd 7404 a9bd
00000230: ac1c eb3d 2ef4 f7bd a4ba b2bc ebfe 273d
00000240: ba35 3dbe 192c 86bd d366 1bbe c65a 283d
00000250: 7857 4e3e 805e acba 7d75 103c b8ad 5ebe
00000260: 15bc 36be 2c2f 3dbe d519 ae3d 48ef 3fbc
00000270: d8da 883d 15e9 11be 94cf 52be 31fa 943d
00000280: 15c6 123d 3868 dfbc 9e71 1d3e c6a1 86bd
00000290: ab96 94be 74ed 42be b0d2 41bd 6428 a0bd
000002a0: c13c 6a3e 8d48 1ebe 00eb 2ebe 6324 15be
000002b0: 5c43 15be df0c e4bc 90a1 0fbe 11f7 2fbe
000002c0: 402e 80bb bb5d 9e3d 2e65 dd3d 4a3f 243e
000002d0: befa eb3c addd 1fbc 971f a8bd f255 00be
000002e0: ab97 173e e026 123e 7091 f93d e10c a53d
000002f0: e423 34be ba64 03be 59b4 25be c089 183b
00000300: 1614 973d 3860 d2bd dd45 8c3d 8063 de3d
00000310: 81a2 e63c 671f 473e 7c97 d9bb 0a84 f63d
00000320: 6af2 143d f876 ac3d 4652 213d 40db 37bd
00000330: 3f55 363e a61a c63d 91aa 133d b838 963b
00000340: e6ef 43be a61c 4ebe 0a82 803d 02bc fdbd
00000350: 7c70 a5be 29d0 bf3e 5458 40be 33ea c83d
00000360: 80ba ecbc b772 ba3c 615d 63bd 8e59 ac3d
00000370: 9119 203e b169 cdbc 0c91 5a3d a69d 94bd
00000380: e452 bc3d 6c2d bc3c 89e3 273e 923b 7cbc
00000390: 2808 08bd 26c2 a93c 4dd4 9cbe f6da 3f3c
000003a0: f4f2 883d f839 193d a24b f93d 5456 863b
000003b0: f87a 63be 9ed6 7f3e fcb9 00bd da2c 1a3e
000003c0: 102a 183d 44e3 4f3c ce4b 803d 1435 453e
000003d0: 21af 203d 534c 7bbd fbbf 23be a2fd e83c
000003e0: c5e5 f5bc 2a29 e83d 9367 85bc 8de1 903d
000003f0: 0403 103e 3897 c9bd e83c f9bc 37d7 08be

_actor_critic.actor.fc_mu.weight f4 [2, 65]
0.0027474856 -0.0008121979 0.0001506892 -0.0012214248 0.0035987075 -0.0013698874 0.00043069496 0.00047897256
-0.00043175343 -0.0028464 0.0007414002 0.0021029352 -0.0011350039 0.0020904026 -0.0008382128 -0.0011843208
0.002111748 0.00034736303 0.0012060971 0.0023061435 -0.0014993844 0.00022516519 0.00037019743 0.0033248083
-0.00015749423 0.00030155646 0.0009597741 -0.0003497879 0.0019155554 -0.0021340926 5.0923143e-05 0.00042924087
-0.0009904194 -0.00041997118 0.00039738353 0.0008333311 0.0017270905 -0.0009597138 0.0020098647 -0.0012557791
-0.0015997057 -0.0025056337 -0.0015185778 -0.005132492 0.0005467398 0.0009269332 0.000946587 -0.0005578141
-0.0021849028 -0.00061835494 -0.00018052268 -0.0018263514 -0.0019792009 -0.002948726 0.0020936604 0.0026074075
-0.00017604478 0.0010408234 0.0030737435 -0.0025056615 -0.00030086035 0.0026528006 -0.0016884593 0.00072810904
0.0029238483 -0.000435223 -0.0007044231 0.00016251321 0.0024944365 0.002993581 -0.0009097989 -0.0017397567
-0.0013087421 -8.65283e-05 -0.0023763306 -2.5773941e-05 0.00087236334 0.0027972013 0.00016515852 -0.0005222845
0.0010817652 -0.0026048026 -0.0006390526 0.0035055631 0.003385687 0.0011013877 0.0005469312 0.0011434432
-0.0022823904 -0.001021516 -0.00044222074 -0.00076684344 -0.0005279562 -0.0007489766 -0.00040359763 0.0019330883
-0.0009930633 -0.0025556623 -0.00045447942 0.0035887875 0.00090290594 -0.0014826831 -0.00038574543 0.0018196143
0.00040372543 -0.0005573316 0.001930909 5.527742e-05 0.00092629506 -0.002676064 -0.0009321805 0.0021169332
-0.0004391527 0.0027337158 -0.0030844782 0.00081614195 -0.0028838827 -0.0020241977 0.00078121625 0.002364743
0.0001234136 -0.00059264177 -0.0021841647 -0.00020324043 -0.0017586785 0.00047934247 -0.0011826466 0.0013808055
0.0030381598 -0.0038902943
00000000: 290f 343b aee9 54ba 5302 1e39 3718 a0ba
00000010: 4bd8 6b3b cb8d b3ba e6ce e139 9c1e fb39
00000020: f75c e2b9 ab8a 3abb 865a 423a 66d1 093b
00000030: 69c4 94ba 23ff 083b 82bb 5bba 363b 9bba
00000040: 4165 0a3b 471e b639 e715 9e3a ab22 173b
00000050: fe86 c4ba 521a 6c39 0f17 c239 07e5 593b
00000060: 0925 25b9 391a 9e39 5999 7b3a bd63 b7b9
00000070: 6013 fb3a 22dc 0bbb 4f96 5538 bc0b e139
00000080: f6d0 81ba 942f dcb9 ea57 d039 e773 5a3a
00000090: 8a5f e23a 4e95 7bba efb7 033b f498 a4ba
000000a0: 37ad d1ba 8f35 24bb 040b c7ba 772e a8bb
000000b0: 1653 0f3a 6ffd 723a 6124 783a 453a 12ba
000000c0: 9630 0fbb 1919 22ba b04a 3db9 2f62 efba
000000d0: 7bb5 01bb 6a3f 41bb cb35 093b 0ae1 2a3b
000000e0: a998 38b9 3d6c 883a dc70 493b 0636 24bb
000000f0: cbbc 9db9 9cda 2d3b 4b4f ddba 92de 3e3a
00000100: 099e 3f3b a42e e4b9 09a9 38ba 4f68 2a39
00000110: b379 233b f42f 443b 927f 6eba 8c08 e4ba
00000120: 198a abba 8776 b5b8 36bc 1bbb 1e35 d8b7
00000130: 50af 643a 4051 373b 672e 2d39 ebe9 08ba
00000140: 04ca 8d3a 56b5 2abb 1886 27ba 97bd 653b
00000150: 67e2 5d3b 705c 903a ee5f 0f3a 96df 953a
00000160: 2894 15bb 64e4 85ba ddd9 e7b9 fe05 49ba
00000170: 8a66 0aba f856 44ba f599 d3b9 ae5f fd3a
00000180: ad29 82ba e67c 27bb 3247 eeb9 dd31 6b3b
00000190: feb0 6c3a 9756 c2ba e03d cab9 2080 ee3a
000001a0: 1cab d339 e419 12ba 8e16 fd3a aed9 6738
000001b0: 9cd2 723a e760 2fbb 935d 74ba 3fbc 0a3b
000001c0: 143e e6b9 2428 333b f524 4abb 5cf2 553a
000001d0: 86ff 3cbb 67a8 04bb 89ca 4c3a cef9 1a3b
000001e0: 9668 0139 845b 1bba 3424 0fbb f01c 55b9
000001f0: 7583 e6ba 4250 fb39 0903 9bba 25fc b43a
00000200: dd1b 473b 4ff4 7ebb

_actor_critic.actor.fc_mu.bias f4 [2]
0.0 0.0
00000000: 0000 0000 0000 0000

_actor_critic.critic.conv1.bias f4 [64]
0.0 0.0 0.0 0.0 0.0 0.0 0.0 0.0
0.0 0.0 0.0 0.0 0.0 0.0 0.0 0.0
0.0 0.0 0.0 0.0 0.0 0.0 0.0 0.0
0.0 0.0 0.0 0.0 0.0 0.0 0.0 0.0
0.0 0.0 0.0 0.0 0.0 0.0 0.0 0.0
0.0 0.0 0.0 0.0 0.0 0.0 0.0 0.0
0.0 0.0 0.0 0.0 0.0 0.0 0.0 0.0
0.0 0.0 0.0 0.0 0.0 0.0 0.0 0.0
00000000: 0000 0000 0000 0000 0000 0000 0000 0000
00000010: 0000 0000 0000 0000 0000 0000 0000 0000
00000020: 0000 0000 0000 0000 0000 0000 0000 0000
00000030: 0000 0000 0000 0000 0000 0000 0000 0000
00000040: 0000 0000 0000 0000 0000 0000 0000 0000
00000050: 0000 0000 0000 0000 0000 0000 0000 0000
00000060: 0000 0000 0000 0000 0000 0000 0000 0000
00000070: 0000 0000 0000 0000 0000 0000 0000 0000
00000080: 0000 0000 0000 0000 0000 0000 0000 0000
00000090: 0000 0000 0000 0000 0000 0000 0000 0000
000000a0: 0000 0000 0000 0000 0000 0000 0000 0000
000000b0: 0000 0000 0000 0000 0000 0000 0000 0000
000000c0: 0000 0000 0000 0000 0000 0000 0000 0000
000000d0: 0000 0000 0000 0000 0000 0000 0000 0000
000000e0: 0000 0000 0000 0000 0000 0000 0000 0000
000000f0: 0000 0000 0000 0000 0000 0000 0000 0000

_actor_critic.critic.conv1.lin.weight f4 [64, 2]
0.08994365 0.039761413 -0.09013438 0.188162 -0.17896314 -0.13296488 -0.054290783 -0.08700495
0.0422208 0.20185316 -0.16411017 -0.04617938 0.101463154 -0.15388066 0.16130932 -0.109787926
-0.107524335 0.087506615 -0.040777776 0.0040224465 0.087988906 -0.18536882 -0.061878297 -0.022350643
0.09030038 -0.1126038 0.16163063 0.06841026 -0.084068306 0.04271884 0.12898636 0.013190374
-0.09896189 -0.25056443 -0.053478856 0.08098024 0.08777313 -0.133544 -0.20578282 -0.15877998
-0.1279212 -0.23385744 -0.19084686 0.047723148 0.12319338 0.055203125 0.10863557 -0.0735676
0.008953437 0.06777358 0.07482147 -0.011909581 -0.09607764 -0.10985122 0.009692428 0.1587938
-0.2684039 0.10119281 0.24335138 0.1875253 -0.12534848 -0.13732994 0.17022836 -0.050240986
-0.011977992 -0.0008881736 -0.031127071 0.014550864 0.061720315 0.02782972 -0.07617772 0.10378548
-0.032892335 0.018733803 -0.19113223 -0.0825067 -0.06299125 0.062101766 -0.07427777 0.21204899
-0.10445689 -0.051849842 0.2719817 0.029917886 -0.08541451 0.31859216 0.1459567 0.003286415
-0.0037050792 -0.13304098 -0.028070347 -0.075135015 0.123651825 -0.005108757 -0.12116607 -0.088369615
0.073504746 0.13435866 0.038150784 0.039046902 -0.03604898 -0.008416105 -0.10887686 -0.1062219
-0.25269005 0.106217675 -0.19962405 0.22194749 -0.14730218 -0.07134853 0.044050675 0.051154844
-0.031513244 -0.23933427 -0.26452324 -0.05573603 -0.089207456 0.0108558815 0.049009673 -0.047390543
-0.10285421 0.011893519 -0.12357103 0.36765933 0.09259597 0.061720837 0.048969306 -0.07464646
00000000: 6034 b83d dddc 223d 6098 b8bd 8aad 403e
00000010: 1d42 37be f227 08be 0360 5ebd a72f b2bd
00000020: b8ef 2c3d 98b2 4e3e 7f0c 28be 9726 3dbd
00000030: eacb cf3d e492 1dbe 452e 253e 7ed8 e0bd
00000040: b835 dcbd ab36 b33d 9906 27bd bace 833b
00000050: 8733 b43d 53d1 3dbe 1974 7dbd b218 b7bc
00000060: 68ef b83d d29c e6bd 8082 253e ae1a 8c3d
00000070: 012c acbd f3f9 2e3d 0015 043e 701c 583c
00000080: 88ac cabd fb49 80be a50c 5bbd f8d8 a53d
00000090: 66c2 b33d c2bf 08be bbb8 52be 3897 22be
000000a0: c6fd 02be 5378 6fbe 5c6d 43be 5979 433d
000000b0: d04c fc3d ac1c 623d 537c de3d 9caa 96bd
000000c0: 70b1 123c e0cc 8a3d 003c 993d 6720 43bc
000000d0: 5bc4 c4bd adf9 e0bd fdcc 1e3c d89a 223e
000000e0: 3c6c 89be 2d3e cf3d 1b31 793e a206 403e
000000f0: 5a5b 00be 38a0 0cbe 5850 2e3e 7ec9 4dbd
00000100: 573f 44bc 52d4 68ba 33fe febc bf66 6e3c
00000110: 71ce 7c3d 27fb e33c 1103 9cbd 7b8d d43d
00000120: 1dba 06bd a277 993c 2bb8 43be 46f9 a8bd
00000130: 8e01 81bd 6c5e 7e3d f21e 98bd 5f23 593e
00000140: 7eed d5bd 8060 54bd 2f41 8b3e 5b16 f53c
00000150: cded aebd 831e a33e ac75 153e e560 573b
00000160: ead0 72bb e53b 08be c9f3 e5bc 63e0 99bd
00000170: 2b3d fd3d 5c67 a7bb eb25 f8bd 21fb b4bd
00000180: a889 963d 5195 093e ff43 1c3d a5ef 1f3d
00000190: 18a8 13bd b4e3 09bc d5fa debd de8a d9bd
000001a0: 9760 81be a788 d93d 3f6a 4cbe 3446 633e
000001b0: 62d6 16be 2e1f 92bd 7b6e 343d be87 513d
000001c0: 0814 01bd 0b14 75be 976f 87be 774b 64bd
000001d0: 66b2 b6bd dedc 313c 5ebe 483d 961c 42bd
000001e0: 3aa5 d2bd 09dd 423c cf12 fdbd d83d bc3e
000001f0: f5a2 bd3d fdce 7c3d 0a94 483d 3ee0 98bd

_actor_critic.critic.conv2.bias f4 [64]
0.0 0.0 0.0 0.0 0.0 0.0 0.0 0.0
0.0 0.0 0.0 0.0 0.0 0.0 0.0 0.0
0.0 0.0 0.0 0.0 0.0 0.0 0.0 0.0
0.0 0.0 0.0 0.0 0.0 0.0 0.0 0.0
0.0 0.0 0.0 0.0 0.0 0.0 0.0 0.0
0.0 0.0 0.0 0.0 0.0 0.0 0.0 0.0
0.0 0.0 0.0 0.0 0.0 0.0 0.0 0.0
0.0 0.0 0.0 0.0 0.0 0.0 0.0 0.0
00000000: 0000 0000 0000 0000 0000 0000 0000 0000
00000010: 0000 0000 0000 0000 0000 0000 0000 0000
00000020: 0000 0000 0000 0000 0000 0000 0000 0000
00000030: 0000 0000 0000 0000 0000 0000 0000 0000
00000040: 0000 0000 0000 0000 0000 0000 0000 0000
00000050: 0000 0000 0000 0000 0000 0000 0000 0000
00000060: 0000 0000 0000 0000 0000 0000 0000 0000
00000070: 0000 0000 0000 0000 0000 0000 0000 0000
00000080: 0000 0000 0000 0000 0000 0000 0000 0000
00000090: 0000 0000 0000 0000 0000 0000 0000 0000
000000a0: 0000 0000 0000 0000 0000 0000 0000 0000
000000b0: 0000 0000 0000 0000 0000 0000 0000 0000
000000c0: 0000 0000 0000 0000 0000 0000 0000 0000
000000d0: 0000 0000 0000 0000 0000 0000 0000 0000
000000e0: 0000 0000 0000 0000 0000 0000 0000 0000
000000f0: 0000 0000 0000 0000 0000 0000 0000 0000
