rl_environments/trained_models/PPO_scheduling_5_obj_j25m5/policy.pth (torch, 43358 bytes, 24 tensors)

actor.sigma_param f4 [2, 1]
0	0x00000000	0.0
1	0x00000000	0.0

actor.conv1.bias f4 [64]
0	0x00000000	0.0
1	0x00000000	0.0
2	0x00000000	0.0
3	0x00000000	0.0
4	0x00000000	0.0
5	0x00000000	0.0
6	0x00000000	0.0
7	0x00000000	0.0
8	0x00000000	0.0
9	0x00000000	0.0
10	0x00000000	0.0
11	0x00000000	0.0
12	0x00000000	0.0
13	0x00000000	0.0
14	0x00000000	0.0
15	0x00000000	0.0
16	0x00000000	0.0
17	0x00000000	0.0
18	0x00000000	0.0
19	0x00000000	0.0
20	0x00000000	0.0
21	0x00000000	0.0
22	0x00000000	0.0
23	0x00000000	0.0
24	0x00000000	0.0
25	0x00000000	0.0
26	0x00000000	0.0
27	0x00000000	0.0
28	0x00000000	0.0
29	0x00000000	0.0
30	0x00000000	0.0
31	0x00000000	0.0
32	0x00000000	0.0
33	0x00000000	0.0
34	0x00000000	0.0
35	0x00000000	0.0
36	0x00000000	0.0
37	0x00000000	0.0
38	0x00000000	0.0
39	0x00000000	0.0
40	0x00000000	0.0
41	0x00000000	0.0
42	0x00000000	0.0
43	0x00000000	0.0
44	0x00000000	0.0
45	0x00000000	0.0
46	0x00000000	0.0
47	0x00000000	0.0
48	0x00000000	0.0
49	0x00000000	0.0
50	0x00000000	0.0
51	0x00000000	0.0
52	0x00000000	0.0
53	0x00000000	0.0
54	0x00000000	0.0
55	0x00000000	0.0
56	0x00000000	0.0
57	0x00000000	0.0
58	0x00000000	0.0
59	0x00000000	0.0
60	0x00000000	0.0
61	0x00000000	0.0
62	0x00000000	0.0
63	0x00000000	0.0

actor.conv1.lin.weight f4 [64, 5]
0	0x3da05620	0.07828927
1	0x3e22f084	0.15912062
2	0x3dfc1662	0.12308957
3	0xbdfbccdf	-0.122949354
4	0xbda52df4	-0.080654055
5	0x3deeab22	0.11653735
6	0xbcb5063a	-0.022097696
7	0xbda1741d	-0.07883475
8	0xbe7fe573	-0.24989872
9	0xbdf2ec1e	-0.11861442
10	0x3a6f132e	0.00091199845
11	0xbe83f22d	-0.25770703
12	0xbd4eb453	-0.05046494
13	0xbe30f23a	-0.17279902
14	0x3e124d27	0.14287244
15	0xbdac098e	-0.0840026
16	0x3dabb0c4	0.08383325
17	0xbd6488d3	-0.05579455
18	0x3d1c0625	0.038091797
19	0xbd78adf8	-0.060712785
20	0xbe162934	-0.14664155
21	0x3e2e0f76	0.16998085
22	0x3c2894e1	0.010289402
23	0xbdc561c7	-0.0963779
24	0x3dcadcf9	0.099054284
25	0x3e1417fe	0.14462277
26	0x3da3ed0e	0.08004199
27	0xbd743c0e	-0.059627585
28	0xbd39a7ee	-0.045326166
29	0xbd3991ed	-0.04530518
30	0xbc12b51e	-0.0089543145
31	0x3e63280a	0.22183242
32	0xb9795f51	-0.00023781999
33	0xbaf88176	-0.0018959481
34	0xbc07dcac	-0.008292358
35	0x3dae845e	0.08521341
36	0xbe5d412e	-0.21606895
37	0x3c5eb75e	0.013593523
38	0x3e3c88cf	0.18411563
39	0x3d53a518	0.051671118
40	0xbdaba6aa	-0.08381398
41	0xbe36a20e	-0.17835256
42	0xbd95ad0d	-0.073083974
43	0xbbe28230	-0.006912492
44	0x3c6dd79f	0.01451674
45	0x3d14e900	0.03635502
46	0x3e519709	0.20467772
47	0x3c973dae	0.018462028
48	0x3db86d30	0.09005201
49	0xbccc58be	-0.02494466
50	0xbd9c06b6	-0.076184675
51	0xbe061ed9	-0.13097705
52	0xbdc732bc	-0.09726474
53	0x3e14da9f	0.14536522
54	0x3e8ffbdc	0.2812184
55	0xbd8caaf0	-0.06868541
56	0xbca358cd	-0.019939804
57	0x3dd15ce5	0.10222796
58	0xbdf53322	-0.119726434
59	0x3bc60627	0.006043214
60	0x3dac7719	0.084211536
61	0x3daf2da2	0.08553626
62	0x3d6e0c3c	0.058117136
63	0xbe5a66fb	-0.21328346
64	0x3e8ec7a6	0.27886695
65	0xbe64b8e8	-0.22336161
66	0xbd8cdeeb	-0.06878456
67	0x3d9f9444	0.07791951
68	0xbc886f6f	-0.016654698
69	0xbd4f01ad	-0.050538708
70	0xbeb66e97	-0.35631248
71	0x3e85e194	0.26148665
72	0xbd980f2c	-0.07424769
73	0xbc317a81	-0.01083243
74	0xbd76397b	-0.06011341
75	0x3df29e78	0.11846632
76	0x3d21467a	0.039373852
77	0xbe2e2c94	-0.17009193
78	0xbcbadc28	-0.022810057
79	0xbd28b227	-0.041185524
80	0xbdbbeb87	-0.09175783
81	0xbdb2ae38	-0.08724636
82	0x3e43f004	0.19134527
83	0x3d356c0e	0.044292502
84	0x3d4ad344	0.049517885
85	0xbe5fef3d	-0.21868606
86	0xbae6510c	-0.0017571761
87	0x3dee7a0c	0.11644372
88	0x3dc99bab	0.098441444
89	0x3dc7ce8d	0.09756193
90	0x3dab2f64	0.083586484
91	0x3e48362d	0.19551916
92	0xbd6438ad	-0.055718113
93	0x3e92e7c9	0.28692463
94	0xbca8dce4	-0.020613141
95	0xbd37d845	-0.044883985
96	0x3e11497c	0.14188188
97	0x3be3bdb6	0.0069501055
98	0xbc67ef42	-0.014156165
99	0x3e6eb346	0.23310575
100	0xbd73c0ee	-0.059510164
101	0xbe4226ab	-0.18960063
102	0x3dd28aa6	0.10280351
103	0xbde1e754	-0.110304505
104	0xbdeb3248	-0.114842
105	0x3be324f3	0.006931895
106	0xbd5de73c	-0.0541756
107	0xbe84b237	-0.25917217
108	0xbc6506cc	-0.013978671
109	0x3e16c117	0.14722095
110	0xbc0eae75	-0.008708586
111	0xbdbf8142	-0.09350826
112	0xbbc1828f	-0.0059054564
113	0x3da9ee6d	0.08297429
114	0x3de29f97	0.110655956
115	0xbd03a3cd	-0.032138634
116	0xbe002cf7	-0.12517153
117	0xbda3820e	-0.0798379
118	0x3e4122ff	0.18861006
119	0x3d93b6b2	0.07212581
120	0x3d736d42	0.05943037
121	0x3de8fe50	0.11376631
122	0x3d5b43c7	0.053531434
123	0xbe387b7e	-0.18015859
124	0xbe2acbdf	-0.16679333
125	0x3d1b445b	0.037906986
126	0xbbe00c60	-0.0068374127
127	0x3e9dee23	0.30845746
128	0xbddf67b2	-0.1090845
129	0x3e273ee6	0.16332588
130	0xbcd34ba7	-0.02579291
131	0xbd8ef313	-0.069799565
132	0x3d8a3df4	0.06750098
133	0xbe8faacf	-0.28060004
134	0x3c85285c	0.016254596
135	0xbd3fdd5a	-0.046841957
136	0x3e46ead7	0.19425522
137	0x3cbb054e	0.022829678
138	0xbe493079	-0.19647397
139	0xbd2ead5a	-0.04264579
140	0x3ec04758	0.3755443
141	0xbc6a32b7	-0.014294318
142	0xbe057ed3	-0.13036661
143	0xbda94f86	-0.08267121
144	0x3d8159ed	0.0631598
145	0xbe170989	-0.14749731
146	0xbdb07c22	-0.086174265
147	0x3dfdf2c0	0.123998165
148	0xbe4e0680	-0.20119667
149	0x3d08db06	0.033412002
150	0xbe3a866a	-0.18215337
151	0x3d61bd3f	0.05511212
152	0xbe373bcd	-0.17893906
153	0xbd3f8c92	-0.046764918
154	0x3de5826c	0.112065166
155	0xbdd91815	-0.106002964
156	0xbc14eb84	-0.009089354
157	0xbdca25c8	-0.098704875
158	0x3e248ab2	0.16068533
159	0xbe09b509	-0.13447966
160	0x3c7923eb	0.015206317
161	0xbda7c137	-0.0819115
162	0x3d7d232c	0.06180112
163	0x3d91422a	0.07092698
164	0x3d13f057	0.036117878
165	0x3cd5bfc8	0.026092425
166	0xbbd634f3	-0.0065370738
167	0xbd84de37	-0.064876966
168	0xbdcc37da	-0.0997159
169	0xbe59cb0a	-0.2126886
170	0xbd2c0ad1	-0.042002503
171	0xbbec5be3	-0.007213102
172	0xbe75dfa9	-0.24011101
173	0xbd1d7895	-0.038445074
174	0xbd115404	-0.035480514
175	0x3e56756d	0.20943232
176	0x3b6e26b0	0.0036338978
177	0x3e0dff33	0.13866882
178	0x3c3f327c	0.011669751
179	0x3e3d7f56	0.18505606
180	0x3e332077	0.17492853
181	0x3e399fc0	0.18127346
182	0xbce9dbb2	-0.028547142
183	0x3e86348c	0.26211965
184	0xbda469c6	-0.08027987
185	0x3e086463	0.13319544
186	0xbded093f	-0.11574029
187	0x3dbc504b	0.09195002
188	0xbdae0318	-0.08496684
189	0xbe2e2c92	-0.1700919
190	0x3d854439	0.06507153
191	0x3de6a308	0.112615645
192	0x3e3007e9	0.17190517
193	0xbd7edc4f	-0.06222182
194	0xbe27e139	-0.1639451
195	0xbc1c42f6	-0.009537449
196	0xbd33db43	-0.043910276
197	0x3e323c31	0.17405774
198	0x3ceda5f3	0.029009795
199	0xbe101238	-0.1406945
200	0x3d996263	0.07489469
201	0x3d0abd62	0.033872016
202	0x3e9e8886	0.30963534
203	0x3e0905e7	0.13381158
204	0x3e2e07b3	0.16995125
205	0xbc304d4d	-0.010760617
206	0xbe5981ab	-0.2124087
207	0xbc5b9b70	-0.013403758
208	0x3cf02c29	0.029317932
209	0x3d49e51d	0.049290765
210	0xbdbde8f0	-0.09272945
211	0xbdfad26f	-0.12247168
212	0xbe274a17	-0.16336857
213	0x3dded7f0	0.108810306
214	0xbe32da2d	-0.1746604
215	0x3e2595e5	0.16170461
216	0xbe6bf819	-0.2304386
217	0xbe6ea623	-0.23305564
218	0xbdc468b1	-0.09590281
219	0x3dc02251	0.09381545
220	0x3e070693	0.13186102
221	0x3e1346bc	0.14382452
222	0x3c009bbc	0.00784963
223	0xbe36e96e	-0.17862484
224	0x3d3b51f0	0.04573244
225	0x3e67d9b9	0.22641648
226	0x3e1f2973	0.15543155
227	0x3e0e3ecc	0.13891143
228	0x3d017ae7	0.03161135
229	0xbc68a6cd	-0.014199925
230	0x3bf03e96	0.0073316796
231	0x3c33b98f	0.010969534
232	0x3d6c74f5	0.057728726
233	0x3d671f7a	0.056426503
234	0xbe5577fd	-0.20846553
235	0xbd85e111	-0.06537069
236	0x3ce3af10	0.027793437
237	0xbdb71443	-0.089394115
238	0x3d4ecb38	0.050486773
239	0xbdc1447d	-0.09436891
240	0xbd610b60	-0.05494249
241	0xbd74003d	-0.05957054
242	0x3e5c1377	0.214918
243	0x3e129327	0.14313947
244	0xbdfaa769	-0.12238962
245	0xbe0da34c	-0.13831824
246	0x3c8c62ec	0.017137013
247	0x3d4c88b1	0.049935047
248	0xbdb9a8ea	-0.09065421
249	0x3d3c8aa5	0.04603066
250	0xbe0ef73b	-0.13961498
251	0x3e12bc00	0.14329529
252	0x3d4ef2c6	0.050524496
253	0x3c8c2b78	0.017110571
254	0xbdf1acf4	-0.11800566
255	0x3e347bf5	0.17625411

actor.conv2.bias f4 [64]
0	0x00000000	0.0
1	0x00000000	0.0
2	0x00000000	0.0
3	0x00000000	0.0
4	0x00000000	0.0
5	0x00000000	0.0
6	0x00000000	0.0
7	0x00000000	0.0
8	0x00000000	0.0
9	0x00000000	0.0
10	0x00000000	0.0
11	0x00000000	0.0
12	0x00000000	0.0
13	0x00000000	0.0
14	0x00000000	0.0
15	0x00000000	0.0
16	0x00000000	0.0
17	0x00000000	0.0
18	0x00000000	0.0
19	0x00000000	0.0
20	0x00000000	0.0
21	0x00000000	0.0
22	0x00000000	0.0
23	0x00000000	0.0
24	0x00000000	0.0
25	0x00000000	0.0
26	0x00000000	0.0
27	0x00000000	0.0
28	0x00000000	0.0
29	0x00000000	0.0
30	0x00000000	0.0
31	0x00000000	0.0
32	0x00000000	0.0
33	0x00000000	0.0
34	0x00000000	0.0
35	0x00000000	0.0
36	0x00000000	0.0
37	0x00000000	0.0
38	0x00000000	0.0
39	0x00000000	0.0
40	0x00000000	0.0
41	0x00000000	0.0
42	0x00000000	0.0
43	0x00000000	0.0
44	0x00000000	0.0
45	0x00000000	0.0
46	0x00000000	0.0
47	0x00000000	0.0
48	0x00000000	0.0
49	0x00000000	0.0
50	0x00000000	0.0
51	0x00000000	0.0
52	0x00000000	0.0
53	0x00000000	0.0
54	0x00000000	0.0
55	0x00000000	0.0
56	0x00000000	0.0
57	0x00000000	0.0
58	0x00000000	0.0
59	0x00000000	0.0
60	0x00000000	0.0
61	0x00000000	0.0
62	0x00000000	0.0
63	0x00000000	0.0

actor.conv2.lin.weight f4 [64, 64]
0	0x3d8d8080	0.06909275
1	0x3de0af72	0.109709635
2	0xbe2b205f	-0.16711567
3	0x3d1b488f	0.037910994
4	0x3dcce5d0	0.10004771
5	0x3e92aa2d	0.2864546
6	0xbdd6118b	-0.10452565
7	0xbd73e9aa	-0.05954901
8	0x3d9b119a	0.075717166
9	0xbe29b61e	-0.16573378
10	0x3dee7db8	0.11645073
11	0xbe63242d	-0.22181769
12	0xbdafd850	-0.0858618
13	0xbd9178cb	-0.071031176
14	0xbdace180	-0.08441448
15	0xbdad36c2	-0.0845771
16	0xbe3e8423	-0.18605094
17	0x3da5532b	0.08072504
18	0xbe6f0738	-0.23342597
19	0x3cfa5cfc	0.030561917
20	0x3e43ca91	0.19120242
21	0xbe1ec502	-0.1550484
22	0xbcab8ca5	-0.020941088
23	0x3a28b9c7	0.00064363744
24	0xbd357375	-0.04429956
25	0xbe07e830	-0.13272166
26	0xbde7f0e9	-0.11325247
27	0x3babc115	0.005241523
28	0x3d167d39	0.036740515
29	0x3e54b55b	0.20772307
30	0x3ec6c775	0.3882405
31	0xbe309cd6	-0.17247328
32	0xbe638451	-0.22218443
33	0x3de1966b	0.11015018
34	0x3cef8c48	0.029241696
35	0x3d24148c	0.040058658
36	0x3e6f8fe9	0.23394741
37	0xbdcbce14	-0.09951416
38	0x3b2f2531	0.0026725049
39	0x3e50aefc	0.20379251
40	0x3ccae5a1	0.024767699
41	0xbd28909e	-0.041153543
42	0x3d3be174	0.045869306
43	0x3d6b683d	0.057472456
44	0x3b76f1b2	0.0037680683
45	0x3e1dfdc4	0.15428835
46	0xbd9ef86e	-0.07762228
47	0xbd3a2de9	-0.04545394
48	0x3d173f8e	0.036925845
49	0xbc6b21a8	-0.014351286
50	0xbddc7967	-0.10765343
51	0xbd8048ff	-0.06263923
52	0x3e458ff3	0.19293194
53	0xbd4fc675	-0.050726373
54	0xbc633a53	-0.013868886
55	0x3dd6ddb8	0.10491508
56	0x3ccddb95	0.025129119
57	0x3e1408de	0.14456508
58	0x3be09c10	0.0068545416
59	0xbd3289ae	-0.043588333
60	0x3d0eb2fb	0.034838658
61	0xbc9e36c1	-0.019313218
62	0x3d21d07f	0.039505478
63	0x3d933df8	0.07189554
64	0x3dd87478	0.1056909
65	0x3de9a830	0.11409032
66	0x3d901f6e	0.07037245
67	0x3d4a850e	0.049443297
68	0x3e8a2e08	0.26988244
69	0xbe04e4be	-0.12977883
70	0x3dd64e9c	0.10464212
71	0xbddef94f	-0.108873956
72	0xbe35b490	-0.1774466
73	0x3d22dff6	0.039764367
74	0xbcdf21d0	-0.027237803
75	0x3d241d69	0.04006711
76	0xbde15c93	-0.11003985
77	0xbe6f1586	-0.23348054
78	0x3d24b63a	0.040212847
79	0xbd8db8be	-0.069200024
80	0x3cc4322e	0.023949709
81	0xbdc1cbfa	-0.094627336
82	0xbc99f8e6	-0.018795442
83	0xbd6f243e	-0.058384173
84	0x3daa32ee	0.08310495
85	0x3cbccc85	0.023046741
86	0xbc54eb5a	-0.012995565
87	0x3dab18c1	0.08354331
88	0x3e13c59c	0.1443085
89	0x3d87ae64	0.06625059
90	0x3e3d417b	0.1848201
91	0xbd12937c	-0.035785183
92	0xbbe51054	-0.006990472
93	0x3cd729ec	0.026265107
94	0x3e0401eb	0.12891357
95	0x3c61149c	0.013737824
96	0x39a1d140	0.00030864216
97	0x3d21f2e1	0.039538268
98	0xbbeb3354	-0.0071777496
99	0x3d82b670	0.063824534
100	0xbda0e90e	-0.07856952
101	0xbcb07cb2	-0.021543834
102	0xbcb07d77	-0.021544201
103	0xbd6d4460	-0.057926536
104	0xbe7b197e	-0.24521443
105	0x3e373ca7	0.17894231
106	0x3d8fed46	0.07027678
107	0xbd59411a	-0.0530406
108	0xbdf17b02	-0.1179104
109	0xbd8c3f51	-0.06848014
110	0xbd4fa03a	-0.050689913
111	0xbc24309e	-0.010021357
112	0xbbe7736c	-0.00706332
113	0xbe189be6	-0.1490322
114	0xbe53f11b	-0.20697443
115	0xbe08849e	-0.1333184
116	0x3c902919	0.017597722
117	0x3e50a1d5	0.20374234
118	0xbe4da466	-0.20082244
119	0x3d98db0f	0.07463657
120	0x3db9961c	0.09061834
121	0x3d752684	0.059851184
122	0xbea1c21d	-0.3159341
123	0xbe11684d	-0.14199944
124	0xbc3a969f	-0.01138845
125	0x3eaa5ae6	0.33272475
126	0xbe99464c	-0.29936445
127	0xbd12cd88	-0.03584054
128	0x3e5c9283	0.21540265
129	0xbe6966cd	-0.22793122
130	0xbd16aaa0	-0.036783814
131	0x3eacdac1	0.33760646
132	0x3d9d65f9	0.07685465
133	0xbd7b3fcc	-0.06134014
134	0x3c005894	0.007833619
135	0x3cdda008	0.027053848
136	0xbc6d175c	-0.014470901
137	0xbded7bd4	-0.11595884
138	0xbdb196a8	-0.086713135
139	0xbdd674bb	-0.10471483
140	0xbe1f24c1	-0.15541364
141	0xbdd065a9	-0.1017564
142	0x3d78907e	0.060684673
143	0xbd15b2a6	-0.036547326
144	0x3c919b12	0.017774139
145	0xbe083762	-0.13302377
146	0xbd53aeac	-0.051680252
147	0x3d0b2480	0.033970356
148	0xbd27d53f	-0.04097485
149	0xbe4ad2d8	-0.19806993
150	0x3dcc7013	0.09982314
151	0x3d7e1982	0.062036045
152	0x3c564234	0.0130773075
153	0x3c1cf7c8	0.00958056
154	0x3d833ba2	0.064078584
155	0xbe57fd9b	-0.21092837
156	0xba603670	-0.00085530337
157	0x3d743597	0.05962142
158	0xbd664323	-0.05621637
159	0x3da60340	0.08106089
160	0x3d1d685c	0.038429603
161	0xbd032a33	-0.032022666
162	0xbe30cbbc	-0.17265218
163	0xbce32ad4	-0.027730383
164	0x3d8ecb99	0.06972427
165	0x3dedabfe	0.116050705
166	0x3dceaf95	0.10092083
167	0x3e2a906e	0.16656658
168	0xbe1cc5ad	-0.15309782
169	0x3cce1962	0.025158588
170	0xbe8957dc	-0.26824844
171	0xbd23bad5	-0.0399731
172	0xbb688dc0	-0.003548488
173	0xbe7ceabe	-0.24698922
174	0xbd2f9d85	-0.04287483
175	0xbd15670a	-0.03647522
176	0x3dce3e06	0.10070424
177	0x3bb196f8	0.005419608
178	0x3d7ae3b7	0.061252322
179	0x3e454bc8	0.1926719
180	0x3dc915fc	0.09818646
181	0x3e271cd5	0.16319592
182	0xbe326b98	-0.17423856
183	0xbd5f2237	-0.05447599
184	0xbdeff8ae	-0.11717354
185	0xbd275858	-0.040855736
186	0x3de4c34a	0.11170061
187	0x3e1629cb	0.1466438
188	0xbe2bf4a7	-0.16792546
189	0xbe1e79e2	-0.15476182
190	0x3dab76ba	0.08372255
191	0x3e9566c9	0.2917998
192	0x3a4da890	0.0007845247
193	0x3cc3bfe2	0.023895208
194	0x3b4a900e	0.0030908617
195	0xbdc987c0	-0.098403454
196	0xbdf90884	-0.12159827
197	0xbd80eecd	-0.06295548
198	0xbcbd3ce0	-0.023100317
199	0xbc92943c	-0.01789295
200	0x3e958601	0.292038
201	0xbe84cf56	-0.25939435
202	0xbb20ab84	-0.0024516294
203	0x3e8c2bdf	0.2737722
204	0xbb9545d2	-0.0045554424
205	0xbe215648	-0.1575557
206	0x3d0a42e5	0.0337552
207	0xbc00bee6	-0.007858014
208	0xbcbc7afa	-0.023007859
209	0x3d50a7ad	0.050941158
210	0x3cbe2c19	0.023214387
211	0xbe8247ca	-0.25445396
212	0xbcf63ff0	-0.030059785
213	0x3e044198	0.12915647
214	0xbd93a150	-0.07208502
215	0x3dca4e1c	0.098781794
216	0xbe497c70	-0.19676375
217	0x3c9a809d	0.018860156
218	0xbd9cc767	-0.076552205
219	0xbcbcda9b	-0.023053458
220	0x3e28ab68	0.16471636
221	0x3d074f74	0.033034757
222	0xbc86e559	-0.016466783
223	0xbccfc786	-0.025363695
224	0xbddc91b4	-0.10769978
225	0xbe4436f7	-0.19161592
226	0xbe2cdf9d	-0.16882177
227	0xbced3e54	-0.028960384
228	0x3e22311b	0.15839045
229	0xbe1dae80	-0.15398598
230	0xbd912739	-0.07087559
231	0x3c39af10	0.011333242
232	0xbd82e1d4	-0.063907295
233	0x3e752942	0.2394152
234	0xbdbb24f3	-0.09137907
235	0x3da3570b	0.079755865
236	0x3cdab516	0.026697677
237	0x3e248ad5	0.16068585
238	0x3e1262e7	0.14295541
239	0x3e077721	0.13229038
240	0x3e32594a	0.17416874
241	0xbe378385	-0.17921264
242	0x3dd8b47c	0.105813
243	0x3e1d88f6	0.15384278
244	0xbd0432b0	-0.032274902
245	0x3e065f5f	0.13122319
246	0xbe032003	-0.1280518
247	0xbe65307a	-0.22381774
248	0x3d6a1f53	0.05715878
249	0x3cbeb387	0.023278965
250	0x3d77d54e	0.060506158
251	0xbe61133b	-0.21979992
252	0x3dbe4211	0.09289945
253	0xbd6c5d80	-0.057706356
254	0xbe0726a8	-0.1319834
255	0x3d2321dd	0.039827216

actor.fc_mu.weight f4 [2, 65]
0	0xb8b5c3ed	-8.6672466e-05
1	0xba8d5666	-0.0010783195
2	0xbae6c9e1	-0.0017607772
3	0x3b69440c	0.0035593538
4	0xbb00053c	-0.001953437
5	0xbb1a6d4f	-0.0023563688
6	0x3a61f7ca	0.00086199923
7	0x389b2147	7.397174e-05
8	0xba5b624e	-0.00083688356
9	0xbb3d4325	-0.0028879133
10	0x36ffb7b8	7.62098e-06
11	0xba4ccb95	-0.00078123185
12	0xbaaf4050	-0.0013370607
13	0x3ab7ee7e	0.0014032868
14	0xba3d376f	-0.0007218038
15	0x395ce72b	0.00021066952
16	0xb9bb1c4b	-0.000356885
17	0xbb0b6e06	-0.0021275296
18	0xbb0287cf	-0.0019917374
19	0x3a107a32	0.00055113726
20	0xbb34af26	-0.0027570217
21	0xbaf3cc4e	-0.0018600316
22	0xb99a6ebd	-0.00029455675
23	0xb9bb3bb3	-0.000357119
24	0x3a94debc	0.0011357884
25	0x390663b2	0.00012816375
26	0x3a02e0a7	0.0004992582
27	0x38bb183d	8.9213696e-05
28	0xbb194274	-0.0023385556
29	0xba21fb13	-0.00061790756
30	0x3b2f2444	0.0026724497
31	0x3aa21337	0.0012365346
32	0xbb809965	-0.003924536
33	0xba082562	-0.0005193559
34	0x3a700389	0.00091558
35	0x3a8367e0	0.0010025464
36	0xbb39590e	-0.002828184
37	0x3a8053cc	0.0009790598
38	0x3abd07fb	0.0014421934
39	0x3a5243d9	0.00080209743
40	0x3ad1e178	0.001601263
41	0x3aeb981e	0.0017974412
42	0xb8bf3d3d	-9.118996e-05
43	0x3af50c25	0.0018695636
44	0x3a80de86	0.0009831942
45	0xbb0f3ab5	-0.002185506
46	0x3b1d8e57	0.002404114
47	0xb9f580d9	-0.0004682604
48	0x3b782d17	0.0037868673
49	0xba6ffd67	-0.00091548864
50	0xb9a15124	-0.00030768767
51	0xb804ca6f	-3.1659783e-05
52	0x3b154098	0.0022774097
53	0x3a57960a	0.00082239567
54	0x3b0a14a9	0.0021069443
55	0xba8713ab	-0.0010305544
56	0x39e9f078	0.00044620386
57	0x3aee424b	0.0018177716
58	0xba901f56	-0.0010995667
59	0x3b2af99c	0.002608872
60	0x3b8f048f	0.004364557
61	0x3b5bef57	0.0033559406
62	0xb9d10332	-0.00039865967
63	0x3a3aaf6b	0.0007121476
64	0xbaeea040	-0.0018205717
65	0xbb59ab2c	-0.0033213599
66	0xbaa62997	-0.001267719
67	0x3b997b28	0.004683871
68	0xba31b904	-0.00067795836
69	0x39082593	0.00012983968
70	0x3a423c4a	0.00074094965
71	0xb9ceef05	-0.00039469465
72	0x3a88ef98	0.0010447381
73	0xbabc083e	-0.0014345718
74	0xb9fb0fe5	-0.00047886293
75	0x3aed72d0	0.0018115882
76	0x3b6b5fb7	0.0035915205
77	0xbb41ac14	-0.002955203
78	0xba4aace4	-0.0007731451
79	0xba9f4b9d	-0.0012153272
80	0xb9ee6045	-0.00045466624
81	0xb9285907	-0.00016054894
82	0xb94a9cca	-0.0001932263
83	0xbb051030	-0.0020303838
84	0x3a54bb81	0.00081150985
85	0xbb3f567e	-0.002919584
86	0x3b013fa7	0.0019721778
87	0xba8c9455	-0.0010725359
88	0xb9da4a87	-0.00041635727
89	0x39e80350	0.00044252956
90	0x3b4d443e	0.0031321193
91	0xbae1c88c	-0.0017225905
92	0x38edd64f	0.00011340959
93	0x381c4e05	3.726596e-05
94	0xbaffee97	-0.0019526061
95	0xbb520aaf	-0.0032049825
96	0x3ae7966f	0.0017668734
97	0xba8732af	-0.0010314788
98	0xbb04af52	-0.00202461
99	0xb78700cf	-1.609363e-05
100	0xbac1f835	-0.0014798703
101	0xbaf1034f	-0.0018387827
102	0x3a537585	0.0008066523
103	0x3ae4e8ef	0.0017464439
104	0x3a6abec1	0.0008954816
105	0xba4ed477	-0.0007889936
106	0xbb73c661	-0.00371971
107	0x3a7ece78	0.00097200973
108	0xba272620	-0.00063762255
109	0x3aae8218	0.0013313917
110	0xb9c87d19	-0.00038240178
111	0x39513a13	0.00019953428
112	0xba1f4dee	-0.0006076981
113	0xbab2eb05	-0.0013650364
114	0xbb844614	-0.0040366743
115	0xba7ad4b0	-0.0009568436
116	0xb800397f	-3.0571126e-05
117	0x3b1260bd	0.0022335493
118	0x392481c0	0.00015688594
119	0xbae2e399	-0.0017310261
120	0x3a1b6eb5	0.00059292774
121	0x3addb1db	0.0016913967
122	0x3a97aa7d	0.0011571195
123	0x3a9ef05e	0.0012126078
124	0x3ad7de19	0.0016469389
125	0xbaf12db0	-0.0018400457
126	0x3ab78cb4	0.0014003725
127	0x3a035643	0.00050101074
128	0xbb2418bb	-0.0025039155
129	0x3b004539	0.001957251

actor.fc_mu.bias f4 [2]
0	0x00000000	0.0
1	0x00000000	0.0

critic.conv1.bias f4 [64]
0	0x00000000	0.0
1	0x00000000	0.0
2	0x00000000	0.0
3	0x00000000	0.0
4	0x00000000	0.0
5	0x00000000	0.0
6	0x00000000	0.0
7	0x00000000	0.0
8	0x00000000	0.0
9	0x00000000	0.0
10	0x00000000	0.0
11	0x00000000	0.0
12	0x00000000	0.0
13	0x00000000	0.0
14	0x00000000	0.0
15	0x00000000	0.0
16	0x00000000	0.0
17	0x00000000	0.0
18	0x00000000	0.0
19	0x00000000	0.0
20	0x00000000	0.0
21	0x00000000	0.0
22	0x00000000	0.0
23	0x00000000	0.0
24	0x00000000	0.0
25	0x00000000	0.0
26	0x00000000	0.0
27	0x00000000	0.0
28	0x00000000	0.0
29	0x00000000	0.0
30	0x00000000	0.0
31	0x00000000	0.0
32	0x00000000	0.0
33	0x00000000	0.0
34	0x00000000	0.0
35	0x00000000	0.0
36	0x00000000	0.0
37	0x00000000	0.0
38	0x00000000	0.0
39	0x00000000	0.0
40	0x00000000	0.0
41	0x00000000	0.0
42	0x00000000	0.0
43	0x00000000	0.0
44	0x00000000	0.0
45	0x00000000	0.0
46	0x00000000	0.0
47	0x00000000	0.0
48	0x00000000	0.0
49	0x00000000	0.0
50	0x00000000	0.0
51	0x00000000	0.0
52	0x00000000	0.0
53	0x00000000	0.0
54	0x00000000	0.0
55	0x00000000	0.0
56	0x00000000	0.0
57	0x00000000	0.0
58	0x00000000	0.0
59	0x00000000	0.0
60	0x00000000	0.0
61	0x00000000	0.0
62	0x00000000	0.0
63	0x00000000	0.0

critic.conv1.lin.weight f4 [64, 5]
0	0x3e8d07ac	0.27544916
1	0x3e833db8	0.25633025
2	0xbe1292d6	-0.14313826
3	0x3c1a325d	0.009411422
4	0x3d50034d	0.050784398
5	0xbe2f6b6f	-0.17130826
6	0xbdc29ba2	-0.09502341
7	0x3db58702	0.08863641
8	0xbd077b64	-0.03307666
9	0x3d3a4369	0.045474444
10	0xbdc52fe7	-0.09628277
11	0xbd9a5d76	-0.075373575
12	0xbdd31e90	-0.10308564
13	0x3bbdb055	0.0057888427
14	0xbe1e9bb4	-0.15489084
15	0xbd888bb9	-0.06667275
16	0x3dc2361e	0.09482978
17	0x3e1c7f83	0.15283017
18	0x3e8de265	0.27711788
19	0x3c639537	0.013890556
20	0x3db78a92	0.08961977
21	0xbdb6af9a	-0.08920212
22	0xbd1561b3	-0.036470126
23	0x3cae1334	0.021249391
24	0xbd78a923	-0.060708176
25	0xbe091fa5	-0.13390978
26	0x3e09bd5a	0.13451138
27	0xbcb709fa	-0.022343624
28	0xbda16662	-0.07880856
29	0x3da1bc05	0.0789719
30	0xbe25235a	-0.16126767
31	0xbd8269f3	-0.063678645
32	0xbe272e9e	-0.16326377
33	0x3c4fb499	0.012677335
34	0xbb878bbc	-0.0041365307
35	0xbd4a1dae	-0.04934471
36	0x3dec8024	0.115478784
37	0x3e079684	0.13241011
38	0xbdf967e6	-0.1217802
39	0x3d0cea5a	0.034403183
40	0x3e59d135	0.21271212
41	0xbe8dcfb8	-0.2769754
42	0x3e3053f3	0.17219524
43	0x3cc9e288	0.024644151
44	0x3d8d1647	0.06889015
45	0xbdda204e	-0.10650693
46	0xbca7aad8	-0.020467207
47	0x3e9392e8	0.28823018
48	0x3dad9de4	0.08477381
49	0xbdd8c936	-0.10585253
50	0xbe39a710	-0.18130136
51	0xbe22fc74	-0.15916616
52	0x3e993dbd	0.29929915
53	0xbd9e6a34	-0.077351004
54	0x3d0ee73b	0.034888487
55	0x3e03d3dd	0.12873788
56	0xbd194fc3	-0.037429582
57	0x3cea9824	0.028637
58	0xbd0a2afe	-0.033732407
59	0x3d00418d	0.031312514
60	0x3ccea4be	0.02522504
61	0x3e776472	0.2415941
62	0xbdef3292	-0.116795674
63	0x3d7dc58b	0.06195597
64	0x3e48a5d1	0.19594504
65	0xbd8e48bf	-0.06947469
66	0x3cf44502	0.029818062
67	0xbe037f02	-0.12841418
68	0x3e0dd6ed	0.13851519
69	0xbdcb8ba4	-0.09938744
70	0x3ce0824b	0.027405879
71	0x3da74e91	0.08169282
72	0xbe6515a5	-0.22371538
73	0xbde3e757	-0.11128109
74	0xbe3db592	-0.18526295
75	0xbe8d4679	-0.2759283
76	0x3d55fbf3	0.05224223
77	0xbd85e901	-0.065385826
78	0xbe0d24ab	-0.13783519
79	0xbd84cf34	-0.06484833
80	0xbe1455f8	-0.1448592
81	0x3d6294d0	0.0553177
82	0x3df0a0cb	0.11749419
83	0xbd572ee6	-0.05253496
84	0x3dc552a4	0.09634903
85	0x3e0ff3f0	0.14057899
86	0x3e4cb97c	0.19992632
87	0x3ce8aa4b	0.028401515
88	0xbbd75b5e	-0.006572171
89	0x3d51e294	0.051241472
90	0xbdcc3e2b	-0.09972795
91	0x3d741d2f	0.059598144
92	0x3e360976	0.17777047
93	0xbc77106a	-0.015079597
94	0x3e8a3015	0.2698981
95	0x3c0839cb	0.00831456
96	0x3d24198a	0.04006342
97	0x3caaf31b	0.020867875
98	0xbe85018d	-0.25977746
99	0x3e260aef	0.16215108
100	0x3e105a9e	0.14097068
101	0xbe777f17	-0.24169575
102	0xbdca4696	-0.098767444
103	0x3e701f2c	0.23449391
104	0x3dd731b5	0.10507528
105	0x3cadad35	0.021200756
106	0x3e4152d1	0.18879248
107	0xbcb865c7	-0.022509469
108	0x3cac2ff3	0.021018958
109	0xbe016080	-0.12634468
110	0x3d663597	0.05620345
111	0xbda2b22f	-0.07944142
112	0xbe84851e	-0.2588281
113	0xbd33cd00	-0.043896675
114	0x3dbb5bc3	0.091483615
115	0x3e354583	0.17702298
116	0x3b3fbc76	0.0029256619
117	0x3d82dc08	0.06389624
118	0x3e56b2a1	0.20966579
119	0xbe5947a9	-0.21218742
120	0xbda9a5d0	-0.08283579
121	0xbdbaca81	-0.09120656
122	0x3db4c4ff	0.088266365
123	0x3c7741e3	0.015091392
124	0xbdc0e8a7	-0.09419375
125	0xbdfaae91	-0.12240327
126	0x3ce0d342	0.027444486
127	0xbde29ed6	-0.11065452
128	0x3c0cdc02	0.008597376
129	0x3dcb9c0e	0.099418744
130	0xbcf2a525	-0.029619763
131	0x3c274b90	0.010210887
132	0x3d8002a0	0.06250501
133	0xbd08bc49	-0.033382688
134	0xbe3faa03	-0.18717198
135	0x3d13c5df	0.036077376
136	0x3e328c30	0.1743629
137	0xbe3ac8ed	-0.1824071
138	0xbd226ed0	-0.03965646
139	0x3c904192	0.017609391
140	0x3e66b769	0.22530903
141	0xbd989234	-0.07449761
142	0x3d29865d	0.041387904
143	0xbd1fed6b	-0.03904478
144	0xbe046b17	-0.12931477
145	0x3c0e4011	0.008682267
146	0x3ca166a5	0.019702265
147	0xbd13ed6d	-0.0361151
148	0x3df36cf6	0.11886017
149	0x3d67efbb	0.05662511
150	0xbe9a47d1	-0.30132917
151	0x3e700b24	0.2344175
152	0xbd205dc6	-0.03915193
153	0x3dfa67ad	0.12226806
154	0xbd8acd90	-0.06777489
155	0xbdaf3bbb	-0.085563146
156	0xbab2ee05	-0.0013651258
157	0xbdc6e326	-0.09711294
158	0x3d450d6e	0.04810851
159	0x3b9e210d	0.0048257173
160	0x3d1c0ce7	0.038098242
161	0x3d682910	0.056679785
162	0xbbbce882	-0.005765022
163	0xbe32a740	-0.17446613
164	0xbe2a3924	-0.1662336
165	0x3e18df79	0.14928998
166	0xbd9636a5	-0.07334641
167	0xbda83c26	-0.082145974
168	0xbe9147fb	-0.2837523
169	0x3df578a5	0.11985902
170	0x3c9b8078	0.018982157
171	0xbd1e811c	-0.038697347
172	0xbdef3a11	-0.11680997
173	0x3de1ac92	0.11019243
174	0xbddf0bc6	-0.108909175
175	0xbcf9f8c0	-0.030514121
176	0xbe301513	-0.17195539
177	0xbe508f96	-0.20367274
178	0xbe37284e	-0.17886469
179	0xbb0d7d77	-0.0021589675
180	0xbde63f06	-0.112424895
181	0x3bf5e6d2	0.0075043226
182	0x3ca3dfc6	0.020004164
183	0x3cc10ead	0.023566568
184	0xbe121362	-0.14265206
185	0x3ced2b00	0.028951168
186	0x3db0d001	0.086334236
187	0x3c9a5338	0.01883851
188	0xbe0e4d00	-0.1389656
189	0x3dc678d7	0.09691017
190	0x3d6ab58e	0.05730205
191	0xbd1ade80	-0.03780985
192	0xbe15bd9b	-0.1462311
193	0x3cec4e42	0.02884591
194	0xbe7128a7	-0.23550664
195	0x3e69cfd0	0.2283318
196	0x3e0e6179	0.1390437
197	0x3e843725	0.25823322
198	0x3e20b4f8	0.15694034
199	0xbd79a1d4	-0.060945347
200	0xbde3befa	-0.1112041
201	0x3dde952c	0.10868296
202	0x3d1e7e15	0.03869446
203	0xbdc954f6	-0.09830658
204	0xbd8bae34	-0.06820336
205	0x3dd1e321	0.102483995
206	0xbd9b5853	-0.07585206
207	0x3dbb3773	0.091414355
208	0xbd8a4cab	-0.067529045
209	0x3cb167f1	0.021656008
210	0x3c4eafb8	0.012615137
211	0x3d79ec25	0.06101622
212	0xbccb68fd	-0.024830336
213	0xbd87269a	-0.065991595
214	0x3dad10a5	0.0845044
215	0x3d98a641	0.074535854
216	0xbd6e42dc	-0.05816923
217	0xbd2ff9df	-0.042962905
218	0x3c1345ec	0.008988839
219	0x3e2f62ed	0.17127581
220	0x3d8fe97d	0.07026956
221	0x3d8d765f	0.06907343
222	0x3caabeca	0.020842928
223	0x3e7c3ba1	0.24632122
224	0x3dfc883a	0.12330671
225	0x3d9d6dc9	0.076869555
226	0x3e128247	0.1430751
227	0x3d92caad	0.071675636
228	0xbea0caa7	-0.3140461
229	0xbe080ec0	-0.13286877
230	0xbd846844	-0.064651996
231	0xbdebd200	-0.11514664
232	0x3dfa0324	0.1220763
233	0x3d483d02	0.048886307
234	0x3d801add	0.06255124
235	0x3c81b36a	0.015832622
236	0x3c66aaf3	0.014078843
237	0x3e7cb49e	0.24678275
238	0xbc83399f	-0.016018687
239	0x3e3fa386	0.18714723
240	0x3ddebad4	0.108754784
241	0x3db49796	0.08817975
242	0xbdc3c64e	-0.09559308
243	0x3e65f33f	0.22456072
244	0x3e6c2cfa	0.23064032
245	0xbe127c7f	-0.14305304
246	0xbe223e7d	-0.1584415
247	0xbe4a3592	-0.19746998
248	0x3c8ada75	0.016949872
249	0x3d2812bb	0.041033488
250	0xbdad3855	-0.0845801
251	0xbdef9842	-0.11698963
252	0xbc102905	-0.008798842
253	0x3ce0a332	0.027421568
254	0xbe67f398	-0.22651517
255	0xbe6da7ed	-0.2320859

critic.conv2.bias f4 [64]
0	0x00000000	0.0
1	0x00000000	0.0
2	0x00000000	0.0
3	0x00000000	0.0
4	0x00000000	0.0
5	0x00000000	0.0
6	0x00000000	0.0
7	0x00000000	0.0
8	0x00000000	0.0
9	0x00000000	0.0
10	0x00000000	0.0
11	0x00000000	0.0
12	0x00000000	0.0
13	0x00000000	0.0
14	0x00000000	0.0
15	0x00000000	0.0
16	0x00000000	0.0
17	0x00000000	0.0
18	0x00000000	0.0
19	0x00000000	0.0
20	0x00000000	0.0
21	0x00000000	0.0
22	0x00000000	0.0
23	0x00000000	0.0
24	0x00000000	0.0
25	0x00000000	0.0
26	0x00000000	0.0
27	0x00000000	0.0
28	0x00000000	0.0
29	0x00000000	0.0
30	0x00000000	0.0
31	0x00000000	0.0
32	0x00000000	0.0
33	0x00000000	0.0
34	0x00000000	0.0
35	0x00000000	0.0
36	0x00000000	0.0
37	0x00000000	0.0
38	0x00000000	0.0
39	0x00000000	0.0
40	0x00000000	0.0
41	0x00000000	0.0
42	0x00000000	0.0
43	0x00000000	0.0
44	0x00000000	0.0
45	0x00000000	0.0
46	0x00000000	0.0
47	0x00000000	0.0
48	0x00000000	0.0
49	0x00000000	0.0
50	0x00000000	0.0
51	0x00000000	0.0
52	0x00000000	0.0
53	0x00000000	0.0
54	0x00000000	0.0
55	0x00000000	0.0
56	0x00000000	0.0
57	0x00000000	0.0
58	0x00000000	0.0
59	0x00000000	0.0
60	0x00000000	0.0
61	0x00000000	0.0
62	0x00000000	0.0
63	0x00000000	0.0

critic.conv2.lin.weight f4 [64, 64]
0	0xbccdfc80	-0.025144815
1	0xbd7aba40	-0.061212778
2	0x3c264070	0.010147199
3	0x3bb5a0b0	0.005542837
4	0xbab87940	-0.0014074221
5	0xbc91ecd0	-0.017813116
6	0x3e5cbbce	0.21556017
7	0xbbcb5781	-0.0062054996
8	0x3e84fd4d	0.25974503
9	0xbd02d8c2	-0.031944998
10	0x3e668ada	0.22513905
11	0xbdea1bd6	-0.114310905
12	0x3da0d6da	0.0785348
13	0xbd0f26cc	-0.03494911
14	0x3ddaa1a0	0.10675359
15	0xbddfe4ba	-0.10932298
16	0xbd31f44e	-0.043445878
17	0xbe14bbe2	-0.14524797
18	0xbcb23af4	-0.021756627
19	0xbda34667	-0.079724126
20	0xbe45f583	-0.19331937
21	0xbd40b11f	-0.047043916
22	0x3e77a692	0.24184635
23	0xbe164ae3	-0.14677005
24	0x3e0e455e	0.13893649
25	0xbdc7520a	-0.097324446
26	0xbd863bd1	-0.06554378
27	0xbd330166	-0.043702506
28	0x3d564540	0.052312136
29	0xbd87f81d	-0.06639121
30	0xbd93de38	-0.07220119
31	0xbe6734a4	-0.22578675
32	0xbe10bbaa	-0.14134088
33	0xbe915a92	-0.28389412
34	0x3d133669	0.03594056
35	0xbde39fc4	-0.11114457
36	0x3ddc3311	0.10751928
37	0x3b070cbc	0.0020606956
38	0x3d1b3fda	0.03790269
39	0xbeab4714	-0.33452666
40	0x3b002b8a	0.0019557201
41	0xbc323399	-0.01087656
42	0x3e0a3c13	0.13499479
43	0xbdcdd75e	-0.10050844
44	0x3d897a99	0.06712837
45	0xbe092a27	-0.13394986
46	0x3db15c55	0.08660189
47	0xbe15bb05	-0.14622124
48	0xbe426008	-0.18981946
49	0xbd496fe7	-0.049178984
50	0xbd4bf2df	-0.049792167
51	0xbe6cb0ed	-0.23114367
52	0xbdfd2066	-0.12359695
53	0x3e176b6e	0.14787075
54	0x3c000400	0.007813454
55	0x3cefb9ad	0.029263342
56	0xbe414e66	-0.18877563
57	0x3d93110d	0.071809866
58	0x3de2a029	0.110657044
59	0xbd500942	-0.05079008
60	0x3d7106ce	0.05884438
61	0x3d6a35fe	0.057180397
62	0x3e03afd9	0.1286005
63	0x3db40549	0.087900706
64	0x3e8777b5	0.26458517
65	0xbd8bc2e0	-0.06824279
66	0xbdb30f1d	-0.08743117
67	0x3e9c0b09	0.3047717
68	0x3e3c45ab	0.18385951
69	0x3d8f4dda	0.06997271
70	0xbe1b3132	-0.15155485
71	0xbb51c0ad	-0.0032005713
72	0xbd5cc024	-0.053894177
73	0xbda7b4de	-0.081887946
74	0x3d701383	0.058612358
75	0x3e7bfd57	0.2460836
76	0x3deb66cc	0.11494216
77	0x3d7891ff	0.060686108
78	0xbdf0ec63	-0.11763837
79	0x3dfb5c3f	0.12273454
80	0xbdeeaa3c	-0.116535634
81	0xba5b7ec0	-0.0008373074
82	0xbdb5ff44	-0.08886579
83	0xbe2e87c5	-0.1704398
84	0x3cb04e22	0.021521632
85	0xbdd6a1ad	-0.10480056
86	0x3e18c34c	0.1491825
87	0x3de8509d	0.11343501
88	0x3cb09dd4	0.021559633
89	0xbd77dd96	-0.060514055
90	0xbe2a269f	-0.16616295
91	0xbdf1b720	-0.118025064
92	0x3d27b59e	0.040944688
93	0xbc022d06	-0.007945305
94	0x3cb73d4e	0.0223681
95	0x3e05f8b2	0.13083151
96	0xbdd2c766	-0.102919385
97	0x3d7aa45b	0.061191898
98	0xbe907b1f	-0.28218934
99	0xbd6b6752	-0.05747158
100	0xbb2d0788	-0.0026402194
101	0xbd864016	-0.06555192
102	0x3cf19738	0.029491052
103	0xbd3c5092	-0.045975275
104	0x3dfd14a9	0.12357456
105	0xbe1bab1f	-0.15201996
106	0xbe038866	-0.12845
107	0x3deed8c7	0.11662441
108	0x3c152fc0	0.009105623
109	0xbdb90b6a	-0.0903538
110	0xbe3e7980	-0.18601036
111	0x3d01834c	0.031619355
112	0x3c643328	0.013928212
113	0xbe76e414	-0.24110442
114	0xbe061d53	-0.13097124
115	0xbd4e7ad2	-0.0504101
116	0xbe51c3fd	-0.2048492
117	0x3e4ecfb5	0.20196421
118	0xbd485c78	-0.04891631
119	0xbb9fcf22	-0.004876987
120	0x3e1639e8	0.14670527
121	0xbd80f764	-0.06297186
122	0x3dcd1c58	0.10015172
123	0xbd350391	-0.044192854
124	0xbd1410d2	-0.036148854
125	0xbe4a6a2e	-0.19767067
126	0x3d663c6c	0.056209967
127	0x3e12b038	0.14325035
128	0x3de31060	0.11087108
129	0xbce2e0b4	-0.027695037
130	0x3e2b9738	0.16756904
131	0xbd76b2cf	-0.06022912
132	0xbbd7d553	-0.0065867095
133	0xbded1290	-0.11575806
134	0xbd176a73	-0.036966752
135	0x3da47bcd	0.080314256
136	0x3e16b844	0.1471873
137	0xbe3ad517	-0.1824535
138	0xbd79f1ec	-0.06102173
139	0x3dba7c62	0.091057554
140	0x3c7a25c4	0.015267793
141	0xbe1479e1	-0.14499618
142	0x3ce193a1	0.027536215
143	0xbe0fecd2	-0.14055184
144	0xbc3ae088	-0.0114060715
145	0x3e5aedc9	0.2137977
146	0xbbff7755	-0.007796208
147	0xbcaadf0d	-0.020858312
148	0x3dc02173	0.0938138
149	0x3babee0d	0.0052468837
150	0x3ea16eaf	0.31529757
151	0xbc0b9256	-0.008518776
152	0x3e1130ac	0.14178723
153	0x3e261162	0.16217569
154	0xbd606285	-0.054781456
155	0xbe16d3cb	-0.1472923
156	0x3d910542	0.07081081
157	0x3e07eb2a	0.13273302
158	0xbdc6daa8	-0.09709674
159	0x3db9a477	0.09064572
160	0x3e332833	0.17495804
161	0xbdb9cb26	-0.090719506
162	0x3d396b65	0.045268435
163	0xbd5c387e	-0.053764813
164	0xbd0c6c0d	-0.034282733
165	0x3e500eb4	0.20318109
166	0xbdbb9ec3	-0.09161141
167	0xbddadeb6	-0.1068701
168	0x3e213bda	0.15745488
169	0x3d79d992	0.060998507
170	0xbe5eae5b	-0.21746199
171	0x3e3925c0	0.18080807
172	0x3db168eb	0.0866259
173	0x3e0a4202	0.13501742
174	0xbd907d97	-0.07055204
175	0x3e1331da	0.14374486
176	0xbdb9ffc2	-0.09081985
177	0x3e47af6e	0.19500515
178	0x3c218ff2	0.009860979
179	0x3e5ff5bf	0.21871088
180	0xbd565ef8	-0.052336663
181	0x3d926458	0.07148045
182	0xbe34c450	-0.17653012
183	0xbd222382	-0.039584644
184	0xbd814e22	-0.06313731
185	0x3d8e7d23	0.06957462
186	0xbe70d1ce	-0.23517534
187	0xbdea43fd	-0.11438749
188	0xbd804159	-0.06262464
189	0x3e2b3403	0.1671906
190	0x3e38e5fd	0.18056484
191	0xbe04c00b	-0.12963884
192	0xbe5af4d3	-0.21382456
193	0x3e5dee68	0.21672976
194	0xbe286e38	-0.16448295
195	0x3df94680	0.1217165
196	0xbd5c0086	-0.053711437
197	0x3d60c006	0.054870628
198	0x3e0dd127	0.13849317
199	0x3d578285	0.052614707
200	0x3e335814	0.17514068
201	0xbde6a762	-0.112623945
202	0xbd7a39f8	-0.06109044
203	0xbc3b7148	-0.011440583
204	0x3d85b8ae	0.065293655
205	0x3d0b7a85	0.03405239
206	0xbde441cc	-0.11145362
207	0x3d2d988a	0.0423818
208	0xbe4ebdaa	-0.20189539
209	0x3dfaa494	0.12238422
210	0xbd91e6c6	-0.07124095
211	0x3e1220cc	0.14270324
212	0xbb934868	-0.0044947155
213	0x3d56f0a0	0.05247557
214	0x3dc2d70e	0.09513675
215	0x3e3303d9	0.17481937
216	0x3c22681a	0.009912515
217	0xbe0bb1bc	-0.13642019
218	0xbd181dbe	-0.03713774
219	0x3e4164fb	0.18886177
220	0x3d707271	0.05870289
221	0xbe7b4706	-0.24538812
222	0x3c0ae7e0	0.008478135
223	0xbd301bd7	-0.0429953
224	0x3e5115fe	0.20418546
225	0x3d3537d6	0.044242702
226	0xbe2eadc0	-0.17058468
227	0x3e2553a7	0.16145192
228	0xbe38b901	-0.18039323
229	0xbbedb36c	-0.007254055
230	0x3d82665b	0.06367179
231	0x3de0fcb8	0.10985702
232	0x3e8c1739	0.27361467
233	0x3d21f29c	0.03953801
234	0xbd15be3c	-0.036558375
235	0xbdc11bcd	-0.09429131
236	0x3e7fa755	0.24966176
237	0xbdada33e	-0.084784016
238	0xbd98792a	-0.07444985
239	0xbe8f7bea	-0.28024226
240	0x3d5ac69f	0.053412076
241	0x3da5b5af	0.08091294
242	0x3e082b48	0.1329776
243	0x3d4f293b	0.05057643
244	0x3d334171	0.04376358
245	0x3cdd1396	0.026986878
246	0xbc0e5580	-0.008687377
247	0xbd5a344b	-0.053272527
248	0xbdbe9510	-0.09305775
249	0x3e27dd60	0.16393042
250	0x3d07e6e2	0.03317917
251	0x3e103373	0.14082126
252	0xbe44b5fc	-0.19210047
253	0x3c0f5673	0.008748638
254	0x3dbe79d7	0.09300583
255	0x3ce055e9	0.027384715

critic.fc.weight f4 [1, 65]
0	0xbdfba2d7	-0.122869186
1	0xbeacf2c5	-0.33778968
2	0x3e0e6ab8	0.13907897
3	0xbdf4a215	-0.11944977
4	0x3d1e9e0e	0.03872495
5	0x3dd9d0db	0.10635539
6	0xbea45753	-0.32097873
7	0xbe5b35d4	-0.21407253
8	0x3e5e034f	0.2168095
9	0xbe9aa0ce	-0.3020081
10	0xbe024060	-0.1271987
11	0xbe122efe	-0.14275739
12	0xbd619147	-0.055070188
13	0xbd606dc4	-0.05479218
14	0xbe179082	-0.14801219
15	0x3da6622f	0.08124196
16	0xbd9e5571	-0.077311404
17	0x3db9f566	0.09080009
18	0x3d08a510	0.03336054
19	0x3d7e8d8f	0.06214672
20	0xbcc18d15	-0.023626843
21	0xbdb1025b	-0.086430274
22	0x3d322569	0.04349271
23	0xbd1406a3	-0.03613914
24	0x3e1a78ab	0.15085094
25	0xbdec979f	-0.11552357
26	0x3db94449	0.090462275
27	0x3e18c6d1	0.14919592
28	0xbd1d4d7c	-0.038403973
29	0xbd6ea458	-0.0582622
30	0x3d9ef5d2	0.0776173
31	0xbe079958	-0.1324209
32	0xbd2f2c0f	-0.042766627
33	0xbe8f8067	-0.2802765
34	0xbeaddf11	-0.3395925
35	0xbef39edc	-0.47582138
36	0xbd500d5a	-0.050793983
37	0xbe4ef88c	-0.20212
38	0xbddc9cd2	-0.107720986
39	0x3e976f25	0.29576984
40	0x3e17e463	0.14833216
41	0xbe622d39	-0.22087564
42	0xbe54374d	-0.2072422
43	0x3db8eb39	0.0902924
44	0xbd05dc01	-0.032680515
45	0xbe2024ef	-0.15639089
46	0xbe0989b1	-0.13431431
47	0xbcf4a883	-0.029865509
48	0xbd0d61b4	-0.034517005
49	0x3cd5414d	0.026032114
50	0xbd28e5dc	-0.041234836
51	0x3e8db9f6	0.2768094
52	0x3dfaa382	0.12238218
53	0xbc0f2e09	-0.008739003
54	0xbda96943	-0.0827203
55	0x3bedb21d	0.007253899
56	0xbe5ba60f	-0.21450065
57	0xbd9388ad	-0.07203803
58	0xbeb3a06b	-0.35083327
59	0x3ea9ea21	0.3318644
60	0xbdb66efd	-0.08907888
61	0xbec863f3	-0.39138755
62	0xbdb8a3a2	-0.090155855
63	0x3e4d39d6	0.20041594
64	0x3df118c1	0.117722996

_actor_critic.actor.sigma_param f4 [2, 1]
0	0x00000000	0.0
1	0x00000000	0.0

_actor_critic.actor.conv1.bias f4 [64]
0	0x00000000	0.0
1	0x00000000	0.0
2	0x00000000	0.0
3	0x00000000	0.0
4	0x00000000	0.0
5	0x00000000	0.0
6	0x00000000	0.0
7	0x00000000	0.0
8	0x00000000	0.0
9	0x00000000	0.0
10	0x00000000	0.0
11	0x00000000	0.0
12	0x00000000	0.0
13	0x00000000	0.0
14	0x00000000	0.0
15	0x00000000	0.0
16	0x00000000	0.0
17	0x00000000	0.0
18	0x00000000	0.0
19	0x00000000	0.0
20	0x00000000	0.0
21	0x00000000	0.0
22	0x00000000	0.0
23	0x00000000	0.0
24	0x00000000	0.0
25	0x00000000	0.0
26	0x00000000	0.0
27	0x00000000	0.0
28	0x00000000	0.0
29	0x00000000	0.0
30	0x00000000	0.0
31	0x00000000	0.0
32	0x00000000	0.0
33	0x00000000	0.0
34	0x00000000	0.0
35	0x00000000	0.0
36	0x00000000	0.0
37	0x00000000	0.0
38	0x00000000	0.0
39	0x00000000	0.0
40	0x00000000	0.0
41	0x00000000	0.0
42	0x00000000	0.0
43	0x00000000	0.0
44	0x00000000	0.0
45	0x00000000	0.0
46	0x00000000	0.0
47	0x00000000	0.0
48	0x00000000	0.0
49	0x00000000	0.0
50	0x00000000	0.0
51	0x00000000	0.0
52	0x00000000	0.0
53	0x00000000	0.0
54	0x00000000	0.0
55	0x00000000	0.0
56	0x00000000	0.0
57	0x00000000	0.0
58	0x00000000	0.0
59	0x00000000	0.0
60	0x00000000	0.0
61	0x00000000	0.0
62	0x00000000	0.0
63	0x00000000	0.0

_actor_critic.actor.conv1.lin.weight f4 [64, 5]
0	0x3da05620	0.07828927
1	0x3e22f084	0.15912062
2	0x3dfc1662	0.12308957
3	0xbdfbccdf	-0.122949354
4	0xbda52df4	-0.080654055
5	0x3deeab22	0.11653735
6	0xbcb5063a	-0.022097696
7	0xbda1741d	-0.07883475
8	0xbe7fe573	-0.24989872
9	0xbdf2ec1e	-0.11861442
10	0x3a6f132e	0.00091199845
11	0xbe83f22d	-0.25770703
12	0xbd4eb453	-0.05046494
13	0xbe30f23a	-0.17279902
14	0x3e124d27	0.14287244
15	0xbdac098e	-0.0840026
16	0x3dabb0c4	0.08383325
17	0xbd6488d3	-0.05579455
18	0x3d1c0625	0.038091797
19	0xbd78adf8	-0.060712785
20	0xbe162934	-0.14664155
21	0x3e2e0f76	0.16998085
22	0x3c2894e1	0.010289402
23	0xbdc561c7	-0.0963779
24	0x3dcadcf9	0.099054284
25	0x3e1417fe	0.14462277
26	0x3da3ed0e	0.08004199
27	0xbd743c0e	-0.059627585
28	0xbd39a7ee	-0.045326166
29	0xbd3991ed	-0.04530518
30	0xbc12b51e	-0.0089543145
31	0x3e63280a	0.22183242
32	0xb9795f51	-0.00023781999
33	0xbaf88176	-0.0018959481
34	0xbc07dcac	-0.008292358
35	0x3dae845e	0.08521341
36	0xbe5d412e	-0.21606895
37	0x3c5eb75e	0.013593523
38	0x3e3c88cf	0.18411563
39	0x3d53a518	0.051671118
40	0xbdaba6aa	-0.08381398
41	0xbe36a20e	-0.17835256
42	0xbd95ad0d	-0.073083974
43	0xbbe28230	-0.006912492
44	0x3c6dd79f	0.01451674
45	0x3d14e900	0.03635502
46	0x3e519709	0.20467772
47	0x3c973dae	0.018462028
48	0x3db86d30	0.09005201
49	0xbccc58be	-0.02494466
50	0xbd9c06b6	-0.076184675
51	0xbe061ed9	-0.13097705
52	0xbdc732bc	-0.09726474
53	0x3e14da9f	0.14536522
54	0x3e8ffbdc	0.2812184
55	0xbd8caaf0	-0.06868541
56	0xbca358cd	-0.019939804
57	0x3dd15ce5	0.10222796
58	0xbdf53322	-0.119726434
59	0x3bc60627	0.006043214
60	0x3dac7719	0.084211536
61	0x3daf2da2	0.08553626
62	0x3d6e0c3c	0.058117136
63	0xbe5a66fb	-0.21328346
64	0x3e8ec7a6	0.27886695
65	0xbe64b8e8	-0.22336161
66	0xbd8cdeeb	-0.06878456
67	0x3d9f9444	0.07791951
68	0xbc886f6f	-0.016654698
69	0xbd4f01ad	-0.050538708
70	0xbeb66e97	-0.35631248
71	0x3e85e194	0.26148665
72	0xbd980f2c	-0.07424769
73	0xbc317a81	-0.01083243
74	0xbd76397b	-0.06011341
75	0x3df29e78	0.11846632
76	0x3d21467a	0.039373852
77	0xbe2e2c94	-0.17009193
78	0xbcbadc28	-0.022810057
79	0xbd28b227	-0.041185524
80	0xbdbbeb87	-0.09175783
81	0xbdb2ae38	-0.08724636
82	0x3e43f004	0.19134527
83	0x3d356c0e	0.044292502
84	0x3d4ad344	0.049517885
85	0xbe5fef3d	-0.21868606
86	0xbae6510c	-0.0017571761
87	0x3dee7a0c	0.11644372
88	0x3dc99bab	0.098441444
89	0x3dc7ce8d	0.09756193
90	0x3dab2f64	0.083586484
91	0x3e48362d	0.19551916
92	0xbd6438ad	-0.055718113
93	0x3e92e7c9	0.28692463
94	0xbca8dce4	-0.020613141
95	0xbd37d845	-0.044883985
96	0x3e11497c	0.14188188
97	0x3be3bdb6	0.0069501055
98	0xbc67ef42	-0.014156165
99	0x3e6eb346	0.23310575
100	0xbd73c0ee	-0.059510164
101	0xbe4226ab	-0.18960063
102	0x3dd28aa6	0.10280351
103	0xbde1e754	-0.110304505
104	0xbdeb3248	-0.114842
105	0x3be324f3	0.006931895
106	0xbd5de73c	-0.0541756
107	0xbe84b237	-0.25917217
108	0xbc6506cc	-0.013978671
109	0x3e16c117	0.14722095
110	0xbc0eae75	-0.008708586
111	0xbdbf8142	-0.09350826
112	0xbbc1828f	-0.0059054564
113	0x3da9ee6d	0.08297429
114	0x3de29f97	0.110655956
115	0xbd03a3cd	-0.032138634
116	0xbe002cf7	-0.12517153
117	0xbda3820e	-0.0798379
118	0x3e4122ff	0.18861006
119	0x3d93b6b2	0.07212581
120	0x3d736d42	0.05943037
121	0x3de8fe50	0.11376631
122	0x3d5b43c7	0.053531434
123	0xbe387b7e	-0.18015859
124	0xbe2acbdf	-0.16679333
125	0x3d1b445b	0.037906986
126	0xbbe00c60	-0.0068374127
127	0x3e9dee23	0.30845746
128	0xbddf67b2	-0.1090845
129	0x3e273ee6	0.16332588
130	0xbcd34ba7	-0.02579291
131	0xbd8ef313	-0.069799565
132	0x3d8a3df4	0.06750098
133	0xbe8faacf	-0.28060004
134	0x3c85285c	0.016254596
135	0xbd3fdd5a	-0.046841957
136	0x3e46ead7	0.19425522
137	0x3cbb054e	0.022829678
138	0xbe493079	-0.19647397
139	0xbd2ead5a	-0.04264579
140	0x3ec04758	0.3755443
141	0xbc6a32b7	-0.014294318
142	0xbe057ed3	-0.13036661
143	0xbda94f86	-0.08267121
144	0x3d8159ed	0.0631598
145	0xbe170989	-0.14749731
146	0xbdb07c22	-0.086174265
147	0x3dfdf2c0	0.123998165
148	0xbe4e0680	-0.20119667
149	0x3d08db06	0.033412002
150	0xbe3a866a	-0.18215337
151	0x3d61bd3f	0.05511212
152	0xbe373bcd	-0.17893906
153	0xbd3f8c92	-0.046764918
154	0x3de5826c	0.112065166
155	0xbdd91815	-0.106002964
156	0xbc14eb84	-0.009089354
157	0xbdca25c8	-0.098704875
158	0x3e248ab2	0.16068533
159	0xbe09b509	-0.13447966
160	0x3c7923eb	0.015206317
161	0xbda7c137	-0.0819115
162	0x3d7d232c	0.06180112
163	0x3d91422a	0.07092698
164	0x3d13f057	0.036117878
165	0x3cd5bfc8	0.026092425
166	0xbbd634f3	-0.0065370738
167	0xbd84de37	-0.064876966
168	0xbdcc37da	-0.0997159
169	0xbe59cb0a	-0.2126886
170	0xbd2c0ad1	-0.042002503
171	0xbbec5be3	-0.007213102
172	0xbe75dfa9	-0.24011101
173	0xbd1d7895	-0.038445074
174	0xbd115404	-0.035480514
175	0x3e56756d	0.20943232
176	0x3b6e26b0	0.0036338978
177	0x3e0dff33	0.13866882
178	0x3c3f327c	0.011669751
179	0x3e3d7f56	0.18505606
180	0x3e332077	0.17492853
181	0x3e399fc0	0.18127346
182	0xbce9dbb2	-0.028547142
183	0x3e86348c	0.26211965
184	0xbda469c6	-0.08027987
185	0x3e086463	0.13319544
186	0xbded093f	-0.11574029
187	0x3dbc504b	0.09195002
188	0xbdae0318	-0.08496684
189	0xbe2e2c92	-0.1700919
190	0x3d854439	0.06507153
191	0x3de6a308	0.112615645
192	0x3e3007e9	0.17190517
193	0xbd7edc4f	-0.06222182
194	0xbe27e139	-0.1639451
195	0xbc1c42f6	-0.009537449
196	0xbd33db43	-0.043910276
197	0x3e323c31	0.17405774
198	0x3ceda5f3	0.029009795
199	0xbe101238	-0.1406945
200	0x3d996263	0.07489469
201	0x3d0abd62	0.033872016
202	0x3e9e8886	0.30963534
203	0x3e0905e7	0.13381158
204	0x3e2e07b3	0.16995125
205	0xbc304d4d	-0.010760617
206	0xbe5981ab	-0.2124087
207	0xbc5b9b70	-0.013403758
208	0x3cf02c29	0.029317932
209	0x3d49e51d	0.049290765
210	0xbdbde8f0	-0.09272945
211	0xbdfad26f	-0.12247168
212	0xbe274a17	-0.16336857
213	0x3dded7f0	0.108810306
214	0xbe32da2d	-0.1746604
215	0x3e2595e5	0.16170461
216	0xbe6bf819	-0.2304386
217	0xbe6ea623	-0.23305564
218	0xbdc468b1	-0.09590281
219	0x3dc02251	0.09381545
220	0x3e070693	0.13186102
221	0x3e1346bc	0.14382452
222	0x3c009bbc	0.00784963
223	0xbe36e96e	-0.17862484
224	0x3d3b51f0	0.04573244
225	0x3e67d9b9	0.22641648
226	0x3e1f2973	0.15543155
227	0x3e0e3ecc	0.13891143
228	0x3d017ae7	0.03161135
229	0xbc68a6cd	-0.014199925
230	0x3bf03e96	0.0073316796
231	0x3c33b98f	0.010969534
232	0x3d6c74f5	0.057728726
233	0x3d671f7a	0.056426503
234	0xbe5577fd	-0.20846553
235	0xbd85e111	-0.06537069
236	0x3ce3af10	0.027793437
237	0xbdb71443	-0.089394115
238	0x3d4ecb38	0.050486773
239	0xbdc1447d	-0.09436891
240	0xbd610b60	-0.05494249
241	0xbd74003d	-0.05957054
242	0x3e5c1377	0.214918
243	0x3e129327	0.14313947
244	0xbdfaa769	-0.12238962
245	0xbe0da34c	-0.13831824
246	0x3c8c62ec	0.017137013
247	0x3d4c88b1	0.049935047
248	0xbdb9a8ea	-0.09065421
249	0x3d3c8aa5	0.04603066
250	0xbe0ef73b	-0.13961498
251	0x3e12bc00	0.14329529
252	0x3d4ef2c6	0.050524496
253	0x3c8c2b78	0.017110571
254	0xbdf1acf4	-0.11800566
255	0x3e347bf5	0.17625411

_actor_critic.actor.conv2.bias f4 [64]
0	0x00000000	0.0
1	0x00000000	0.0
2	0x00000000	0.0
3	0x00000000	0.0
4	0x00000000	0.0
5	0x00000000	0.0
6	0x00000000	0.0
7	0x00000000	0.0
8	0x00000000	0.0
9	0x00000000	0.0
10	0x00000000	0.0
11	0x00000000	0.0
12	0x00000000	0.0
13	0x00000000	0.0
14	0x00000000	0.0
15	0x00000000	0.0
16	0x00000000	0.0
17	0x00000000	0.0
18	0x00000000	0.0
19	0x00000000	0.0
20	0x00000000	0.0
21	0x00000000	0.0
22	0x00000000	0.0
23	0x00000000	0.0
24	0x00000000	0.0
25	0x00000000	0.0
26	0x00000000	0.0
27	0x00000000	0.0
28	0x00000000	0.0
29	0x00000000	0.0
30	0x00000000	0.0
31	0x00000000	0.0
32	0x00000000	0.0
33	0x00000000	0.0
34	0x00000000	0.0
35	0x00000000	0.0
36	0x00000000	0.0
37	0x00000000	0.0
38	0x00000000	0.0
39	0x00000000	0.0
40	0x00000000	0.0
41	0x00000000	0.0
42	0x00000000	0.0
43	0x00000000	0.0
44	0x00000000	0.0
45	0x00000000	0.0
46	0x00000000	0.0
47	0x00000000	0.0
48	0x00000000	0.0
49	0x00000000	0.0
50	0x00000000	0.0
51	0x00000000	0.0
52	0x00000000	0.0
53	0x00000000	0.0
54	0x00000000	0.0
55	0x00000000	0.0
56	0x00000000	0.0
57	0x00000000	0.0
58	0x00000000	0.0
59	0x00000000	0.0
60	0x00000000	0.0
61	0x00000000	0.0
62	0x00000000	0.0
63	0x00000000	0.0
