rl_environments/trained_models/PPO_routing_2_obj_500/policy.pth (torch, 41822 bytes, 24 tensors)

actor.sigma_param f4 [2, 1]
-0.26255503 -3.4168637
00000000: 9d6d 86be e5ad 5ac0

actor.conv1.bias f4 [64]
-0.045919903 0.0 0.0 0.026677325 0.08666364 0.04270035 0.0 0.0
0.0 -0.081651114 0.0 0.0 0.0 -0.04076882 0.0 -0.005100054
-0.057091042 0.0 0.08692228 0.08291058 -0.018544486 0.07209605 -0.043679927 0.13775767
0.0 -0.0075728223 0.028639194 0.0832594 -0.024401678 0.040660314 -0.05212264 0.09537715
0.021382784 0.07472779 0.08536577 0.0 0.05657558 -0.04129249 -0.060879577 -0.058768097
0.06898066 0.092370905 -0.009653899 0.07929466 0.11799813 -0.0020393 -0.029620722 -0.09710829
0.077345334 0.092737414 -0.030455219 -6.505003e-05 0.0 -0.011852884 0.10074534 0.0
-0.05862376 -0.05570365 0.072091386 0.090302825 0.0 -0.054546867 0.077995114 0.07153953
00000000: 8216 3cbd 0000 0000 0000 0000 688a da3c
00000010: b57c b13d 90e6 2e3d 0000 0000 0000 0000
00000020: 0000 0000 b338 a7bd 0000 0000 0000 0000
00000030: 0000 0000 35fd 26bd 0000 0000 5b1e a7bb
00000040: 4cd8 69bd 0000 0000 4f04 b23d 06cd a93d
00000050: 9bea 97bc 18a7 933d b9e9 32bd 5910 0d3e
00000060: 0000 0000 7025 f8bb be9c ea3c e883 aa3d
00000070: 07e6 c7bc 6e8b 263d 8d7e 55bd 1855 c33d
00000080: f32a af3c e20a 993d 40d4 ae3d 0000 0000
00000090: ccbb 673d 5022 29bd dd5c 79bd d1b6 70bd
000000a0: bb45 8d3d f52c bd3d 632b 1ebc 3d65 a23d
000000b0: 01a9 f13d c7a5 05bb 28a7 f2bc b6e0 c6bd
000000c0: 3b67 9e3d 1ded bd3d 397d f9bc 786b 88b8
000000d0: 0000 0000 9932 42bc 9353 ce3d 0000 0000
000000e0: 781f 70bd 8329 64bd a6a4 933d b0f0 b83d
000000f0: 0000 0000 896c 5fbd e7bb 9f3d 5183 923d

actor.conv1.lin.weight f4 [64, 2]
0.19346145 0.049104225 -0.029442301 -0.07451431 -0.080061145 -0.0023510426 0.109096795 -0.042455792
-0.11284731 0.17841597 0.0021339261 0.042459544 -0.12104358 -0.09379081 -0.083009 -0.015429311
-0.0053618317 -0.04582472 0.10650567 -0.24842806 -0.16758989 -0.16753083 -0.019376714 -0.04568058
-0.14084327 -0.061055623 0.31147036 -0.023716696 -0.05294195 -0.024474375 -0.004575816 -0.17654158
-0.06442681 0.054456893 -0.1504207 -0.25273108 0.040216453 -0.09194447 0.18287036 -0.09713817
0.017962387 -0.21026713 -0.03605506 0.062297326 0.10241909 0.14031018 -0.26008978 0.16075252
-0.0022922927 -0.089876905 -3.149605e-05 -0.14818388 0.024135595 0.13756688 0.018942533 -0.07119793
0.02434146 -0.00043061253 0.16889344 -0.0809684 0.26085347 0.013947861 0.07509599 -0.14616674
0.14710666 0.17312413 0.066140786 -0.09110743 0.00023912702 0.03768192 -0.021439455 -0.0011751723
0.026696235 0.09253401 -0.14141946 0.027122172 0.06076119 -0.12504706 -0.21957637 0.057356838
-0.004478711 -0.08302364 0.017782276 -0.094921745 0.15261531 -0.1868175 0.06929367 -0.13045515
-0.19443986 0.09483913 -0.18494497 -0.003685821 -0.22963986 0.02716711 0.16981155 -0.13383974
0.09513376 0.21599667 -0.12315492 0.05639765 -0.082194604 0.026561797 -0.15203397 -0.028278576
-0.04427407 -0.08473599 -0.04131396 0.010941735 0.011632344 0.35916603 -0.15825224 -0.094150506
0.07912471 -0.015175156 0.052735563 -0.28934515 0.17680274 -0.11990682 -0.01802046 0.107473485
-0.010674495 -0.23949485 0.04938123 -0.10282002 0.0065659783 0.15583523 0.011941506 0.048818436
00000000: c21a 463e 8321 493d fb30 f1bc f59a 98bd
00000010: 19f7 a3bd f313 1abb 246e df3d 20e6 2dbd
00000020: 7e1c e7bd adb2 363e 57d9 0b3b 0fea 2d3d
00000030: b2e5 f7bd 6515 c0bd 9f00 aabd 39cb 7cbc
00000040: 4eb2 afbb b4b2 3bbd a51f da3d ed63 7ebe
00000050: af9c 2bbe 348d 2bbe eabb 9ebc 8f1b 3bbd
00000060: 3839 10be 7615 7abd 0b79 9f3e 8449 c2bc
00000070: a8d9 58bd 7c7e c8bc baf0 95bb 51c7 34be
00000080: 34f2 83bd 310e 5f3d e207 1abe f865 81be
00000090: 02ba 243d 624d bcbd 5e42 3b3e 60f0 c6bd
000000a0: db25 933c 4450 57be 78ae 13bd 7b2b 7f3d
000000b0: 1ac1 d13d 79ad 0f3e 7d2a 85be 4f9c 243e
000000c0: 4a3a 16bb 6211 b8bd a01a 04b8 84bd 17be
000000d0: 03b8 c53c 55de 0c3e 5f2d 9b3c 38d0 91bd
000000e0: be67 c73c d6c3 e1b9 67f2 2c3e c3d2 a5bd
000000f0: 968e 853e 9285 643c edcb 993d bcac 15be
00000100: 21a3 163e 7447 313e d274 873d 8896 babd
00000110: 2cbe 7a39 5b58 1a3d cca1 afbc 3d08 9aba
00000120: 10b2 da3c 7982 bd3d 43d0 10be 512f de3c
00000130: bae0 783d 560c 00be a1d8 60be 01ef 6a3d
00000140: 27c2 92bb 4c08 aabd 23ac 913c 5566 c2bd
00000150: 3047 1c3e 164d 3fbe d7e9 8d3d 0996 05be
00000160: 3e1b 47be 053b c23d 3762 3dbe d18d 71bb
00000170: b626 6bbe 8f8d de3c 14e3 2d3e 490d 09be
00000180: 7dd5 c23d 3b2e 5d3e a638 fcbd 3901 673d
00000190: a555 a8bd 2098 d93c cbae 1bbe 79a8 e7bc
000001a0: ba58 35bd 108a adbd d438 29bd f644 333c
000001b0: 9695 3e3c 9ce4 b73e e00c 22be fbd1 c0bd
000001c0: 230c a23d 38a1 78bc 3f01 583d 0c25 94be
000001d0: c70b 353e b591 f5bd a59f 93bc 0f1b dc3d
000001e0: 14e4 2ebc 233e 75be f943 4a3d 4d93 d2bd
000001f0: 6b27 d73b 4593 1f3e 4ea6 433c d7f5 473d

actor.conv2.bias f4 [64]
0.1216426 0.0 0.20890667 0.048371762 0.09037647 -0.013448726 0.12780467 0.1541323
-0.02255709 0.0 -0.0051683537 -0.017105633 0.037008315 -0.016089732 0.020969443 0.1349667
0.172867 -0.013174689 -0.00653697 0.0 0.12040164 0.1329177 0.0054568783 -0.018459098
-0.006778763 0.014138487 0.034709748 0.09686373 -0.01940069 0.100836836 0.11782839 0.13226205
0.0048645507 -0.032669935 0.0 -0.026422532 -0.0116135385 -0.015940402 -0.0012048756 -0.010441292
-0.021152545 0.0 0.17393208 0.0 0.0 0.091866836 0.0 0.08304848
0.086570464 0.057827543 -0.048146494 0.056828544 -0.02019083 0.15241447 0.06326259 0.028942341
0.051265184 0.09052102 0.0030258826 0.114434145 -0.014699925 -0.030558743 0.0 0.0
00000000: c11f f93d 0000 0000 a1eb 553e 7821 463d
00000010: 4c17 b93d 0c58 5cbc 3adf 023e dcd4 1d3e
00000020: a5c9 b8bc 0000 0000 4b5b a9bb 1d21 8cbc
00000030: 0896 173d 9dce 83bc 1cc8 ab3c b634 0a3e
00000040: 0c04 313e a7da 57bc 1434 d6bb 0000 0000
00000050: 2395 f63d 941b 083e 9dcf b23b 8937 97bc
00000060: 6320 debb 1da5 673c cf2b 0e3d 7e60 c63d
00000070: 32ee 9ebc 8b83 ce3d 0350 f13d b46f 073e
00000080: cf66 9f3b e9d0 05bd 0000 0000 1174 d8bc
00000090: b646 3ebc 7295 82bc ebec 9dba f411 2bbc
000000a0: 1a48 adbc 0000 0000 401b 323e 0000 0000
000000b0: 0000 0000 ae24 bc3d 0000 0000 5215 aa3d
000000c0: db4b b13d 93dc 6c3d 4235 45bd 0cc5 683d
000000d0: 3d67 a5bc 8a12 1c3e d18f 813d 7d18 ed3c
000000e0: 71fb 513d 1663 b93d e34d 463b 735c ea3d
000000f0: f4d7 70bc 5456 fabc 0000 0000 0000 0000

actor.conv2.lin.weight f4 [64, 64]
0.07288292 -0.070647165 0.0007464886 0.13407388 -0.12154691 0.03294988 0.15122227 0.18505035
-0.26293 -0.1628025 0.20776583 -0.22505486 -0.0030633658 -0.08826415 0.062882885 -0.01918321
0.096452385 -0.03161001 0.11814955 0.24901791 0.16902064 -0.14404571 -0.07792357 0.2864782
0.20234296 0.027195184 -0.113208644 0.41360703 -0.031475168 -0.05011175 0.022429394 0.3017648
-0.071561515 0.010928686 0.017703988 -0.0125604225 0.20847495 -0.083885245 -0.042987093 -0.054772362
0.0220268 0.06785903 0.13423888 0.020055221 -0.0132134715 0.086775854 0.13548566 -0.07450185
-0.02881086 -0.047830064 0.054750253 0.08169166 0.059743363 0.1741858 -0.04446504 -0.042320643
0.027038822 0.16881655 0.050326638 -0.01148745 -0.07761166 -0.042626686 -0.10518264 0.08100066
0.09252336 -0.041340947 -0.10807094 -0.03290144 -0.064106844 0.044931654 -0.1082352 0.120478556
-0.19380307 -0.0674733 0.122297905 -0.1559621 0.21898182 0.013336899 0.29220468 0.052761506
0.1520362 0.09247946 0.09099873 -0.09432617 -0.0676155 0.12617694 -0.249538 -0.028541937
-0.102044016 -0.06786537 0.15912808 -0.049192235 -0.006057588 0.025238272 0.1348234 -0.27250797
-0.12236169 -0.21206513 0.054775167 -0.117271446 -0.070895605 -0.019794255 -0.21081321 -0.132463
-0.040077534 0.02407538 -0.123832 -0.06700562 0.027772892 -0.049094953 -0.35086817 0.059057944
0.008184009 0.032584578 0.028259797 0.1434652 0.007782371 -0.059210844 -0.16462839 0.058730386
0.067573816 0.15638171 -0.075606555 0.077627674 0.2156904 -0.0127519 -0.084564164 -0.107262455
-0.17715396 -0.114231914 0.0018259287 -0.14485545 0.18349406 0.09247558 -0.042291503 0.1821275
0.097902745 0.1293748 0.2639849 -0.12959048 -0.262226 -0.0021298975 -0.13049313 0.12776133
-0.03246009 0.020006489 0.07633461 0.20654453 -0.13261868 0.14191848 -0.09875011 0.31467763
-0.020798577 0.15246727 0.036426935 0.2578508 0.11361579 0.11835458 0.00016222568 0.096405834
0.03412997 -0.02111436 0.059721753 0.060140993 -0.071761295 0.02407994 -0.04562566 -0.07563748
-0.085281126 -0.0915477 -0.21876374 0.10093227 0.32890946 -0.11932338 0.1377564 0.06499826
0.28407857 0.42462146 0.11298568 -0.069706894 0.14498211 0.108116195 0.31031564 -0.12580273
-0.18853144 -0.01786763 0.06840488 0.20004714 0.1556867 -0.11208282 0.20762354 0.115612924
0.08183155 -0.007663927 -0.011604455 -0.0057595223 -0.052033383 0.09448112 -0.029773396 0.17103238
-0.03457263 0.09654535 -0.19013856 0.15371057 -0.3771704 0.010807818 0.08833762 0.033106152
-0.15691946 -0.101366624 0.070352994 -0.10285695 -0.08148595 0.0001534105 -0.43881977 0.08486423
0.054703254 0.05824362 0.1037976 -0.017835354 0.111838646 -0.048566554 -0.18172495 -0.10865255
0.14329332 0.051102087 -0.056013193 -0.14675358 -0.15137254 0.032092582 -0.0950588 -0.06176156
0.046571117 -0.04682374 0.17258315 0.15942943 -0.06369615 0.22947867 -0.044289216 -0.120790705
-0.10579268 -0.058777303 -0.09479398 -0.005059906 -0.049353957 0.13850248 -0.06665825 0.13781166
-0.15881278 0.12376818 0.20685959 0.05052986 -0.05903542 0.0092237415 0.053320877 0.11941037
00000000: a443 953d 76af 90bd 00b0 433a aa4a 093e
00000010: 96ed f8bd 74f6 063d 03da 1a3e d77d 3d3e
00000020: c39e 86be b3b5 26be 91c0 543e c874 66be
00000030: c0c2 48bb d6c3 b4bd bec8 803d 1b26 9dbc
00000040: d488 c53d 7f79 01bd 64f8 f13d 8dfe 7e3e
00000050: bf13 2d3e b880 13be 6596 9fbd 45ad 923e
00000060: fe32 4f3e 6fc8 de3c efd9 e7bd 4dc4 d33e
00000070: 1bec 00bd fa41 4dbd d9bd b73c ea80 9a3e
00000080: d88e 92bd 3b0e 333c f407 913c 3bca 4dbc
00000090: 757a 553e 07cc abbd 3c13 30bd fc58 60bd
000000a0: 8c71 b43c adf9 8a3d eb75 093e d94a a43c
000000b0: 517d 58bc 8ab7 b13d c1bc 0a3e 6d94 98bd
000000c0: c104 ecbc 75e9 43bd cd41 603d f54d a73d
000000d0: 75b5 743d c35d 323e f920 36bd 6958 2dbd
000000e0: 8580 dd3c 3fde 2c3e 4e23 4e3d dc35 3cbc
000000f0: ddf2 9ebd 5299 2ebd ff69 d7bd ade3 a53d
00000100: e37c bd3d 2055 29bd 4c54 ddbd a9c3 06bd
00000110: 734a 83bd 410a 383d 6baa ddbd 76bd f63d
00000120: 5074 46be 712f 8abd 5377 fa3d 87b4 1fbe
00000130: c53c 603e 0283 5a3c da9b 953e 731c 583d
00000140: 61af 1b3e df65 bd3d 8b5d ba3d 142e c1bd
00000150: ff79 8abd 8734 013e e486 7fbe c8d0 e9bc
00000160: 74fc d0bd 00fd 8abd 79f2 223e cc7d 49bd
00000170: bb7e c6bb 7ec0 ce3c 250f 0a3e 2a86 8bbe
00000180: c498 fabd 9a27 59be ed5b 603d 032c f0bd
00000190: b731 91bd 9027 a2bc 6bdf 57be 61a4 07be
000001a0: 5728 24bd bb39 c53c a29b fdbd 3e3a 89bd
000001b0: fa83 e33c ca17 49bd fea4 b3be bee6 713d
000001c0: 3916 063c 6877 053d 1781 e73c 8be8 123e
000001d0: 4203 ff3b 1287 72bd 5894 28be 468f 703d
000001e0: 2464 8a3d 8722 203e 9cd7 9abd 42fb 9e3d
000001f0: f2dd 5c3e 58ed 50bc fa2f adbd 6bac dbbd
00000200: d967 35be 6cf2 e9bd 0054 ef3a fd54 14be
00000210: dee5 3b3e d663 bd3d db39 2dbd a27f 3a3e
00000220: 3c81 c83d d47a 043e 0729 873e 5eb3 04be
00000230: 7c42 86be c095 0bbb fe9f 05be ded3 023e
00000240: dff4 04bd a6e4 a33c 5255 9c3d 6980 533e
00000250: 31cd 07be 1453 113e 7f3d cabd 6d1d a13e
00000260: c761 aabc 6120 1c3e 6934 153d 0505 843e
00000270: 65af e83d e363 f23d 201b 2a39 6c70 c53d
00000280: decb 0b3d 06f8 acbc cc9e 743d 6756 763d
00000290: 96f7 92bd 4b43 c53c f9e1 3abd d3e7 9abd
000002a0: dfa7 aebd 5c7d bbbd 9a03 60be 94b5 ce3d
000002b0: d266 a83e d15f f4bd 0410 0d3e cf1d 853d
000002c0: bf72 913e fc67 d93e 0965 e73d 7dc2 8ebd
000002d0: 3176 143e 066c dd3d b1e1 9e3e 6ed2 00be
000002e0: 630e 41be 235f 92bc dc17 8c3d 28d9 4c3e
000002f0: 566c 1f3e ad8b e5bd 449b 543e 78c6 ec3d
00000300: 4d97 a73d ae21 fbbb 9d20 3ebc 60ba bcbb
00000310: f520 55bd 517f c13d 56e7 f3bc 1d23 2f3e
00000320: 089c 0dbd 92b9 c53d afb3 42be 4e66 1d3e
00000330: 7b1c c1be 4613 313c 5bea b43d 519a 073d
00000340: 7faf 20be 4e99 cfbd 3b15 903d aaa6 d2bd
00000350: 1be2 a6bd d1dc 2039 fcac e0be 4ccd ad3d
00000360: 8510 603d dd90 6e3d d693 d43d 731b 92bc
00000370: a90b e53d b9ed 46bd 1b16 3abe 3a85 debd
00000380: 7cbb 123e 6c50 513d 176e 65bd 9246 16be
00000390: 6701 1bbe 8373 033d 30ae c2bd b1f9 7cbd
000003a0: 5bc1 3e3d 40ca 3fbd a3b9 303e 7841 233e
000003b0: 2173 82bd 75fc 6a3e 9c68 35bd 1e61 f7bd
000003c0: d5a9 d8bd 78c0 70bd 5923 c2bd 91cd a5bb
000003d0: 6027 4abd 98d3 0d3e 1f84 88bd 801e 0d3e
000003e0: d19f 22be 2c7a fd3d 00d3 533e 66f8 4e3d
000003f0: 20cf 71bd 2d1f 173c fe66 5a3d 6d8d f43d

actor.fc_mu.weight f4 [2, 65]
-0.035598412 -0.0007737501 -0.21216969 -0.028411882 -0.03473901 -0.02160536 -0.060898233 -0.08664011
0.0014021244 -0.0008064588 -0.0049211984 0.056903057 -0.006989923 -0.0007169417 0.06818928 -0.053856067
-0.13515681 -0.010977162 0.08731278 0.00021883745 -0.038738806 -0.0913261 0.023794677 -0.004425
-0.0012472878 0.013373456 0.02384247 -0.04380895 0.0045070276 -0.043308713 -0.043208573 -0.04189912
0.08514823 0.006271568 -0.0011901257 0.10434686 0.0035460514 -0.011906021 0.035601478 0.0011070702
0.005014179 0.0011876139 -0.12904823 0.0011589108 -0.0020376462 -0.04449905 -0.0017228347 -0.029644271
-0.032373156 -0.012037974 0.02449546 -0.015352305 0.0054661497 -0.06511376 -0.02321697 -0.005720187
-0.0065443143 -0.02873469 0.03855475 -0.053741068 0.030679991 0.0043531507 0.0038154137 -0.0007252584
-0.07994559 -0.085023746 -0.00025797766 -0.14406471 -0.022631545 -0.05723423 0.071171135 -0.08884787
-0.10766695 -0.0014021001 0.0022428895 0.002762149 -0.018828135 -0.033704784 0.010454901 -0.028723577
-0.09661642 -0.12203957 0.0023635672 -0.00735362 0.0013083849 -0.08462129 -0.09113481 -0.0021575692
-0.0018452184 -0.011260832 -0.013032598 -0.036521148 -0.07390866 -0.023731263 -0.066074006 -0.08412961
-0.09358227 -0.020118643 -0.018861655 -0.00196049 0.029998545 -0.00026170784 0.0078746015 -0.02695177
0.00075816346 0.0028977662 0.0010673944 -0.11843733 0.00021518258 -0.00021382322 -0.06713906 -0.0010289648
-0.061498478 -0.06564154 -0.041548632 -0.006171773 -0.033112366 -0.013090557 -0.11312194 -0.052070197
-0.007387572 -0.035909496 -0.06085287 -0.013498698 -0.07752388 -0.015809236 0.01818226 -0.00017202744
-0.0016790064 -0.19837555
00000000: a4cf 11bd 7dd5 4aba 0343 59be 09c0 e8bc
00000010: 7e4a 0ebd b9fd b0bc 6d70 79bd 5f70 b1bd
00000020: 7dc7 b73a 8968 53ba 0142 a1bb 2e13 693d
00000030: b90b e5bb 25f1 3bba d2a6 8b3d 2e98 5cbd
00000040: 8c66 0abe 8ed9 33bc 0bd1 b23d bb77 6539
00000050: 95ac 1ebd 2e09 bbbd 0eed c23c 97ff 90bb
00000060: 097c a3ba 571c 5b3c 4951 c33c 0371 33bd
00000070: b0af 933b 7a64 31bd 79fb 30bd 699e 2bbd
00000080: 3262 ae3d ba81 cd3b fefd 9bba ceb3 d53d
00000090: df64 683b 7911 43bc dbd2 113d 1d1b 913a
000000a0: fb4d a43b b6a9 9b3a 3825 04be 98e6 973a
000000b0: 088a 05bb a344 36bd bdd0 e1ba 8bd8 f2bc
000000c0: b799 04bd ec3a 45bc b4aa c83c 3c88 7bbc
000000d0: 631d b33b 5d5a 85bd 8431 bebc 6870 bbbb
000000e0: b071 d6bb 0365 ebbc 96eb 1d3d 981f 5cbd
000000f0: 9b54 fb3c e0a4 8e3b 050c 7a3b 441f 3eba
00000100: 83ba a3bd ee20 aebd 2d41 87b9 b385 13be
00000110: ca65 b9bc 716e 6abd 2cc2 913d dff5 b5bd
00000120: 7d80 dcbd acc6 b7ba 71fd 123b 2c05 353b
00000130: 763d 9abc 070e 0abd 084b 2b3c b54d ebbc
00000140: d4de c5bd e2ef f9bd 14e6 1a3b a3f6 f0bb
00000150: 1d7e ab3a ed4d adbd e3a4 babd 0166 0dbb
00000160: 41db f1ba 5a7f 38bc ae86 55bc 3397 15bd
00000170: 6c5d 97bd 1168 c2bc cf51 87bd 254c acbd
00000180: 10a8 bfbd dacf a4bc c283 9abc 907b 00bb
00000190: 82bf f53c d535 89b9 7904 013c f5c9 dcbc
000001a0: 7dbf 463a 73e8 3d3b d0e7 8b3a 458f f2bd
000001b0: a2a2 6139 bc35 60b9 3480 89bd 54de 86ba
000001c0: d4e5 7bbd 126f 86bd e62e 2abd 963c cabb
000001d0: d5a0 07bd c779 56bc 7aac e7bd 8f47 55bd
000001e0: 7213 f2bb d615 13bd dc40 79bd a529 5dbc
000001f0: d7c4 9ebd 5f82 81bc f7f2 943c 4462 34b9
00000200: 1b12 dcba f622 4bbe

actor.fc_mu.bias f4 [2]
-0.09530315 -0.21490076
00000000: 4c2e c3bd f20e 5cbe

critic.conv1.bias f4 [64]
0.12915364 0.12880546 0.11628169 -0.02131897 -0.08540984 0.009998289 -0.096806146 0.047303554
-0.012308852 0.0 0.074707575 0.0 -0.08144955 0.0 0.11652406 0.0
-0.015452866 0.0 0.0 0.0 0.09767616 0.0 -0.04167158 0.0
0.09150784 0.13181984 -0.010345274 0.0 -0.0059039653 -0.0171471 0.0 0.10602703
-0.002030354 0.12761135 0.11519976 0.0 -0.11584912 0.0 -0.07813526 0.034512796
-0.061399586 0.069912374 0.1139981 0.14334065 0.0 0.09605235 -0.04362135 -0.01801302
-0.06087727 0.12700844 0.122151226 0.0 0.028806217 -0.027256211 0.116273165 0.0030299195
0.107495025 0.0 -0.016141137 0.107907474 -0.10675274 0.12832743 0.12696023 0.05631574
00000000: da40 043e 94e5 033e 1825 ee3d 1fa5 aebc
00000010: 5beb aebd ddcf 233c 4d42 c6bd 5fc1 413d
00000020: 11ab 49bc 0000 0000 4900 993d 0000 0000
00000030: 06cf a6bd 0000 0000 2ba4 ee3d 0000 0000
00000040: 052e 7dbc 0000 0000 0000 0000 0000 0000
00000050: 700a c83d 0000 0000 d2af 2abd 0000 0000
00000060: 7668 bb3d c8fb 063e 397f 29bc 0000 0000
00000070: 0d76 c1bb 1378 8cbc 0000 0000 b324 d93d
00000080: b00f 05bb 8dac 023e daed eb3d 0000 0000
00000090: 4e42 edbd 0000 0000 6105 a0bd 4a5d 0d3d
000000a0: 227e 7bbd 382e 8f3d d677 e93d e4c7 123e
000000b0: 0000 0000 18b7 c43d 4dac 32bd 0a90 93bc
000000c0: 725a 79bd 800e 023e 6c2a fa3d 0000 0000
000000d0: 04fb eb3c 6b48 dfbc a020 ee3d 9d91 463b
000000e0: 5a26 dc3d 0000 0000 6b3a 84bc 98fe dc3d
000000f0: 2ea1 dabd 4468 033e dd01 023e 55ab 663d

critic.conv1.lin.weight f4 [64, 2]
0.20544983 -0.027929137 0.2944673 0.022737725 0.12246668 0.101162605 0.20651358 -0.14514981
0.17078498 0.15790309 -0.17324843 0.02624295 0.18027505 0.19669625 0.0010427196 0.11683888
0.012050035 -0.050383378 -0.3876743 -0.12222564 0.12016108 -0.063743934 -0.06091002 -0.09247179
0.28082556 0.056804325 -0.17384334 -0.061657175 0.13608354 0.002426018 -0.021925231 -0.0767936
0.20517725 -0.16364977 -0.07969649 -0.24220991 -0.0011587017 -0.17531984 -0.044011228 -0.047921475
0.33606035 -0.074062906 -0.1634296 -0.0059137633 0.23269501 -0.55923945 -0.036957312 -0.04352915
0.06965866 0.018289015 0.09961785 0.1787141 0.00979079 -0.14110412 -0.08562953 -0.022097712
-0.06439093 -0.0034226896 0.078193985 -0.06943697 -0.12531729 -0.37982064 0.23399602 -0.042025793
0.21446718 -0.1869895 0.13861312 0.13684288 0.046613503 0.18636109 -0.040131055 -0.112031564
0.65825444 0.4183577 -0.24417919 -0.15167734 0.2122452 0.0928701 0.02984426 0.069078684
0.060827557 -0.22749688 0.1244152 -0.23916577 0.033526342 0.16429803 0.18206596 -0.047324464
-0.19506523 -0.15738845 0.12889625 0.066477686 -0.040765315 0.17999387 -1.0961508 0.14056532
0.2940331 -0.07522768 0.01631718 0.10296476 0.15356721 -0.0636886 -0.037997816 -0.15101798
-0.0493306 0.07086597 -0.002972977 0.026982546 0.1559462 0.037354667 0.018583221 -0.033226736
0.2524044 0.0551731 -0.047722366 -0.03167794 -0.0069153723 0.18693829 0.042003542 0.1633991
0.39445207 0.33564702 0.4187515 0.12813696 0.2929038 -0.043798693 0.31008685 -0.038063243
00000000: 7161 523e a5cb e4bc 6bc4 963e 7744 ba3c
00000010: d0cf fa3d 572e cf3d 4c78 533e 27a2 14be
00000020: 42e2 2e3e 59b1 213e 0968 31be 75fb d63c
00000030: 069a 383e be6a 493e ddab 883a 3949 ef3d
00000040: 836d 453c cd5e 4ebd 3f7d c6be 7051 fabd
00000050: 0317 f63d 2e8c 82bd c97c 79bd da61 bdbd
00000060: 5ec8 8f3e a7ab 683d fd03 32be 3c8c 7cbd
00000070: 7c59 0b3e d4fd 1e3b 8b9c b3bc f745 9dbd
00000080: fc19 523e ce93 27be ea37 a3bd e005 78be
00000090: 94df 97ba 0b87 33be 1e45 34bd 4f49 44bd
000000a0: 1a10 ac3e 4bae 97bd 175a 27be 3ec8 c1bb
000000b0: 9a47 6e3e 512a 0fbf 8d60 17bd 9f4b 32bd
000000c0: 33a9 8e3d d8d2 953c 7104 cc3d d400 373e
000000d0: 8d69 203c 997d 10be 895e afbd 4306 b5bc
000000e0: 64df 83bd 344f 60bb 2b24 a03d f834 8ebd
000000f0: 2d53 00be da77 c2be a79c 6f3e 3d23 2cbd
00000100: 499d 5b3e 2d7a 3fbe 99f0 0d3e 8a20 0c3e
00000110: cded 3e3d 71d5 3e3e 7660 24bd ce70 e5bd
00000120: 5d83 283f fb32 d63e 1c0a 7abe 4e51 1bbe
00000130: ce56 593e ae32 be3d f37b f43c 2079 8d3d
00000140: 5126 793d f1f4 68be 65cd fe3d dfe7 74be
00000150: eb52 093d be3d 283e 806f 3a3e 4cd7 41bd
00000160: 2ebf 47be 702a 21be 61fd 033e 7425 883d
00000170: 88f9 26bd 5050 383e ab4e 8cbf 5bf0 0f3e
00000180: 828b 963e f810 9abd 9bab 853c 30df d23d
00000190: b940 1d3e 2b6f 82bd 99a3 1bbd 75a4 1abe
000001a0: e20e 4abd 2d22 913d 47d6 42bb 800a dd3c
000001b0: 5cb0 1f3e 3501 193d d73b 983c c218 08bd
000001c0: 263b 813e 30fd 613d 8778 43bd bac0 01bd
000001d0: 599a e2bb c06c 3f3e e80b 2c3d 1852 273e
000001e0: 9ff5 c93e edd9 ab3e 9966 d63e 5636 033e
000001f0: 7df7 953e 4266 33bd b4c3 9e3e 34e8 1bbd

critic.conv2.bias f4 [64]
-0.013756553 -0.011739329 0.0 -0.014840774 0.20934504 -0.023270056 -0.031896394 0.19793014
0.0 -0.008943969 -0.009797919 0.0 0.21497561 0.20798397 -0.0055271247 0.05389507
-0.025671944 0.17468984 -0.08286526 0.20450021 -0.005335634 0.15353328 0.19929352 0.1430887
-0.1271059 0.1939727 0.17241748 0.0 0.19315268 0.20959307 -0.024651017 0.22185916
-0.09400372 -0.20287602 0.20581494 0.18246646 -0.007486046 -0.02826813 0.0 0.0
0.0 -0.115367316 0.1955373 0.18682303 0.2000834 -0.020240577 0.19119497 -0.011561315
0.13351806 -0.031796984 -0.029012458 0.12425997 0.19514251 0.16677944 0.18857476 0.0
-0.018173369 0.19116749 0.0 0.22965625 -0.021256879 0.19031692 0.19321464 0.16634862
00000000: 2a63 61bc 5156 40bc 0000 0000 b826 73bc
00000010: 8c5e 563e d8a0 bebc cba5 02bd 33ae 4a3e
00000020: 0000 0000 ba89 12bc 7387 20bc 0000 0000
00000030: 9122 5c3e c0f9 543e e21c b5bb 14c1 5c3d
00000040: f84d d2bc e5e1 323e 43b5 a9bd 8168 513e
00000050: 8bd6 aebb d437 1d3e 9a13 4c3e d885 123e
00000060: 0d28 02be c8a0 463e 358e 303e 0000 0000
00000070: d1c9 453e 919f 563e eef0 c9bc 0c2f 633e
00000080: 0685 c0bd bbbe 4fbe 27c1 523e 7dd8 3a3e
00000090: 814d f5bb 9192 e7bc 0000 0000 0000 0000
000000a0: 0000 0000 b345 ecbd ee3a 483e 894e 3f3e
000000b0: aae2 4c3e 91cf a5bc 9dc8 433e ab6b 3dbc
000000c0: f5b8 083e 8e3d 02bd 89ab edbc 037c fe3d
000000d0: 70d3 473e 3bc8 2a3e be19 413e 0000 0000
000000e0: 51e0 94bc 69c1 433e 0000 0000 022b 6b3e
000000f0: e822 aebc 70e2 423e 0fda 453e 4b57 2a3e

critic.conv2.lin.weight f4 [64, 64]
-0.08442282 0.10380207 0.111139566 0.24106508 0.050909996 -0.033066794 -0.1446036 -0.19659251
0.16499843 0.012675829 0.11582702 0.12378534 0.14841759 0.20056441 -0.13293976 0.012287077
-0.15474059 -0.01956636 0.045402013 0.08212297 -0.03108297 0.42620295 -0.129734 -0.028938262
-0.12171651 -0.06596235 -0.0292995 0.009460567 -0.009379223 -0.25356138 -0.032964658 0.051453218
-0.19825017 -0.037635222 -0.016141972 -0.053087104 0.08561832 -0.012392768 0.08889652 -0.1839466
0.15369038 0.042627733 -0.15390141 -0.05726277 -0.022079714 -0.162945 -0.108934715 0.033312067
0.046798866 -0.2434099 -0.0057106344 -0.13660868 -0.17988354 0.03001837 -0.07709296 -0.02175761
0.054196168 0.14850083 -0.03492274 0.11270308 -0.11567105 0.13200414 0.043612313 -0.17071937
-0.062382326 -0.19290441 0.08594829 -0.016490364 -0.08121598 -0.014561644 -0.13088694 -0.14670107
-0.1275857 0.17523651 0.10444262 -0.017962977 -0.010069443 0.07033341 -0.09778514 0.05710931
0.1713347 0.014551447 -0.12253837 -0.007728999 0.0731606 0.07023469 0.08970648 0.011161468
-0.06860629 -0.094026014 -0.07050177 0.28118104 -0.108495384 -0.2659634 -0.193784 -0.06581871
-0.05001776 -0.14001459 0.032469623 0.27622905 -0.072591476 -0.08305125 0.077831805 0.1166911
-0.026995737 -0.12713511 0.010583988 0.0852288 -0.035518367 0.054391813 -0.029059976 0.0044078864
0.11650612 0.23297657 -0.04576723 0.09662602 0.0779204 -0.019257432 -0.13345513 0.054128528
-0.294791 0.34524113 0.076060966 -0.09254446 -0.045956086 0.1253323 -0.15131432 0.20077536
-0.03499005 -0.047213927 0.08330846 0.05678324 0.11058842 0.13289142 -0.33009145 0.11586211
-0.04737702 0.109968975 -0.28430212 0.15750839 0.020850498 0.05508748 -0.01863107 -0.29258686
-0.19801493 0.13384122 -0.13150883 -0.12048934 -0.08274388 0.055253953 0.042647198 0.057590544
-0.09697127 -0.048228897 0.15740238 0.0046611624 0.13172323 0.1700393 0.04074328 0.09452576
0.22024155 -0.09624115 -0.037099123 0.16785295 0.1532906 0.05696801 0.27761257 -0.08826561
-0.05758691 -0.054703612 0.04465364 -0.15113063 0.055904012 0.04226029 0.110886306 -0.039120745
-0.062438063 0.17075679 -0.121731244 -0.115743525 -0.14959696 0.023047185 0.021491522 -0.10066897
-0.14522125 0.030226655 -0.05562116 -0.18274455 -0.095352866 -0.06811873 0.085429884 -0.06518274
0.034796935 -0.0015334309 0.06921347 0.08473896 -0.018908845 -0.07721126 -0.01073725 0.012813682
-0.11314964 -0.02738242 0.07640581 -0.037172716 -0.053669337 0.07016136 -0.14973222 0.04051829
-0.21953645 0.1333227 -0.21342047 -0.07730396 -0.013190456 0.1259265 0.22460854 -0.08971241
-0.12730213 0.14202704 -0.10286954 -0.16065237 -0.2847894 0.20886065 -0.0042134523 -0.16873132
0.15161961 -0.09681383 0.0047185677 0.026691653 -0.27537128 0.07109224 -0.12285239 -0.06299424
0.07173378 -0.016152395 0.1596731 0.19090892 -0.11044567 0.022114446 0.002234286 0.021249142
0.09076559 -0.21711877 0.07664015 -0.0471248 -0.22842681 0.011347654 -0.04363242 -0.0322823
0.13553539 0.03665226 0.11576303 -0.34197947 0.040140726 -0.037709966 -0.13057463 0.021434734
00000000: dfe5 acbd 2e96 d43d 249d e33d c4d9 763e
00000010: 0087 503d 0c71 07bd f712 14be 8c4f 49be
00000020: 59f5 283e 48ae 4f3c b736 ed3d 2b83 fd3d
00000030: c8fa 173e c260 4d3e 5c21 08be bc4f 493c
00000040: 5174 1ebe a249 a0bc 76f7 393d 1630 a83d
00000050: b6a1 febc 4637 da3e fdd8 04be ef0f edbc
00000060: 8146 f9bd 4517 87bd 8105 f0bc 7e00 1b3c
00000070: 50ab 19bc ccd2 81be f305 07bd 9cc0 523d
00000080: 1802 4bbe 6427 1abd 2b3c 84bc dd71 59bd
00000090: a858 af3d 090b 4bbc 610f b63d 7f5c 3cbe
000000a0: 0361 1d3e 6b9a 2e3d 5598 1dbe 5e8c 6abd
000000b0: 84e0 b4bc 0edb 26be 2a19 dfbd 3c72 083d
000000c0: 2bb0 3f3d 7240 79be 4620 bbbb 25e3 0bbe
000000d0: 6433 38be 16e9 f53c eae2 9dbd 043d b2bc
000000e0: cdfc 5d3d 9a10 183e 260b 0fbd dfd0 e63d
000000f0: f2e4 ecbd 182c 073e d3a2 323d 0fd1 2ebe
00000100: 9c84 7fbd bc88 45be a805 b03d cd16 87bc
00000110: 9054 a6bd f693 6ebc 3a07 06be ce38 16be
00000120: d3a5 02be 3371 333e 03e6 d53d 1827 93bc
00000130: 4efa 24bc f60a 903d 9343 c8bd 74eb 693d
00000140: 5d72 2f3e 3169 6e3c 66f5 fabd 8b43 fdbb
00000150: 3ad5 953d 35d7 8f3d 08b8 b73d 97de 363c
00000160: 7481 8cbd b690 c0bd 3b63 90bd f6f6 8f3e
00000170: d432 debd 5b2c 88be 506f 46be f6cb 86bd
00000180: 6cdf 4cbd fc5f 0fbe defe 043d e56d 8d3e
00000190: d7aa 94bd c616 aabd 4866 9f3d befb ee3d
000001a0: 2a26 ddbc b52f 02be 7768 2d3c 708c ae3d
000001b0: b57b 11bd f3c9 5e3d 300f eebc 0870 903b
000001c0: c39a ee3d 6991 6e3e 6b76 3bbd dde3 c53d
000001d0: bb94 9f3d c3c1 9dbc 76a8 08be e0b5 5d3d
000001e0: d9ee 96be 72c3 b03e dac5 9b3d f387 bdbd
000001f0: 733c 3cbd 1c57 003e 24f2 1abe 0e98 4d3e
00000200: ba51 0fbd 6463 41bd a09d aa3d 8b95 683d
00000210: 2e7c e23d b014 083e bf01 a9be 1d49 ed3d
00000220: 680e 42bd 6a37 e13d 0c90 91be e149 213e
00000230: aace aa3c 69a3 613d 30a0 98bc f2cd 95be
00000240: 6dc4 4abe ac0d 093e 40aa 06be 1dc3 f6bd
00000250: a075 a9bd f851 623d d4ae 2e3d 10e4 6b3d
00000260: e098 c6bd aa8b 45bd 172e 213e aabc 983b
00000270: 74e2 063e c81e 2e3e 6de2 263d b996 c13d
00000280: 0087 613e 141a c5bd 40f5 17bd a5e1 2b3e
00000290: 36f8 1c3e 4a57 693d 3c23 8e3e 9ac4 b4bd
000002a0: 40e0 6bbd e510 60bd bce6 363d fdc1 1abe
000002b0: 9bfb 643d 2019 2d3d 5c18 e33d 133d 20bd
000002c0: 0ebf 7fbd deda 2e3e 3b4e f9bd f10a edbd
000002d0: f22f 19be 73cd bc3c fd0e b03c 882b cebd
000002e0: e1b4 14be e49d f73c 03d3 63bd 6321 3bbe
000002f0: 5d48 c3bd d581 8bbd ddf5 ae3d 877e 85bd
00000300: 3b87 0e3d 67fd c8ba cbbf 8d3d 9f8b ad3d
00000310: b9e6 9abc f020 9ebd 4aeb 2fbc 7af0 513c
00000320: 00bb e7bd 1951 e0bc a67a 9c3d 6b42 18bd
00000330: 61d4 5bbd c2b0 8f3d 6753 19be 82f6 253d
00000340: 2ace 60be bf85 083e e58a 5abe 8a51 9ebd
00000350: c81c 58bc e0f2 003e c8ff 653e 24bb b7bd
00000360: 7d5b 02be 896f 113e 44ad d2bd 0e82 24be
00000370: ebcf 91be 91df 553e 0011 8abb e7c7 2cbe
00000380: 2c42 1b3e 5446 c6bd 379e 9a3b 74a8 da3c
00000390: 77fd 8cbe cf98 913d 099a fbbd 2003 81bd
000003a0: 29e9 923d 0752 84bc 5881 233e a17d 433e
000003b0: 5731 e2bd 5b29 b53c 196d 123b ae12 ae3c
000003c0: 4fe3 b93d 6254 5ebe 83f5 9c3d ef05 41bd
000003d0: b8e8 69be 83eb 393c e9b7 32bd 723a 04bd
000003e0: cac9 0a3e ae20 163d 2b15 ed3d ef17 afbe
000003f0: 9a6a 243d c475 1abd 5bb5 05be e597 af3c

critic.fc.weight f4 [1, 65]
-0.0804621 -0.1153586 -0.2710122 -0.06408733 0.35724694 -0.037599903 -0.38870507 0.2789754
0.07334067 -0.008110368 -0.1263806 -0.40702987 0.32449728 0.44162375 -0.13919055 0.008209866
-0.19298331 0.15016046 0.24268204 0.36477712 -0.2645294 0.12102461 0.29990658 0.09406704
-0.07459472 0.20706905 0.09556239 -0.2996107 0.24983382 0.31973526 -0.20686547 0.42622474
0.22800884 -0.041914824 0.35610574 0.17282443 -0.0106874155 -0.047834493 -0.17463192 -0.24001531
-0.06771631 -0.0364126 0.19365996 0.15987474 0.30348378 -0.10098149 0.185749 -0.14830083
0.08877621 -0.04704025 -0.011568884 0.07310072 0.22958864 0.09860058 0.1783489 0.07316923
-0.013080592 0.16587877 -0.09223274 0.3858927 -0.1601186 0.22429174 0.17499493 0.11582563
-3.730475
00000000: 50c9 a4bd 2141 ecbd 1cc2 8abe 3840 83bd
00000010: 12e9 b63e 5b02 1abd 5a04 c7be ddd5 8e3e
00000020: a233 963d 59e1 04bc ea69 01be 3866 d0be
00000030: 8224 a63e 821c e23e f887 0ebe ac82 063c
00000040: 6b9d 45be aac3 193e a481 783e 11c4 ba3e
00000050: 6670 87be c0db f73d 5b8d 993e 38a6 c03d
00000060: 1ec5 98bd e909 543e 37b6 c33d 9366 99be
00000070: 70d4 7f3e 57b4 a33e 8bd4 53be 213a da3e
00000080: 267b 693e e1ae 2bbd 7e53 b63e e3f8 303e
00000090: 451a 2fbc 1aee 43bd b6d2 32be 93c6 75be
000000a0: d9ae 8abd 6125 15bd cc4e 463e 34b6 233e
000000b0: 3a62 9b3e 62cf cebd fc34 3e3e 2cdc 17be
000000c0: 4dd0 b53d 47ad 40bd 6b8b 3dbc d5b5 953d
000000d0: 4919 6b3e 1aef c93d 18a1 363e c0d9 953d
000000e0: fb4f 56bc 20dc 293e 85e4 bcbd ba93 c53e
000000f0: 21f6 23be bcac 653e df31 333e fd35 ed3d
00000100: 1ac0 6ec0

_actor_critic.actor.sigma_param f4 [2, 1]
-0.26255503 -3.4168637
00000000: 9d6d 86be e5ad 5ac0

_actor_critic.actor.conv1.bias f4 [64]
-0.045919903 0.0 0.0 0.026677325 0.08666364 0.04270035 0.0 0.0
0.0 -0.081651114 0.0 0.0 0.0 -0.04076882 0.0 -0.005100054
-0.057091042 0.0 0.08692228 0.08291058 -0.018544486 0.07209605 -0.043679927 0.13775767
0.0 -0.0075728223 0.028639194 0.0832594 -0.024401678 0.040660314 -0.05212264 0.09537715
0.021382784 0.07472779 0.08536577 0.0 0.05657558 -0.04129249 -0.060879577 -0.058768097
0.06898066 0.092370905 -0.009653899 0.07929466 0.11799813 -0.0020393 -0.029620722 -0.09710829
0.077345334 0.092737414 -0.030455219 -6.505003e-05 0.0 -0.011852884 0.10074534 0.0
-0.05862376 -0.05570365 0.072091386 0.090302825 0.0 -0.054546867 0.077995114 0.07153953
00000000: 8216 3cbd 0000 0000 0000 0000 688a da3c
00000010: b57c b13d 90e6 2e3d 0000 0000 0000 0000
00000020: 0000 0000 b338 a7bd 0000 0000 0000 0000
00000030: 0000 0000 35fd 26bd 0000 0000 5b1e a7bb
00000040: 4cd8 69bd 0000 0000 4f04 b23d 06cd a93d
00000050: 9bea 97bc 18a7 933d b9e9 32bd 5910 0d3e
00000060: 0000 0000 7025 f8bb be9c ea3c e883 aa3d
00000070: 07e6 c7bc 6e8b 263d 8d7e 55bd 1855 c33d
00000080: f32a af3c e20a 993d 40d4 ae3d 0000 0000
00000090: ccbb 673d 5022 29bd dd5c 79bd d1b6 70bd
000000a0: bb45 8d3d f52c bd3d 632b 1ebc 3d65 a23d
000000b0: 01a9 f13d c7a5 05bb 28a7 f2bc b6e0 c6bd
000000c0: 3b67 9e3d 1ded bd3d 397d f9bc 786b 88b8
000000d0: 0000 0000 9932 42bc 9353 ce3d 0000 0000
000000e0: 781f 70bd 8329 64bd a6a4 933d b0f0 b83d
000000f0: 0000 0000 896c 5fbd e7bb 9f3d 5183 923d

_actor_critic.actor.conv1.lin.weight f4 [64, 2]
0.19346145 0.049104225 -0.029442301 -0.07451431 -0.080061145 -0.0023510426 0.109096795 -0.042455792
-0.11284731 0.17841597 0.0021339261 0.042459544 -0.12104358 -0.09379081 -0.083009 -0.015429311
-0.0053618317 -0.04582472 0.10650567 -0.24842806 -0.16758989 -0.16753083 -0.019376714 -0.04568058
-0.14084327 -0.061055623 0.31147036 -0.023716696 -0.05294195 -0.024474375 -0.004575816 -0.17654158
-0.06442681 0.054456893 -0.1504207 -0.25273108 0.040216453 -0.09194447 0.18287036 -0.09713817
0.017962387 -0.21026713 -0.03605506 0.062297326 0.10241909 0.14031018 -0.26008978 0.16075252
-0.0022922927 -0.089876905 -3.149605e-05 -0.14818388 0.024135595 0.13756688 0.018942533 -0.07119793
0.02434146 -0.00043061253 0.16889344 -0.0809684 0.26085347 0.013947861 0.07509599 -0.14616674
0.14710666 0.17312413 0.066140786 -0.09110743 0.00023912702 0.03768192 -0.021439455 -0.0011751723
0.026696235 0.09253401 -0.14141946 0.027122172 0.06076119 -0.12504706 -0.21957637 0.057356838
-0.004478711 -0.08302364 0.017782276 -0.094921745 0.15261531 -0.1868175 0.06929367 -0.13045515
-0.19443986 0.09483913 -0.18494497 -0.003685821 -0.22963986 0.02716711 0.16981155 -0.13383974
0.09513376 0.21599667 -0.12315492 0.05639765 -0.082194604 0.026561797 -0.15203397 -0.028278576
-0.04427407 -0.08473599 -0.04131396 0.010941735 0.011632344 0.35916603 -0.15825224 -0.094150506
0.07912471 -0.015175156 0.052735563 -0.28934515 0.17680274 -0.11990682 -0.01802046 0.107473485
-0.010674495 -0.23949485 0.04938123 -0.10282002 0.0065659783 0.15583523 0.011941506 0.048818436
00000000: c21a 463e 8321 493d fb30 f1bc f59a 98bd
00000010: 19f7 a3bd f313 1abb 246e df3d 20e6 2dbd
00000020: 7e1c e7bd adb2 363e 57d9 0b3b 0fea 2d3d
00000030: b2e5 f7bd 6515 c0bd 9f00 aabd 39cb 7cbc
00000040: 4eb2 afbb b4b2 3bbd a51f da3d ed63 7ebe
00000050: af9c 2bbe 348d 2bbe eabb 9ebc 8f1b 3bbd
00000060: 3839 10be 7615 7abd 0b79 9f3e 8449 c2bc
00000070: a8d9 58bd 7c7e c8bc baf0 95bb 51c7 34be
00000080: 34f2 83bd 310e 5f3d e207 1abe f865 81be
00000090: 02ba 243d 624d bcbd 5e42 3b3e 60f0 c6bd
000000a0: db25 933c 4450 57be 78ae 13bd 7b2b 7f3d
000000b0: 1ac1 d13d 79ad 0f3e 7d2a 85be 4f9c 243e
000000c0: 4a3a 16bb 6211 b8bd a01a 04b8 84bd 17be
000000d0: 03b8 c53c 55de 0c3e 5f2d 9b3c 38d0 91bd
000000e0: be67 c73c d6c3 e1b9 67f2 2c3e c3d2 a5bd
000000f0: 968e 853e 9285 643c edcb 993d bcac 15be
00000100: 21a3 163e 7447 313e d274 873d 8896 babd
00000110: 2cbe 7a39 5b58 1a3d cca1 afbc 3d08 9aba
00000120: 10b2 da3c 7982 bd3d 43d0 10be 512f de3c
00000130: bae0 783d 560c 00be a1d8 60be 01ef 6a3d
00000140: 27c2 92bb 4c08 aabd 23ac 913c 5566 c2bd
00000150: 3047 1c3e 164d 3fbe d7e9 8d3d 0996 05be
00000160: 3e1b 47be 053b c23d 3762 3dbe d18d 71bb
00000170: b626 6bbe 8f8d de3c 14e3 2d3e 490d 09be
00000180: 7dd5 c23d 3b2e 5d3e a638 fcbd 3901 673d
00000190: a555 a8bd 2098 d93c cbae 1bbe 79a8 e7bc
000001a0: ba58 35bd 108a adbd d438 29bd f644 333c
000001b0: 9695 3e3c 9ce4 b73e e00c 22be fbd1 c0bd
000001c0: 230c a23d 38a1 78bc 3f01 583d 0c25 94be
000001d0: c70b 353e b591 f5bd a59f 93bc 0f1b dc3d
000001e0: 14e4 2ebc 233e 75be f943 4a3d 4d93 d2bd
000001f0: 6b27 d73b 4593 1f3e 4ea6 433c d7f5 473d

_actor_critic.actor.conv2.bias f4 [64]
0.1216426 0.0 0.20890667 0.048371762 0.09037647 -0.013448726 0.12780467 0.1541323
-0.02255709 0.0 -0.0051683537 -0.017105633 0.037008315 -0.016089732 0.020969443 0.1349667
0.172867 -0.013174689 -0.00653697 0.0 0.12040164 0.1329177 0.0054568783 -0.018459098
-0.006778763 0.014138487 0.034709748 0.09686373 -0.01940069 0.100836836 0.11782839 0.13226205
0.0048645507 -0.032669935 0.0 -0.026422532 -0.0116135385 -0.015940402 -0.0012048756 -0.010441292
-0.021152545 0.0 0.17393208 0.0 0.0 0.091866836 0.0 0.08304848
0.086570464 0.057827543 -0.048146494 0.056828544 -0.02019083 0.15241447 0.06326259 0.028942341
0.051265184 0.09052102 0.0030258826 0.114434145 -0.014699925 -0.030558743 0.0 0.0
00000000: c11f f93d 0000 0000 a1eb 553e 7821 463d
00000010: 4c17 b93d 0c58 5cbc 3adf 023e dcd4 1d3e
00000020: a5c9 b8bc 0000 0000 4b5b a9bb 1d21 8cbc
00000030: 0896 173d 9dce 83bc 1cc8 ab3c b634 0a3e
00000040: 0c04 313e a7da 57bc 1434 d6bb 0000 0000
00000050: 2395 f63d 941b 083e 9dcf b23b 8937 97bc
00000060: 6320 debb 1da5 673c cf2b 0e3d 7e60 c63d
00000070: 32ee 9ebc 8b83 ce3d 0350 f13d b46f 073e
00000080: cf66 9f3b e9d0 05bd 0000 0000 1174 d8bc
00000090: b646 3ebc 7295 82bc ebec 9dba f411 2bbc
000000a0: 1a48 adbc 0000 0000 401b 323e 0000 0000
000000b0: 0000 0000 ae24 bc3d 0000 0000 5215 aa3d
000000c0: db4b b13d 93dc 6c3d 4235 45bd 0cc5 683d
000000d0: 3d67 a5bc 8a12 1c3e d18f 813d 7d18 ed3c
000000e0: 71fb 513d 1663 b93d e34d 463b 735c ea3d
000000f0: f4d7 70bc 5456 fabc 0000 0000 0000 0000

_actor_critic.actor.conv2.lin.weight f4 [64, 64]
0.07288292 -0.070647165 0.0007464886 0.13407388 -0.12154691 0.03294988 0.15122227 0.18505035
-0.26293 -0.1628025 0.20776583 -0.22505486 -0.0030633658 -0.08826415 0.062882885 -0.01918321
0.096452385 -0.03161001 0.11814955 0.24901791 0.16902064 -0.14404571 -0.07792357 0.2864782
0.20234296 0.027195184 -0.113208644 0.41360703 -0.031475168 -0.05011175 0.022429394 0.3017648
-0.071561515 0.010928686 0.017703988 -0.0125604225 0.20847495 -0.083885245 -0.042987093 -0.054772362
0.0220268 0.06785903 0.13423888 0.020055221 -0.0132134715 0.086775854 0.13548566 -0.07450185
-0.02881086 -0.047830064 0.054750253 0.08169166 0.059743363 0.1741858 -0.04446504 -0.042320643
0.027038822 0.16881655 0.050326638 -0.01148745 -0.07761166 -0.042626686 -0.10518264 0.08100066
0.09252336 -0.041340947 -0.10807094 -0.03290144 -0.064106844 0.044931654 -0.1082352 0.120478556
-0.19380307 -0.0674733 0.122297905 -0.1559621 0.21898182 0.013336899 0.29220468 0.052761506
0.1520362 0.09247946 0.09099873 -0.09432617 -0.0676155 0.12617694 -0.249538 -0.028541937
-0.102044016 -0.06786537 0.15912808 -0.049192235 -0.006057588 0.025238272 0.1348234 -0.27250797
-0.12236169 -0.21206513 0.054775167 -0.117271446 -0.070895605 -0.019794255 -0.21081321 -0.132463
-0.040077534 0.02407538 -0.123832 -0.06700562 0.027772892 -0.049094953 -0.35086817 0.059057944
0.008184009 0.032584578 0.028259797 0.1434652 0.007782371 -0.059210844 -0.16462839 0.058730386
0.067573816 0.15638171 -0.075606555 0.077627674 0.2156904 -0.0127519 -0.084564164 -0.107262455
-0.17715396 -0.114231914 0.0018259287 -0.14485545 0.18349406 0.09247558 -0.042291503 0.1821275
0.097902745 0.1293748 0.2639849 -0.12959048 -0.262226 -0.0021298975 -0.13049313 0.12776133
-0.03246009 0.020006489 0.07633461 0.20654453 -0.13261868 0.14191848 -0.09875011 0.31467763
-0.020798577 0.15246727 0.036426935 0.2578508 0.11361579 0.11835458 0.00016222568 0.096405834
0.03412997 -0.02111436 0.059721753 0.060140993 -0.071761295 0.02407994 -0.04562566 -0.07563748
-0.085281126 -0.0915477 -0.21876374 0.10093227 0.32890946 -0.11932338 0.1377564 0.06499826
0.28407857 0.42462146 0.11298568 -0.069706894 0.14498211 0.108116195 0.31031564 -0.12580273
-0.18853144 -0.01786763 0.06840488 0.20004714 0.1556867 -0.11208282 0.20762354 0.115612924
0.08183155 -0.007663927 -0.011604455 -0.0057595223 -0.052033383 0.09448112 -0.029773396 0.17103238
-0.03457263 0.09654535 -0.19013856 0.15371057 -0.3771704 0.010807818 0.08833762 0.033106152
-0.15691946 -0.101366624 0.070352994 -0.10285695 -0.08148595 0.0001534105 -0.43881977 0.08486423
0.054703254 0.05824362 0.1037976 -0.017835354 0.111838646 -0.048566554 -0.18172495 -0.10865255
0.14329332 0.051102087 -0.056013193 -0.14675358 -0.15137254 0.032092582 -0.0950588 -0.06176156
0.046571117 -0.04682374 0.17258315 0.15942943 -0.06369615 0.22947867 -0.044289216 -0.120790705
-0.10579268 -0.058777303 -0.09479398 -0.005059906 -0.049353957 0.13850248 -0.06665825 0.13781166
-0.15881278 0.12376818 0.20685959 0.05052986 -0.05903542 0.0092237415 0.053320877 0.11941037
00000000: a443 953d 76af 90bd 00b0 433a aa4a 093e
00000010: 96ed f8bd 74f6 063d 03da 1a3e d77d 3d3e
00000020: c39e 86be b3b5 26be 91c0 543e c874 66be
00000030: c0c2 48bb d6c3 b4bd bec8 803d 1b26 9dbc
00000040: d488 c53d 7f79 01bd 64f8 f13d 8dfe 7e3e
00000050: bf13 2d3e b880 13be 6596 9fbd 45ad 923e
00000060: fe32 4f3e 6fc8 de3c efd9 e7bd 4dc4 d33e
00000070: 1bec 00bd fa41 4dbd d9bd b73c ea80 9a3e
00000080: d88e 92bd 3b0e 333c f407 913c 3bca 4dbc
00000090: 757a 553e 07cc abbd 3c13 30bd fc58 60bd
000000a0: 8c71 b43c adf9 8a3d eb75 093e d94a a43c
000000b0: 517d 58bc 8ab7 b13d c1bc 0a3e 6d94 98bd
000000c0: c104 ecbc 75e9 43bd cd41 603d f54d a73d
000000d0: 75b5 743d c35d 323e f920 36bd 6958 2dbd
000000e0: 8580 dd3c 3fde 2c3e 4e23 4e3d dc35 3cbc
000000f0: ddf2 9ebd 5299 2ebd ff69 d7bd ade3 a53d
00000100: e37c bd3d 2055 29bd 4c54 ddbd a9c3 06bd
00000110: 734a 83bd 410a 383d 6baa ddbd 76bd f63d
00000120: 5074 46be 712f 8abd 5377 fa3d 87b4 1fbe
00000130: c53c 603e 0283 5a3c da9b 953e 731c 583d
00000140: 61af 1b3e df65 bd3d 8b5d ba3d 142e c1bd
00000150: ff79 8abd 8734 013e e486 7fbe c8d0 e9bc
00000160: 74fc d0bd 00fd 8abd 79f2 223e cc7d 49bd
00000170: bb7e c6bb 7ec0 ce3c 250f 0a3e 2a86 8bbe
00000180: c498 fabd 9a27 59be ed5b 603d 032c f0bd
00000190: b731 91bd 9027 a2bc 6bdf 57be 61a4 07be
000001a0: 5728 24bd bb39 c53c a29b fdbd 3e3a 89bd
000001b0: fa83 e33c ca17 49bd fea4 b3be bee6 713d
000001c0: 3916 063c 6877 053d 1781 e73c 8be8 123e
000001d0: 4203 ff3b 1287 72bd 5894 28be 468f 703d
000001e0: 2464 8a3d 8722 203e 9cd7 9abd 42fb 9e3d
000001f0: f2dd 5c3e 58ed 50bc fa2f adbd 6bac dbbd
00000200: d967 35be 6cf2 e9bd 0054 ef3a fd54 14be
00000210: dee5 3b3e d663 bd3d db39 2dbd a27f 3a3e
00000220: 3c81 c83d d47a 043e 0729 873e 5eb3 04be
00000230: 7c42 86be c095 0bbb fe9f 05be ded3 023e
00000240: dff4 04bd a6e4 a33c 5255 9c3d 6980 533e
00000250: 31cd 07be 1453 113e 7f3d cabd 6d1d a13e
00000260: c761 aabc 6120 1c3e 6934 153d 0505 843e
00000270: 65af e83d e363 f23d 201b 2a39 6c70 c53d
00000280: decb 0b3d 06f8 acbc cc9e 743d 6756 763d
00000290: 96f7 92bd 4b43 c53c f9e1 3abd d3e7 9abd
000002a0: dfa7 aebd 5c7d bbbd 9a03 60be 94b5 ce3d
000002b0: d266 a83e d15f f4bd 0410 0d3e cf1d 853d
000002c0: bf72 913e fc67 d93e 0965 e73d 7dc2 8ebd
000002d0: 3176 143e 066c dd3d b1e1 9e3e 6ed2 00be
000002e0: 630e 41be 235f 92bc dc17 8c3d 28d9 4c3e
000002f0: 566c 1f3e ad8b e5bd 449b 543e 78c6 ec3d
00000300: 4d97 a73d ae21 fbbb 9d20 3ebc 60ba bcbb
00000310: f520 55bd 517f c13d 56e7 f3bc 1d23 2f3e
00000320: 089c 0dbd 92b9 c53d afb3 42be 4e66 1d3e
00000330: 7b1c c1be 4613 313c 5bea b43d 519a 073d
00000340: 7faf 20be 4e99 cfbd 3b15 903d aaa6 d2bd
00000350: 1be2 a6bd d1dc 2039 fcac e0be 4ccd ad3d
00000360: 8510 603d dd90 6e3d d693 d43d 731b 92bc
00000370: a90b e53d b9ed 46bd 1b16 3abe 3a85 debd
00000380: 7cbb 123e 6c50 513d 176e 65bd 9246 16be
00000390: 6701 1bbe 8373 033d 30ae c2bd b1f9 7cbd
000003a0: 5bc1 3e3d 40ca 3fbd a3b9 303e 7841 233e
000003b0: 2173 82bd 75fc 6a3e 9c68 35bd 1e61 f7bd
000003c0: d5a9 d8bd 78c0 70bd 5923 c2bd 91cd a5bb
000003d0: 6027 4abd 98d3 0d3e 1f84 88bd 801e 0d3e
000003e0: d19f 22be 2c7a fd3d 00d3 533e 66f8 4e3d
000003f0: 20cf 71bd 2d1f 173c fe66 5a3d 6d8d f43d

_actor_critic.actor.fc_mu.weight f4 [2, 65]
-0.035598412 -0.0007737501 -0.21216969 -0.028411882 -0.03473901 -0.02160536 -0.060898233 -0.08664011
0.0014021244 -0.0008064588 -0.0049211984 0.056903057 -0.006989923 -0.0007169417 0.06818928 -0.053856067
-0.13515681 -0.010977162 0.08731278 0.00021883745 -0.038738806 -0.0913261 0.023794677 -0.004425
-0.0012472878 0.013373456 0.02384247 -0.04380895 0.0045070276 -0.043308713 -0.043208573 -0.04189912
0.08514823 0.006271568 -0.0011901257 0.10434686 0.0035460514 -0.011906021 0.035601478 0.0011070702
0.005014179 0.0011876139 -0.12904823 0.0011589108 -0.0020376462 -0.04449905 -0.0017228347 -0.029644271
-0.032373156 -0.012037974 0.02449546 -0.015352305 0.0054661497 -0.06511376 -0.02321697 -0.005720187
-0.0065443143 -0.02873469 0.03855475 -0.053741068 0.030679991 0.0043531507 0.0038154137 -0.0007252584
-0.07994559 -0.085023746 -0.00025797766 -0.14406471 -0.022631545 -0.05723423 0.071171135 -0.08884787
-0.10766695 -0.0014021001 0.0022428895 0.002762149 -0.018828135 -0.033704784 0.010454901 -0.028723577
-0.09661642 -0.12203957 0.0023635672 -0.00735362 0.0013083849 -0.08462129 -0.09113481 -0.0021575692
-0.0018452184 -0.011260832 -0.013032598 -0.036521148 -0.07390866 -0.023731263 -0.066074006 -0.08412961
-0.09358227 -0.020118643 -0.018861655 -0.00196049 0.029998545 -0.00026170784 0.0078746015 -0.02695177
0.00075816346 0.0028977662 0.0010673944 -0.11843733 0.00021518258 -0.00021382322 -0.06713906 -0.0010289648
-0.061498478 -0.06564154 -0.041548632 -0.006171773 -0.033112366 -0.013090557 -0.11312194 -0.052070197
-0.007387572 -0.035909496 -0.06085287 -0.013498698 -0.07752388 -0.015809236 0.01818226 -0.00017202744
-0.0016790064 -0.19837555
00000000: a4cf 11bd 7dd5 4aba 0343 59be 09c0 e8bc
00000010: 7e4a 0ebd b9fd b0bc 6d70 79bd 5f70 b1bd
00000020: 7dc7 b73a 8968 53ba 0142 a1bb 2e13 693d
00000030: b90b e5bb 25f1 3bba d2a6 8b3d 2e98 5cbd
00000040: 8c66 0abe 8ed9 33bc 0bd1 b23d bb77 6539
00000050: 95ac 1ebd 2e09 bbbd 0eed c23c 97ff 90bb
00000060: 097c a3ba 571c 5b3c 4951 c33c 0371 33bd
00000070: b0af 933b 7a64 31bd 79fb 30bd 699e 2bbd
00000080: 3262 ae3d ba81 cd3b fefd 9bba ceb3 d53d
00000090: df64 683b 7911 43bc dbd2 113d 1d1b 913a
000000a0: fb4d a43b b6a9 9b3a 3825 04be 98e6 973a
000000b0: 088a 05bb a344 36bd bdd0 e1ba 8bd8 f2bc
000000c0: b799 04bd ec3a 45bc b4aa c83c 3c88 7bbc
000000d0: 631d b33b 5d5a 85bd 8431 bebc 6870 bbbb
000000e0: b071 d6bb 0365 ebbc 96eb 1d3d 981f 5cbd
000000f0: 9b54 fb3c e0a4 8e3b 050c 7a3b 441f 3eba
00000100: 83ba a3bd ee20 aebd 2d41 87b9 b385 13be
00000110: ca65 b9bc 716e 6abd 2cc2 913d dff5 b5bd
00000120: 7d80 dcbd acc6 b7ba 71fd 123b 2c05 353b
00000130: 763d 9abc 070e 0abd 084b 2b3c b54d ebbc
00000140: d4de c5bd e2ef f9bd 14e6 1a3b a3f6 f0bb
00000150: 1d7e ab3a ed4d adbd e3a4 babd 0166 0dbb
00000160: 41db f1ba 5a7f 38bc ae86 55bc 3397 15bd
00000170: 6c5d 97bd 1168 c2bc cf51 87bd 254c acbd
00000180: 10a8 bfbd dacf a4bc c283 9abc 907b 00bb
00000190: 82bf f53c d535 89b9 7904 013c f5c9 dcbc
000001a0: 7dbf 463a 73e8 3d3b d0e7 8b3a 458f f2bd
000001b0: a2a2 6139 bc35 60b9 3480 89bd 54de 86ba
000001c0: d4e5 7bbd 126f 86bd e62e 2abd 963c cabb
000001d0: d5a0 07bd c779 56bc 7aac e7bd 8f47 55bd
000001e0: 7213 f2bb d615 13bd dc40 79bd a529 5dbc
000001f0: d7c4 9ebd 5f82 81bc f7f2 943c 4462 34b9
00000200: 1b12 dcba f622 4bbe

_actor_critic.actor.fc_mu.bias f4 [2]
-0.09530315 -0.21490076
00000000: 4c2e c3bd f20e 5cbe

_actor_critic.critic.conv1.bias f4 [64]
0.12915364 0.12880546 0.11628169 -0.02131897 -0.08540984 0.009998289 -0.096806146 0.047303554
-0.012308852 0.0 0.074707575 0.0 -0.08144955 0.0 0.11652406 0.0
-0.015452866 0.0 0.0 0.0 0.09767616 0.0 -0.04167158 0.0
0.09150784 0.13181984 -0.010345274 0.0 -0.0059039653 -0.0171471 0.0 0.10602703
-0.002030354 0.12761135 0.11519976 0.0 -0.11584912 0.0 -0.07813526 0.034512796
-0.061399586 0.069912374 0.1139981 0.14334065 0.0 0.09605235 -0.04362135 -0.01801302
-0.06087727 0.12700844 0.122151226 0.0 0.028806217 -0.027256211 0.116273165 0.0030299195
0.107495025 0.0 -0.016141137 0.107907474 -0.10675274 0.12832743 0.12696023 0.05631574
00000000: da40 043e 94e5 033e 1825 ee3d 1fa5 aebc
00000010: 5beb aebd ddcf 233c 4d42 c6bd 5fc1 413d
00000020: 11ab 49bc 0000 0000 4900 993d 0000 0000
00000030: 06cf a6bd 0000 0000 2ba4 ee3d 0000 0000
00000040: 052e 7dbc 0000 0000 0000 0000 0000 0000
00000050: 700a c83d 0000 0000 d2af 2abd 0000 0000
00000060: 7668 bb3d c8fb 063e 397f 29bc 0000 0000
00000070: 0d76 c1bb 1378 8cbc 0000 0000 b324 d93d
00000080: b00f 05bb 8dac 023e daed eb3d 0000 0000
00000090: 4e42 edbd 0000 0000 6105 a0bd 4a5d 0d3d
000000a0: 227e 7bbd 382e 8f3d d677 e93d e4c7 123e
000000b0: 0000 0000 18b7 c43d 4dac 32bd 0a90 93bc
000000c0: 725a 79bd 800e 023e 6c2a fa3d 0000 0000
000000d0: 04fb eb3c 6b48 dfbc a020 ee3d 9d91 463b
000000e0: 5a26 dc3d 0000 0000 6b3a 84bc 98fe dc3d
000000f0: 2ea1 dabd 4468 033e dd01 023e 55ab 663d

_actor_critic.critic.conv1.lin.weight f4 [64, 2]
0.20544983 -0.027929137 0.2944673 0.022737725 0.12246668 0.101162605 0.20651358 -0.14514981
0.17078498 0.15790309 -0.17324843 0.02624295 0.18027505 0.19669625 0.0010427196 0.11683888
0.012050035 -0.050383378 -0.3876743 -0.12222564 0.12016108 -0.063743934 -0.06091002 -0.09247179
0.28082556 0.056804325 -0.17384334 -0.061657175 0.13608354 0.002426018 -0.021925231 -0.0767936
0.20517725 -0.16364977 -0.07969649 -0.24220991 -0.0011587017 -0.17531984 -0.044011228 -0.047921475
0.33606035 -0.074062906 -0.1634296 -0.0059137633 0.23269501 -0.55923945 -0.036957312 -0.04352915
0.06965866 0.018289015 0.09961785 0.1787141 0.00979079 -0.14110412 -0.08562953 -0.022097712
-0.06439093 -0.0034226896 0.078193985 -0.06943697 -0.12531729 -0.37982064 0.23399602 -0.042025793
0.21446718 -0.1869895 0.13861312 0.13684288 0.046613503 0.18636109 -0.040131055 -0.112031564
0.65825444 0.4183577 -0.24417919 -0.15167734 0.2122452 0.0928701 0.02984426 0.069078684
0.060827557 -0.22749688 0.1244152 -0.23916577 0.033526342 0.16429803 0.18206596 -0.047324464
-0.19506523 -0.15738845 0.12889625 0.066477686 -0.040765315 0.17999387 -1.0961508 0.14056532
0.2940331 -0.07522768 0.01631718 0.10296476 0.15356721 -0.0636886 -0.037997816 -0.15101798
-0.0493306 0.07086597 -0.002972977 0.026982546 0.1559462 0.037354667 0.018583221 -0.033226736
0.2524044 0.0551731 -0.047722366 -0.03167794 -0.0069153723 0.18693829 0.042003542 0.1633991
0.39445207 0.33564702 0.4187515 0.12813696 0.2929038 -0.043798693 0.31008685 -0.038063243
00000000: 7161 523e a5cb e4bc 6bc4 963e 7744 ba3c
00000010: d0cf fa3d 572e cf3d 4c78 533e 27a2 14be
00000020: 42e2 2e3e 59b1 213e 0968 31be 75fb d63c
00000030: 069a 383e be6a 493e ddab 883a 3949 ef3d
00000040: 836d 453c cd5e 4ebd 3f7d c6be 7051 fabd
00000050: 0317 f63d 2e8c 82bd c97c 79bd da61 bdbd
00000060: 5ec8 8f3e a7ab 683d fd03 32be 3c8c 7cbd
00000070: 7c59 0b3e d4fd 1e3b 8b9c b3bc f745 9dbd
00000080: fc19 523e ce93 27be ea37 a3bd e005 78be
00000090: 94df 97ba 0b87 33be 1e45 34bd 4f49 44bd
000000a0: 1a10 ac3e 4bae 97bd 175a 27be 3ec8 c1bb
000000b0: 9a47 6e3e 512a 0fbf 8d60 17bd 9f4b 32bd
000000c0: 33a9 8e3d d8d2 953c 7104 cc3d d400 373e
000000d0: 8d69 203c 997d 10be 895e afbd 4306 b5bc
000000e0: 64df 83bd 344f 60bb 2b24 a03d f834 8ebd
000000f0: 2d53 00be da77 c2be a79c 6f3e 3d23 2cbd
00000100: 499d 5b3e 2d7a 3fbe 99f0 0d3e 8a20 0c3e
00000110: cded 3e3d 71d5 3e3e 7660 24bd ce70 e5bd
00000120: 5d83 283f fb32 d63e 1c0a 7abe 4e51 1bbe
00000130: ce56 593e ae32 be3d f37b f43c 2079 8d3d
00000140: 5126 793d f1f4 68be 65cd fe3d dfe7 74be
00000150: eb52 093d be3d 283e 806f 3a3e 4cd7 41bd
00000160: 2ebf 47be 702a 21be 61fd 033e 7425 883d
00000170: 88f9 26bd 5050 383e ab4e 8cbf 5bf0 0f3e
00000180: 828b 963e f810 9abd 9bab 853c 30df d23d
00000190: b940 1d3e 2b6f 82bd 99a3 1bbd 75a4 1abe
000001a0: e20e 4abd 2d22 913d 47d6 42bb 800a dd3c
000001b0: 5cb0 1f3e 3501 193d d73b 983c c218 08bd
000001c0: 263b 813e 30fd 613d 8778 43bd bac0 01bd
000001d0: 599a e2bb c06c 3f3e e80b 2c3d 1852 273e
000001e0: 9ff5 c93e edd9 ab3e 9966 d63e 5636 033e
000001f0: 7df7 953e 4266 33bd b4c3 9e3e 34e8 1bbd
