rl_environments/trained_models/PPO_scheduling_3_obj_j5m5/policy.pth (torch, 42334 bytes, 24 tensors)

actor.sigma_param f4 [2, 1]
-0.280177 -0.3773298
00000000: 5c73 8fbe 5f31 c1be

actor.conv1.bias f4 [64]
0.122993626 0.0038267125 0.10716352 0.100995205 0.0 0.11170648 -0.018592311 0.09498409
-0.03211942 -0.026966255 0.03768517 0.0 0.1134418 0.10276494 0.12663692 0.09325314
0.105009444 -0.0057678563 0.093449384 0.13289283 0.11037274 0.0 -0.006019983 -0.0051200804
0.058485627 0.10774744 0.08432012 -0.0007419287 0.09350148 0.077726446 -0.024202751 -0.012506195
0.09221033 0.10682882 0.10246096 0.1004019 0.008970258 -0.027628941 0.10681932 0.08311411
-0.043777995 0.0 0.06965279 0.10320982 -0.0051968037 0.048453864 0.09073483 -0.026451588
0.085910104 0.0 0.12202031 -0.00946727 0.09891495 0.10920133 0.092103414 -0.06359751
0.101247154 0.0 -0.022658216 0.10691074 -0.045117352 0.087764844 -0.013330451 -0.07292309
00000000: 15e4 fb3d 95c9 7a3b 8c78 db3d 93d6 ce3d
00000010: 0000 0000 5ec6 e43d e74e 98bc 0587 c23d
00000020: a78f 03bd 56e8 dcbc c45b 1a3d 0000 0000
00000030: 2d54 e83d 6d76 d23d 1cad 013e 81fb be3d
00000040: 310f d73d 4900 bdbb 6462 bf3d 0f15 083e
00000050: 1a0b e23d 0000 0000 4743 c5bb 59c6 a7bb
00000060: a08e 6f3d b1aa dc3d 07b0 ac3d fe7d 42ba
00000070: b47d bf3d 0b2f 9f3d d944 c6bc c9e6 4cbc
00000080: c5d8 bc3d 12c9 da3d 0dd7 d13d 839f cd3d
00000090: fdf7 123c 1756 e2bc 16c4 da3d bb37 aa3d
000000a0: 8e50 33bd 0000 0000 1fa6 8e3d ac5f d33d
000000b0: f349 aabb 8f77 463d 2fd3 b93d 00b1 d8bc
000000c0: a3f1 af3d 0000 0000 c9e5 f93d 9c1c 1bbc
000000d0: ec93 ca3d f2a4 df3d b7a0 bc3d 693f 82bd
000000e0: ab5a cf3d 0000 0000 b99d b9bc 05f4 da3d
000000f0: f9cc 38bd 0ebe b33d f767 5abc b358 95bd

actor.conv1.lin.weight f4 [64, 3]
0.08428563 0.21661802 -0.061112538 -0.26374745 -0.297272 0.10917581 0.13687417 0.2092611
-0.1214277 0.16017318 0.11109698 -0.04561283 -0.03889146 -0.14642416 -0.043609384 0.19156864
0.18217348 -0.15228936 -0.049934767 -0.07686225 0.03644322 0.28318107 0.30573237 0.15095635
0.010517991 -0.112658605 0.06015893 -0.13886526 0.03699281 -0.30711502 0.15258147 -0.0113477865
0.11533302 -0.03497644 -0.021604704 -0.276845 0.027920408 0.27271557 0.0049060555 0.12683164
0.41192785 0.028461283 -0.016892562 0.2768423 0.13294266 0.36644465 0.1839181 0.20519832
0.13217023 0.2700678 -0.0017010508 -0.0031581146 -0.07625113 -0.09713551 0.058935836 0.22687759
0.025172047 -0.13067022 0.2801589 0.016615495 -0.0426156 0.24149863 0.21349621 -0.13825709
-0.024552792 -0.05040119 -0.0076640984 -0.15303385 0.008019585 -0.050970938 -0.0042592064 -0.006818531
0.32697734 -0.03327624 0.18766388 -0.085745886 0.19795772 0.24533302 0.27117413 0.11586378
0.17205338 0.0005069177 -0.08846204 -0.021473363 0.07757293 0.19518806 0.023839809 0.18128729
0.059365675 0.15834929 -0.0032260043 -0.080176555 0.022516608 -0.0648101 0.007478487 -0.09412941
0.10373846 0.16834989 -0.06519765 0.21801265 0.34729388 0.034136035 0.13794804 0.27591482
0.14541116 0.006144975 0.3574347 0.05771659 -0.24107675 -0.30678397 0.063748285 0.04585336
-0.079237744 -0.0034976085 0.23206672 0.22273111 0.18464208 0.06061457 0.0849296 0.24168532
0.051977012 -0.22796014 -0.22004047 -0.07255797 -0.02765434 -0.00085478846 0.20759723 0.023590634
0.077205814 0.082217135 0.29970196 0.054021504 -0.039783042 -0.0025536278 -0.13388039 0.017263386
-0.0070350603 0.156118 0.09388379 0.24896255 0.22434385 0.027184548 -0.0060211928 -0.029895788
0.24904579 0.12038711 0.18697785 -0.10412845 -0.04552883 -0.08717668 -0.062945195 0.29964125
0.034781404 -0.29388785 -0.13885224 0.12293925 0.18961294 0.31712133 0.08966823 -0.03357022
0.16774185 0.115489684 0.36875522 0.17962135 -0.089119546 -0.048212312 -0.0034312294 0.15026711
0.15410934 0.43882087 0.092831284 -0.08925291 -0.07607446 -0.14551541 -0.08036495 -0.09317905
0.046800572 0.035953887 0.25677177 0.018250631 0.14910693 -0.21602178 -0.29022816 -0.088178456
0.24690332 0.101714015 -0.068753876 -0.14703733 0.03834794 -0.1909161 -0.023262188 0.15292816
00000000: f29d ac3d 1dd1 5d3e 2451 7abd e809 87be
00000010: 0934 98be 9197 df3d be28 0c3e 8b48 563e
00000020: 16af f8bd 7004 243e d086 e33d 85d4 3abd
00000030: a74c 1fbd 37f0 15be c19f 32bd 922a 443e
00000040: af8b 3a3e bef1 1bbe 6688 4cbd f569 9dbd
00000050: 7c45 153d 1cfd 903e f488 9c3e 4d94 1a3e
00000060: a753 2c3c 8eb9 e6bd 3669 763d b232 0ebe
00000070: c685 173d 2e3e 9dbe 513e 1c3e 11ec 39bc
00000080: b833 ec3d 7543 0fbd 59fc b0bc a1be 8dbe
00000090: 57b9 e43c 60a1 8b3e fac2 a03b 27e0 013e
000000a0: 35e8 d23e a327 e93c 4562 8abc 46be 8d3e
000000b0: 1f22 083e a29e bb3e 0755 3c3e 821f 523e
000000c0: a257 073e 5446 8a3e cbf5 deba 5ff8 4ebb
000000d0: 8d29 9cbd fbee c6bd b466 713d 9952 683e
000000e0: 9c35 ce3c 6ace 05be fd70 8f3e 381d 883c
000000f0: b28d 2ebd 6b4b 773e c09e 5a3e 4493 0dbe
00000100: f022 c9bc 7a71 4ebd 1e23 fbbb e8b4 1cbe
00000110: 9464 033c e7c6 50bd d090 8bbb fc6d dfbb
00000120: 9369 a73e ab4c 08bd f62a 403e 8a9b afbd
00000130: 6eb5 4a3e 9438 7b3e 56d7 8a3e fd49 ed3d
00000140: c32e 303e ace2 043a 962b b5bd e8e8 afbc
00000150: 8ede 9e3d 61df 473e b44b c33c 60a3 393e
00000160: 6c29 733d 5126 223e 5f6b 53bb 9b33 a4bd
00000170: c074 b83c 28bb 84bd 190e f53b ecc6 c0bd
00000180: d474 d43d ea63 2c3e 5886 85bd b53e 5f3e
00000190: 81d0 b13e 3ad2 0b3d 4042 0d3e b544 8d3e
000001a0: aae6 143e c95b c93b ae01 b73e 3b68 6c3d
000001b0: d3dc 76be ca12 9dbe 768e 823d bcd0 3b3d
000001c0: 6647 a2bd 2238 65bb e6a2 6d3e a013 643e
000001d0: d012 3d3e fc46 783d 92ef ad3d 5b7c 773e
000001e0: d9e5 543d 626e 69be 4a52 61be 4699 94bd
000001f0: 5b8b e2bc e213 60ba 5e94 543e 2541 c13c
00000200: 151e 9e3d 7561 a83d 8972 993e a745 5d3d
00000210: 8bf3 22bd c45a 27bb f117 09be f26b 8d3c
00000220: 5d86 e6bb 66dd 1f3e 2546 c03d 0af0 7e3e
00000230: 65ba 653e 21b2 de3c 6d4d c5bb 03e8 f4bc
00000240: dc05 7f3e 848d f63d 1f77 3f3e 4c41 d5bd
00000250: 707c 3abd b089 b2bd 69e9 80bd 946a 993e
00000260: f276 0e3d 7878 96be 482f 0ebe 93c7 fb3d
00000270: e529 423e ba5d a23e faa3 b73d ed80 09bd
00000280: 85c4 2b3e db85 ec3d 7ccd bc3e a9ee 373e
00000290: 4f84 b6bd 467a 45bd 7ade 60bb 9fdf 193e
000002a0: d7ce 1d3e 21ad e03e 541e be3d 3bca b6bd
000002b0: edcc 9bbd fe01 15be 6196 a4bd a8d4 bebd
000002c0: f5b1 3f3d 6244 133d 9777 833e 5982 953c
000002d0: 7daf 183e d034 5dbe c998 94be e896 b4bd
000002e0: 39d4 7c3e 704f d03d d5ce 8cbd f490 16be
000002f0: bb12 1d3d 837f 43be 5890 bebc 3399 1c3e

actor.conv2.bias f4 [64]
0.0029640428 0.10545423 0.09725603 -0.005844469 0.0 -0.008292355 -0.0062910737 0.0
0.102358244 -0.0061853137 0.0009413552 0.103242315 0.10120209 -0.010495869 -0.020360284 -0.013548192
0.098565795 -0.0080781495 -0.013473577 0.099678606 0.09496277 -0.0059834523 -0.013022198 -0.010004918
0.0 -0.017929327 0.08709119 0.107235886 0.10366742 0.10630328 -0.03170661 0.0
0.09691197 0.09179873 0.09392268 0.10089015 -0.008180634 0.09420632 0.102382444 0.09338699
0.10907437 0.09267188 0.10158708 0.099290565 0.094581924 -0.01734452 0.097972736 0.09799809
0.10397118 0.09208496 0.13263586 -0.0151523035 0.08846282 0.0 0.10672114 -0.008466491
-0.0010356641 0.0 0.14960754 0.08700658 0.10251875 -0.00930786 -0.015387501 -0.008140285
00000000: 6340 423b 63f8 d73d 2b2e c73d f682 bfbb
00000010: 0000 0000 a8dc 07bc 5a25 cebb 0000 0000
00000020: 33a1 d13d 2cae cabb 47c5 763a b570 d33d
00000030: 0b43 cf3d def6 2bbc 9cca a6bc 3cf9 5dbc
00000040: dddc c93d 375a 04bc 47c0 5cbc 4c24 cc3d
00000050: d77b c23d d610 c4bb 0f5b 55bc abeb 23bc
00000060: 0000 0000 86e0 92bc de5c b23d 7d9e db3d
00000070: 964f d43d 89b5 d93d cade 01bd 0000 0000
00000080: c879 c63d f900 bc3d 895a c03d 7f9f ce3d
00000090: 1108 06bc 3eef c03d e3ad d13d ae41 bf3d
000000a0: 6262 df3d c1ca bd3d e30c d03d da58 cb3d
000000b0: 2bb4 c13d 1816 8ebc eea5 c83d 39b3 c83d
000000c0: d8ee d43d 0a97 bc3d b2d1 073e 5e41 78bc
000000d0: ff2b b53d 0000 0000 9d90 da3d 09b7 0abc
000000e0: 1fbf 87ba 0000 0000 b832 193e 8130 b23d
000000f0: 5af5 d13d ff7f 18bc db1b 7cbc d45e 05bc

actor.conv2.lin.weight f4 [64, 64]
-0.15351857 0.050952613 -0.0073353094 -0.08247722 -0.03432532 -0.19706605 -0.027203275 -0.23569788
0.008952074 0.18577392 -0.06801528 0.12652022 -0.05733482 -0.027454624 -0.13406965 0.0160009
0.03969971 -0.049800124 0.23616195 -0.09132009 0.11621314 -0.19154201 0.15501924 -0.079037994
0.113752924 0.03441611 -0.0750456 -0.13129604 -0.014423599 0.15620466 0.151054 -0.07813895
0.12390587 0.053345833 -0.16588649 0.09203775 0.11780051 -0.005687146 0.0320301 0.004922651
0.14894295 0.22458522 0.12258527 0.2083867 -0.034300826 -0.082482986 0.14385292 0.1027372
-0.17806017 0.31918252 0.096412994 -0.028556995 -0.20555872 -0.0456964 -0.093123004 -0.14573257
0.16454363 -0.07099559 -0.2129007 -0.050353955 0.059099022 -0.016601434 -0.12638114 0.008616996
-0.13150522 0.015460883 0.08340339 0.21638665 -0.003698689 0.2190985 -0.059792522 0.1190065
-0.07968968 0.044706468 -0.024416368 -0.12816766 0.22960418 0.24561866 0.11287139 0.34897548
0.088806905 -0.2624825 -0.040595844 0.28212494 0.16791865 -0.09268893 0.06600545 -0.20216672
0.09586701 -0.028993657 -0.0066628275 0.025546415 -0.07521164 0.24583173 0.13845947 -0.062449753
0.055233832 0.2682775 0.12079905 0.41536593 -0.025470583 -0.0063631283 0.29611838 0.109465666
-0.04190121 0.07549912 -0.10653725 -0.02618822 0.117338814 0.032220036 0.29709226 0.05330681
0.3640696 -0.016398966 0.23501013 -0.08677885 0.28038377 0.12440691 0.09958125 -0.0076186676
-0.027296877 -0.13902366 0.017389748 0.23469222 0.06496133 0.2698508 0.012778564 -0.007599285
0.2534121 0.0008799359 0.18374863 -0.04183356 0.04096289 -0.017783228 -0.020957327 0.27128747
-0.18651016 -0.0049218177 0.27488604 -0.04523523 0.26058573 0.11856853 0.15397288 0.06712919
0.07245443 0.22538437 0.09997836 0.056095656 -0.043519266 -0.09781506 0.07550426 -0.030181859
-0.046808455 0.11255703 0.025869071 -0.0024434875 0.12095593 0.24183187 -0.08443006 0.2154313
-0.109261736 0.132062 0.122389145 0.4181998 0.059755046 -0.11297783 0.13189597 0.0958582
0.046211455 -0.03014818 -0.06838277 0.19114575 -0.04728752 0.043503266 0.091748975 -0.07236184
0.019655295 -0.06255911 -0.06905437 -0.39616022 0.15387048 0.04680297 0.020049585 -0.10854503
0.119106315 -0.1527246 -0.1311153 0.15970422 0.13453601 -0.14986978 -0.14675905 0.25209802
-0.055646837 -0.0017408135 0.060613837 -0.08428214 0.021512263 0.047302738 -0.22268707 0.10910794
-0.20088714 -0.008426314 0.055272013 -0.13649355 -0.01594282 0.02825541 0.023152221 0.08633365
0.24659507 0.028442383 0.034292746 0.019436512 -0.12425123 0.30542043 0.1165921 -0.17263734
-0.21897934 0.008290817 0.19002734 -0.018739976 0.19066261 -0.07049538 0.19685605 0.0705525
0.06562948 -0.1866547 0.033947024 0.0144145535 -0.10224403 -0.07108436 -0.044679396 0.094494484
0.06641948 0.01614632 -0.052544657 -0.0037353192 0.030673312 -0.21762027 -0.013965133 -0.08692899
-0.056532852 0.0064096176 0.08510384 0.099058494 -0.14773169 -0.21614045 -0.048022635 -0.25171632
-0.22946852 0.073139146 -0.2580927 -0.011506925 0.08025388 0.12160657 0.04310635 -0.21163781
00000000: f933 1dbe b0b3 503d 095d f0bb d1e9 a8bd
00000010: b598 0cbd afcb 49be 67d9 debc c95a 71be
00000020: b8ab 123c 853b 3e3e 984b 8bbd 848e 013e
00000030: ebd7 6abd 85e8 e0bc 8e49 09be 5214 833c
00000040: 2a9c 223d 37fb 4bbd 70d4 713e 0706 bbbd
00000050: 2801 ee3d 9723 44be 5dbd 1e3e acde a1bd
00000060: 4bf7 e83d e8f7 0c3d 82b1 99bd 7872 06be
00000070: f550 6cbc 1df4 1f3e e6ad 1a3e 5007 a0bd
00000080: 5cc2 fd3d 2981 5a3d 26de 29be 4a7e bc3d
00000090: 6541 f13d 3d5b babb fe31 033d 314e a13b
000000a0: 8084 183e abf9 653e fc0d fb3d 5363 553e
000000b0: 067f 0cbd d7ec a8bd 2e4e 133e e267 d23d
000000c0: 6855 36be e46b a33e 2d74 c53d 5cf0 e9bc
000000d0: fc7d 52be 262c 3bbd 46b7 bebd eb3a 15be
000000e0: 207e 283e 2366 91bd a402 5abe f33f 4ebd
000000f0: d111 723d bbff 87bc 0f6a 01be 4d2e 0d3c
00000100: 4ea9 06be a54f 7d3c 66cf aa3d 7694 5d3e
00000110: b465 72bb 5b5b 603e 01e9 74bd aeb9 f33d
00000120: 5834 a3bd 211e 373d d604 c8bc 623e 03be
00000130: 5c1d 6b3e 7583 7b3e 1e29 e73d eaac b23e
00000140: 65e0 b53d 1b64 86be d447 26bd ae72 903e
00000150: def2 2b3e b2d3 bdbd de2d 873d cb04 4fbe
00000160: ec55 c43d 1b84 edbc d953 dabb b746 d13c
00000170: 8f08 9abd 50bb 7b3e 52c8 0d3e 50cb 7fbd
00000180: df3c 623d ab5b 893e 7e65 f73d d8aa d43e
00000190: afa7 d0bc ca81 d0bb d49c 973e 892f e03d
000001a0: 9aa0 2bbd 489f 9a3d 3430 dabd ae88 d6bc
000001b0: 554f f03d 28f9 033d 7a1c 983e 3e58 5a3d
000001c0: 5567 ba3e 2057 86bc 7fa6 703e 1cb9 b1bd
000001d0: 768e 8f3e 0dc9 fe3d 41f1 cb3d 04a6 f9bb
000001e0: b39d dfbc 385c 0ebe f274 8e3c 2853 703e
000001f0: 720a 853d e229 8a3e 2f5d 513c 6c03 f9bb
00000200: 3bbf 813e 80ab 663a 9a28 3c3e ab59 2bbd
00000210: b4c8 273d 22ae 91bc b3ae abbc 31e6 8a3e
00000220: 85fc 3ebe 3347 a1bb ddbd 8c3e 9448 39bd
00000230: 7e6b 853e 0fd4 f23d 11ab 1d3e 077b 893d
00000240: fd62 943d 29cb 663e 74c1 cc3d 8fc4 653d
00000250: 4241 32bd 4353 c8bd faa1 9a3d f23f f7bc
00000260: 39ba 3fbd 4d84 e63d 60eb d33c eb22 20bb
00000270: beb7 f73d c6a2 773e abe9 acbd 069a 5c3e
00000280: 9ec4 dfbd 433b 073e 29a7 fa3d 491e d63e
00000290: b5c1 743d ec60 e7bd bd0f 073e 4e51 c43d
000002a0: 3948 3d3d 51f9 f6bc 440c 8cbd b6bb 433e
000002b0: 8fb0 41bd 7b30 323d e3e6 bb3d 7232 94bd
000002c0: 2404 a13c fe1e 80bd 616c 8dbd 83d5 cabe
000002d0: 3990 1d3e 79b4 3f3d 073f a43c db4c debd
000002e0: 03ee f33d d663 1cbe 1743 06be 8189 233e
000002f0: cfc3 093e 7777 19be 0148 16be fe12 813e
00000300: f0ed 63bd 022c e4ba 3746 783d 1d9c acbd
00000310: 7c3a b03c 84c0 413d 1408 64be fc73 df3d
00000320: 5cb5 4dbe 860e 0abc e864 623d f7c4 0bbe
00000330: 849a 82bc e477 e73c baa9 bd3c b2cf b03d
00000340: 6b83 7c3e 0000 e93c 8d76 0c3d 5239 9f3c
00000350: 6e77 febd 1160 9c3e d7c7 ee3d d8c7 30be
00000360: 1f3c 60be 35d6 073c 8796 423e 9484 99bc
00000370: 0f3d 433e e25f 90bd a294 493e d47d 903d
00000380: c068 863d 6922 3fbe 090c 0b3d 052b 6c3c
00000390: 5165 d1bd ad94 91bd be01 37bd 5386 c13d
000003a0: f006 883d 4a45 843c 1139 57bd 42cc 74bb
000003b0: 9946 fb3c d9d7 5ebe 03ce 64bc d407 b2bd
000003c0: fe8e 67bd c507 d23b ec4a ae3d 2edf ca3d
000003d0: fa46 17be ec53 5dbe 62b3 44bd f6e0 80be
000003e0: ccf9 6abe fac9 953d ba24 84be 8b87 3cbc
000003f0: 255c a43d de0c f93d 4990 303d 95b7 58be

actor.fc_mu.weight f4 [2, 65]
-0.006023855 0.13877246 0.14023532 0.030441824 0.0021016002 -0.0082506975 -0.01025216 -0.0006208619
0.13734618 0.0068103005 0.0026166984 0.13595359 0.13285588 -0.0018084736 0.0058490075 -0.013669389
0.13036543 -0.0052993395 -0.0052717095 0.13560607 0.128909 -0.0022110126 0.0131784165 0.006737761
0.0023304552 0.013285804 0.13026807 0.14080448 0.14425968 0.14345057 -0.00673087 0.0018913008
0.13776872 0.12221147 0.13401538 0.1363796 -0.004040751 0.13666464 0.13791376 0.13652539
0.14251722 0.12969558 0.13237749 0.13715394 0.123762295 -0.0009409544 0.13410214 0.12388103
0.1381082 0.12238656 0.14331724 0.0018520786 0.133521 0.0005628072 0.1431388 -0.004708942
0.0015723486 -0.0011041369 0.21365626 0.10862534 0.13139112 0.003473916 0.00849464 0.024553275
0.053579673 -0.011610856 -0.00065266475 -0.0017709015 0.013865604 0.0010759748 0.0039810156 -4.553463e-05
0.00023821963 0.0004505571 0.0018468548 -0.0017885894 -0.0014101102 0.007919552 -0.0013692811 0.009744403
-0.010161212 0.0012228272 0.0018784523 -0.0017161189 -0.0036383446 0.008932663 -0.0049765105 0.011005297
-0.0120512 0.0024500175 0.0077219713 -0.028367339 -0.0035683843 -0.011680527 -0.0055649844 -0.02662482
-0.00116493 -0.00064670166 0.011854651 -0.0001971642 -0.0066379737 -0.008106435 -0.0022265415 0.004022875
-0.0029391302 -0.0011681846 -0.0022630368 0.0069734794 -0.0010131684 0.009983998 0.001275664 -0.003115178
0.009752766 -0.00078232767 0.0036841717 0.047560237 -0.0058472706 0.00026689298 0.0010100227 -0.011574711
-0.00082805945 -0.008373431 -0.0016133084 0.05511482 0.019722672 0.0027046704 0.0025342444 -0.00045740162
-0.008500122 -0.14030077
00000000: c263 c5bb 5e1a 0e3e d999 0f3e 2261 f93c
00000010: 00bb 093b ef2d 07bc adf8 27bc 56c1 22ba
00000020: 7aa4 0c3e f128 df3b ea7c 2b3b 6b37 0b3e
00000030: 5f0b 083e 4e0a edba 08a9 bf3b 93f5 5fbc
00000040: 847e 053e 15a6 adbb 4ebe acbb 51dc 0a3e
00000050: b900 043e a3e6 10bb 49ea 573c 70c8 dc3b
00000060: 8dba 183b b3ac 593c fe64 053e 0d2f 103e
00000070: cfb8 133e b5e4 123e a18e dcbb 86e5 f73a
00000080: 3e13 0d3e 024a fa3d 543b 093e 18a7 0b3e
00000090: 4768 84bb d1f1 0b3e 4439 0d3e 50cd 0b3e
000000a0: 09f0 113e ebce 043e f78d 073e 1572 0c3e
000000b0: 1677 fd3d 62aa 76ba 1252 093e 56b5 fd3d
000000c0: 3c6c 0d3e cea5 fa3d c1c1 123e 72c1 f23a
000000d0: bbb9 083e 5a89 133a fa92 123e 784d 9abb
000000e0: 4417 ce3a b0b8 90ba b5c8 5a3e f676 de3d
000000f0: 658b 063e a4aa 633b 1a2d 0b3c f323 c93c
00000100: 5c76 5b3d 763b 3ebc 9717 2bba 981d e8ba
00000110: 8f2c 633c b907 8d3a 2e73 823b 70fc 3eb8
00000120: 98ca 7939 c038 ec39 2a12 f23a 1a6f eaba
00000130: 72d3 b8ba 02c1 013c 7379 b3ba fda6 1f3c
00000140: 367b 26bc 4647 a03a 6636 f63a 65ef e0ba
00000150: 4b71 6ebb 4e5a 123c ff11 a3bb 904f 343c
00000160: 6572 45bc 7990 203b 9708 fd3b 9f62 e8bc
00000170: 8edb 69bb ae5f 3fbc 795a b6bb 4b1c dabc
00000180: 91b0 98ba 6a87 29ba 033a 423c ddbd 4eb9
00000190: 5c83 d9bb dad0 04bc 2beb 11bb 52d2 833b
000001a0: 6c9e 40bb c51d 99ba 754f 14bb c981 e43b
000001b0: 4acc 84ba ec93 233c 2e34 a73a 0428 4cbb
000001c0: 11ca 1f3c 1f15 4dba 2572 713b 86ce 423d
000001d0: 769a bfbb c5ed 8b39 bd62 843a dba3 3dbc
000001e0: 2112 59ba b730 09bc a675 d3ba 14c0 613d
000001f0: 7191 a13c d740 313b 9115 263b 68cf efb9
00000200: 1944 0bbc 01ab 0fbe

actor.fc_mu.bias f4 [2]
0.11458098 0.0032437402
00000000: 6fa9 ea3d ee94 543b

critic.conv1.bias f4 [64]
0.11600991 0.07350243 -0.026297778 0.03766084 -0.01789584 0.07146799 0.03314399 -0.066446714
-0.012142404 0.1816615 -0.021755215 -0.063792445 0.07814046 0.0 0.017716566 -0.008095584
0.13535798 -0.011305396 0.06740801 -0.053489026 0.04003033 -0.009162365 0.025845435 0.004690782
0.026828606 0.028059708 0.029264415 0.02701684 0.040288903 -0.0055266367 -0.031238627 0.005690313
0.07617847 0.017336348 -0.051874943 0.02639889 -0.005010259 0.029722232 0.05026776 -0.041220862
-0.00883663 -0.012735501 0.0 -0.055830363 0.008872698 0.02195214 -0.0055137672 0.15816738
-0.015762463 -0.04018182 0.06589029 -0.012469872 0.0 -0.0127589265 -0.012826583 0.032396626
0.024662703 0.023049653 -0.07205102 0.0 -0.041885793 0.054633327 -0.015247647 -0.014743182
00000000: 9b96 ed3d 7188 963d 706e d7bc 4142 1a3d
00000010: 4c9a 92bc cf5d 923d fec1 073d 3715 88bd
00000020: eff0 46bc 7905 3a3e fe37 b2bc 9da5 82bd
00000030: 1b08 a03d 0000 0000 5522 913c 57a3 04bc
00000040: 489b 0a3e 453a 39bc 360d 8a3d 4f17 5bbd
00000050: d8f6 233d bf1d 16bc ceb9 d33c 22b5 993b
00000060: aac7 db3c 79dd e53c edbb ef3c 6c52 dd3c
00000070: fa05 253d ca18 b5bb 26e8 ffbc ce75 ba3b
00000080: 7503 9c3d f504 8e3c d27a 54bd 7c42 d83c
00000090: 192d a4bb 0a7c f33c 91e5 4d3d 35d7 28bd
000000a0: 83c7 10bc 90a8 50bc 0000 0000 61ae 64bd
000000b0: cb5e 113c f9d4 b33c d5ac b4bb a1f6 213e
000000c0: 4820 81bc b195 24bd 7df1 863d 6f4e 4cbc
000000d0: 0000 0000 d10a 51bc 9726 52bc 53b2 043d
000000e0: 7009 ca3c a0d2 bc3c 7c8f 93bd 0000 0000
000000f0: 7090 2bbd 32c7 5f3d 44d1 79bc 638d 71bc

critic.conv1.lin.weight f4 [64, 3]
-0.25308752 -0.2333019 -0.0038011773 0.06205682 -0.1477735 -0.2116937 -0.117464796 0.14693749
-0.0007761584 -0.034246273 -0.027485091 0.26082852 0.017257756 -0.08285776 0.021069981 0.05041508
-0.12542677 0.27469313 -0.047153525 0.02250864 0.15198067 0.2076097 0.18763232 0.12522383
-0.17067909 0.02625269 0.012587437 0.13077159 0.014193805 0.091404304 -0.1502244 0.070533164
-0.025980204 0.034078967 0.20507966 0.23063053 -0.1484823 0.10170029 -0.011886204 -0.03935906
-0.18171865 -0.020266699 0.09564558 0.0398581 -0.14971276 0.1930879 -0.36613283 0.102722175
0.1250357 -0.09203174 -0.7370438 -0.13848251 0.03021984 0.014568032 0.08245737 -0.09808898
-0.019402182 0.050881445 0.15826872 -0.05952619 0.21734233 0.025094092 -0.02336302 0.005404993
-0.013429834 -0.087569654 0.22689027 -0.036623158 0.3414308 -0.21863121 -0.070746556 0.35423917
0.09501388 0.06445434 0.03182817 0.03508137 0.16575254 0.21375565 -0.026884379 -0.011324636
0.14893344 0.057226103 0.050232515 0.023583192 -0.014696583 0.0798349 -0.030581456 -0.07663695
0.0031870506 -0.070869714 0.10188326 0.2063987 -0.10522523 -0.21264124 0.057585463 0.16471295
0.025389764 0.041070472 0.19108528 0.17804392 0.15272735 0.066686474 -0.0021818352 0.1059536
0.37321255 0.25631312 0.20480487 0.22583784 0.1333958 -0.0029695327 -0.15327394 -0.019076053
0.22615357 -0.06596077 0.13408287 -0.1265292 0.07789279 0.14972559 0.02354887 0.19011688
-0.06501545 0.046826378 -0.06741777 -0.14496362 0.0379326 -0.0037488292 -0.22182822 -0.08078074
-0.037092835 0.07323234 0.09572334 0.30722558 -0.23560475 0.0007393244 0.23932776 0.09298479
0.10938173 0.21137148 0.19675238 0.040880717 -0.32121912 0.124485254 0.14044888 0.39376727
0.2605452 0.0888301 -0.438266 -0.07170995 0.23407748 0.04565741 -0.026242312 -0.015234596
0.28563026 0.017703015 -0.041022297 -0.09926684 -0.09286485 -0.017170245 -0.20822297 0.1318015
-0.0047597946 -0.08697182 0.013646971 -0.07063774 -0.1653213 0.39817134 0.06819511 0.19686586
-0.0008337319 0.2512104 0.10571425 -0.00022655347 0.08442561 -0.016698662 0.084700555 0.15842089
0.3328946 -0.19196866 -0.09536065 -0.038813695 -0.0150515195 0.16331927 0.1260348 -0.16861717
0.0014712377 0.077891715 0.002678961 0.25616926 -0.30825397 0.1614595 -0.20667624 0.12994476
00000000: b094 81be b1e6 6ebe 2c1d 79bb 4b2f 7e3d
00000010: f051 17be 3cc6 58be 6291 f0bd c876 163e
00000020: 1c77 4bba d245 0cbd 6a28 e1bc 518b 853e
00000030: 2360 8d3c 54b1 a9bd f49a ac3c 0b80 4e3d
00000040: e06f 00be 94a4 8c3e 0e24 41bd 0a64 b83c
00000050: d2a0 1b3e a397 543e b022 403e ad3a 003e
00000060: 80c6 2ebe e20f d73c 8a3b 4e3c fde8 053e
00000070: 228d 683c 2e32 bb3d 6dd4 19be b173 903d
00000080: 70d4 d4bc 6396 0b3d 6700 523e 692a 6c3e
00000090: be0b 18be 3e48 d03d 5abe 42bc f736 21bd
000000a0: 7414 3abe 5906 a6bc d4e1 c33d 3f42 233d
000000b0: 4d4e 19be d6b8 453e c375 bbbe 0160 d23d
000000c0: 5c09 003e 237b bcbd e7ae 3cbf 5cce 0dbe
000000d0: 998f f73c c1ae 6e3c 69df a83d e0e2 c8bd
000000e0: 53f1 9ebc 1069 503d 3211 223e bcd1 73bd
000000f0: fd8e 5e3e 2092 cd3c ce63 bfbc 5e1c b13b
00000100: ce08 5cbc b857 b3bd ec55 683e 2a02 16bd
00000110: 05d0 ae3e dce0 5fbe 92e3 90bd d65e b53e
00000120: a396 c23d a300 843d 415e 023d 7cb1 0f3d
00000130: 09bb 293e c3e2 5a3e a13c dcbc f78a 39bc
00000140: 0282 183e eb65 6a3d 9cc0 4d3d 8a31 c13c
00000150: f0c9 70bc 7b80 a33d f685 fabc d5f3 9cbd
00000160: d6dd 503b 2424 91bd 2ca8 d03d 2e5a 533e
00000170: 5380 d7bd a0be 59be bcde 6b3d 83aa 283e
00000180: 32fe cf3c 8339 283d dcab 433e 2551 363e
00000190: 8f64 1c3e eb92 883d 1ffd 0ebb 33fe d83d
000001a0: b715 bf3e 793b 833e 5eb8 513e 0942 673e
000001b0: e998 083e 7e9c 42bb d8f3 1cbe 6245 9cbc
000001c0: cd94 673e 7116 87bd 054d 093e df90 01be
000001d0: 4186 9f3d aa51 193e 8fe9 c03c 00ae 423e
000001e0: d226 85bd 04cd 3f3d 5412 8abd 5871 14be
000001f0: 375f 1b3d ebae 75bb f026 63be 5f70 a5bd
00000200: a8ee 17bd d6fa 953d 990a c43d ac4c 9d3e
00000210: 5f42 71be 38cf 413a 5612 753e cf6e be3d
00000220: 8703 e03d c471 583e 7579 493e 8a72 273d
00000230: d576 a4be 20f2 fe3d d5d1 0f3e dd9b c93e
00000240: 2e66 853e 8eec b53d 6764 e0be abdc 92bd
00000250: 02b2 6f3e 4403 3b3d 1efa d6bc 879a 79bc
00000260: 213e 923e ea05 913c ff06 28bd 6a4c cbbd
00000270: ed2f bebd 9da8 8cbc 6738 55be f9f6 063e
00000280: 0df8 9bbb 481e b2bd 8c97 5f3c 85aa 90bd
00000290: fd49 29be 1ddd cb3e e1a9 8b3d 3497 493e
000002a0: cd8e 5aba a69e 803e b680 d83d fc8e 6db9
000002b0: 56e7 ac3d a2cb 88bc 7c77 ad3d 1639 223e
000002c0: 2971 aa3e 6f93 44be 724c c3bd 1cfb 1ebd
000002d0: a69a 76bc 2b3d 273e 440f 013e fba9 2cbe
000002e0: 8cd6 c03a b185 9f3d 8291 2f3b 9e28 833e
000002f0: 77d3 9dbe a455 253e f0a2 53be 3d10 053e

critic.conv2.bias f4 [64]
-0.021337615 -0.0143610025 0.02494436 -0.013141473 -0.018827159 0.024646547 0.025599081 0.0
0.025116706 0.0 0.26246348 -0.014621741 0.024704786 -0.02303036 -0.02155342 0.020755753
0.2478646 0.024840308 -0.015071253 0.024835642 0.12581055 -0.015916618 0.022384837 -0.012071683
0.02508061 -0.022658011 -0.014642527 0.025479376 -0.01116229 0.025436923 0.016424056 0.2548397
-0.015905047 -0.02213869 0.016355233 0.024568744 -0.17831346 0.024069596 -0.024653776 0.025927523
0.025200743 0.15679352 -0.015964821 0.023779213 0.024815219 -0.012539368 -0.020500502 -0.013019629
0.028149769 0.12623702 -0.03293191 -0.005148227 0.15234695 0.024873242 0.04883804 0.018529853
0.09901112 0.024672197 0.024914278 0.236532 -0.056133144 0.0 0.024887543 -0.015920827
00000000: 39cc aebc 694a 6bbc 1d58 cc3c 554f 57bc
00000010: 6a3b 9abc 8ee7 c93c 2ab5 d13c 0000 0000
00000020: 8dc1 cd3c 0000 0000 9d61 863e 0790 6fbc
00000030: b161 ca3c 2aaa bcbc cc90 b0bc f807 aa3c
00000040: 38d0 7d3e e77d cb3c 6bed 76bc 1e74 cb3c
00000050: 7bd4 003e 9163 82bc 6860 b73c 4fc8 45bc
00000060: da75 cd3c 4b9d b9bc 36e7 6fbc 20ba d03c
00000070: 0ae2 36bc 1861 d03c be8b 863c 597a 823e
00000080: 4d4b 82bc 335c b5bc 69fb 853c 6444 c93c
00000090: ce97 36be 9a2d c53c b7f6 c9bc f565 d43c
000000a0: ca71 ce3c 7b8e 203e a8c8 82bc a0cc c23c
000000b0: 4949 cb3c ec71 4dbc abf0 a7bc 4850 55bc
000000c0: 589a e63c 4744 013e 9ce3 06bd 75b2 a8bb
000000d0: d700 1c3e f8c2 cb3c 660a 483d ebcb 973c
000000e0: 58c6 ca3d 591d ca3c 0719 cc3c 7235 723e
000000f0: deeb 65bd 0000 0000 f6e0 cb3c 656c 82bc

critic.conv2.lin.weight f4 [64, 64]
-0.16810672 -0.09409436 0.18053521 -0.051379833 0.02733685 -0.08185441 0.02315582 -0.082465336
-0.06902528 -0.10531815 0.26738477 0.09647812 0.073198706 -0.16675283 0.039480187 0.16748537
-0.06051452 -0.108039305 -0.10333821 -0.118921675 -0.19243969 0.17443225 -0.02087625 0.24592568
0.03854419 0.28905833 0.032360237 -0.065536916 -0.031627864 0.053804923 -0.04995772 0.07000279
-0.04785413 0.02459873 -0.12453991 -0.024242945 0.027734395 -0.08519835 -0.25122184 0.20728038
0.105987154 -0.30175278 0.049087185 -0.0038479427 -0.05357153 0.19913484 -0.12570183 0.09931711
0.020937987 -0.004019717 0.06238696 0.08382713 0.106667794 -0.053840432 -0.09016541 0.04796052
-0.13861789 0.103924826 0.079067454 -0.033759397 0.11085114 -0.037430476 0.23669066 0.06570084
-0.020202864 -0.2188455 0.10679228 -0.04374559 0.13509257 -0.012000768 -0.102164336 -0.18732269
0.0053960364 -0.21819875 0.08244667 -0.23897299 0.071577124 -0.11250139 -0.06913143 0.17125942
0.028530506 -0.12951913 0.08995239 0.0959168 -0.018538792 -0.26874426 -0.22366454 -0.09964933
-0.025699103 -0.062465493 -0.13722304 0.052160557 -0.022005526 0.049024206 0.0891345 -0.09338019
0.02713372 0.07251729 0.031028248 0.16499276 -0.009341738 -0.03837922 0.1890183 0.104623586
0.18435702 -0.1545124 -0.30722606 0.18260786 -0.007647007 0.00046103387 0.007008515 -0.048212703
0.09055261 -0.1407993 -0.15920751 0.034800634 -0.08693652 -0.017429272 0.01904465 0.123003066
-0.22246693 -0.0064180456 -0.105462715 0.024611259 -0.09355924 0.17363694 -0.14859031 -0.24369527
-0.19242726 0.023463668 0.04957034 -0.007903128 -0.23162925 -0.05093419 0.12321591 0.1177777
0.020411607 0.17647949 0.15495701 0.011185173 -0.12457011 -0.05408601 -0.05454709 0.090783276
-0.22736791 0.19308217 0.16006067 -0.1913739 -0.0809339 -0.053943384 0.07559422 0.085548155
0.29283655 -0.05702498 -0.06655064 0.17921689 0.24206059 0.11756837 0.12710048 -0.10714035
0.1306482 0.056949075 -0.047379073 0.19594406 0.008669398 0.2198393 0.25739366 0.18806739
-0.22094078 0.19872467 0.056492683 -0.11043783 -0.11167227 0.1029473 -0.01599819 0.32493204
-0.12359544 -0.14509888 0.27545673 -0.14941126 0.18469605 0.06621581 0.012246502 -0.003941649
0.114468694 0.057546232 -0.0034243185 0.030596461 0.015602825 0.037337825 -0.10292567 -0.15053071
0.07703896 0.014850124 -0.28668076 0.074971266 0.14159931 -0.1011459 -0.0012199606 0.066012554
0.15979423 -0.055061303 -0.11243492 -0.09303432 0.17314692 0.014570441 0.06773765 0.04452258
0.113889255 -0.113262706 0.04792394 -0.12831947 -0.08502856 0.14431709 -0.30254564 0.10780218
0.07024792 -0.22321193 -0.00960876 0.08078488 0.225767 0.113194965 0.19610181 0.17919344
-0.023902668 -0.02619441 -0.025337124 -0.07748609 -0.16217849 0.10377095 -0.005724221 0.089633204
-0.016811302 0.017257066 0.18788481 0.106083356 -0.015536717 -0.09476406 0.07745562 -0.20874037
-0.116283424 0.015835084 0.032251596 0.1084862 0.082814455 -0.11185666 -0.19275264 0.09947379
-0.066849045 0.31135798 0.13395353 -0.06868809 0.10603532 -0.08737537 -0.028618138 -0.055608086
00000000: 2b24 2cbe 8bb4 c0bd 39de 383e a973 52bd
00000010: 88f1 df3c 49a3 a7bd 46b1 bd3c 96e3 a8bd
00000020: 205d 8dbd 0bb1 d7bd a8e6 883e 5296 c53d
00000030: 34e9 953d 41c1 2abe fab5 213d 4981 2b3e
00000040: 13de 77bd b643 ddbd fca2 d3bd 358d f3bd
00000050: e90e 45be 5e9e 323e ab04 abbc f1d3 7b3e
00000060: 83e0 1d3d 74ff 933e 2b8c 043d 3838 86bd
00000070: 388c 01bd 8d62 5c3d 77a0 4cbd 9f5d 8f3d
00000080: b102 44bd 4783 c93c c80e ffbd 2499 c6bc
00000090: 3e33 e33c 797c aebd 26a0 80be 4f41 543e
000000a0: cb0f d93d 577f 9abe a50f 493d c42d 7cbb
000000b0: d26d 5bbd 01ea 4b3e fbb7 00be c566 cb3d
000000c0: 2486 ab3c d5b7 83bb 7889 7f3d 8fad ab3d
000000d0: a574 da3d c987 5cbd a4a8 b8bd 4072 443d
000000e0: d9f1 0dbe 8ad6 d43d 1eee a13d 4b47 0abd
000000f0: ec05 e33d b350 19bd 095f 723e 298e 863d
00000100: 7a80 a5bc 0919 60be e9b5 da3d 932e 33bd
00000110: b555 0a3e df9e 44bc 893b d1bd 85d1 3fbe
00000120: 3cd1 b03b 7e6f 5fbe cdd9 a83d 56b5 74be
00000130: 0797 923d 2167 e6bd c794 8dbd a15e 2f3e
00000140: cfb8 e93c aaa0 04be f538 b83d 0770 c43d
00000150: aade 97bc d998 89be 5108 65be f314 ccbd
00000160: ed86 d2bc d1db 7fbd 3284 0cbe 4fa6 553d
00000170: ef44 b4bc 9bcd 483d 268c b63d 1d3e bfbd
00000180: 8947 de3c f283 943d f42e fe3c ddf3 283e
00000190: 170e 19bc 8733 1dbd 038e 413e e444 d63d
000001a0: 16c8 3c3e 8038 1ebe bc4c 9dbe 8efd 3a3e
000001b0: be93 fabb ebb6 f139 afa7 e53b af7a 45bd
000001c0: a673 b93d b12d 10be 4b07 23be 1c8b 0e3d
000001d0: c60b b2bd d5c7 8ebc 8703 9c3c 08e9 fb3d
000001e0: 5fce 63be 784e d2bb d6fc d7bd 8d9d c93c
000001f0: fd9b bfbd e2cd 313e 0f28 18be 418b 79be
00000200: a70b 45be e136 c03c 450a 4b3d 1f7c 01bc
00000210: 3830 6dbe 5fa0 50bd 9f58 fc3d 6f35 f13d
00000220: 3e36 a73c 0ab7 343e 0dad 1e3e 0442 373c
00000230: 9d1e ffbd 4b89 5dbd c56c 5fbd 95ec b93d
00000240: 22d3 68be 55b7 453e f2e6 233e 85f7 43be
00000250: acc0 a5bd bdf3 5cbd 24d1 9a3d df33 af3d
00000260: acee 953e 0793 69bd b44b 88bd a284 373e
00000270: bbde 773e b0c7 f03d a126 023e 666c dbbd
00000280: a4c8 053e 6f43 693d 8f10 42bd 8fa5 483e
00000290: 170a 0e3c 8e1d 613e 1ac9 833e bd94 403e
000002a0: 4d3e 62be 7b7e 4b3e df64 673d 3b2d e2bd
000002b0: 6eb4 e4bd 09d6 d23d a30e 83bc 7e5d a63e
000002c0: 9b1f fdbd cd94 14be aa08 8d3e 44ff 18be
000002d0: f620 3d3e 289c 873d 8da5 483c f328 81bb
000002e0: 906e ea3d 99b5 6b3d 886a 60bb 6ea5 fa3c
000002f0: fea2 7f3c 8cef 183d b2ca d2bd b924 1abe
00000300: 9ac6 9d3d ef4d 733c d2c7 92be 898a 993d
00000310: 69ff 103e 9525 cfbd 16e7 9fba 9731 873d
00000320: 19a1 233e f687 61bd 4844 e6bd c788 bebd
00000330: 6d4d 313e dcb8 6e3c 09ba 8a3d 4f5d 363d
00000340: c53e e93d 47f6 e7bd e54b 443d 2e66 03be
00000350: 7423 aebd dcc7 133e 43e7 9abe 64c7 dc3d
00000360: 24de 8f3d ab91 64be 0f6e 1dbc 8b72 a53d
00000370: 772f 673e c3d2 e73d eace 483e 7c7e 373e
00000380: 87cf c3bc a995 d6bc cd8f cfbc 07b1 9ebd
00000390: 1e12 26be dd85 d43d 3f92 bbbb 9d91 b73d
000003a0: dbb7 89bc b15e 8d3c e064 403e 3b42 d93d
000003b0: b78d 7ebc a913 c2bd 0da1 9e3d 09c0 55be
000003c0: 0126 eebd 94b8 813c 401a 043d 032e de3d
000003d0: a09a a93d 1b15 e5bd f360 45be eab8 cb3d
000003e0: 27e8 88bd 506a 9f3e 1d2b 093e 57ac 8cbd
000003f0: 0c29 d93d dcf1 b2bd 9670 eabc 4ec5 63bd

critic.fc.weight f4 [1, 65]
-0.057956282 -0.37764013 0.31733692 -0.020399487 -0.15049835 0.107768424 0.13665 0.043238
0.19131128 0.14836535 -0.7680515 -0.2763912 0.20442425 -0.05117779 -0.14351615 0.035926983
0.31671572 0.21866988 -0.0852398 0.17222191 -0.44138092 -0.2560223 0.044412073 -0.305084
0.21268435 -0.1371366 -0.10211018 0.30150253 0.24416411 0.16738771 0.014859798 -0.8035879
-0.024888568 -0.15223166 0.09978083 0.14466032 0.4854666 0.08970605 0.004073968 -0.3337779
0.21913731 0.6034856 -0.2394541 0.084724255 0.07537591 -0.17064951 -0.04193124 -0.13915274
0.3063714 -0.71959424 -0.16685033 -0.28824 0.40843454 0.24279426 0.12383884 -0.01897363
0.30328402 0.11856884 0.2619346 0.45844555 -0.18877427 -0.114574306 0.22899657 -0.24930096
-0.8339033
00000000: 9163 6dbd 0c5a c1be fc79 a23e d31c a7bc
00000010: 3d1c 1abe b1b5 dc3d faed 0b3e 541a 313d
00000020: 1be7 433e 16ed 173e 069f 44bf 2683 8dbe
00000030: 9754 513e cd9f 51bd e6f5 12be 2c28 133d
00000040: 9028 a23e ffea 5f3e 3492 aebd f15a 303e
00000050: aefc e1be 5b15 83be 6fe9 353d f833 9cbe
00000060: edc9 593e 896d 0cbe 241f d1bd 8a5e 9a3e
00000070: 2806 7a3e af67 2b3e 8376 733c f0b7 4dbf
00000080: 1ce3 cbbc 9ee2 1bbe e459 cc3d d621 143e
00000090: 148f f83e ceb7 b73d ec7e 853b f0e4 aabe
000000a0: 8865 603e 087e 1a3f 7533 75be e983 ad3d
000000b0: af5e 9a3d bfbe 2ebe 18c0 2bbd 0e7e 0ebe
000000c0: b6dc 9c3e 5437 38bf d0da 2abe 3194 93be
000000d0: 551e d13e 0f9f 783e 389f fd3d 966e 9bbc
000000e0: 0b48 9b3e 38d4 f23d 4b1c 863e 60b9 ea3e
000000f0: 0b4e 41be efa5 eabd 147e 6a3e c048 7fbe
00000100: b07a 55bf

_actor_critic.actor.sigma_param f4 [2, 1]
-0.280177 -0.3773298
00000000: 5c73 8fbe 5f31 c1be

_actor_critic.actor.conv1.bias f4 [64]
0.122993626 0.0038267125 0.10716352 0.100995205 0.0 0.11170648 -0.018592311 0.09498409
-0.03211942 -0.026966255 0.03768517 0.0 0.1134418 0.10276494 0.12663692 0.09325314
0.105009444 -0.0057678563 0.093449384 0.13289283 0.11037274 0.0 -0.006019983 -0.0051200804
0.058485627 0.10774744 0.08432012 -0.0007419287 0.09350148 0.077726446 -0.024202751 -0.012506195
0.09221033 0.10682882 0.10246096 0.1004019 0.008970258 -0.027628941 0.10681932 0.08311411
-0.043777995 0.0 0.06965279 0.10320982 -0.0051968037 0.048453864 0.09073483 -0.026451588
0.085910104 0.0 0.12202031 -0.00946727 0.09891495 0.10920133 0.092103414 -0.06359751
0.101247154 0.0 -0.022658216 0.10691074 -0.045117352 0.087764844 -0.013330451 -0.07292309
00000000: 15e4 fb3d 95c9 7a3b 8c78 db3d 93d6 ce3d
00000010: 0000 0000 5ec6 e43d e74e 98bc 0587 c23d
00000020: a78f 03bd 56e8 dcbc c45b 1a3d 0000 0000
00000030: 2d54 e83d 6d76 d23d 1cad 013e 81fb be3d
00000040: 310f d73d 4900 bdbb 6462 bf3d 0f15 083e
00000050: 1a0b e23d 0000 0000 4743 c5bb 59c6 a7bb
00000060: a08e 6f3d b1aa dc3d 07b0 ac3d fe7d 42ba
00000070: b47d bf3d 0b2f 9f3d d944 c6bc c9e6 4cbc
00000080: c5d8 bc3d 12c9 da3d 0dd7 d13d 839f cd3d
00000090: fdf7 123c 1756 e2bc 16c4 da3d bb37 aa3d
000000a0: 8e50 33bd 0000 0000 1fa6 8e3d ac5f d33d
000000b0: f349 aabb 8f77 463d 2fd3 b93d 00b1 d8bc
000000c0: a3f1 af3d 0000 0000 c9e5 f93d 9c1c 1bbc
000000d0: ec93 ca3d f2a4 df3d b7a0 bc3d 693f 82bd
000000e0: ab5a cf3d 0000 0000 b99d b9bc 05f4 da3d
000000f0: f9cc 38bd 0ebe b33d f767 5abc b358 95bd

_actor_critic.actor.conv1.lin.weight f4 [64, 3]
0.08428563 0.21661802 -0.061112538 -0.26374745 -0.297272 0.10917581 0.13687417 0.2092611
-0.1214277 0.16017318 0.11109698 -0.04561283 -0.03889146 -0.14642416 -0.043609384 0.19156864
0.18217348 -0.15228936 -0.049934767 -0.07686225 0.03644322 0.28318107 0.30573237 0.15095635
0.010517991 -0.112658605 0.06015893 -0.13886526 0.03699281 -0.30711502 0.15258147 -0.0113477865
0.11533302 -0.03497644 -0.021604704 -0.276845 0.027920408 0.27271557 0.0049060555 0.12683164
0.41192785 0.028461283 -0.016892562 0.2768423 0.13294266 0.36644465 0.1839181 0.20519832
0.13217023 0.2700678 -0.0017010508 -0.0031581146 -0.07625113 -0.09713551 0.058935836 0.22687759
0.025172047 -0.13067022 0.2801589 0.016615495 -0.0426156 0.24149863 0.21349621 -0.13825709
-0.024552792 -0.05040119 -0.0076640984 -0.15303385 0.008019585 -0.050970938 -0.0042592064 -0.006818531
0.32697734 -0.03327624 0.18766388 -0.085745886 0.19795772 0.24533302 0.27117413 0.11586378
0.17205338 0.0005069177 -0.08846204 -0.021473363 0.07757293 0.19518806 0.023839809 0.18128729
0.059365675 0.15834929 -0.0032260043 -0.080176555 0.022516608 -0.0648101 0.007478487 -0.09412941
0.10373846 0.16834989 -0.06519765 0.21801265 0.34729388 0.034136035 0.13794804 0.27591482
0.14541116 0.006144975 0.3574347 0.05771659 -0.24107675 -0.30678397 0.063748285 0.04585336
-0.079237744 -0.0034976085 0.23206672 0.22273111 0.18464208 0.06061457 0.0849296 0.24168532
0.051977012 -0.22796014 -0.22004047 -0.07255797 -0.02765434 -0.00085478846 0.20759723 0.023590634
0.077205814 0.082217135 0.29970196 0.054021504 -0.039783042 -0.0025536278 -0.13388039 0.017263386
-0.0070350603 0.156118 0.09388379 0.24896255 0.22434385 0.027184548 -0.0060211928 -0.029895788
0.24904579 0.12038711 0.18697785 -0.10412845 -0.04552883 -0.08717668 -0.062945195 0.29964125
0.034781404 -0.29388785 -0.13885224 0.12293925 0.18961294 0.31712133 0.08966823 -0.03357022
0.16774185 0.115489684 0.36875522 0.17962135 -0.089119546 -0.048212312 -0.0034312294 0.15026711
0.15410934 0.43882087 0.092831284 -0.08925291 -0.07607446 -0.14551541 -0.08036495 -0.09317905
0.046800572 0.035953887 0.25677177 0.018250631 0.14910693 -0.21602178 -0.29022816 -0.088178456
0.24690332 0.101714015 -0.068753876 -0.14703733 0.03834794 -0.1909161 -0.023262188 0.15292816
00000000: f29d ac3d 1dd1 5d3e 2451 7abd e809 87be
00000010: 0934 98be 9197 df3d be28 0c3e 8b48 563e
00000020: 16af f8bd 7004 243e d086 e33d 85d4 3abd
00000030: a74c 1fbd 37f0 15be c19f 32bd 922a 443e
00000040: af8b 3a3e bef1 1bbe 6688 4cbd f569 9dbd
00000050: 7c45 153d 1cfd 903e f488 9c3e 4d94 1a3e
00000060: a753 2c3c 8eb9 e6bd 3669 763d b232 0ebe
00000070: c685 173d 2e3e 9dbe 513e 1c3e 11ec 39bc
00000080: b833 ec3d 7543 0fbd 59fc b0bc a1be 8dbe
00000090: 57b9 e43c 60a1 8b3e fac2 a03b 27e0 013e
000000a0: 35e8 d23e a327 e93c 4562 8abc 46be 8d3e
000000b0: 1f22 083e a29e bb3e 0755 3c3e 821f 523e
000000c0: a257 073e 5446 8a3e cbf5 deba 5ff8 4ebb
000000d0: 8d29 9cbd fbee c6bd b466 713d 9952 683e
000000e0: 9c35 ce3c 6ace 05be fd70 8f3e 381d 883c
000000f0: b28d 2ebd 6b4b 773e c09e 5a3e 4493 0dbe
00000100: f022 c9bc 7a71 4ebd 1e23 fbbb e8b4 1cbe
00000110: 9464 033c e7c6 50bd d090 8bbb fc6d dfbb
00000120: 9369 a73e ab4c 08bd f62a 403e 8a9b afbd
00000130: 6eb5 4a3e 9438 7b3e 56d7 8a3e fd49 ed3d
00000140: c32e 303e ace2 043a 962b b5bd e8e8 afbc
00000150: 8ede 9e3d 61df 473e b44b c33c 60a3 393e
00000160: 6c29 733d 5126 223e 5f6b 53bb 9b33 a4bd
00000170: c074 b83c 28bb 84bd 190e f53b ecc6 c0bd
00000180: d474 d43d ea63 2c3e 5886 85bd b53e 5f3e
00000190: 81d0 b13e 3ad2 0b3d 4042 0d3e b544 8d3e
000001a0: aae6 143e c95b c93b ae01 b73e 3b68 6c3d
000001b0: d3dc 76be ca12 9dbe 768e 823d bcd0 3b3d
000001c0: 6647 a2bd 2238 65bb e6a2 6d3e a013 643e
000001d0: d012 3d3e fc46 783d 92ef ad3d 5b7c 773e
000001e0: d9e5 543d 626e 69be 4a52 61be 4699 94bd
000001f0: 5b8b e2bc e213 60ba 5e94 543e 2541 c13c
00000200: 151e 9e3d 7561 a83d 8972 993e a745 5d3d
00000210: 8bf3 22bd c45a 27bb f117 09be f26b 8d3c
00000220: 5d86 e6bb 66dd 1f3e 2546 c03d 0af0 7e3e
00000230: 65ba 653e 21b2 de3c 6d4d c5bb 03e8 f4bc
00000240: dc05 7f3e 848d f63d 1f77 3f3e 4c41 d5bd
00000250: 707c 3abd b089 b2bd 69e9 80bd 946a 993e
00000260: f276 0e3d 7878 96be 482f 0ebe 93c7 fb3d
00000270: e529 423e ba5d a23e faa3 b73d ed80 09bd
00000280: 85c4 2b3e db85 ec3d 7ccd bc3e a9ee 373e
00000290: 4f84 b6bd 467a 45bd 7ade 60bb 9fdf 193e
000002a0: d7ce 1d3e 21ad e03e 541e be3d 3bca b6bd
000002b0: edcc 9bbd fe01 15be 6196 a4bd a8d4 bebd
000002c0: f5b1 3f3d 6244 133d 9777 833e 5982 953c
000002d0: 7daf 183e d034 5dbe c998 94be e896 b4bd
000002e0: 39d4 7c3e 704f d03d d5ce 8cbd f490 16be
000002f0: bb12 1d3d 837f 43be 5890 bebc 3399 1c3e

_actor_critic.actor.conv2.bias f4 [64]
0.0029640428 0.10545423 0.09725603 -0.005844469 0.0 -0.008292355 -0.0062910737 0.0
0.102358244 -0.0061853137 0.0009413552 0.103242315 0.10120209 -0.010495869 -0.020360284 -0.013548192
0.098565795 -0.0080781495 -0.013473577 0.099678606 0.09496277 -0.0059834523 -0.013022198 -0.010004918
0.0 -0.017929327 0.08709119 0.107235886 0.10366742 0.10630328 -0.03170661 0.0
0.09691197 0.09179873 0.09392268 0.10089015 -0.008180634 0.09420632 0.102382444 0.09338699
0.10907437 0.09267188 0.10158708 0.099290565 0.094581924 -0.01734452 0.097972736 0.09799809
0.10397118 0.09208496 0.13263586 -0.0151523035 0.08846282 0.0 0.10672114 -0.008466491
-0.0010356641 0.0 0.14960754 0.08700658 0.10251875 -0.00930786 -0.015387501 -0.008140285
00000000: 6340 423b 63f8 d73d 2b2e c73d f682 bfbb
00000010: 0000 0000 a8dc 07bc 5a25 cebb 0000 0000
00000020: 33a1 d13d 2cae cabb 47c5 763a b570 d33d
00000030: 0b43 cf3d def6 2bbc 9cca a6bc 3cf9 5dbc
00000040: dddc c93d 375a 04bc 47c0 5cbc 4c24 cc3d
00000050: d77b c23d d610 c4bb 0f5b 55bc abeb 23bc
00000060: 0000 0000 86e0 92bc de5c b23d 7d9e db3d
00000070: 964f d43d 89b5 d93d cade 01bd 0000 0000
00000080: c879 c63d f900 bc3d 895a c03d 7f9f ce3d
00000090: 1108 06bc 3eef c03d e3ad d13d ae41 bf3d
000000a0: 6262 df3d c1ca bd3d e30c d03d da58 cb3d
000000b0: 2bb4 c13d 1816 8ebc eea5 c83d 39b3 c83d
000000c0: d8ee d43d 0a97 bc3d b2d1 073e 5e41 78bc
000000d0: ff2b b53d 0000 0000 9d90 da3d 09b7 0abc
000000e0: 1fbf 87ba 0000 0000 b832 193e 8130 b23d
000000f0: 5af5 d13d ff7f 18bc db1b 7cbc d45e 05bc

_actor_critic.actor.conv2.lin.weight f4 [64, 64]
-0.15351857 0.050952613 -0.0073353094 -0.08247722 -0.03432532 -0.19706605 -0.027203275 -0.23569788
0.008952074 0.18577392 -0.06801528 0.12652022 -0.05733482 -0.027454624 -0.13406965 0.0160009
0.03969971 -0.049800124 0.23616195 -0.09132009 0.11621314 -0.19154201 0.15501924 -0.079037994
0.113752924 0.03441611 -0.0750456 -0.13129604 -0.014423599 0.15620466 0.151054 -0.07813895
0.12390587 0.053345833 -0.16588649 0.09203775 0.11780051 -0.005687146 0.0320301 0.004922651
0.14894295 0.22458522 0.12258527 0.2083867 -0.034300826 -0.082482986 0.14385292 0.1027372
-0.17806017 0.31918252 0.096412994 -0.028556995 -0.20555872 -0.0456964 -0.093123004 -0.14573257
0.16454363 -0.07099559 -0.2129007 -0.050353955 0.059099022 -0.016601434 -0.12638114 0.008616996
-0.13150522 0.015460883 0.08340339 0.21638665 -0.003698689 0.2190985 -0.059792522 0.1190065
-0.07968968 0.044706468 -0.024416368 -0.12816766 0.22960418 0.24561866 0.11287139 0.34897548
0.088806905 -0.2624825 -0.040595844 0.28212494 0.16791865 -0.09268893 0.06600545 -0.20216672
0.09586701 -0.028993657 -0.0066628275 0.025546415 -0.07521164 0.24583173 0.13845947 -0.062449753
0.055233832 0.2682775 0.12079905 0.41536593 -0.025470583 -0.0063631283 0.29611838 0.109465666
-0.04190121 0.07549912 -0.10653725 -0.02618822 0.117338814 0.032220036 0.29709226 0.05330681
0.3640696 -0.016398966 0.23501013 -0.08677885 0.28038377 0.12440691 0.09958125 -0.0076186676
-0.027296877 -0.13902366 0.017389748 0.23469222 0.06496133 0.2698508 0.012778564 -0.007599285
0.2534121 0.0008799359 0.18374863 -0.04183356 0.04096289 -0.017783228 -0.020957327 0.27128747
-0.18651016 -0.0049218177 0.27488604 -0.04523523 0.26058573 0.11856853 0.15397288 0.06712919
0.07245443 0.22538437 0.09997836 0.056095656 -0.043519266 -0.09781506 0.07550426 -0.030181859
-0.046808455 0.11255703 0.025869071 -0.0024434875 0.12095593 0.24183187 -0.08443006 0.2154313
-0.109261736 0.132062 0.122389145 0.4181998 0.059755046 -0.11297783 0.13189597 0.0958582
0.046211455 -0.03014818 -0.06838277 0.19114575 -0.04728752 0.043503266 0.091748975 -0.07236184
0.019655295 -0.06255911 -0.06905437 -0.39616022 0.15387048 0.04680297 0.020049585 -0.10854503
0.119106315 -0.1527246 -0.1311153 0.15970422 0.13453601 -0.14986978 -0.14675905 0.25209802
-0.055646837 -0.0017408135 0.060613837 -0.08428214 0.021512263 0.047302738 -0.22268707 0.10910794
-0.20088714 -0.008426314 0.055272013 -0.13649355 -0.01594282 0.02825541 0.023152221 0.08633365
0.24659507 0.028442383 0.034292746 0.019436512 -0.12425123 0.30542043 0.1165921 -0.17263734
-0.21897934 0.008290817 0.19002734 -0.018739976 0.19066261 -0.07049538 0.19685605 0.0705525
0.06562948 -0.1866547 0.033947024 0.0144145535 -0.10224403 -0.07108436 -0.044679396 0.094494484
0.06641948 0.01614632 -0.052544657 -0.0037353192 0.030673312 -0.21762027 -0.013965133 -0.08692899
-0.056532852 0.0064096176 0.08510384 0.099058494 -0.14773169 -0.21614045 -0.048022635 -0.25171632
-0.22946852 0.073139146 -0.2580927 -0.011506925 0.08025388 0.12160657 0.04310635 -0.21163781
00000000: f933 1dbe b0b3 503d 095d f0bb d1e9 a8bd
00000010: b598 0cbd afcb 49be 67d9 debc c95a 71be
00000020: b8ab 123c 853b 3e3e 984b 8bbd 848e 013e
00000030: ebd7 6abd 85e8 e0bc 8e49 09be 5214 833c
00000040: 2a9c 223d 37fb 4bbd 70d4 713e 0706 bbbd
00000050: 2801 ee3d 9723 44be 5dbd 1e3e acde a1bd
00000060: 4bf7 e83d e8f7 0c3d 82b1 99bd 7872 06be
00000070: f550 6cbc 1df4 1f3e e6ad 1a3e 5007 a0bd
00000080: 5cc2 fd3d 2981 5a3d 26de 29be 4a7e bc3d
00000090: 6541 f13d 3d5b babb fe31 033d 314e a13b
000000a0: 8084 183e abf9 653e fc0d fb3d 5363 553e
000000b0: 067f 0cbd d7ec a8bd 2e4e 133e e267 d23d
000000c0: 6855 36be e46b a33e 2d74 c53d 5cf0 e9bc
000000d0: fc7d 52be 262c 3bbd 46b7 bebd eb3a 15be
000000e0: 207e 283e 2366 91bd a402 5abe f33f 4ebd
000000f0: d111 723d bbff 87bc 0f6a 01be 4d2e 0d3c
00000100: 4ea9 06be a54f 7d3c 66cf aa3d 7694 5d3e
00000110: b465 72bb 5b5b 603e 01e9 74bd aeb9 f33d
00000120: 5834 a3bd 211e 373d d604 c8bc 623e 03be
00000130: 5c1d 6b3e 7583 7b3e 1e29 e73d eaac b23e
00000140: 65e0 b53d 1b64 86be d447 26bd ae72 903e
00000150: def2 2b3e b2d3 bdbd de2d 873d cb04 4fbe
00000160: ec55 c43d 1b84 edbc d953 dabb b746 d13c
00000170: 8f08 9abd 50bb 7b3e 52c8 0d3e 50cb 7fbd
00000180: df3c 623d ab5b 893e 7e65 f73d d8aa d43e
00000190: afa7 d0bc ca81 d0bb d49c 973e 892f e03d
000001a0: 9aa0 2bbd 489f 9a3d 3430 dabd ae88 d6bc
000001b0: 554f f03d 28f9 033d 7a1c 983e 3e58 5a3d
000001c0: 5567 ba3e 2057 86bc 7fa6 703e 1cb9 b1bd
000001d0: 768e 8f3e 0dc9 fe3d 41f1 cb3d 04a6 f9bb
000001e0: b39d dfbc 385c 0ebe f274 8e3c 2853 703e
000001f0: 720a 853d e229 8a3e 2f5d 513c 6c03 f9bb
00000200: 3bbf 813e 80ab 663a 9a28 3c3e ab59 2bbd
00000210: b4c8 273d 22ae 91bc b3ae abbc 31e6 8a3e
00000220: 85fc 3ebe 3347 a1bb ddbd 8c3e 9448 39bd
00000230: 7e6b 853e 0fd4 f23d 11ab 1d3e 077b 893d
00000240: fd62 943d 29cb 663e 74c1 cc3d 8fc4 653d
00000250: 4241 32bd 4353 c8bd faa1 9a3d f23f f7bc
00000260: 39ba 3fbd 4d84 e63d 60eb d33c eb22 20bb
00000270: beb7 f73d c6a2 773e abe9 acbd 069a 5c3e
00000280: 9ec4 dfbd 433b 073e 29a7 fa3d 491e d63e
00000290: b5c1 743d ec60 e7bd bd0f 073e 4e51 c43d
000002a0: 3948 3d3d 51f9 f6bc 440c 8cbd b6bb 433e
000002b0: 8fb0 41bd 7b30 323d e3e6 bb3d 7232 94bd
000002c0: 2404 a13c fe1e 80bd 616c 8dbd 83d5 cabe
000002d0: 3990 1d3e 79b4 3f3d 073f a43c db4c debd
000002e0: 03ee f33d d663 1cbe 1743 06be 8189 233e
000002f0: cfc3 093e 7777 19be 0148 16be fe12 813e
00000300: f0ed 63bd 022c e4ba 3746 783d 1d9c acbd
00000310: 7c3a b03c 84c0 413d 1408 64be fc73 df3d
00000320: 5cb5 4dbe 860e 0abc e864 623d f7c4 0bbe
00000330: 849a 82bc e477 e73c baa9 bd3c b2cf b03d
00000340: 6b83 7c3e 0000 e93c 8d76 0c3d 5239 9f3c
00000350: 6e77 febd 1160 9c3e d7c7 ee3d d8c7 30be
00000360: 1f3c 60be 35d6 073c 8796 423e 9484 99bc
00000370: 0f3d 433e e25f 90bd a294 493e d47d 903d
00000380: c068 863d 6922 3fbe 090c 0b3d 052b 6c3c
00000390: 5165 d1bd ad94 91bd be01 37bd 5386 c13d
000003a0: f006 883d 4a45 843c 1139 57bd 42cc 74bb
000003b0: 9946 fb3c d9d7 5ebe 03ce 64bc d407 b2bd
000003c0: fe8e 67bd c507 d23b ec4a ae3d 2edf ca3d
000003d0: fa46 17be ec53 5dbe 62b3 44bd f6e0 80be
000003e0: ccf9 6abe fac9 953d ba24 84be 8b87 3cbc
000003f0: 255c a43d de0c f93d 4990 303d 95b7 58be

_actor_critic.actor.fc_mu.weight f4 [2, 65]
-0.006023855 0.13877246 0.14023532 0.030441824 0.0021016002 -0.0082506975 -0.01025216 -0.0006208619
0.13734618 0.0068103005 0.0026166984 0.13595359 0.13285588 -0.0018084736 0.0058490075 -0.013669389
0.13036543 -0.0052993395 -0.0052717095 0.13560607 0.128909 -0.0022110126 0.0131784165 0.006737761
0.0023304552 0.013285804 0.13026807 0.14080448 0.14425968 0.14345057 -0.00673087 0.0018913008
0.13776872 0.12221147 0.13401538 0.1363796 -0.004040751 0.13666464 0.13791376 0.13652539
0.14251722 0.12969558 0.13237749 0.13715394 0.123762295 -0.0009409544 0.13410214 0.12388103
0.1381082 0.12238656 0.14331724 0.0018520786 0.133521 0.0005628072 0.1431388 -0.004708942
0.0015723486 -0.0011041369 0.21365626 0.10862534 0.13139112 0.003473916 0.00849464 0.024553275
0.053579673 -0.011610856 -0.00065266475 -0.0017709015 0.013865604 0.0010759748 0.0039810156 -4.553463e-05
0.00023821963 0.0004505571 0.0018468548 -0.0017885894 -0.0014101102 0.007919552 -0.0013692811 0.009744403
-0.010161212 0.0012228272 0.0018784523 -0.0017161189 -0.0036383446 0.008932663 -0.0049765105 0.011005297
-0.0120512 0.0024500175 0.0077219713 -0.028367339 -0.0035683843 -0.011680527 -0.0055649844 -0.02662482
-0.00116493 -0.00064670166 0.011854651 -0.0001971642 -0.0066379737 -0.008106435 -0.0022265415 0.004022875
-0.0029391302 -0.0011681846 -0.0022630368 0.0069734794 -0.0010131684 0.009983998 0.001275664 -0.003115178
0.009752766 -0.00078232767 0.0036841717 0.047560237 -0.0058472706 0.00026689298 0.0010100227 -0.011574711
-0.00082805945 -0.008373431 -0.0016133084 0.05511482 0.019722672 0.0027046704 0.0025342444 -0.00045740162
-0.008500122 -0.14030077
00000000: c263 c5bb 5e1a 0e3e d999 0f3e 2261 f93c
00000010: 00bb 093b ef2d 07bc adf8 27bc 56c1 22ba
00000020: 7aa4 0c3e f128 df3b ea7c 2b3b 6b37 0b3e
00000030: 5f0b 083e 4e0a edba 08a9 bf3b 93f5 5fbc
00000040: 847e 053e 15a6 adbb 4ebe acbb 51dc 0a3e
00000050: b900 043e a3e6 10bb 49ea 573c 70c8 dc3b
00000060: 8dba 183b b3ac 593c fe64 053e 0d2f 103e
00000070: cfb8 133e b5e4 123e a18e dcbb 86e5 f73a
00000080: 3e13 0d3e 024a fa3d 543b 093e 18a7 0b3e
00000090: 4768 84bb d1f1 0b3e 4439 0d3e 50cd 0b3e
000000a0: 09f0 113e ebce 043e f78d 073e 1572 0c3e
000000b0: 1677 fd3d 62aa 76ba 1252 093e 56b5 fd3d
000000c0: 3c6c 0d3e cea5 fa3d c1c1 123e 72c1 f23a
000000d0: bbb9 083e 5a89 133a fa92 123e 784d 9abb
000000e0: 4417 ce3a b0b8 90ba b5c8 5a3e f676 de3d
000000f0: 658b 063e a4aa 633b 1a2d 0b3c f323 c93c
00000100: 5c76 5b3d 763b 3ebc 9717 2bba 981d e8ba
00000110: 8f2c 633c b907 8d3a 2e73 823b 70fc 3eb8
00000120: 98ca 7939 c038 ec39 2a12 f23a 1a6f eaba
00000130: 72d3 b8ba 02c1 013c 7379 b3ba fda6 1f3c
00000140: 367b 26bc 4647 a03a 6636 f63a 65ef e0ba
00000150: 4b71 6ebb 4e5a 123c ff11 a3bb 904f 343c
00000160: 6572 45bc 7990 203b 9708 fd3b 9f62 e8bc
00000170: 8edb 69bb ae5f 3fbc 795a b6bb 4b1c dabc
00000180: 91b0 98ba 6a87 29ba 033a 423c ddbd 4eb9
00000190: 5c83 d9bb dad0 04bc 2beb 11bb 52d2 833b
000001a0: 6c9e 40bb c51d 99ba 754f 14bb c981 e43b
000001b0: 4acc 84ba ec93 233c 2e34 a73a 0428 4cbb
000001c0: 11ca 1f3c 1f15 4dba 2572 713b 86ce 423d
000001d0: 769a bfbb c5ed 8b39 bd62 843a dba3 3dbc
000001e0: 2112 59ba b730 09bc a675 d3ba 14c0 613d
000001f0: 7191 a13c d740 313b 9115 263b 68cf efb9
00000200: 1944 0bbc 01ab 0fbe
