rl_environments/trained_models/PPO_scheduling_3_obj_j10m5/policy.pth (torch, 42334 bytes, 24 tensors)

actor.sigma_param f4 [2, 1]
0	0xbe650757	-0.22366081
1	0xbd975edc	-0.0739114

actor.conv1.bias f4 [64]
0	0xbcc42539	-0.02394353
1	0x3dcdd1eb	0.10049804
2	0x3e102472	0.14076403
3	0x00000000	0.0
4	0x3daf7223	0.08566692
5	0x3e15321c	0.14569896
6	0x3df0da19	0.11760349
7	0xbd898c54	-0.067162186
8	0x00000000	0.0
9	0x3e1a8cf0	0.15092826
10	0xbd1b1dfd	-0.037870396
11	0x3e100849	0.1406566
12	0xbd354cc0	-0.044262648
13	0xbd404e76	-0.046949826
14	0x3e0d7ade	0.13816401
15	0x3e11bdcc	0.14232558
16	0x00000000	0.0
17	0x3e0b3dd5	0.13597806
18	0x00000000	0.0
19	0x3dcdfd3a	0.10058065
20	0x3e130a7d	0.1435947
21	0x3dfe94fd	0.12430761
22	0x3dfa7882	0.12230016
23	0x3e0a5ecb	0.13512723
24	0x3e1651fc	0.14679712
25	0x3df078de	0.117418036
26	0x3e203850	0.15646482
27	0xbbac8b9c	-0.005265666
28	0x3e09e43a	0.13465968
29	0x3e192746	0.14956388
30	0x3e244904	0.16043478
31	0xbd0956fe	-0.033530228
32	0xbc9f7151	-0.019463213
33	0x00000000	0.0
34	0x00000000	0.0
35	0xbce6c3c8	-0.028169528
36	0xbc8f5ab0	-0.017499298
37	0xbda75d88	-0.081721365
38	0x3e0aaa52	0.13541535
39	0x3e19c3c0	0.15016079
40	0x3e1cd8b1	0.15317036
41	0x3d61bb1a	0.055110075
42	0x3e1049c6	0.14090642
43	0xbd0d12c7	-0.034441736
44	0x00000000	0.0
45	0xbd59d5d6	-0.053182445
46	0x3e159fd6	0.14611754
47	0x3e07acf4	0.1324957
48	0xbd718307	-0.058962848
49	0x3e148ac3	0.14506058
50	0xbd468e3e	-0.048475496
51	0xbcb8318b	-0.022484561
52	0xbc4bd0ed	-0.0124399485
53	0x00000000	0.0
54	0xbd24272f	-0.04007643
55	0x3ded0d55	0.115748085
56	0x3e11c58c	0.14235514
57	0xbd0eebce	-0.03489285
58	0xbdaa557d	-0.08317087
59	0x00000000	0.0
60	0x3e0b3b97	0.1359695
61	0x3e1b96bc	0.1519422
62	0xbc79ffc6	-0.015258735
63	0x3e0bbfc3	0.1364737

actor.conv1.lin.weight f4 [64, 3]
0	0xbd4a219c	-0.04934846
1	0xbc5689a1	-0.013094337
2	0xbdd3c4ab	-0.10340246
3	0x3d937da8	0.072017014
4	0xbcdd5a84	-0.0270207
5	0x3e8ba34f	0.27273032
6	0x3db7990f	0.089647405
7	0x3e3ac49f	0.18239067
8	0x3e8d1e52	0.27562195
9	0xbe127155	-0.14301045
10	0xbe44570d	-0.19173832
11	0xbd03856c	-0.032109663
12	0x3e5470d8	0.20746171
13	0x3d08e722	0.03342355
14	0x3d2219b5	0.039575297
15	0x3dfb7569	0.122782536
16	0x3e13e460	0.14442587
17	0x3e073ecf	0.13207553
18	0x3e5557e7	0.20834313
19	0xbe2432f6	-0.16035065
20	0x3d061164	0.03273143
21	0xbe226050	-0.15857053
22	0x3e7a40f8	0.24438846
23	0xbe2eedb1	-0.1708286
24	0xbdb3dc9d	-0.08782313
25	0xbd9827f1	-0.07429493
26	0xbdbf074c	-0.09327564
27	0x3e8cd7a0	0.2750826
28	0x3e801152	0.25013214
29	0x3d070984	0.03296806
30	0xbea0b3be	-0.31387132
31	0x3d02b8e1	0.031914596
32	0x3d163cab	0.03667895
33	0x3e919ad7	0.28438446
34	0x3e293c3f	0.16526888
35	0x3e01a254	0.1265958
36	0xbd47db87	-0.048793342
37	0x3e1d33c6	0.15351781
38	0xbe733027	-0.23748837
39	0xbe0a572b	-0.13509814
40	0x3d59cf0d	0.053175975
41	0xbe3036ef	-0.17208456
42	0x3e01d969	0.12680592
43	0x3e0c7c45	0.1371928
44	0x3db8df55	0.09026972
45	0x3e302a64	0.1720367
46	0x3e93a402	0.28836066
47	0x3dc10337	0.09424441
48	0xbda3f5a6	-0.08005838
49	0xbe1e6e6a	-0.15471807
50	0xbe05c12f	-0.13061975
51	0x3e0a6df6	0.1351851
52	0x3ebfb7a8	0.37444806
53	0x3ed050a0	0.40686512
54	0xbe484d53	-0.19560747
55	0xbcf05500	-0.029337406
56	0xbd6c57f5	-0.05770107
57	0x3df47a17	0.11937349
58	0x3bf6a844	0.007527383
59	0x3e02a487	0.12758075
60	0x3e6392b7	0.22223936
61	0x3e98978a	0.29803115
62	0x3e1e3be7	0.15452538
63	0xbda991fe	-0.08279799
64	0x3e20fbe0	0.15721083
65	0x3e4e9203	0.20172887
66	0x3ea2847f	0.31741711
67	0x3e3c6ffd	0.18402095
68	0xbd2632a0	-0.040575624
69	0x3e8678ba	0.26263982
70	0x3da48838	0.08033794
71	0x3ed274c9	0.41104725
72	0x3e28240a	0.16419998
73	0x3e4e0c17	0.201218
74	0x3d03d10a	0.032181777
75	0xbd0188aa	-0.031624474
76	0x3e0357c4	0.12826449
77	0x3e602a07	0.21891032
78	0x3cffde7d	0.03123402
79	0x3e368337	0.17823492
80	0x3e1841e5	0.14868887
81	0xbd0cf0ee	-0.034409456
82	0xbd15339e	-0.03642618
83	0xb9de057d	-0.0004234723
84	0x3d746427	0.059665825
85	0x3e16e1ce	0.14734575
86	0x3e24c761	0.16091682
87	0x3e3be8b1	0.18350483
88	0x3e44164e	0.19149134
89	0x3b218f1e	0.0024651955
90	0x3e37e67f	0.17959021
91	0x3e93d378	0.28872275
92	0x3e2fb925	0.17160471
93	0x3cfafc74	0.030637957
94	0xbdeea769	-0.11653025
95	0xbe799459	-0.24372996
96	0xbd87793b	-0.0661492
97	0x3c8da9c0	0.017292857
98	0xbd93e541	-0.07221461
99	0xbdf47c16	-0.1193773
100	0xbdecc637	-0.11561244
101	0xbbba6ab9	-0.005688992
102	0xbe15dc66	-0.14634857
103	0xbe5024d2	-0.20326546
104	0xbcb3a368	-0.021928504
105	0xbe2ce397	-0.16883694
106	0x3d5f4a26	0.054514073
107	0xbe9f14b6	-0.3107049
108	0xbda150b9	-0.07876725
109	0xbe11950c	-0.14217013
110	0x3cca95f3	0.024729704
111	0x3dbd0712	0.09229864
112	0x3d408a5c	0.04700695
113	0xbda8b394	-0.08237377
114	0x3e91a8a9	0.2844899
115	0x3d5adc75	0.0534329
116	0x3ea3fb16	0.320275
117	0x3e7f6574	0.24941045
118	0x3e0a891d	0.13528867
119	0x3e100af2	0.14066675
120	0x3ca2b33d	0.019860858
121	0x3e204f97	0.15655361
122	0x3e4ced09	0.20012297
123	0xbe8d53c1	-0.27602962
124	0xbe0d5426	-0.13801631
125	0x3df6402d	0.12023959
126	0x3e8da6d1	0.27666333
127	0x3dffae1e	0.12484382
128	0xbdc64b42	-0.09682323
129	0xbdc3c24e	-0.09558545
130	0x3db53638	0.08848232
131	0xbcbf963d	-0.023387069
132	0xbe49c2cc	-0.19703215
133	0xbde7c032	-0.11315955
134	0xbd821991	-0.06352533
135	0xbdcc1adc	-0.099660605
136	0x3dc706f3	0.09718122
137	0x3d4057bb	0.046958666
138	0x3eaf1c01	0.34201053
139	0x3d09b516	0.033619963
140	0x3e45222d	0.19251318
141	0x3df4bc91	0.11950029
142	0x3ea2bbee	0.31784004
143	0x3e0bdd57	0.13658653
144	0x3d42b076	0.047531568
145	0x3c91e214	0.017807998
146	0xbe4f04db	-0.20216696
147	0x3de33883	0.11094763
148	0x3e0fc096	0.1403831
149	0x3e610684	0.21975142
150	0x3c7110b1	0.014713452
151	0x3d4480af	0.047974285
152	0xbd9c9417	-0.076454334
153	0x3da6c943	0.081438564
154	0xbdeb251a	-0.11481686
155	0xbe257751	-0.16158797
156	0xbe921e31	-0.2853866
157	0x3e081289	0.1328832
158	0x3ab6f17c	0.0013957466
159	0xbe02a64d	-0.12758751
160	0xbda1fb3e	-0.07909249
161	0xbe136fd3	-0.14398126
162	0x3d51db96	0.051234804
163	0xbe0b0841	-0.13577367
164	0xbe150e6e	-0.14556286
165	0x3e9a028e	0.30080074
166	0xbd11d439	-0.035602782
167	0xbde332c2	-0.11093666
168	0x3e674c75	0.2258776
169	0x3eadfc2f	0.33981463
170	0x3dbdae39	0.09261746
171	0xbd16b681	-0.036795143
172	0xbe868ef2	-0.26280934
173	0x3d4254c9	0.04744414
174	0xbdb304c9	-0.08741147
175	0x3e229822	0.15878347
176	0xbe73742e	-0.23774788
177	0xbbaec26f	-0.005333237
178	0xbd921d16	-0.07134454
179	0xbd5675dd	-0.052358497
180	0x3e08c19a	0.13355103
181	0x3e7bd53e	0.24593064
182	0x3d60cf5c	0.054885253
183	0x3e94adcf	0.29038855
184	0x3de108ce	0.109880075
185	0xbddf3155	-0.10898081
186	0xbe9eb177	-0.3099477
187	0x3cb95cc0	0.022627234
188	0xbe0af918	-0.13571584
189	0x3e493fec	0.1965329
190	0x3e740a76	0.23832116
191	0x3d34aa06	0.04410746

actor.conv2.bias f4 [64]
0	0xbc2a1857	-0.01038178
1	0x3e033feb	0.12817352
2	0x3e0605f9	0.13088216
3	0x3e0106b1	0.12600209
4	0xbc20aea8	-0.009807266
5	0x3e0c85f5	0.13722976
6	0x3dd090a8	0.10183841
7	0x00000000	0.0
8	0xbc1a09bd	-0.009401736
9	0xbba2c60c	-0.0049674567
10	0x3df8c8a1	0.12147642
11	0xbbcc618f	-0.006237216
12	0x00000000	0.0
13	0xbc1e29c0	-0.009653509
14	0xbc34a9a1	-0.011026771
15	0x3e0a642b	0.13514774
16	0xbd1ca650	-0.038244545
17	0x3dfcd9b0	0.12346208
18	0x3e0db364	0.13837963
19	0xbc105653	-0.008809644
20	0x3dbbe0e3	0.09173753
21	0x3e002f37	0.12518011
22	0xbc8ab42e	-0.01693162
23	0x3df25391	0.11832345
24	0x3e0005de	0.12502238
25	0xbd0383db	-0.03210817
26	0x3e022bb1	0.1271198
27	0x3e00d8f0	0.12582755
28	0x3dfb0a8f	0.12257873
29	0x00000000	0.0
30	0x00000000	0.0
31	0x3e021d84	0.12706572
32	0xbc86b42b	-0.016443333
33	0xbc14a907	-0.009073502
34	0xbc1ce2dd	-0.009575573
35	0x3e0472ce	0.1293442
36	0x00000000	0.0
37	0x3e06cb40	0.13163471
38	0x00000000	0.0
39	0xbbdf6a8d	-0.0068181218
40	0xbc0ea6fd	-0.008706805
41	0x3dfb88ec	0.12281975
42	0xbc127caf	-0.00894086
43	0xbca1c762	-0.019748393
44	0x00000000	0.0
45	0x00000000	0.0
46	0xbc3eaad0	-0.011637405
47	0x3e010ca8	0.12602484
48	0x3e08173f	0.13290118
49	0x3df81438	0.121132314
50	0x3e0568dd	0.13028283
51	0x3e02dc21	0.12779285
52	0xbbeaf910	-0.007170804
53	0xbc82d6dd	-0.015971595
54	0x3e05949f	0.13044976
55	0xbcaa56d6	-0.02079336
56	0x00000000	0.0
57	0x3e01fb72	0.12693575
58	0xbc3ca949	-0.01151497
59	0xbc4f75f5	-0.0126624005
60	0xbbc6caff	-0.0060666795
61	0x3e0b6793	0.13613729
62	0x00000000	0.0
63	0xbc17ac3f	-0.009257375

actor.conv2.lin.weight f4 [64, 64]
0	0x3cc123c0	0.023576617
1	0x3d37ea82	0.04490138
2	0x3c2baaf4	0.01047777
3	0xbd43fbf8	-0.047847718
4	0xbc26a7eb	-0.010171871
5	0xbe03ddbf	-0.12877558
6	0xbd752ec6	-0.05985906
7	0xbd616855	-0.05503114
8	0x3e811cc0	0.25217247
9	0xbcd7bc08	-0.026334777
10	0x3d149648	0.036276132
11	0xbd91c692	-0.071179524
12	0xbe5b3c21	-0.21409656
13	0xbe21cb9f	-0.15800332
14	0xbd4c7aab	-0.049921673
15	0x3e08d8b8	0.13363922
16	0xbda4ceee	-0.08047281
17	0xbd22ecd7	-0.03977665
18	0x3ca4ad43	0.020102149
19	0x3dd18849	0.102310725
20	0xbc8b50d1	-0.01700631
21	0x3d11f097	0.035629835
22	0xbdb1e97a	-0.0868711
23	0xbdfde501	-0.12397195
24	0x3e1a4156	0.15063986
25	0x3debc5ef	0.11512362
26	0xbe09733e	-0.13422868
27	0xbda095ed	-0.07841096
28	0xbe6498c0	-0.22323895
29	0x3cfa4160	0.030548751
30	0x3ce7ad0f	0.028280763
31	0x3d6a4ad6	0.057200275
32	0xbc95864c	-0.018252514
33	0xbe29008d	-0.16504116
34	0xbd2eec18	-0.042705625
35	0xbd25f199	-0.04051361
36	0xbe502bb5	-0.20329173
37	0xbd946cf4	-0.07247344
38	0xbd33defa	-0.04391382
39	0xbe058bfc	-0.13041681
40	0xba2f9985	-0.00066985964
41	0xbc2c7ced	-0.0105278315
42	0x3ea93e5a	0.33055383
43	0x3dde8a88	0.108662665
44	0x3e881acd	0.26582947
45	0xbd38bb12	-0.04510028
46	0xbdc8e485	-0.09809212
47	0xbe16892b	-0.14700763
48	0x3e865a02	0.26240546
49	0x3ccdef42	0.025138501
50	0xbe0a3798	-0.1349777
51	0xbdd5a949	-0.10432679
52	0xbd5107a9	-0.051032696
53	0x3c31500c	0.010822307
54	0xbe70e73f	-0.23525713
55	0x3e8d9518	0.27652812
56	0x3b9ea22b	0.0048411093
57	0xbe0fe76c	-0.14053124
58	0xbda656d8	-0.08122033
59	0x3dcd0284	0.100102454
60	0x3d980ef5	0.07424728
61	0xbe3f5f69	-0.1868874
62	0xbdd8a548	-0.105784
63	0x3e0387f4	0.12844831
64	0x3d3d2adc	0.046183452
65	0x3dea49b7	0.11439841
66	0x3e4c5738	0.19955146
67	0x3d0ae987	0.033914115
68	0x3ea3a386	0.31960696
69	0xbc7425d4	-0.014901597
70	0x3e4b035c	0.198255
71	0x3a7aa517	0.00095613435
72	0xbc80d006	-0.015724193
73	0x3daa6683	0.08320334
74	0xbe29c9c6	-0.16580877
75	0x3e995146	0.2994482
76	0x3c74a06a	0.014930824
77	0x3dd0c117	0.10193079
78	0x3e497c69	0.19676365
79	0x3e4b12db	0.19831412
80	0x3e3565eb	0.1771466
81	0x3dc38222	0.09546305
82	0xbe06c464	-0.13160855
83	0x3e581a0c	0.21103686
84	0x3d8c9899	0.06865043
85	0x3e09a391	0.13441302
86	0x3e2d1ec6	0.1690627
87	0x3c01ef3b	0.007930572
88	0x3e062820	0.13101244
89	0xbd9f5f24	-0.077818185
90	0x3ebc906b	0.36828932
91	0xbde4d182	-0.11172773
92	0x3d84e3a8	0.064887345
93	0x3e17428c	0.1477148
94	0x3d9a51d2	0.07535137
95	0xbbc54d14	-0.0060211513
96	0x3d9b2975	0.07576267
97	0xbe91199a	-0.28339845
98	0xbd9fe38d	-0.07807074
99	0xbd42ec31	-0.04758853
100	0x3eb1888a	0.34674484
101	0x3d925e7b	0.07146927
102	0x3e84ff16	0.25975865
103	0x3e779e0b	0.24181382
104	0x3e0321d2	0.1280587
105	0x3e625d13	0.22105817
106	0x3e505a81	0.20347025
107	0x3de17554	0.11008707
108	0x3e0d5216	0.13800845
109	0x3e198842	0.14993384
110	0x3e00fd2f	0.12596582
111	0x3d1a33cc	0.037647054
112	0xbda58de3	-0.08083703
113	0xbd63dad0	-0.055628598
114	0x3dc51b17	0.096243076
115	0x3e2a7167	0.16644822
116	0xbdec193f	-0.11528253
117	0xbe14a367	-0.14515458
118	0x3d36747c	0.044544682
119	0x3e12b905	0.14328392
120	0x3ee759c0	0.4518566
121	0xbe171668	-0.14754641
122	0xbd6132f6	-0.05498024
123	0xbda3cc4f	-0.07997953
124	0x3e616dab	0.22014491
125	0x3dd20856	0.10255496
126	0xbd9e83ff	-0.0774002
127	0x3e3f6de7	0.18694268
128	0xbd7a6491	-0.061131064
129	0x3d09b597	0.033620443
130	0xbca895ea	-0.020579297
131	0xbdf212f8	-0.11820024
132	0x3e4b81c3	0.19873719
133	0x3e5204bd	0.2050962
134	0x3e011087	0.12603961
135	0x3e155d56	0.14586386
136	0xbde21c82	-0.11040594
137	0x3c3bfd78	0.011474006
138	0xbde93912	-0.113878384
139	0x3e21f9ad	0.158179
140	0x3de90f3c	0.11379859
141	0xbdcf4ccf	-0.10122072
142	0x3e987758	0.29778552
143	0x3e170672	0.14748552
144	0xbe0282ab	-0.12745158
145	0x3e89e59f	0.26933
146	0x3dfea4d3	0.124337815
147	0x3d326c92	0.043560572
148	0x3e5843d3	0.21119623
149	0x3e3ad1ad	0.18244047
150	0xbdc565b0	-0.09638536
151	0x3e440455	0.19142278
152	0x3de9ede3	0.114223264
153	0x3d9af128	0.07565528
154	0x3e5e6cb6	0.21721157
155	0x3e57aa04	0.2106095
156	0x3bcbbefc	0.0062178355
157	0x3e665b21	0.224957
158	0x3d3e60aa	0.046478905
159	0x3d8c3583	0.06846144
160	0x3dbe81f7	0.093021326
161	0x3d8dbf63	0.0692127
162	0x3e027f7e	0.12743947
163	0x3da90071	0.08252037
164	0x3a7e72b8	0.00097064255
165	0xbdbc4dc6	-0.091945216
166	0x3eb4cd49	0.3531287
167	0x3eb16edd	0.34654894
168	0x3d6443ba	0.05572865
169	0x3c5dd960	0.013540596
170	0x3d2fc876	0.042915784
171	0x3ebd8cb9	0.37021425
172	0xbe277193	-0.16351919
173	0x3e7677dd	0.24069162
174	0x3e221220	0.15827227
175	0x3e1051bc	0.14093679
176	0x3df96cbd	0.12178943
177	0x3e06b90a	0.13156524
178	0x3c11dc23	0.008902582
179	0xbe72674f	-0.23672222
180	0xbde67bd7	-0.11254089
181	0xbdd7cc70	-0.1053704
182	0xbe4c4934	-0.199498
183	0x3d994881	0.07484532
184	0x3e78f1cb	0.24310987
185	0x3e56edc2	0.20989135
186	0xbd3d4cf1	-0.046215955
187	0x3d2a9bfc	0.041652665
188	0x3dad65b7	0.08466666
189	0xbd3e86bc	-0.04651521
190	0xbe9d9c08	-0.30783105
191	0x3dbf5588	0.09342486
192	0x3e25b6e4	0.16183048
193	0x3e513897	0.20431744
194	0x3ed60d34	0.41806948
195	0xbbeda900	-0.0072528124
196	0xbdc5021f	-0.09619545
197	0x3d4bb506	0.049733184
198	0x3dbabc42	0.091179386
199	0x3e9709ba	0.29499608
200	0xbe773028	-0.24139464
201	0xbdb74592	-0.08948816
202	0xbe039c34	-0.12852556
203	0x3ebb7e6c	0.3661989
204	0xbd4727fa	-0.04862211
205	0xbe37a5dc	-0.17934364
206	0x3ca78016	0.020446818
207	0x3d874946	0.06605773
208	0x3d881d2a	0.066461876
209	0x3d564ace	0.052317433
210	0x3df2092f	0.11818158
211	0x3c749b60	0.014929622
212	0x3e2c7de6	0.16844901
213	0x3e10d0d5	0.14142163
214	0x3d1d4177	0.03839251
215	0x3dbae1ed	0.09125123
216	0xbc24c352	-0.010056334
217	0x3e3dcf2e	0.18536064
218	0x3da1c496	0.07898824
219	0xbc362c7b	-0.011119003
220	0x3e6a7011	0.22894312
221	0x3dc83d2f	0.09777295
222	0x3e3d8a92	0.18509892
223	0xbe62701d	-0.2211308
224	0x3d372fb8	0.044723243
225	0x3dd38b7e	0.103293404
226	0x3e5c4490	0.2151053
227	0x3dcca7bd	0.09992931
228	0xbd5736f5	-0.052542645
229	0xbd88a1ef	-0.066715114
230	0x3e099755	0.13436635
231	0x3dc8f393	0.09812083
232	0x3d5b1fe8	0.053497225
233	0x3e1407a2	0.14456037
234	0x3d155e0c	0.036466643
235	0xbb669e9a	-0.0035189749
236	0xbd0c282c	-0.034218
237	0xbe3e8c40	-0.18608189
238	0x3e3fc2a6	0.18726596
239	0x3e121e48	0.14269364
240	0xbd229921	-0.039696816
241	0xbdcc74f3	-0.09983244
242	0xbe332bca	-0.17497173
243	0xbd5062fc	-0.05087565
244	0x3dab49f9	0.083637185
245	0xbd8ac72c	-0.0677627
246	0x3cc2262e	0.023699846
247	0x3eb96aa5	0.36214176
248	0x3e08bd8c	0.13353556
249	0xbd5b9937	-0.053612914
250	0xbcc8f8cf	-0.024532704
251	0xbcb75584	-0.022379644
252	0x3e0001d5	0.12500699
253	0x3dbb142d	0.091347076
254	0xbcffef38	-0.031241998
255	0x3e8e0a7d	0.27742377

actor.fc_mu.weight f4 [2, 65]
0	0x3bba799c	0.0056907665
1	0x3e1b0735	0.15139468
2	0x3e17312a	0.14764848
3	0x3e195bd9	0.14976443
4	0xbb72d8ea	-0.003705556
5	0x3e18b24e	0.14911768
6	0x3e0ef272	0.13959673
7	0x3a8fa0fb	0.001095801
8	0xb9d6d923	-0.0004097904
9	0x3b82cfed	0.003992072
10	0x3e1bc326	0.15211162
11	0x3bc3ca38	0.005975034
12	0xba4b0879	-0.0007745098
13	0xbb39fe8c	-0.0028380482
14	0xbb15b76e	-0.0022844928
15	0x3e180d05	0.14848717
16	0xb9ce0a81	-0.00039299208
17	0x3e19fd0a	0.15037933
18	0x3e1bee0c	0.15227526
19	0xbbb08df3	-0.0053880154
20	0x3e09867a	0.13430205
21	0x3e198a5d	0.14994188
22	0xbc1598b9	-0.00913065
23	0x3e111fa3	0.14172225
24	0x3e1c2fc0	0.1525259
25	0xbbc18491	-0.0059056957
26	0x3e18939c	0.14900059
27	0x3e16b2c0	0.14716625
28	0x3e233ba1	0.15940715
29	0x3a989c2d	0.0011643224
30	0x3b8bd1b7	0.0042669433
31	0x3e19989e	0.14999625
32	0xbba05814	-0.004893312
33	0xbb7721cd	-0.0037709356
34	0xbb80bd60	-0.0039288253
35	0x3e191416	0.14949068
36	0x3b27e62e	0.0025619376
37	0x3e189bfd	0.14903255
38	0x3a9025c6	0.0010997585
39	0x3b6cab68	0.0036112908
40	0xbb2591d1	-0.0025263915
41	0x3e146e2d	0.14495154
42	0x3c25e1b5	0.0101246135
43	0xbb5edb88	-0.0034005363
44	0x3b302f21	0.002688356
45	0xbb645af4	-0.0034844251
46	0x3adea2a0	0.0016985722
47	0x3e1a3f14	0.15063125
48	0x3e153aa6	0.14573154
49	0x3e185b61	0.14878608
50	0x3e17b1bb	0.14813893
51	0x3e2011b1	0.15631749
52	0xba462a1a	-0.0007559374
53	0x3bc61347	0.0060447785
54	0x3e17dc67	0.1483017
55	0xba40633b	-0.0007339005
56	0x3940ad5e	0.00018375131
57	0x3e1537a0	0.14572
58	0xba2213a7	-0.0006182738
59	0xbb43411d	-0.002979345
60	0xbaedfc01	-0.0018156768
61	0x3e1bf4a5	0.15230043
62	0x39aa2685	0.00032453626
63	0x3b230404	0.002487422
64	0xbd3dd7c5	-0.046348352
65	0xbc26ee18	-0.010188602
66	0xbd303ab2	-0.043024726
67	0xbd29d63f	-0.041464087
68	0xbd487ec4	-0.048949018
69	0x3b184e6c	0.0023240102
70	0xbd2a7c05	-0.04162218
71	0x3aef760e	0.0018269436
72	0xbb34846d	-0.0027544752
73	0xbae5c686	-0.0017530478
74	0x3b8c2f89	0.0042781276
75	0xbd31e0ba	-0.043427207
76	0xbaf5708c	-0.0018725558
77	0x3a3e7122	0.0007264783
78	0x3a6217b5	0.00086247484
79	0x3ae8accf	0.0017751696
80	0xbd16f93c	-0.036858782
81	0x3aefb734	0.0018288852
82	0xbd16d427	-0.036823418
83	0xbd12b36e	-0.03581565
84	0xbbd6a238	-0.0065500997
85	0x3cce2e58	0.025168583
86	0xbd49bbd1	-0.04925138
87	0x3aab50f2	0.0013070388
88	0xbd3d7f98	-0.04626426
89	0xbce51662	-0.027964775
90	0xba9efca1	-0.0012129733
91	0xbd4c0abe	-0.049814932
92	0xbd5d490c	-0.05402474
93	0xbcc36a23	-0.02385432
94	0x3a8fc7f5	0.0010969626
95	0x3a2e8989	0.00066580676
96	0xbd19b0ff	-0.037522312
97	0x3baed8b9	0.005335894
98	0x3ad82645	0.0016490897
99	0x3bfb3a91	0.007666894
100	0xbd420991	-0.047372404
101	0xbb337698	-0.002738392
102	0xbd27103a	-0.04078696
103	0xb994d052	-0.0002838397
104	0xbb0cc777	-0.0021481195
105	0x3abad50f	0.001425417
106	0xbd28eb1c	-0.041239843
107	0x3bbad73c	0.0057019275
108	0x3b00e0da	0.0019665272
109	0xba1aaeac	-0.0005900662
110	0xbacafe86	-0.0015487231
111	0xbbdafc1b	-0.0066828853
112	0xbd3c222d	-0.04593103
113	0xbd13ea2a	-0.036111988
114	0xbd27cd77	-0.04096743
115	0xbd3e20f9	-0.046418164
116	0xbce61511	-0.028086217
117	0x3a0e868d	0.000543692
118	0xbafb3d73	-0.0019168094
119	0xbd2404ea	-0.04004375
120	0x3c119c06	0.008887297
121	0x3a49e337	0.0007701399
122	0xbd428f71	-0.047500078
123	0x399bdaba	0.00029726868
124	0xbc08cdf6	-0.008349886
125	0x3c00252f	0.007821365
126	0xbd118dcd	-0.035535622
127	0x3a3a130e	0.0007098176
128	0xbbd19c8a	-0.0063968347
129	0xbe753898	-0.2394737

actor.fc_mu.bias f4 [2]
0	0x3db19eb4	0.08672848
1	0xbd2dcb0a	-0.04242996

critic.conv1.bias f4 [64]
0	0x3d50fdd7	0.05102333
1	0xb81339be	-3.5101308e-05
2	0xbc0881af	-0.0083317
3	0xbd113bd9	-0.035457466
4	0xbe198f6b	-0.14996116
5	0x3d68bc7e	0.056820385
6	0xbd2e7415	-0.042591173
7	0xbc811ecb	-0.015761754
8	0x3d79aaca	0.060953893
9	0x3e1b85ac	0.1518771
10	0x3e429398	0.19001615
11	0x3d09ec4a	0.03367261
12	0x3e8bb2ac	0.27284753
13	0x3cb76300	0.022386074
14	0x3db433fb	0.08798977
15	0xbbf8b8c5	-0.0075903856
16	0x3c0dcd51	0.008654908
17	0x3c21eebe	0.009883581
18	0x00000000	0.0
19	0xbc8b94a3	-0.017038649
20	0xbcd0ff89	-0.025512474
21	0xbce63cdc	-0.028105192
22	0x3d2652c2	0.040606268
23	0xbc686192	-0.014183419
24	0xbd491929	-0.04909626
25	0xbd7fe6c8	-0.06247595
26	0x3cde1627	0.027110172
27	0xbc6b38b2	-0.014356779
28	0x3cdc6fb4	0.026908733
29	0x3d25c0a8	0.040466934
30	0x3e1360d1	0.14392401
31	0x3dfedb85	0.12444214
32	0x3c60bab5	0.013716389
33	0x3c9dfd88	0.019285932
34	0xbce3f2ed	-0.027825797
35	0xbd13e13a	-0.036103465
36	0x3d094ca0	0.03352034
37	0x3d097a6d	0.03356402
38	0x00000000	0.0
39	0x3ba64a16	0.0050747497
40	0x3c8e8566	0.017397594
41	0xbbc1f622	-0.005919234
42	0xbce06474	-0.02739165
43	0x3cf27580	0.029597044
44	0x3cb82f62	0.022483531
45	0x3cee42e4	0.02908463
46	0xbd383f08	-0.044981986
47	0x3cf29074	0.029609896
48	0x3ce731b6	0.028221946
49	0xbd3376f3	-0.04381461
50	0xbc991f3b	-0.01869165
51	0x3d05832d	0.032595802
52	0x3cbfef41	0.023429515
53	0x3d15a968	0.03653851
54	0x3ca44932	0.020054433
55	0xbc9106c5	-0.017703423
56	0xbc73311c	-0.014843252
57	0x3d14577c	0.036216244
58	0xbc9e6d3c	-0.019339196
59	0xbc8335e2	-0.016016904
60	0x3d06ac5b	0.032879215
61	0xbd18186f	-0.037132677
62	0xbd204c74	-0.03913541
63	0x00000000	0.0

critic.conv1.lin.weight f4 [64, 3]
0	0x3df12769	0.11775095
1	0xbdb5eb7b	-0.08882805
2	0x3e07dc37	0.13267599
3	0xbde31135	-0.11087266
4	0x3cef2948	0.02919449
5	0x3d964fb5	0.07339422
6	0xbbab261a	-0.005223048
7	0xba538a7b	-0.00080696464
8	0xbc0fd864	-0.008779619
9	0x3e17feb3	0.14843254
10	0x3d93d564	0.072184354
11	0x3d888d42	0.06667568
12	0x3e31429b	0.17310564
13	0x3ecb3957	0.39692184
14	0x3f16d3fc	0.5891721
15	0x3de6ec7b	0.11275574
16	0x3d920844	0.07130483
17	0x3c0b5feb	0.008506755
18	0x3dd656b7	0.10465758
19	0x3daa4ca0	0.08315396
20	0xbd76725f	-0.060167667
21	0xbde9f21f	-0.11423134
22	0x3e7bf3f7	0.24604784
23	0xbe9c5fd8	-0.30541873
24	0x3e874aec	0.26424348
25	0x3db30bc5	0.08742479
26	0x3e037efc	0.1284141
27	0x3d172621	0.036901597
28	0x3e89647e	0.26834482
29	0x3e27d356	0.16389212
30	0x3e5ef69f	0.21773766
31	0x3e4e9988	0.20175755
32	0x3e4e4b04	0.20145804
33	0xbda37795	-0.07981793
34	0x3dd304fc	0.10303685
35	0xbd1deedb	-0.03855787
36	0xbdac6b1c	-0.08418867
37	0xbeb27807	-0.348572
38	0xbf43c889	-0.7647787
39	0x3d1a7cfe	0.037716858
40	0xbc5ee9f9	-0.013605588
41	0x3c9c5a5b	0.019086054
42	0xbd68d2af	-0.05684155
43	0x3dcb5672	0.099285975
44	0x3ebddaac	0.37080896
45	0x3b8cdde9	0.0042989147
46	0xbdbd937d	-0.09256647
47	0xbd3173e9	-0.04332343
48	0xbe85bcf8	-0.26120734
49	0xbcdb8c19	-0.026800202
50	0x3e9f829c	0.31154335
51	0x3e58e4b5	0.21180995
52	0x3e05aa3e	0.13053223
53	0xbde97c62	-0.11400677
54	0xbe02f203	-0.12787633
55	0xbe1e002c	-0.15429753
56	0xbe8228b3	-0.25421676
57	0x3e00174f	0.12508892
58	0xbd7e5904	-0.06209661
59	0x3d38d83d	0.045128096
60	0x3e8df9c9	0.27729633
61	0x3e74c569	0.23903431
62	0xbf222c7b	-0.6334912
63	0xbc8af9d2	-0.016964827
64	0x3e08ae4a	0.13347736
65	0x3d5d6839	0.054054473
66	0xbcb92f72	-0.022605632
67	0x3e60734f	0.21918987
68	0x3da622b7	0.0811209
69	0x3e914711	0.28374532
70	0xbd951c8f	-0.07280838
71	0x3e465519	0.193684
72	0x3e003ee9	0.12523998
73	0x3d926bcf	0.07149469
74	0x3e17f3e2	0.14839128
75	0x3e0c2463	0.13685755
76	0x3cf5c527	0.030001236
77	0x3e991aa0	0.29903126
78	0x3cb85458	0.022501156
79	0x3e2f06b4	0.17092401
80	0x3dba4496	0.09095113
81	0xbe1cc3b5	-0.15309031
82	0xbcf279cb	-0.029599091
83	0x3c8db2a5	0.017297098
84	0x3bc0469f	0.0058677937
85	0xbb2769c5	-0.0025545221
86	0x3e84ccf6	0.25937623
87	0x3d5510b8	0.052017897
88	0x3e268bfb	0.16264336
89	0x3e6e078c	0.23245066
90	0x3e47d352	0.19514206
91	0x3e138851	0.1440747
92	0x3e48ece0	0.1962161
93	0x3bda7ed4	0.006667951
94	0x3e213c5a	0.15745679
95	0x3e892d50	0.26792383
96	0x3e21e836	0.15811238
97	0x3d8468b7	0.06465285
98	0x3e23a067	0.15979157
99	0xbd59fb95	-0.053218443
100	0x3d93c357	0.072149925
101	0x3d4ffebf	0.050780054
102	0xbe4bfeb3	-0.19921379
103	0xbe07de4a	-0.1326839
104	0x3d2e3280	0.04252863
105	0x3d87117e	0.06595133
106	0x3e2486d6	0.16067061
107	0x3e258865	0.16165312
108	0x3e473d28	0.19456923
109	0x3dc67b38	0.09691471
110	0x3cbd4fc8	0.023109332
111	0x3c9f6600	0.019457817
112	0x3dc9bf1f	0.098509066
113	0xbe0ccbb8	-0.13749588
114	0xbda47395	-0.08029858
115	0xbe65c147	-0.2243701
116	0xbe0eeb43	-0.13956933
117	0x3e530fc9	0.2061149
118	0x3d10da57	0.035364475
119	0xbdc0a03d	-0.09405563
120	0x3defe545	0.117136516
121	0x3cac0eb5	0.021003107
122	0xbe1d61ab	-0.15369289
123	0x3c88c7a7	0.016696764
124	0xbe407599	-0.1879486
125	0xbd56b62c	-0.052419826
126	0x3e80e95c	0.2517804
127	0x3e664841	0.224885
128	0xbf13735d	-0.57597905
129	0xbdf26d93	-0.11837306
130	0x3e1f9cb2	0.15587118
131	0x3e29ff70	0.16601348
132	0x3e1b17e0	0.15145826
133	0x3e54687f	0.20742987
134	0x3d986a49	0.07442147
135	0x3e31c3aa	0.17359796
136	0x3d72c774	0.059272245
137	0xbdf3a688	-0.11896998
138	0x3d93dd2f	0.07219922
139	0x3deb68cf	0.114946
140	0x3da142c3	0.07874062
141	0xbdc5e17a	-0.09662147
142	0x3e7383d6	0.2378076
143	0x3e0810ca	0.13287655
144	0x3e0ffc35	0.14061053
145	0x3e0abcb2	0.13548544
146	0x3ad45399	0.001619923
147	0x3e95f1b7	0.29285976
148	0x3de5e52d	0.112253524
149	0xbea7d6c8	-0.32781053
150	0x3e538f6c	0.2066018
151	0x3d8f3384	0.06992248
152	0xbc503165	-0.012707089
153	0x3e3104ff	0.17287062
154	0x3e017789	0.12643255
155	0x3c903d90	0.01760748
156	0xbe1f8dc3	-0.15581422
157	0x3de60128	0.11230689
158	0x3dc7d6ec	0.0975779
159	0xbdfc32bf	-0.123143665
160	0x3e6f7cef	0.23387502
161	0x3bb70065	0.005584764
162	0x3dd0a61d	0.101879336
163	0xbd568b4c	-0.052378938
164	0x3c03060a	0.007997045
165	0xbe6d6e6d	-0.23186655
166	0x3c9bf33a	0.019036878
167	0xbadb5241	-0.0016732888
168	0x3c87019a	0.016480256
169	0x3e0c4b60	0.13700628
170	0x3c4156c9	0.011800476
171	0xbd26093a	-0.040536143
172	0x3a89eebe	0.0010523421
173	0x3e839cf0	0.2570567
174	0x3da78694	0.081799656
175	0x3cd9644d	0.026537085
176	0xbd12d527	-0.03584781
177	0xbcc119ad	-0.023571813
178	0x3ecc9aae	0.3996176
179	0xbcfeb462	-0.031091873
180	0x3cc14242	0.023591164
181	0x3e58fcb4	0.21190149
182	0xbe2af22e	-0.16693947
183	0x3c276429	0.010216751
184	0x3e58ec0a	0.21183792
185	0x3d555f82	0.052093036
186	0xbd74cfb6	-0.0597684
187	0x3e74f1fb	0.23920433
188	0xbe7b59bc	-0.2454595
189	0xbd8e544b	-0.06949671
190	0xbde02e36	-0.10946314
191	0xbd14b041	-0.0363009

critic.conv2.bias f4 [64]
0	0xbcb86997	-0.022511287
1	0xbc8006d5	-0.015628258
2	0x00000000	0.0
3	0xbc6c8dc4	-0.014438096
4	0x3dc03f06	0.09387021
5	0x3c8bde4b	0.017073771
6	0xbc861f3b	-0.016372314
7	0x3e6a2771	0.22866608
8	0xbc86d4ef	-0.016458957
9	0xbc5bd72f	-0.013418003
10	0x3cd39549	0.02582802
11	0x3d0b20a0	0.03396666
12	0xbc1fb96d	-0.009748799
13	0xbc9d46b9	-0.019198762
14	0x3db95df5	0.09051124
15	0xbc57d83b	-0.013174112
16	0x3cdd8dc5	0.02704514
17	0x3cc6c7cd	0.024265194
18	0x3ccdcf61	0.0251233
19	0xbc83f632	-0.016108606
20	0xbc82759a	-0.015925217
21	0x3c26cbf9	0.010180467
22	0x3e7eae6e	0.24871227
23	0xbcb33e2d	-0.021880234
24	0x3cc90f8a	0.024543542
25	0x3d4f30c0	0.0505836
26	0x3c449c12	0.012000101
27	0xbc85ad56	-0.016318005
28	0xbc31eb7f	-0.010859369
29	0xbc90917d	-0.0176475
30	0xbc223947	-0.009901351
31	0xbcb9bc0a	-0.022672672
32	0xbcc5f63b	-0.024165263
33	0x3cd09c2c	0.025465094
34	0xbda29198	-0.07937926
35	0xbc850821	-0.016239228
36	0xbc85f6c3	-0.016353017
37	0xbc781784	-0.015142325
38	0xbc7fa68e	-0.015603675
39	0xbc86f4d1	-0.01647416
40	0xbc3ffc40	-0.011717856
41	0xbc2ebd4f	-0.010665252
42	0x3cc69e61	0.024245443
43	0x3cd355df	0.025797782
44	0xbc896a36	-0.016774278
45	0x3cd1d31c	0.02561336
46	0xbc881a0d	-0.016613984
47	0x3d0edcc3	0.034878504
48	0xbc7c7674	-0.015409101
49	0xbc80258c	-0.015642904
50	0xbcb76bde	-0.022390302
51	0xbc690554	-0.014222462
52	0x3e45e887	0.19326983
53	0xbc8284b8	-0.015932426
54	0xbcaacd10	-0.020849735
55	0xbc59d8c6	-0.013296312
56	0xbde47d47	-0.11156707
57	0x3cc0eeb2	0.023551319
58	0x3cccb3ba	0.024988044
59	0x3d1e6923	0.038674485
60	0xbc58d7e3	-0.013235065
61	0x3e3771cf	0.17914508
62	0xbc3bc6bf	-0.011460959
63	0xbcb8ee5e	-0.0225746

critic.conv2.lin.weight f4 [64, 64]
0	0xbcee7ada	-0.029111315
1	0x3daca009	0.08428962
2	0x3db77a8c	0.08958921
3	0x3c980e6f	0.01856157
4	0xbf41854a	-0.7559401
5	0xbd317594	-0.043325022
6	0x3d996c23	0.074913286
7	0x3ceb8770	0.028751105
8	0x3db98f0f	0.090604894
9	0x3e997d64	0.29978478
10	0xbdc28f72	-0.09500016
11	0xbd44b3d5	-0.048023064
12	0x3f26813a	0.65040934
13	0x3d3c43b8	0.04596302
14	0x3dc9c4a1	0.09851957
15	0x3cbf7a98	0.023373887
16	0x3dd4241b	0.10358449
17	0x3e2fc42b	0.17164676
18	0xbdebbf78	-0.11511129
19	0x3cbd1fcc	0.023086451
20	0x3eee787a	0.4657629
21	0xbc92a093	-0.017898833
22	0x3e0a8919	0.13528861
23	0x3e52e536	0.2059525
24	0xbead044e	-0.33792347
25	0xbe0586ca	-0.13039699
26	0x3db26f8a	0.08712681
27	0x3e109940	0.1412096
28	0x3ca9ae73	0.020713067
29	0x3bd6ace0	0.00655137
30	0xbd536481	-0.05160952
31	0xbd508e5d	-0.05091702
32	0xbdffcf92	-0.12490763
33	0x3dc59289	0.0964709
34	0x3e0cc0fe	0.13745496
35	0xbd9a9683	-0.07548239
36	0x3dd7887f	0.105240814
37	0xbd84f2e8	-0.06491643
38	0xbe4e5dd8	-0.20152986
39	0xbe0dfa8c	-0.13865107
40	0xbd7dc9f2	-0.06196017
41	0x3e3acde9	0.18242611
42	0x3e205bc0	0.1566
43	0x3e4612a6	0.19343051
44	0xbdfb0d3f	-0.12258386
45	0x3cf796f1	0.030223342
46	0x3d942b26	0.072347924
47	0xbe0dec1b	-0.13859598
48	0x3e024ba1	0.12724163
49	0x3eb2fd98	0.34959102
50	0x3d87fda6	0.066401765
51	0xbe0d258a	-0.13783851
52	0x3d711720	0.058859944
53	0x3eb80a30	0.35945272
54	0xbe5f2112	-0.21789959
55	0x3da8ee37	0.08248561
56	0xbe6101d0	-0.21973348
57	0xbe1c0d3a	-0.1523942
58	0xbc7e693a	-0.015528018
59	0xba421482	-0.00074035686
60	0x3d66b343	0.0563233
61	0xbd1be0ac	-0.03805606
62	0xbd77cee1	-0.06050003
63	0xbd4af25e	-0.049547546
64	0xbcd3ee6c	-0.025870524
65	0x3d59bb84	0.053157344
66	0x3d16e620	0.036840558
67	0x3ccc409b	0.02493315
68	0xbe425931	-0.18979336
69	0xbe013415	-0.12617524
70	0xbe6bb18c	-0.23016948
71	0x3b360d14	0.0027778791
72	0x3e2db6e0	0.16964293
73	0xbea077c9	-0.3134139
74	0xbba1c7a3	-0.0049371286
75	0xbd8b995b	-0.068163596
76	0x3d4942eb	0.049136084
77	0xbd721343	-0.0591004
78	0xbd7dbb5e	-0.061946265
79	0xbd878e53	-0.06618943
80	0x3cd2107c	0.025642626
81	0xbcf6a34a	-0.03010716
82	0xbe1ad061	-0.15118553
83	0xbe1263d4	-0.14295894
84	0xbe972d4b	-0.29526743
85	0x3d1983ec	0.037479326
86	0xbd35fabf	-0.044428583
87	0x3e2a424c	0.16626853
88	0x3d8d54a7	0.06900912
89	0xbc028215	-0.007965584
90	0x3d912f72	0.070891276
91	0x3cd563af	0.02604851
92	0xbe05f7af	-0.13082765
93	0x3e69f289	0.22846426
94	0x3cc94431	0.024568649
95	0x3da4f8a9	0.08055241
96	0x3e01e0d8	0.12683427
97	0xbe13c381	-0.14430048
98	0x3da44d00	0.08022499
99	0xbcfa09f4	-0.030522324
100	0x3cec0f5a	0.028815914
101	0xbe2d4adf	-0.16923092
102	0xbde56f62	-0.11202885
103	0x3e2a0d04	0.16606528
104	0x3db0bd3b	0.08629843
105	0xbe261116	-0.16217455
106	0xbe6e1efc	-0.23254007
107	0x3ce5976a	0.028026301
108	0xbdf04403	-0.11731722
109	0xbe16c41f	-0.14723252
110	0x3da05005	0.078277625
111	0x3c6f2d3e	0.014598189
112	0xbd618335	-0.05505677
113	0x3da44520	0.08020997
114	0xbdea575c	-0.11442444
115	0xbe62940b	-0.22126786
116	0xbe0755f9	-0.1321639
117	0x3e59b416	0.21260104
118	0xbca73406	-0.020410549
119	0xbdf12c74	-0.11776057
120	0x3e30b81b	0.1725773
121	0xbe5eed83	-0.21770291
122	0x3dd7fc19	0.10546131
123	0x3da1db0e	0.079031095
124	0xbd10d49d	-0.035359014
125	0x3d973bb4	0.07384434
126	0x3dd480e1	0.10376144
127	0xbde335e2	-0.11094262
128	0xbe1f8d1a	-0.1558117
129	0x3c7fe699	0.015618944
130	0xbd950820	-0.0727694
131	0xbdf90607	-0.12159353
132	0xbd317535	-0.043324668
133	0xbd3813f5	-0.044940908
134	0xbd8998c6	-0.06718592
135	0xbb62abe2	-0.0034587313
136	0x3e586244	0.21131235
137	0xbb809ab0	-0.00392469
138	0xbdc7b19a	-0.09750672
139	0x3d70610c	0.0586863
140	0xbc82787a	-0.015926588
141	0xbd31d3c2	-0.04341484
142	0x3e3454a8	0.17610419
143	0xbc2cb223	-0.010540518
144	0xbe218eb7	-0.15777098
145	0xbe4afba4	-0.19822556
146	0x3e1bb222	0.15204671
147	0xbc8e2d51	-0.017355593
148	0xbc767810	-0.015043274
149	0x3e6af9d2	0.22946861
150	0x3dcd0d36	0.100122854
151	0xbcc94b72	-0.024572108
152	0xbe0c767e	-0.13717076
153	0xbdb209da	-0.08693285
154	0xbe856ac7	-0.26058027
155	0x3cd9157a	0.026499499
156	0xbd80021e	-0.06250404
157	0xbe18f6cc	-0.14937896
158	0xba5b6560	-0.0008369293
159	0xbe8d5564	-0.2760421
160	0x3d6b4363	0.05743731
161	0x3e06785f	0.13131855
162	0x3dd82f37	0.105558805
163	0xbe4e8217	-0.20166813
164	0xbdf61cd8	-0.1201722
165	0xbe5cd41c	-0.21565288
166	0x3e33485e	0.17508075
167	0xbc7b30b9	-0.015331441
168	0xbdc75065	-0.09732131
169	0xbe0e7eb5	-0.13915522
170	0x3dff42d4	0.12463918
171	0xbe831375	-0.25600782
172	0x3dc69a0d	0.096973516
173	0xbe478e42	-0.19487861
174	0x3e0505f4	0.12990552
175	0xbdf40bb3	-0.11916294
176	0x3d959bdc	0.073051184
177	0xbdebfec6	-0.115232036
178	0xbda38080	-0.07983494
179	0x3d80ead8	0.06294793
180	0xbbce334e	-0.006292737
181	0x3dd60e56	0.10451953
182	0xbd839db6	-0.06426565
183	0xbdbed141	-0.09317256
184	0xbb58b6f0	-0.0033068024
185	0xbd8cd4b1	-0.06876505
186	0x3c1ff160	0.009762138
187	0x3d50fa15	0.051019747
188	0xbd7e8c1e	-0.062145345
189	0x3e7e8a6f	0.24857496
190	0xbe2adef0	-0.16686606
191	0xbd171b5c	-0.036891326
192	0x3d346a2a	0.04404656
193	0x3e9b9640	0.3038807
194	0xbdf5edab	-0.12008222
195	0x3d5c081b	0.053718667
196	0x3dfadc99	0.12249107
197	0xbdad76d3	-0.084699295
198	0xbd8e260b	-0.0694085
199	0xbd06a41e	-0.032871358
200	0xbdb5b4e5	-0.088723935
201	0xbcd22172	-0.025650714
202	0xbccfa788	-0.02534844
203	0x3db7f454	0.08982149
204	0x3e0c9782	0.1372967
205	0x3df0a054	0.1174933
206	0x3e153de5	0.14574392
207	0x3e555e45	0.20836742
208	0xbd0dbe81	-0.034605507
209	0xbc9da8d0	-0.019245535
210	0xbe2bd6dc	-0.16781181
211	0xbe07a3ff	-0.13246153
212	0xbd88c96c	-0.06679043
213	0x3db44d9b	0.088038646
214	0xbd023aea	-0.031794466
215	0x3dabe18a	0.083926275
216	0xbcf200b0	-0.029541343
217	0xbc4f1f65	-0.012641762
218	0x3dd9e657	0.10639637
219	0xbe485fc4	-0.19567782
220	0xbd32a292	-0.04361207
221	0xbdc23ab5	-0.09483854
222	0xbe6161d7	-0.22009979
223	0xbdffec23	-0.124962114
224	0x3de5ec3d	0.112266995
225	0x3c9e1807	0.019298567
226	0x3e343451	0.17598082
227	0x3d9460fc	0.07245061
228	0x3a54118f	0.00080897746
229	0x3e88c75e	0.26714605
230	0x3c377676	0.011197677
231	0xbdd0cf4b	-0.10195788
232	0x3c9f286f	0.01942846
233	0x3dace527	0.08442145
234	0xbd463116	-0.048386656
235	0xbe826c90	-0.25473452
236	0x3cc3da91	0.023907932
237	0x3cc50c0a	0.024053592
238	0xbd02342b	-0.031788033
239	0x3db0bf81	0.086302765
240	0xbe7cc8c4	-0.24685961
241	0xbd895f8a	-0.06707676
242	0xbe65fdf4	-0.22460157
243	0xbc840d69	-0.016119676
244	0x3dec7813	0.1154634
245	0x3e275f23	0.16344886
246	0x3e4fe493	0.20302038
247	0x3e1fd495	0.15608437
248	0xbd7ca403	-0.06167985
249	0x39190723	0.00014593876
250	0x3b16eed3	0.0023030534
251	0xbe836c7f	-0.25668713
252	0xbe051436	-0.12995991
253	0x3ddbed7b	0.10738655
254	0x3cebbeda	0.028777529
255	0xbd47e820	-0.048805356

critic.fc.weight f4 [1, 65]
0	0xbe0a07f7	-0.13479601
1	0xbe84ab32	-0.25911862
2	0x3d861dc5	0.06548647
3	0xbd9adad2	-0.07561268
4	0x3ea4c6f4	0.3218304
5	0x3de1ae5b	0.11019584
6	0xbd42d99b	-0.047570806
7	0xbf4991a8	-0.7873788
8	0xbe7cb18c	-0.24677104
9	0xbd92c7fe	-0.07167052
10	0x3ec9f60a	0.39445525
11	0x3d8920b3	0.0669569
12	0xbdc24d81	-0.09487439
13	0xbe3826b8	-0.1798352
14	0x3eb53e03	0.35398874
15	0xbd2cb4f3	-0.042164754
16	0x3e1b3949	0.15158571
17	0x3cdefeb1	0.027221056
18	0x3dd527e0	0.10407996
19	0xbe56fcbd	-0.2099485
20	0xbe331f0a	-0.17492309
21	0x3eaedcd1	0.34152845
22	0xbf2257d6	-0.63415277
23	0xbdfe66f8	-0.124219835
24	0x3e0afc17	0.13572727
25	0x3eaac3cf	0.33352515
26	0x3e00505d	0.12530656
27	0xbe1ce4d3	-0.15321665
28	0xbe8741a0	-0.26417255
29	0xbe4389c8	-0.19095528
30	0xb9a7048c	-0.0003185611
31	0xbe473e4b	-0.19457357
32	0xbe24e1a7	-0.16101705
33	0x3e40af60	0.188169
34	0xbe20e111	-0.15710856
35	0xbe770d80	-0.24126244
36	0xbea4d4b6	-0.32193536
37	0xbe0dffbb	-0.13867085
38	0xbe4029f4	-0.18766004
39	0xbe31f778	-0.17379558
40	0xbe61efec	-0.22064179
41	0xbd4bc5d5	-0.049749214
42	0x3cba0332	0.022706602
43	0x3e7562cd	0.23963471
44	0xbd9f10ab	-0.07766851
45	0x3ec37e41	0.38182262
46	0xbdcdcfc3	-0.10049393
47	0x3e4890c3	0.19586472
48	0xbde5a486	-0.11213021
49	0xbe6091b0	-0.21930575
50	0xbec53eb5	-0.38524404
51	0xbea4807b	-0.32129273
52	0x3eec0aaf	0.461019
53	0xbdbab758	-0.09117001
54	0xbed08e9f	-0.4073381
55	0x3ad7e9f5	0.0016472923
56	0xbeb9da74	-0.3629948
57	0xbd664c56	-0.056225143
58	0x3d2d38c8	0.04229048
59	0x3ea8480a	0.3286746
60	0x3e294e72	0.16533831
61	0x3e8b0ce0	0.2715826
62	0x3daeb08b	0.08529767
63	0xbd8031de	-0.062595114
64	0xbf471fba	-0.77782786

_actor_critic.actor.sigma_param f4 [2, 1]
0	0xbe650757	-0.22366081
1	0xbd975edc	-0.0739114

_actor_critic.actor.conv1.bias f4 [64]
0	0xbcc42539	-0.02394353
1	0x3dcdd1eb	0.10049804
2	0x3e102472	0.14076403
3	0x00000000	0.0
4	0x3daf7223	0.08566692
5	0x3e15321c	0.14569896
6	0x3df0da19	0.11760349
7	0xbd898c54	-0.067162186
8	0x00000000	0.0
9	0x3e1a8cf0	0.15092826
10	0xbd1b1dfd	-0.037870396
11	0x3e100849	0.1406566
12	0xbd354cc0	-0.044262648
13	0xbd404e76	-0.046949826
14	0x3e0d7ade	0.13816401
15	0x3e11bdcc	0.14232558
16	0x00000000	0.0
17	0x3e0b3dd5	0.13597806
18	0x00000000	0.0
19	0x3dcdfd3a	0.10058065
20	0x3e130a7d	0.1435947
21	0x3dfe94fd	0.12430761
22	0x3dfa7882	0.12230016
23	0x3e0a5ecb	0.13512723
24	0x3e1651fc	0.14679712
25	0x3df078de	0.117418036
26	0x3e203850	0.15646482
27	0xbbac8b9c	-0.005265666
28	0x3e09e43a	0.13465968
29	0x3e192746	0.14956388
30	0x3e244904	0.16043478
31	0xbd0956fe	-0.033530228
32	0xbc9f7151	-0.019463213
33	0x00000000	0.0
34	0x00000000	0.0
35	0xbce6c3c8	-0.028169528
36	0xbc8f5ab0	-0.017499298
37	0xbda75d88	-0.081721365
38	0x3e0aaa52	0.13541535
39	0x3e19c3c0	0.15016079
40	0x3e1cd8b1	0.15317036
41	0x3d61bb1a	0.055110075
42	0x3e1049c6	0.14090642
43	0xbd0d12c7	-0.034441736
44	0x00000000	0.0
45	0xbd59d5d6	-0.053182445
46	0x3e159fd6	0.14611754
47	0x3e07acf4	0.1324957
48	0xbd718307	-0.058962848
49	0x3e148ac3	0.14506058
50	0xbd468e3e	-0.048475496
51	0xbcb8318b	-0.022484561
52	0xbc4bd0ed	-0.0124399485
53	0x00000000	0.0
54	0xbd24272f	-0.04007643
55	0x3ded0d55	0.115748085
56	0x3e11c58c	0.14235514
57	0xbd0eebce	-0.03489285
58	0xbdaa557d	-0.08317087
59	0x00000000	0.0
60	0x3e0b3b97	0.1359695
61	0x3e1b96bc	0.1519422
62	0xbc79ffc6	-0.015258735
63	0x3e0bbfc3	0.1364737

_actor_critic.actor.conv1.lin.weight f4 [64, 3]
0	0xbd4a219c	-0.04934846
1	0xbc5689a1	-0.013094337
2	0xbdd3c4ab	-0.10340246
3	0x3d937da8	0.072017014
4	0xbcdd5a84	-0.0270207
5	0x3e8ba34f	0.27273032
6	0x3db7990f	0.089647405
7	0x3e3ac49f	0.18239067
8	0x3e8d1e52	0.27562195
9	0xbe127155	-0.14301045
10	0xbe44570d	-0.19173832
11	0xbd03856c	-0.032109663
12	0x3e5470d8	0.20746171
13	0x3d08e722	0.03342355
14	0x3d2219b5	0.039575297
15	0x3dfb7569	0.122782536
16	0x3e13e460	0.14442587
17	0x3e073ecf	0.13207553
18	0x3e5557e7	0.20834313
19	0xbe2432f6	-0.16035065
20	0x3d061164	0.03273143
21	0xbe226050	-0.15857053
22	0x3e7a40f8	0.24438846
23	0xbe2eedb1	-0.1708286
24	0xbdb3dc9d	-0.08782313
25	0xbd9827f1	-0.07429493
26	0xbdbf074c	-0.09327564
27	0x3e8cd7a0	0.2750826
28	0x3e801152	0.25013214
29	0x3d070984	0.03296806
30	0xbea0b3be	-0.31387132
31	0x3d02b8e1	0.031914596
32	0x3d163cab	0.03667895
33	0x3e919ad7	0.28438446
34	0x3e293c3f	0.16526888
35	0x3e01a254	0.1265958
36	0xbd47db87	-0.048793342
37	0x3e1d33c6	0.15351781
38	0xbe733027	-0.23748837
39	0xbe0a572b	-0.13509814
40	0x3d59cf0d	0.053175975
41	0xbe3036ef	-0.17208456
42	0x3e01d969	0.12680592
43	0x3e0c7c45	0.1371928
44	0x3db8df55	0.09026972
45	0x3e302a64	0.1720367
46	0x3e93a402	0.28836066
47	0x3dc10337	0.09424441
48	0xbda3f5a6	-0.08005838
49	0xbe1e6e6a	-0.15471807
50	0xbe05c12f	-0.13061975
51	0x3e0a6df6	0.1351851
52	0x3ebfb7a8	0.37444806
53	0x3ed050a0	0.40686512
54	0xbe484d53	-0.19560747
55	0xbcf05500	-0.029337406
56	0xbd6c57f5	-0.05770107
57	0x3df47a17	0.11937349
58	0x3bf6a844	0.007527383
59	0x3e02a487	0.12758075
60	0x3e6392b7	0.22223936
61	0x3e98978a	0.29803115
62	0x3e1e3be7	0.15452538
63	0xbda991fe	-0.08279799
64	0x3e20fbe0	0.15721083
65	0x3e4e9203	0.20172887
66	0x3ea2847f	0.31741711
67	0x3e3c6ffd	0.18402095
68	0xbd2632a0	-0.040575624
69	0x3e8678ba	0.26263982
70	0x3da48838	0.08033794
71	0x3ed274c9	0.41104725
72	0x3e28240a	0.16419998
73	0x3e4e0c17	0.201218
74	0x3d03d10a	0.032181777
75	0xbd0188aa	-0.031624474
76	0x3e0357c4	0.12826449
77	0x3e602a07	0.21891032
78	0x3cffde7d	0.03123402
79	0x3e368337	0.17823492
80	0x3e1841e5	0.14868887
81	0xbd0cf0ee	-0.034409456
82	0xbd15339e	-0.03642618
83	0xb9de057d	-0.0004234723
84	0x3d746427	0.059665825
85	0x3e16e1ce	0.14734575
86	0x3e24c761	0.16091682
87	0x3e3be8b1	0.18350483
88	0x3e44164e	0.19149134
89	0x3b218f1e	0.0024651955
90	0x3e37e67f	0.17959021
91	0x3e93d378	0.28872275
92	0x3e2fb925	0.17160471
93	0x3cfafc74	0.030637957
94	0xbdeea769	-0.11653025
95	0xbe799459	-0.24372996
96	0xbd87793b	-0.0661492
97	0x3c8da9c0	0.017292857
98	0xbd93e541	-0.07221461
99	0xbdf47c16	-0.1193773
100	0xbdecc637	-0.11561244
101	0xbbba6ab9	-0.005688992
102	0xbe15dc66	-0.14634857
103	0xbe5024d2	-0.20326546
104	0xbcb3a368	-0.021928504
105	0xbe2ce397	-0.16883694
106	0x3d5f4a26	0.054514073
107	0xbe9f14b6	-0.3107049
108	0xbda150b9	-0.07876725
109	0xbe11950c	-0.14217013
110	0x3cca95f3	0.024729704
111	0x3dbd0712	0.09229864
112	0x3d408a5c	0.04700695
113	0xbda8b394	-0.08237377
114	0x3e91a8a9	0.2844899
115	0x3d5adc75	0.0534329
116	0x3ea3fb16	0.320275
117	0x3e7f6574	0.24941045
118	0x3e0a891d	0.13528867
119	0x3e100af2	0.14066675
120	0x3ca2b33d	0.019860858
121	0x3e204f97	0.15655361
122	0x3e4ced09	0.20012297
123	0xbe8d53c1	-0.27602962
124	0xbe0d5426	-0.13801631
125	0x3df6402d	0.12023959
126	0x3e8da6d1	0.27666333
127	0x3dffae1e	0.12484382
128	0xbdc64b42	-0.09682323
129	0xbdc3c24e	-0.09558545
130	0x3db53638	0.08848232
131	0xbcbf963d	-0.023387069
132	0xbe49c2cc	-0.19703215
133	0xbde7c032	-0.11315955
134	0xbd821991	-0.06352533
135	0xbdcc1adc	-0.099660605
136	0x3dc706f3	0.09718122
137	0x3d4057bb	0.046958666
138	0x3eaf1c01	0.34201053
139	0x3d09b516	0.033619963
140	0x3e45222d	0.19251318
141	0x3df4bc91	0.11950029
142	0x3ea2bbee	0.31784004
143	0x3e0bdd57	0.13658653
144	0x3d42b076	0.047531568
145	0x3c91e214	0.017807998
146	0xbe4f04db	-0.20216696
147	0x3de33883	0.11094763
148	0x3e0fc096	0.1403831
149	0x3e610684	0.21975142
150	0x3c7110b1	0.014713452
151	0x3d4480af	0.047974285
152	0xbd9c9417	-0.076454334
153	0x3da6c943	0.081438564
154	0xbdeb251a	-0.11481686
155	0xbe257751	-0.16158797
156	0xbe921e31	-0.2853866
157	0x3e081289	0.1328832
158	0x3ab6f17c	0.0013957466
159	0xbe02a64d	-0.12758751
160	0xbda1fb3e	-0.07909249
161	0xbe136fd3	-0.14398126
162	0x3d51db96	0.051234804
163	0xbe0b0841	-0.13577367
164	0xbe150e6e	-0.14556286
165	0x3e9a028e	0.30080074
166	0xbd11d439	-0.035602782
167	0xbde332c2	-0.11093666
168	0x3e674c75	0.2258776
169	0x3eadfc2f	0.33981463
170	0x3dbdae39	0.09261746
171	0xbd16b681	-0.036795143
172	0xbe868ef2	-0.26280934
173	0x3d4254c9	0.04744414
174	0xbdb304c9	-0.08741147
175	0x3e229822	0.15878347
176	0xbe73742e	-0.23774788
177	0xbbaec26f	-0.005333237
178	0xbd921d16	-0.07134454
179	0xbd5675dd	-0.052358497
180	0x3e08c19a	0.13355103
181	0x3e7bd53e	0.24593064
182	0x3d60cf5c	0.054885253
183	0x3e94adcf	0.29038855
184	0x3de108ce	0.109880075
185	0xbddf3155	-0.10898081
186	0xbe9eb177	-0.3099477
187	0x3cb95cc0	0.022627234
188	0xbe0af918	-0.13571584
189	0x3e493fec	0.1965329
190	0x3e740a76	0.23832116
191	0x3d34aa06	0.04410746

_actor_critic.actor.conv2.bias f4 [64]
0	0xbc2a1857	-0.01038178
1	0x3e033feb	0.12817352
2	0x3e0605f9	0.13088216
3	0x3e0106b1	0.12600209
4	0xbc20aea8	-0.009807266
5	0x3e0c85f5	0.13722976
6	0x3dd090a8	0.10183841
7	0x00000000	0.0
8	0xbc1a09bd	-0.009401736
9	0xbba2c60c	-0.0049674567
10	0x3df8c8a1	0.12147642
11	0xbbcc618f	-0.006237216
12	0x00000000	0.0
13	0xbc1e29c0	-0.009653509
14	0xbc34a9a1	-0.011026771
15	0x3e0a642b	0.13514774
16	0xbd1ca650	-0.038244545
17	0x3dfcd9b0	0.12346208
18	0x3e0db364	0.13837963
19	0xbc105653	-0.008809644
20	0x3dbbe0e3	0.09173753
21	0x3e002f37	0.12518011
22	0xbc8ab42e	-0.01693162
23	0x3df25391	0.11832345
24	0x3e0005de	0.12502238
25	0xbd0383db	-0.03210817
26	0x3e022bb1	0.1271198
27	0x3e00d8f0	0.12582755
28	0x3dfb0a8f	0.12257873
29	0x00000000	0.0
30	0x00000000	0.0
31	0x3e021d84	0.12706572
32	0xbc86b42b	-0.016443333
33	0xbc14a907	-0.009073502
34	0xbc1ce2dd	-0.009575573
35	0x3e0472ce	0.1293442
36	0x00000000	0.0
37	0x3e06cb40	0.13163471
38	0x00000000	0.0
39	0xbbdf6a8d	-0.0068181218
40	0xbc0ea6fd	-0.008706805
41	0x3dfb88ec	0.12281975
42	0xbc127caf	-0.00894086
43	0xbca1c762	-0.019748393
44	0x00000000	0.0
45	0x00000000	0.0
46	0xbc3eaad0	-0.011637405
47	0x3e010ca8	0.12602484
48	0x3e08173f	0.13290118
49	0x3df81438	0.121132314
50	0x3e0568dd	0.13028283
51	0x3e02dc21	0.12779285
52	0xbbeaf910	-0.007170804
53	0xbc82d6dd	-0.015971595
54	0x3e05949f	0.13044976
55	0xbcaa56d6	-0.02079336
56	0x00000000	0.0
57	0x3e01fb72	0.12693575
58	0xbc3ca949	-0.01151497
59	0xbc4f75f5	-0.0126624005
60	0xbbc6caff	-0.0060666795
61	0x3e0b6793	0.13613729
62	0x00000000	0.0
63	0xbc17ac3f	-0.009257375

_actor_critic.actor.conv2.lin.weight f4 [64, 64]
0	0x3cc123c0	0.023576617
1	0x3d37ea82	0.04490138
2	0x3c2baaf4	0.01047777
3	0xbd43fbf8	-0.047847718
4	0xbc26a7eb	-0.010171871
5	0xbe03ddbf	-0.12877558
6	0xbd752ec6	-0.05985906
7	0xbd616855	-0.05503114
8	0x3e811cc0	0.25217247
9	0xbcd7bc08	-0.026334777
10	0x3d149648	0.036276132
11	0xbd91c692	-0.071179524
12	0xbe5b3c21	-0.21409656
13	0xbe21cb9f	-0.15800332
14	0xbd4c7aab	-0.049921673
15	0x3e08d8b8	0.13363922
16	0xbda4ceee	-0.08047281
17	0xbd22ecd7	-0.03977665
18	0x3ca4ad43	0.020102149
19	0x3dd18849	0.102310725
20	0xbc8b50d1	-0.01700631
21	0x3d11f097	0.035629835
22	0xbdb1e97a	-0.0868711
23	0xbdfde501	-0.12397195
24	0x3e1a4156	0.15063986
25	0x3debc5ef	0.11512362
26	0xbe09733e	-0.13422868
27	0xbda095ed	-0.07841096
28	0xbe6498c0	-0.22323895
29	0x3cfa4160	0.030548751
30	0x3ce7ad0f	0.028280763
31	0x3d6a4ad6	0.057200275
32	0xbc95864c	-0.018252514
33	0xbe29008d	-0.16504116
34	0xbd2eec18	-0.042705625
35	0xbd25f199	-0.04051361
36	0xbe502bb5	-0.20329173
37	0xbd946cf4	-0.07247344
38	0xbd33defa	-0.04391382
39	0xbe058bfc	-0.13041681
40	0xba2f9985	-0.00066985964
41	0xbc2c7ced	-0.0105278315
42	0x3ea93e5a	0.33055383
43	0x3dde8a88	0.108662665
44	0x3e881acd	0.26582947
45	0xbd38bb12	-0.04510028
46	0xbdc8e485	-0.09809212
47	0xbe16892b	-0.14700763
48	0x3e865a02	0.26240546
49	0x3ccdef42	0.025138501
50	0xbe0a3798	-0.1349777
51	0xbdd5a949	-0.10432679
52	0xbd5107a9	-0.051032696
53	0x3c31500c	0.010822307
54	0xbe70e73f	-0.23525713
55	0x3e8d9518	0.27652812
56	0x3b9ea22b	0.0048411093
57	0xbe0fe76c	-0.14053124
58	0xbda656d8	-0.08122033
59	0x3dcd0284	0.100102454
60	0x3d980ef5	0.07424728
61	0xbe3f5f69	-0.1868874
62	0xbdd8a548	-0.105784
63	0x3e0387f4	0.12844831
64	0x3d3d2adc	0.046183452
65	0x3dea49b7	0.11439841
66	0x3e4c5738	0.19955146
67	0x3d0ae987	0.033914115
68	0x3ea3a386	0.31960696
69	0xbc7425d4	-0.014901597
70	0x3e4b035c	0.198255
71	0x3a7aa517	0.00095613435
72	0xbc80d006	-0.015724193
73	0x3daa6683	0.08320334
74	0xbe29c9c6	-0.16580877
75	0x3e995146	0.2994482
76	0x3c74a06a	0.014930824
77	0x3dd0c117	0.10193079
78	0x3e497c69	0.19676365
79	0x3e4b12db	0.19831412
80	0x3e3565eb	0.1771466
81	0x3dc38222	0.09546305
82	0xbe06c464	-0.13160855
83	0x3e581a0c	0.21103686
84	0x3d8c9899	0.06865043
85	0x3e09a391	0.13441302
86	0x3e2d1ec6	0.1690627
87	0x3c01ef3b	0.007930572
88	0x3e062820	0.13101244
89	0xbd9f5f24	-0.077818185
90	0x3ebc906b	0.36828932
91	0xbde4d182	-0.11172773
92	0x3d84e3a8	0.064887345
93	0x3e17428c	0.1477148
94	0x3d9a51d2	0.07535137
95	0xbbc54d14	-0.0060211513
96	0x3d9b2975	0.07576267
97	0xbe91199a	-0.28339845
98	0xbd9fe38d	-0.07807074
99	0xbd42ec31	-0.04758853
100	0x3eb1888a	0.34674484
101	0x3d925e7b	0.07146927
102	0x3e84ff16	0.25975865
103	0x3e779e0b	0.24181382
104	0x3e0321d2	0.1280587
105	0x3e625d13	0.22105817
106	0x3e505a81	0.20347025
107	0x3de17554	0.11008707
108	0x3e0d5216	0.13800845
109	0x3e198842	0.14993384
110	0x3e00fd2f	0.12596582
111	0x3d1a33cc	0.037647054
112	0xbda58de3	-0.08083703
113	0xbd63dad0	-0.055628598
114	0x3dc51b17	0.096243076
115	0x3e2a7167	0.16644822
116	0xbdec193f	-0.11528253
117	0xbe14a367	-0.14515458
118	0x3d36747c	0.044544682
119	0x3e12b905	0.14328392
120	0x3ee759c0	0.4518566
121	0xbe171668	-0.14754641
122	0xbd6132f6	-0.05498024
123	0xbda3cc4f	-0.07997953
124	0x3e616dab	0.22014491
125	0x3dd20856	0.10255496
126	0xbd9e83ff	-0.0774002
127	0x3e3f6de7	0.18694268
128	0xbd7a6491	-0.061131064
129	0x3d09b597	0.033620443
130	0xbca895ea	-0.020579297
131	0xbdf212f8	-0.11820024
132	0x3e4b81c3	0.19873719
133	0x3e5204bd	0.2050962
134	0x3e011087	0.12603961
135	0x3e155d56	0.14586386
136	0xbde21c82	-0.11040594
137	0x3c3bfd78	0.011474006
138	0xbde93912	-0.113878384
139	0x3e21f9ad	0.158179
140	0x3de90f3c	0.11379859
141	0xbdcf4ccf	-0.10122072
142	0x3e987758	0.29778552
143	0x3e170672	0.14748552
144	0xbe0282ab	-0.12745158
145	0x3e89e59f	0.26933
146	0x3dfea4d3	0.124337815
147	0x3d326c92	0.043560572
148	0x3e5843d3	0.21119623
149	0x3e3ad1ad	0.18244047
150	0xbdc565b0	-0.09638536
151	0x3e440455	0.19142278
152	0x3de9ede3	0.114223264
153	0x3d9af128	0.07565528
154	0x3e5e6cb6	0.21721157
155	0x3e57aa04	0.2106095
156	0x3bcbbefc	0.0062178355
157	0x3e665b21	0.224957
158	0x3d3e60aa	0.046478905
159	0x3d8c3583	0.06846144
160	0x3dbe81f7	0.093021326
161	0x3d8dbf63	0.0692127
162	0x3e027f7e	0.12743947
163	0x3da90071	0.08252037
164	0x3a7e72b8	0.00097064255
165	0xbdbc4dc6	-0.091945216
166	0x3eb4cd49	0.3531287
167	0x3eb16edd	0.34654894
168	0x3d6443ba	0.05572865
169	0x3c5dd960	0.013540596
170	0x3d2fc876	0.042915784
171	0x3ebd8cb9	0.37021425
172	0xbe277193	-0.16351919
173	0x3e7677dd	0.24069162
174	0x3e221220	0.15827227
175	0x3e1051bc	0.14093679
176	0x3df96cbd	0.12178943
177	0x3e06b90a	0.13156524
178	0x3c11dc23	0.008902582
179	0xbe72674f	-0.23672222
180	0xbde67bd7	-0.11254089
181	0xbdd7cc70	-0.1053704
182	0xbe4c4934	-0.199498
183	0x3d994881	0.07484532
184	0x3e78f1cb	0.24310987
185	0x3e56edc2	0.20989135
186	0xbd3d4cf1	-0.046215955
187	0x3d2a9bfc	0.041652665
188	0x3dad65b7	0.08466666
189	0xbd3e86bc	-0.04651521
190	0xbe9d9c08	-0.30783105
191	0x3dbf5588	0.09342486
192	0x3e25b6e4	0.16183048
193	0x3e513897	0.20431744
194	0x3ed60d34	0.41806948
195	0xbbeda900	-0.0072528124
196	0xbdc5021f	-0.09619545
197	0x3d4bb506	0.049733184
198	0x3dbabc42	0.091179386
199	0x3e9709ba	0.29499608
200	0xbe773028	-0.24139464
201	0xbdb74592	-0.08948816
202	0xbe039c34	-0.12852556
203	0x3ebb7e6c	0.3661989
204	0xbd4727fa	-0.04862211
205	0xbe37a5dc	-0.17934364
206	0x3ca78016	0.020446818
207	0x3d874946	0.06605773
208	0x3d881d2a	0.066461876
209	0x3d564ace	0.052317433
210	0x3df2092f	0.11818158
211	0x3c749b60	0.014929622
212	0x3e2c7de6	0.16844901
213	0x3e10d0d5	0.14142163
214	0x3d1d4177	0.03839251
215	0x3dbae1ed	0.09125123
216	0xbc24c352	-0.010056334
217	0x3e3dcf2e	0.18536064
218	0x3da1c496	0.07898824
219	0xbc362c7b	-0.011119003
220	0x3e6a7011	0.22894312
221	0x3dc83d2f	0.09777295
222	0x3e3d8a92	0.18509892
223	0xbe62701d	-0.2211308
224	0x3d372fb8	0.044723243
225	0x3dd38b7e	0.103293404
226	0x3e5c4490	0.2151053
227	0x3dcca7bd	0.09992931
228	0xbd5736f5	-0.052542645
229	0xbd88a1ef	-0.066715114
230	0x3e099755	0.13436635
231	0x3dc8f393	0.09812083
232	0x3d5b1fe8	0.053497225
233	0x3e1407a2	0.14456037
234	0x3d155e0c	0.036466643
235	0xbb669e9a	-0.0035189749
236	0xbd0c282c	-0.034218
237	0xbe3e8c40	-0.18608189
238	0x3e3fc2a6	0.18726596
239	0x3e121e48	0.14269364
240	0xbd229921	-0.039696816
241	0xbdcc74f3	-0.09983244
242	0xbe332bca	-0.17497173
243	0xbd5062fc	-0.05087565
244	0x3dab49f9	0.083637185
245	0xbd8ac72c	-0.0677627
246	0x3cc2262e	0.023699846
247	0x3eb96aa5	0.36214176
248	0x3e08bd8c	0.13353556
249	0xbd5b9937	-0.053612914
250	0xbcc8f8cf	-0.024532704
251	0xbcb75584	-0.022379644
252	0x3e0001d5	0.12500699
253	0x3dbb142d	0.091347076
254	0xbcffef38	-0.031241998
255	0x3e8e0a7d	0.27742377
