rl_environments/trained_models/PPO_routing_2_obj_50/policy.pth (torch, 41822 bytes, 24 tensors)

actor.sigma_param f4 [2, 1]
0	0xbe0cdf0b	-0.13756959
1	0xc0210f84	-2.516572

actor.conv1.bias f4 [64]
0	0x3ac28ec3	0.0014843572
1	0xbbfbc491	-0.0076833447
2	0xbdec201d	-0.115295626
3	0x00000000	0.0
4	0xbb81aa21	-0.0039570485
5	0xbbc455b9	-0.0059916642
6	0x00000000	0.0
7	0x3d9feb55	0.07808558
8	0xbbe08e96	-0.006852935
9	0xbe074464	-0.13209683
10	0x3d96cdd4	0.07363477
11	0x3d45b47e	0.048267834
12	0xbc743332	-0.014904784
13	0x00000000	0.0
14	0xbbc21181	-0.005922497
15	0x00000000	0.0
16	0x00000000	0.0
17	0xbc54b6f7	-0.012983075
18	0x00000000	0.0
19	0x3dbaf90a	0.09129532
20	0x00000000	0.0
21	0x00000000	0.0
22	0x00000000	0.0
23	0x00000000	0.0
24	0x00000000	0.0
25	0x3cd6a076	0.02619956
26	0x00000000	0.0
27	0xbd002edf	-0.0312947
28	0xbde24173	-0.1104764
29	0x00000000	0.0
30	0x3da17907	0.07884412
31	0x3d9a28d9	0.07527322
32	0xbcdfa767	-0.027301503
33	0xbca0e626	-0.019640993
34	0xbcccade1	-0.024985256
35	0xbd0cc3b6	-0.034366332
36	0xbdb18377	-0.08667653
37	0x3c27b99e	0.010237126
38	0xbd154c19	-0.036449526
39	0x00000000	0.0
40	0xbd55c4b8	-0.05218956
41	0xbbf1e989	-0.007382576
42	0xbaf47777	-0.0018651326
43	0xbcbaeed3	-0.022818958
44	0x3d54bd8c	0.05193858
45	0x00000000	0.0
46	0x00000000	0.0
47	0x3d8a326c	0.067478985
48	0x3d91fd59	0.071284
49	0xbd26488a	-0.040596522
50	0xbdadb4da	-0.0848176
51	0xbc4b9160	-0.012424797
52	0x3d438e36	0.047743045
53	0x3d4ab678	0.049490422
54	0x3d83dca9	0.06438572
55	0x3d9df9bf	0.07713651
56	0x00000000	0.0
57	0x00000000	0.0
58	0x00000000	0.0
59	0xbd2ea244	-0.042635217
60	0x00000000	0.0
61	0x00000000	0.0
62	0x00000000	0.0
63	0x00000000	0.0

actor.conv1.lin.weight f4 [64, 2]
0	0x3c8c032e	0.01709136
1	0x3e89f8aa	0.26947528
2	0xbe3e8387	-0.18604861
3	0x3bc9154f	0.0061365734
4	0x3e1e5f2f	0.15465997
5	0xbd4b8fa3	-0.04969753
6	0xbdca2e9f	-0.098721735
7	0xbdb41bbf	-0.08794355
8	0x39aa8f8f	0.00032531886
9	0xbd58e76f	-0.052955087
10	0xbcf47d99	-0.029845046
11	0xbb21342d	-0.002459775
12	0xbd8ad6ee	-0.06779276
13	0xbd86194b	-0.06547793
14	0x3d658121	0.05603135
15	0x3e828d33	0.2549835
16	0x3bd1efa5	0.0064067417
17	0xbe533331	-0.20624997
18	0x3e9a221b	0.30104145
19	0xbe13746c	-0.1439988
20	0x3e3e8047	0.18603621
21	0x3e704a63	0.23465876
22	0x3e413d5b	0.18871062
23	0x3ee5efda	0.44909555
24	0x3c56afec	0.0131034665
25	0xbdc222bd	-0.09479282
26	0xbd77d658	-0.06050715
27	0xbb8b19d3	-0.004245022
28	0xbb523b6c	-0.0032078875
29	0xbdf91554	-0.12162271
30	0xbd8ee28e	-0.069768056
31	0xbd392be2	-0.045207866
32	0xbd9c561b	-0.07633611
33	0xbe335463	-0.1751266
34	0x3bb3e5f9	0.0054900614
35	0xbc5a6143	-0.013328853
36	0xb98909b0	-0.00026137894
37	0xbdbde0ca	-0.09271391
38	0xbda1eada	-0.079061225
39	0x3e428c5c	0.18998855
40	0xbe1b64fb	-0.1517524
41	0xbd800bf0	-0.06252277
42	0xbc012369	-0.007881978
43	0xbe57cd94	-0.21074516
44	0xbc0585f5	-0.008149614
45	0xbc4ffd7c	-0.012694713
46	0xbde9e2e6	-0.114202306
47	0xbdfac945	-0.1224542
48	0xbce1fb3a	-0.027585614
49	0xbde0e2b4	-0.1098074
50	0x3d99992b	0.074999176
51	0x3dc296ca	0.09501417
52	0xbd8de15c	-0.069277495
53	0xbb951eac	-0.0045507755
54	0x3cf8cf69	0.030372338
55	0xbe8acec0	-0.27110863
56	0x3d813076	0.06308071
57	0x3d94144d	0.072304346
58	0xbe800614	-0.25004637
59	0xbd8439a3	-0.06456306
60	0x3ce68f6c	0.02814456
61	0x3e6e33c8	0.2326194
62	0xbd99669c	-0.07490274
63	0x3e944b13	0.28963527
64	0x3ca97c62	0.020689193
65	0xbd5618d9	-0.05226979
66	0x3d1e5573	0.03865571
67	0xbe08aa6b	-0.1334626
68	0xbe63fe29	-0.22264923
69	0x3c810bbd	0.015752668
70	0x3c71b4a3	0.01475254
71	0x3c9d0dc6	0.019171607
72	0xbe8cb9ed	-0.274856
73	0x3e2bb5cc	0.16768569
74	0x3de58de3	0.11208703
75	0x3ea43ba7	0.3207676
76	0xbe04aa72	-0.12955645
77	0x3ccc0075	0.024902562
78	0xbac8db1a	-0.0015324086
79	0xbe7a4223	-0.24439292
80	0xbe64d3e8	-0.22346461
81	0x3d526ed9	0.051375244
82	0xbdcbd7d1	-0.09953273
83	0x3beefeb1	0.007293545
84	0xbc1a661e	-0.009423761
85	0xbe48e685	-0.19619186
86	0x3c97562d	0.018473709
87	0xbe543620	-0.20723772
88	0x3e9ae8fa	0.30255872
89	0x3e34b84f	0.17648433
90	0xbdcfd25c	-0.10147545
91	0xbd0ce2a4	-0.03439583
92	0xbe010fd4	-0.12603694
93	0xbdba9e4d	-0.09112225
94	0x3e6393b9	0.2222432
95	0xbefc0f19	-0.4923027
96	0x3e095e51	0.13414885
97	0x3e91eafc	0.2849959
98	0x3d1f365e	0.038870208
99	0xbe20163f	-0.15633486
100	0xbd85a501	-0.065256126
101	0x3da72f14	0.08163276
102	0x3c2a5bef	0.010397895
103	0xbbeb86d3	-0.007187703
104	0x3c8d5f3c	0.017257325
105	0x3d82cc94	0.063866764
106	0x3dfd2ed4	0.123624474
107	0x3e535705	0.20638664
108	0x3db3a7e3	0.08772256
109	0x3eb7ba90	0.35884523
110	0xbdad6a9b	-0.08467599
111	0xbdb15f05	-0.08660702
112	0xbe9f8b99	-0.31161192
113	0xbe1459fb	-0.1448745
114	0xbd20071f	-0.03906929
115	0xbd7140f9	-0.058899853
116	0xbbb53fa0	-0.0055312663
117	0xbdc35b7d	-0.095389344
118	0x3d22063a	0.03955672
119	0xbe25aaae	-0.1617839
120	0xbc114032	-0.008865403
121	0xbe0f969a	-0.14022294
122	0xbdfdff5a	-0.1240222
123	0xbc84aa19	-0.01619439
124	0xbd592976	-0.053018056
125	0xbe2faea3	-0.17156462
126	0xbdbbcab9	-0.09169526
127	0xbc473e29	-0.012160816

actor.conv2.bias f4 [64]
0	0x3dd68aee	0.104757175
1	0xbc8c2af9	-0.017110335
2	0xbcf33fc0	-0.029693484
3	0x3ddbdf43	0.10735943
4	0x3dedcf9a	0.116118625
5	0x3dde02e6	0.108403966
6	0xbbc36093	-0.0059624403
7	0xbc964ad9	-0.018346237
8	0xbc3cc8ab	-0.011522452
9	0x3cbcd407	0.023050321
10	0xbc3c6bbd	-0.011500296
11	0xbcb5a432	-0.022173021
12	0xbcf8667d	-0.030322308
13	0x3dd227cf	0.10261499
14	0xbcdab1d1	-0.026696118
15	0xbc8303a9	-0.015992956
16	0x3e12fa36	0.1435326
17	0x3c9a3896	0.01882581
18	0xbce1f75b	-0.027583769
19	0xbbf5e2b9	-0.007503834
20	0x3df8366c	0.12119755
21	0xbd041123	-0.032242905
22	0xbccd74fa	-0.025080193
23	0xbd04953f	-0.032368895
24	0x3dde2d2a	0.10848458
25	0xbc843b12	-0.016141448
26	0xbc5aa8d6	-0.013345918
27	0xbd0f3227	-0.03495994
28	0x3de8cfd9	0.11367769
29	0xbc81cb95	-0.015844146
30	0xbbafe5ee	-0.005367986
31	0xbcdcf3f9	-0.026971804
32	0xbcea23c9	-0.028581517
33	0x3dc9896d	0.09840665
34	0xbd0926d3	-0.03348429
35	0xbd6ceb0c	-0.057841346
36	0xbc433510	-0.011914507
37	0x3e0fbb78	0.14036357
38	0x3de16e49	0.11007363
39	0x3ddb5671	0.10709847
40	0xbc7a149d	-0.015263704
41	0xbcc97ec6	-0.024596583
42	0x3dd11d9a	0.10210724
43	0x3dd83983	0.105578445
44	0xbda0e103	-0.078554176
45	0xbc9691e9	-0.018380122
46	0xbd52514c	-0.051347062
47	0xbce5e3d8	-0.028062746
48	0xbbd1cd4a	-0.006402646
49	0xbd15bc0f	-0.0365563
50	0xbcc167ec	-0.023609124
51	0xbd30332d	-0.043017555
52	0x3dc910b3	0.09817638
53	0xbc4795aa	-0.012181679
54	0xbc9432d8	-0.01809065
55	0x3df6fc2b	0.12059816
56	0xbbc4b43a	-0.00600293
57	0xbc818e1f	-0.015814839
58	0xbb5d77d2	-0.0033793342
59	0x3db691be	0.08914517
60	0xbc5b6171	-0.013389931
61	0x3dde153e	0.108438954
62	0xbbb290c8	-0.005449388
63	0xbd08045d	-0.033207286

actor.conv2.lin.weight f4 [64, 64]
0	0x3d996b67	0.074911885
1	0xbbef409b	-0.0073014027
2	0x3de44a2b	0.11146959
3	0xbe2c7dfa	-0.16844931
4	0xbda6cdf5	-0.08144752
5	0xbe4c2ac3	-0.19938187
6	0xbe85da0b	-0.26142916
7	0x3e3fd3d5	0.18733151
8	0x3dbb9a7e	0.091603264
9	0xbc7b2925	-0.015329634
10	0x3e6eb6ce	0.23311922
11	0x3e67e582	0.22646144
12	0xbe0b8a0a	-0.13626876
13	0xbddafd51	-0.106928475
14	0xbdff5827	-0.124679856
15	0x3bb83a40	0.0056221783
16	0xbd1ef116	-0.038804136
17	0xbdd554b5	-0.10416547
18	0x3e9e6e08	0.30943322
19	0xbdd08b9c	-0.101828784
20	0x3e35b44e	0.17744562
21	0x3c081d4d	0.008307767
22	0xbcff7ae2	-0.031186525
23	0xbe3e0741	-0.18557455
24	0x3e32a55b	0.1744589
25	0xbd1fa8cd	-0.03897934
26	0x3d8f0eb0	0.06985223
27	0x3d3906dd	0.04517256
28	0xbbbdf41e	-0.0057969233
29	0xbda715d3	-0.081584595
30	0xbda423a6	-0.08014612
31	0x3e15ef5c	0.1464209
32	0xbdb14ff8	-0.08657831
33	0x3c86ad2b	0.016439995
34	0xbdac5617	-0.08414858
35	0x3cc98579	0.024599778
36	0x3d365527	0.0445148
37	0x3e9e3709	0.30901363
38	0xbdde2e9a	-0.10848732
39	0x3dfc6cd5	0.123254456
40	0xbc9a8bab	-0.018865427
41	0xbdc5f481	-0.09665776
42	0xbe1e5c2c	-0.15464848
43	0xbe198f5b	-0.14996092
44	0x3e4447fe	0.19168088
45	0xbe2fa847	-0.17154036
46	0xbd91a4eb	-0.07111534
47	0xbe241d10	-0.16026711
48	0xbd97d962	-0.07414509
49	0x3d32f2c8	0.043688565
50	0xbdc65da5	-0.0968583
51	0x3e088050	0.13330197
52	0xbd35de33	-0.04440136
53	0x3e81564e	0.25261158
54	0x3e504555	0.20338948
55	0xbcc60233	-0.02417097
56	0xbd5bf591	-0.053700987
57	0xbe5d7c8d	-0.21629544
58	0x3e172ecf	0.1476395
59	0x3da761b7	0.081729345
60	0x3d98c061	0.07458568
61	0xbbd0909d	-0.0063648955
62	0xbe8cb6ec	-0.27483308
63	0x3dee809f	0.11645626
64	0xbe1d8448	-0.15382493
65	0xbe40c33b	-0.18824475
66	0xbe48f05a	-0.19622937
67	0xbdfaf56a	-0.1225384
68	0xbd20ddea	-0.039274134
69	0x3dc426aa	0.09577687
70	0x3e0cc274	0.13746053
71	0x3e6a7206	0.22895059
72	0xbe30a0a5	-0.17248781
73	0x3e168d8c	0.14702433
74	0x3e0c15f6	0.13680252
75	0x3cee147c	0.029062502
76	0x3d2b6dd3	0.041852783
77	0x3dcafc5c	0.09911415
78	0x3c86d96e	0.0164611
79	0xbd46165c	-0.048361167
80	0xbe44774a	-0.1918613
81	0x3e126a61	0.14298393
82	0x3e365fbb	0.17809956
83	0xbd50c320	-0.050967336
84	0xbe326ba2	-0.17423871
85	0xbd15f303	-0.036608707
86	0xbd5f6837	-0.054542746
87	0xbd55dea6	-0.052214287
88	0x3e61d825	0.22055109
89	0xbd82c1ba	-0.06384607
90	0x3d80e0ea	0.06292899
91	0x3cda6501	0.02665949
92	0x3e24792c	0.16061848
93	0x3bd83880	0.006598532
94	0x3e1b5478	0.15168941
95	0xbe6f54c0	-0.23372173
96	0xbd56cfb5	-0.05244418
97	0xbcb7965a	-0.02241056
98	0xbe16e54b	-0.14735906
99	0x3e6eca95	0.23319466
100	0x3e08caae	0.13358566
101	0x3d8e4736	0.06947176
102	0x3d431680	0.04762888
103	0x3c971c67	0.01844616
104	0x3e3e32f8	0.1857413
105	0xbd09d820	-0.03365338
106	0xbd5b9497	-0.053608503
107	0xbe03c893	-0.12869482
108	0xbe41dc6c	-0.1893174
109	0xbe179d77	-0.14806162
110	0xbd6890c8	-0.0567787
111	0x3d38f76b	0.04515783
112	0xbda7fd2d	-0.08202586
113	0x3be1bd25	0.006889003
114	0xbd039b4f	-0.032130536
115	0xbc95e520	-0.018297732
116	0x3b8bf4c9	0.004271124
117	0xbe63196a	-0.22177663
118	0xbde0386b	-0.10948261
119	0x3d62b1d3	0.055345368
120	0x3dba5bef	0.09099566
121	0xbcb426d2	-0.021991167
122	0x3e2cac9a	0.16862717
123	0xbdb9d119	-0.09073085
124	0xbe5d11b5	-0.21588786
125	0xbd800d03	-0.06252482
126	0x3e3f6dcf	0.18694232
127	0xba107760	-0.00055109523
128	0x3d0e0467	0.034672167
129	0xbe280c00	-0.16410828
130	0x3c93fe69	0.018065648
131	0x3e2765d5	0.1634744
132	0xbd317a97	-0.0433298
133	0xbdeab417	-0.11460131
134	0xbc623c04	-0.013808254
135	0xbe2e1c8d	-0.17003079
136	0x3d2b7f40	0.041869402
137	0xbcf5a198	-0.02998428
138	0xbead4e3a	-0.33848745
139	0x3d172f5b	0.036910396
140	0x3e0298db	0.12753622
141	0x3d8d59a1	0.06901861
142	0x3e354fd9	0.1770624
143	0x3c07e392	0.008294003
144	0xbdd1f852	-0.102524415
145	0x3df79a45	0.120899715
146	0x3e0bb82c	0.13644475
147	0x3dfe4ec8	0.1241737
148	0xbdc48c4a	-0.095970705
149	0xbe66ae98	-0.2252754
150	0x3ccd7953	0.025082266
151	0xbc87411a	-0.016510535
152	0xbc8d9aab	-0.017285665
153	0x3d95b12f	0.07309186
154	0xbe9a19fe	-0.30097955
155	0xbc65ec56	-0.014033398
156	0xbd823e15	-0.063594975
157	0xbe3c0859	-0.1836256
158	0x3e2e116a	0.1699883
159	0x3dc789f2	0.09743108
160	0xbe4351e4	-0.19074208
161	0xbdd2cf93	-0.10293498
162	0xbdcccf1e	-0.10000442
163	0xbcc02c2a	-0.023458559
164	0x3e4db424	0.2008825
165	0xbde69618	-0.11259097
166	0x3da1af30	0.078947425
167	0x3e5f44b3	0.2180355
168	0xbd478cb3	-0.048718166
169	0xbd2f34d7	-0.042775
170	0x3b3a64fb	0.0028441537
171	0x3d367a10	0.04455
172	0x3e4aaabf	0.19791697
173	0xbdb4d839	-0.08830304
174	0xbc552ebf	-0.013011633
175	0xbbb49da4	-0.0055119563
176	0xbdee61ec	-0.11639771
177	0x3da1f632	0.07908286
178	0xbe00d326	-0.12580547
179	0x3d9f446f	0.077767245
180	0x3d94e917	0.07271021
181	0xbcbfb407	-0.023401273
182	0xbe86c6c2	-0.26323515
183	0x3da06c12	0.07833113
184	0x3e455520	0.19270754
185	0xbe0c95fe	-0.13729092
186	0xbca3a292	-0.01997498
187	0x3da07cac	0.07836279
188	0x3d40e1a9	0.047090206
189	0xbda8df7a	-0.0824575
190	0xbdb2298a	-0.08699329
191	0x3e2304b3	0.15919761
192	0x3e68b489	0.22725119
193	0x3e067376	0.13129982
194	0xbdd0ab0a	-0.10188873
195	0xbdf385b0	-0.11890733
196	0x3d8aa81d	0.06770346
197	0xbc9e4cdd	-0.01932376
198	0x3e24fbe8	0.1611172
199	0xbd18dcb3	-0.03731985
200	0x3dc1faf5	0.094716944
201	0x3d4c54a5	0.04988541
202	0x3d0c2fda	0.034225322
203	0x3e96e5f9	0.2947233
204	0x3c19fcd4	0.009398658
205	0xbd895c2d	-0.06707034
206	0xbe1d103f	-0.15338229
207	0x3d92e9b1	0.07173479
208	0xbe610bbd	-0.21977134
209	0xbd54f270	-0.05198902
210	0x3e0315e6	0.12801322
211	0x3d0f3cb2	0.034969993
212	0xbd9561b0	-0.07294023
213	0x3d6a387c	0.057182774
214	0x3c3e32cc	0.011608791
215	0x3e624d20	0.22099733
216	0x3c8576a2	0.01629192
217	0x3e1f8285	0.15577133
218	0xbdccbfc0	-0.09997511
219	0x39c736f7	0.0003799719
220	0xbe6709eb	-0.22562377
221	0x3da156fb	0.07877918
222	0x3e4c81ad	0.19971342
223	0x3e8e03db	0.27737316
224	0x3dc14c05	0.09438328
225	0x3d7f3742	0.062308557
226	0x3e225c0d	0.15855427
227	0x3dc9c830	0.09852636
228	0x3d892d5f	0.06698107
229	0x3e697ea2	0.22802213
230	0xbe5439f9	-0.2072524
231	0x3e9c86b8	0.30571532
232	0xbde1eaef	-0.11031138
233	0x3d9ebfba	0.07751413
234	0xbdc7579d	-0.09733508
235	0xbdafd20e	-0.085849866
236	0x3dcabfe4	0.098998815
237	0xbe5eda2a	-0.2176291
238	0xbce0a549	-0.027422564
239	0xbe43465d	-0.1906981
240	0x3ea3603a	0.31909353
241	0xbc936c9e	-0.017996129
242	0xbc8feb24	-0.017568178
243	0xbe6f0c2f	-0.23344491
244	0x3d93f674	0.072247416
245	0xbd1f2c5f	-0.038860675
246	0x3e8cc55b	0.2749432
247	0x3e030c07	0.12797557
248	0x3c67ae4e	0.014140679
249	0x3dc0113e	0.09378289
250	0xbd0ac2b8	-0.033877105
251	0xbe08a51d	-0.13344236
252	0x3dc17e61	0.09447933
253	0xbcb01906	-0.021496307
254	0x3e03c528	0.12868178
255	0x3d0a3dfc	0.03375052

actor.fc_mu.weight f4 [2, 65]
0	0xbe034812	-0.12820461
1	0x3b8b9f96	0.0042609675
2	0xbcf6bacb	-0.030118367
3	0xbe016545	-0.12636288
4	0xbe08c9ca	-0.13358226
5	0xbdffdcd1	-0.12493289
6	0x3bbdf5ed	0.005797139
7	0x3b514211	0.0031930248
8	0x3b50ab55	0.0031840403
9	0xbbd6a122	-0.0065499702
10	0x3be3caef	0.006951682
11	0x3aadd8bd	0.0013263446
12	0x3bc8e47d	0.0061307536
13	0xbe00d436	-0.12580952
14	0xbb72c317	-0.0037042552
15	0xb874e9b2	-5.839178e-05
16	0xbe069353	-0.13142137
17	0xbcb325a5	-0.021868536
18	0x3cf378c3	0.02972067
19	0x3b3fa982	0.0029245322
20	0xbe02b70a	-0.12765136
21	0x3bda3605	0.0066592717
22	0xbb84c966	-0.004052329
23	0x3c6512b2	0.013981508
24	0xbdff7942	-0.124743
25	0xba99ba18	-0.0011728434
26	0x3b8e0ec9	0.0043352586
27	0xba373716	-0.00069891044
28	0xbe01e18e	-0.12683699
29	0x3b5c598a	0.0033622705
30	0xbb658d2e	-0.0035026777
31	0x3b909b26	0.0044130264
32	0x3c627b31	0.013823316
33	0xbe026ced	-0.12736864
34	0x3bccba45	0.006247791
35	0x3b27b299	0.002558863
36	0xbc5ebe3e	-0.013595162
37	0xbe04f5fb	-0.12984459
38	0xbe01cdf8	-0.12676227
39	0xbdfe407b	-0.124146424
40	0xbbafcde9	-0.0053651226
41	0x3ad1b8f9	0.0016000561
42	0xbe03c504	-0.12868124
43	0xbdf2b0fc	-0.11850163
44	0xbd506f9d	-0.050887693
45	0xbb9efb72	-0.004851752
46	0xbc323553	-0.010876971
47	0x3d61574a	0.055014886
48	0x3be3f524	0.0069567133
49	0xbc8da299	-0.017289447
50	0xbba738a5	-0.005103188
51	0x3c8be029	0.017074661
52	0xbe0ae6c7	-0.13564597
53	0x3b0835e4	0.0020784074
54	0xbbee0868	-0.0072641857
55	0xbe0018f7	-0.12509523
56	0xbb7f9c77	-0.0039003172
57	0x3b422a23	0.0029627166
58	0x3b364e7f	0.0027817783
59	0xbe03a6ff	-0.12856673
60	0xbb318b2f	-0.0027091017
61	0xbe7b90b1	-0.24566914
62	0x3b15d83c	0.0022864481
63	0xbae4e615	-0.0017463589
64	0xbd1219b4	-0.035669044
65	0xbddcf4ba	-0.107888654
66	0x3b9017a7	0.004397351
67	0xbc8aa228	-0.016923025
68	0xbdea717a	-0.11447425
69	0xbde4a000	-0.1116333
70	0xbdb8c9b8	-0.0902285
71	0xbb7dc94f	-0.0038724726
72	0x3b97a922	0.0046283165
73	0x3a0169e5	0.0004936739
74	0xbb534cbb	-0.003224178
75	0x3aff978d	0.0019500122
76	0xbbe65bf1	-0.0070300032
77	0xbc807d5a	-0.015684772
78	0xbdcc5b75	-0.099783815
79	0x3c17ea4a	0.009272167
80	0x3c7ed24b	0.015553067
81	0xbe07137c	-0.13191026
82	0xbba6741c	-0.0050797593
83	0xbc98d98f	-0.018658428
84	0xbc1c260f	-0.009530558
85	0xbde099ae	-0.10966812
86	0x3c8528d0	0.016254812
87	0x3ad367ea	0.0016128991
88	0xbc4a9760	-0.012365192
89	0xbde89935	-0.11357347
90	0xbb09ab2e	-0.0021006572
91	0xbae86dc8	-0.0017732913
92	0xbb827847	-0.0039816233
93	0xbde31734	-0.1108841
94	0x3c087450	0.008328512
95	0x3b4d6692	0.0031341654
96	0xbb397f44	-0.0028304616
97	0x3c292966	0.010324812
98	0xbdc0b556	-0.09409587
99	0xbb0bb6ad	-0.00213186
100	0xb9a02dae	-0.00030551612
101	0xbb4db85e	-0.003139041
102	0xbe094e24	-0.13408715
103	0xbde857fc	-0.11344907
104	0xbdb7a248	-0.089664996
105	0x3b69223b	0.0035573381
106	0xbadb0e74	-0.0016712681
107	0xbdd5a095	-0.10431019
108	0xbde6680d	-0.11250315
109	0x3d5d932d	0.054095436
110	0xbb20e8c6	-0.0024552806
111	0x3c8160c8	0.01579322
112	0xbddd6b21	-0.10811449
113	0xbb3af780	-0.002852887
114	0x3c745333	0.014912414
115	0x3b98422d	0.0046465606
116	0x3bc49f5e	0.0060004434
117	0xbdc12fdb	-0.09432956
118	0x3be96312	0.007122406
119	0xbb2bff21	-0.0026244598
120	0xbdfb6f9c	-0.12277147
121	0xbb17c164	-0.0023156041
122	0xb91920b7	-0.00014603404
123	0x3b5adb41	0.0033394846
124	0xbd9dbf39	-0.077024885
125	0xbaa5b527	-0.0012642489
126	0xbc929fec	-0.017898522
127	0x3b72699d	0.003698922
128	0xbb288079	-0.0025711341
129	0xbe3d7e85	-0.18505295

actor.fc_mu.bias f4 [2]
0	0xbdaf534a	-0.08560808
1	0xbe2e0199	-0.16992797

critic.conv1.bias f4 [64]
0	0xbd8b0e1c	-0.067898005
1	0x3dd07040	0.1017766
2	0xbbbb8ce3	-0.005723582
3	0xbc9ab451	-0.01888481
4	0xbbadf6d2	-0.0053089643
5	0xbdb52980	-0.08845806
6	0xbbc164dd	-0.0059019164
7	0x3dd3499b	0.103167735
8	0x3dd172b9	0.1022696
9	0xbc45acca	-0.012065122
10	0xbd27e47a	-0.040989377
11	0x00000000	0.0
12	0xbd2b6b25	-0.041850228
13	0x3df7c3a5	0.12097863
14	0x00000000	0.0
15	0x3dd604ae	0.10450111
16	0xbc4c4262	-0.012466999
17	0x00000000	0.0
18	0xbd6022ff	-0.054720875
19	0x3dee9058	0.11648625
20	0xbc5637d0	-0.01307483
21	0x00000000	0.0
22	0xbcde4bb3	-0.027135706
23	0xbce3f085	-0.02782465
24	0x3e90b373	0.2826191
25	0xbd27b5d8	-0.040944904
26	0x3dc5b439	0.09653515
27	0xbd8ea956	-0.06965892
28	0x00000000	0.0
29	0x3d35cf0e	0.044386916
30	0x00000000	0.0
31	0xbc886033	-0.016647434
32	0xbc4713e7	-0.012150741
33	0xbd40adf5	-0.0470409
34	0x3e09b1c0	0.13446712
35	0xbd927250	-0.0715071
36	0x3d6eb294	0.058275774
37	0x3e21d83a	0.1580514
38	0xbc9f068e	-0.019412305
39	0x00000000	0.0
40	0xbca3ab00	-0.019979
41	0xbc17df89	-0.0092696035
42	0x3e00e015	0.1258548
43	0x3ca1ceb2	0.01975188
44	0xbc0158d9	-0.007894718
45	0xbbf674c2	-0.007521243
46	0xbd36e0ea	-0.04464809
47	0xbc58ee10	-0.013240352
48	0xbcadda35	-0.021222213
49	0x00000000	0.0
50	0x3d8de3f8	0.06928247
51	0x00000000	0.0
52	0xbd62a181	-0.055329803
53	0xbca9c6c0	-0.020724654
54	0x3dc382cf	0.09546434
55	0xbc1d5073	-0.0096017
56	0x3e50db78	0.2039622
57	0xbe34f9b8	-0.17673385
58	0x3e127dd5	0.14305814
59	0x3e0b37a0	0.13595438
60	0x3d20618e	0.039155535
61	0x3d462d90	0.048383296
62	0xbd88a2fc	-0.06671712
63	0x00000000	0.0

critic.conv1.lin.weight f4 [64, 2]
0	0x3d5c8f23	0.053847443
1	0x3e4df8a3	0.20114379
2	0x3e2f5713	0.1712306
3	0x3c8003cc	0.01562681
4	0x3ea1008a	0.31445724
5	0xbdf8b153	-0.12143197
6	0x3c8cfcae	0.01721033
7	0xbe5f450b	-0.21803682
8	0x3db29858	0.087204635
9	0xbe4b1e6e	-0.19835827
10	0x3ddbbca0	0.10729337
11	0x3e287c8b	0.1645376
12	0x3eb9c486	0.36282748
13	0x3cef96f2	0.029246781
14	0x3dbf85fa	0.09351726
15	0x3e8b0f40	0.27160072
16	0x3dcbb0e4	0.099458486
17	0x3de3be21	0.111202486
18	0xbd225460	-0.039631248
19	0x3bce177f	0.006289422
20	0x3e19a296	0.15003428
21	0x3e69e3c3	0.2284079
22	0xbe5f6701	-0.21816637
23	0xbdc7b848	-0.09751946
24	0x3e0e9dd9	0.13927402
25	0x3e7bdd9b	0.24596255
26	0x3f0b5564	0.5442717
27	0x3d78a370	0.06070274
28	0xbe99c2e6	-0.30031508
29	0xbdae7013	-0.0851747
30	0x3db3e4a1	0.08783842
31	0x3e774350	0.24146771
32	0x3e366211	0.17810847
33	0xbe9912b2	-0.29897076
34	0xbdf1d733	-0.11808624
35	0xbe209a60	-0.1568389
36	0xbe1e6a6b	-0.15470283
37	0x3d5a8893	0.053352904
38	0x3e2ab9ff	0.16672514
39	0x3e29ec30	0.16594005
40	0x3e7a8939	0.24466409
41	0x3e85f090	0.26160097
42	0xbdff7b60	-0.12474704
43	0xbb80cb4d	-0.0039304853
44	0x3eafe536	0.34354562
45	0xbe7d7eaa	-0.2475535
46	0xbe9fa877	-0.31183216
47	0x3e6ab271	0.22919632
48	0x3eaffa76	0.34370774
49	0x3e44c894	0.1921714
50	0x3d7e188d	0.062035132
51	0xbcf8a50d	-0.03035214
52	0x3e1e2249	0.15442766
53	0x3dda9873	0.10673609
54	0x3df0fa77	0.117665224
55	0x3df15748	0.11784226
56	0xbdfb35ef	-0.122661464
57	0xbd8813d3	-0.06644406
58	0x3d256376	0.040378056
59	0xbe9cfcdc	-0.30661666
60	0xbd611068	-0.054947287
61	0xbe531baf	-0.20616029
62	0x3e417fe5	0.18896444
63	0xbe795961	-0.24350502
64	0x3e5f115b	0.21783964
65	0x3e4b1bd1	0.1983483
66	0x3e5bad1b	0.21452753
67	0x3e52f2cb	0.2060043
68	0x3e9b2fc4	0.3030988
69	0x3decc068	0.11560136
70	0x3e046842	0.12930396
71	0x3deae8de	0.11470197
72	0xbdbbd371	-0.091711886
73	0xbdca2f28	-0.098722756
74	0x3eb995b0	0.36247015
75	0x3e01f7f4	0.12692243
76	0x3eefe13c	0.46851528
77	0x3eb23fee	0.348144
78	0xbd5a4592	-0.053289004
79	0xbe6af267	-0.22944032
80	0x3e8cab65	0.27474514
81	0xbea75882	-0.32684714
82	0x3b96877a	0.004593787
83	0xbdb1e478	-0.08686155
84	0x3ed774b8	0.42081237
85	0x3e46598c	0.19370097
86	0x3c4c3cd3	0.0124656735
87	0xbe516ac5	-0.20450886
88	0xba8f3c5f	-0.0010928026
89	0xbe6fadf5	-0.23406203
90	0x3bb09b0e	0.0053895777
91	0xbe629508	-0.22127163
92	0x3e73fdfa	0.23827353
93	0x3e3a5c7f	0.18199347
94	0x3e559108	0.20856106
95	0xbea62c3f	-0.32455632
96	0x3e8fd5e2	0.28092867
97	0xbeba9057	-0.36438248
98	0xbd2d3861	-0.042290095
99	0xbce8c395	-0.028413573
100	0x3c8b5d41	0.01701224
101	0xbd9c2d4c	-0.07625827
102	0xbdf0c431	-0.117561705
103	0xbd461eef	-0.048369344
104	0x3e6cdc6b	0.23130958
105	0x3e836d11	0.2566915
106	0x3e78c8c1	0.24295332
107	0xbe847fdb	-0.25878796
108	0x3de1f2b2	0.110326186
109	0xbc5f8525	-0.013642584
110	0x3e9e53f8	0.30923438
111	0x3e61ad5e	0.2203879
112	0x3e8077c2	0.25091368
113	0x3e768592	0.2407439
114	0x3f50ca05	0.8155826
115	0x3f46c0db	0.77638024
116	0x3dc595cf	0.09647714
117	0x3e3a5ace	0.18198702
118	0x3ea8e54f	0.3298745
119	0x3ea92c9b	0.33041844
120	0xbe767fa0	-0.24072123
121	0x3d8e9f51	0.06963981
122	0xba8dc897	-0.0010817227
123	0x3df27455	0.11838595
124	0x3e8074f8	0.2508924
125	0x3eb74791	0.35796788
126	0xbccfa502	-0.025347237
127	0xbe6c94e8	-0.23103678

critic.conv2.bias f4 [64]
0	0x3e1049f0	0.14090705
1	0xbd117507	-0.035511997
2	0x3e0000be	0.12500283
3	0xbd2a3d47	-0.041562345
4	0x3e0ba310	0.13636422
5	0xbc7eb3a2	-0.0155457575
6	0xbc47bfc2	-0.012191715
7	0x3e882e34	0.2659775
8	0xbc6af633	-0.014340925
9	0xbd004630	-0.031316936
10	0xbc9478b3	-0.01812396
11	0x3e06305e	0.13104388
12	0x00000000	0.0
13	0xbcff111e	-0.031136092
14	0x3e0fb676	0.14034447
15	0xbc38e328	-0.011284627
16	0x3e119e39	0.14220513
17	0xbc43da69	-0.0119539285
18	0x00000000	0.0
19	0xbc5fd7e5	-0.013662313
20	0xbc89dd93	-0.016829288
21	0xbc86d46a	-0.016458709
22	0x00000000	0.0
23	0x3e0bd8d6	0.13656935
24	0xbc81c8d5	-0.015842834
25	0xbbd3a5ad	-0.006458959
26	0x3e66bcd0	0.22532964
27	0x3dfdc7dd	0.123916365
28	0x3df3b53b	0.11899801
29	0xbcf458e4	-0.029827543
30	0xbc887ecb	-0.016662022
31	0xbc8d4a11	-0.017247232
32	0x3e14f6b9	0.14547242
33	0xbc7f2007	-0.015571601
34	0xbc0dd4f4	-0.008656729
35	0x3dfe94bf	0.12430715
36	0xb9751344	-0.00023372198
37	0x3e84f692	0.25969368
38	0x00000000	0.0
39	0x3e13a45d	0.14418168
40	0x3e16bb01	0.14719774
41	0xbd9eb18f	-0.0774871
42	0xbcb985e4	-0.022646852
43	0xbbfc2191	-0.007694431
44	0x3e3cff67	0.18456803
45	0xbccbe5f1	-0.024889918
46	0x00000000	0.0
47	0x00000000	0.0
48	0xbca8033d	-0.020509357
49	0xbc85a065	-0.016311834
50	0xbe8d74ae	-0.27628082
51	0x3e22dfdc	0.15905708
52	0xbce4fc2c	-0.027952276
53	0xbc747a03	-0.014921668
54	0x00000000	0.0
55	0x3e142e5f	0.14470814
56	0xbc261b5d	-0.01013836
57	0xbc303f8e	-0.01075734
58	0x00000000	0.0
59	0x3e0819f9	0.13291158
60	0xbc8848b6	-0.016636234
61	0xbbc4c14b	-0.0060044876
62	0xbc50a188	-0.012733825
63	0x3df4ce95	0.11953465

critic.conv2.lin.weight f4 [64, 64]
0	0x3e54727c	0.20746797
1	0x3d606028	0.0547792
2	0x3d451626	0.048116826
3	0xbe83a16a	-0.25709087
4	0xbd1936b8	-0.0374057
5	0x3e234a51	0.15946318
6	0x3d276c60	0.04087484
7	0x3dabde2a	0.08391984
8	0x3d404b91	0.046947066
9	0x3e0a1c0b	0.1348726
10	0xbdffb5c3	-0.1248584
11	0xbd7e7ce8	-0.06213084
12	0xbd85cc29	-0.06533081
13	0x3e8b816c	0.2724718
14	0xbb6f2a58	-0.0036493745
15	0x3eb050e3	0.34436712
16	0x3cedeac6	0.029042613
17	0x3d790451	0.060795132
18	0x3dfc5690	0.12321198
19	0x3e907fe2	0.28222567
20	0xbd1965cf	-0.037450608
21	0xbb908aa3	-0.004411058
22	0x3dfcd7ee	0.12345873
23	0x3e686f4c	0.22698706
24	0x3ea87c76	0.32907456
25	0x3d19027a	0.037355877
26	0x3e338b3f	0.17533587
27	0x3d9f9a50	0.07793105
28	0x3dc33c1e	0.09532951
29	0xbce8dc78	-0.02842544
30	0xbca4d1dc	-0.0201196
31	0x3e73d428	0.238114
32	0x3da9ef31	0.08297575
33	0xbe42bef4	-0.19018155
34	0x3dbab6c8	0.09116894
35	0xbe256738	-0.16152656
36	0x3db544cb	0.08851012
37	0x3ea25c2e	0.31710953
38	0x3e0ae44b	0.1356365
39	0x3e0ef16f	0.13959287
40	0x3e2f4796	0.17117152
41	0x3d162950	0.036660492
42	0x3dd6cca8	0.10488254
43	0x3e9ffaa2	0.31245905
44	0x3cddfe00	0.027098656
45	0x3ca6aa2b	0.020344814
46	0x3cf26e56	0.029593628
47	0xbd2564cc	-0.04037933
48	0x3e8fd6aa	0.28093463
49	0xbe4cfe9d	-0.20019002
50	0x3e10f112	0.14154461
51	0xbe5d4967	-0.21610032
52	0x3e029d00	0.12755203
53	0x3e697334	0.22797853
54	0x3e10f36b	0.14155357
55	0x3e9d2846	0.3069479
56	0x3ea1a695	0.31572405
57	0xbec9572e	-0.39324325
58	0x3e93a9cc	0.28840482
59	0x3b85c05b	0.0040817684
60	0x3b2b57db	0.0026144895
61	0x3dca8e86	0.098904654
62	0xbcf07b33	-0.029355621
63	0xbe3df47d	-0.18550296
64	0x3e96585a	0.29364282
65	0x3c53fb5d	0.012938348
66	0x3d17f8ac	0.037102386
67	0x3d281130	0.041032016
68	0x3d16ee34	0.036848262
69	0x3c9b12fb	0.018929949
70	0xbeaa307b	-0.33240113
71	0x3b2c9ab4	0.0026337327
72	0xbd978a7d	-0.073994614
73	0xbdead2f3	-0.114660166
74	0x3e6881ad	0.22705717
75	0x3e09a7f1	0.13442971
76	0x3e23cb2c	0.15995473
77	0xbe124d35	-0.14287265
78	0x3d38b925	0.045098443
79	0x3ccf0adc	0.025273733
80	0x3deda9fc	0.116046876
81	0xbdb937ca	-0.09043844
82	0xbe38cc0a	-0.18046585
83	0x3db9941b	0.09061452
84	0xbe2328ac	-0.15933484
85	0x3d69bcef	0.057064947
86	0xbe2ec547	-0.17067443
87	0xbe45d8eb	-0.19321029
88	0xbeb665f7	-0.35624668
89	0x3b9a8701	0.0047158008
90	0xbd981bc0	-0.07427168
91	0xbe183eeb	-0.14867751
92	0x3e10b850	0.1413281
93	0xbdf3b606	-0.118999526
94	0xbdfe1cea	-0.12407859
95	0xbd54873f	-0.051886793
96	0x3ec32aed	0.38118687
97	0x3e8e17ae	0.2775244
98	0x3e09ffa6	0.13476428
99	0xbe1bea3c	-0.15226072
100	0x3e6bad36	0.23015293
101	0x3ed54ceb	0.41660246
102	0x3d7ec478	0.062199086
103	0x3d9106bc	0.070813626
104	0x3d23324a	0.03984288
105	0xbc2e417f	-0.010635733
106	0x3dcf9ac3	0.1013694
107	0xbdae6f6b	-0.08517345
108	0x3dbd884b	0.092545114
109	0x3d221f30	0.039580524
110	0x3e9f732b	0.31142554
111	0x3e313d32	0.173085
112	0xbdf1a65e	-0.1179931
113	0x3bb77800	0.005599022
114	0xbc0df424	-0.008664165
115	0xbdb0f725	-0.08640889
116	0x3e4b7351	0.19868208
117	0x3e378f28	0.17925704
118	0x3e3ae816	0.18252596
119	0xbe170d9f	-0.1475129
120	0xbd5a31e7	-0.053270247
121	0x3e4d14a9	0.20027412
122	0xbe47c379	-0.1950816
123	0x3e35ad21	0.17741825
124	0x3c8ac9d4	0.016941942
125	0x3d84d116	0.064851925
126	0x3d5b2ae8	0.053507715
127	0xbe5c1719	-0.21493186
128	0xbd7dab93	-0.061931204
129	0x3d04e676	0.032446347
130	0xbd993743	-0.074812435
131	0x3bb3cc37	0.005486991
132	0x3d97b16a	0.07406886
133	0xbc615fdb	-0.013755764
134	0x3ea7d481	0.32779315
135	0x3e660f81	0.22466852
136	0x3e2af821	0.16696216
137	0x3dcfebae	0.10152374
138	0xbdde2a55	-0.10847918
139	0xbdb8d5bf	-0.09025144
140	0x3e4414d1	0.19148566
141	0x3def0b74	0.116721064
142	0xbecb96a8	-0.3976338
143	0xbdc87cfc	-0.09789464
144	0xbd88aa24	-0.06673077
145	0x3ce40250	0.027833134
146	0xbd9fde89	-0.07806117
147	0xbe0b96e8	-0.13631785
148	0xbbc3c08d	-0.0059738816
149	0x3dcab307	0.09897428
150	0x3e7718a9	0.24130501
151	0x3e303f58	0.17211664
152	0x3e29940d	0.16560383
153	0xbda4d23f	-0.08047914
154	0x3d6d28af	0.057900127
155	0xbd9d5942	-0.0768304
156	0x3dc7c1bb	0.09753748
157	0x3d7a87a3	0.06116451
158	0x3db96592	0.09052576
159	0x3e9d867f	0.30766675
160	0x3e39d449	0.18147387
161	0xbd1b7fdb	-0.03796373
162	0xbd0f9e34	-0.035062984
163	0xbdbb0263	-0.091313146
164	0x3e6ab443	0.22920327
165	0x3eace3ad	0.33767453
166	0x3d2ceed6	0.04221996
167	0x3cf26311	0.029588254
168	0x3e4314f1	0.19050957
169	0x3d1d52eb	0.038409155
170	0x3da4a512	0.08039297
171	0x3d5c4c83	0.053783905
172	0xbe387743	-0.18014245
173	0x3d93e815	0.072220005
174	0x3b4fc57f	0.003170341
175	0x3e5f2807	0.21792613
176	0x3e0b8dc8	0.13628304
177	0x3e3aa41f	0.1822667
178	0x3dac51e1	0.08414055
179	0x3de1a6be	0.11018132
180	0xbcff72c3	-0.031182652
181	0x3ea4abeb	0.32162413
182	0x3e4577e7	0.1928402
183	0x3dacf069	0.08444292
184	0x3ec17d47	0.37790892
185	0xbf18feb0	-0.5976362
186	0x3d0e6857	0.034767475
187	0x3d19f5af	0.037587818
188	0x3d43fa29	0.047845993
189	0xbdad1a52	-0.08452286
190	0x3d502691	0.05081803
191	0xbd4ef0c9	-0.0505226
192	0xbcd9ca98	-0.026585862
193	0xbe0447f1	-0.12918068
194	0xbe7a517d	-0.24445148
195	0x3d5a34e0	0.05327308
196	0xbe15c174	-0.14624578
197	0xbe0519b6	-0.12998089
198	0xbe26cf4d	-0.16290016
199	0xbe073234	-0.13202745
200	0x3d848673	0.06470957
201	0x3cecaa76	0.028889876
202	0xbcc8ca69	-0.02451058
203	0x3b1c07e4	0.0023808414
204	0xbdc1850c	-0.09449205
205	0x3cbb0aee	0.02283236
206	0xbdc3dc13	-0.0956346
207	0xbe01d5cf	-0.12679218
208	0x3d07e9b5	0.033181865
209	0xbdf85496	-0.121255085
210	0xbc5f11b6	-0.013615062
211	0xbdae3aa6	-0.0850728
212	0xbd9e8e2b	-0.0774196
213	0x3e0c743c	0.13716215
214	0xbe2a1b80	-0.16612053
215	0xbde6a3aa	-0.11261685
216	0x3dcd4787	0.100234084
217	0xbd34b758	-0.044120163
218	0x3e02d731	0.12777402
219	0x3ce977bf	0.028499482
220	0xbcb71fb7	-0.02235399
221	0xbe654680	-0.22390175
222	0x3c98d1f6	0.018654805
223	0xbd95f0cf	-0.07321321
224	0xbd953164	-0.07284811
225	0xbe799540	-0.2437334
226	0x3e08adb7	0.13347517
227	0xbdb5fa0d	-0.08885584
228	0xbdeb901a	-0.115020946
229	0xbda7aa7d	-0.08186815
230	0x3c9120f2	0.017715905
231	0x3b2fbe54	0.0026816325
232	0x3e437bbe	0.19090173
233	0xbd8ab146	-0.067720935
234	0x3de93454	0.11386934
235	0xbe37bbc4	-0.1794272
236	0x3e1838b4	0.1486538
237	0xbe093903	-0.13400654
238	0xbe4b0f55	-0.19830067
239	0x3d8ced95	0.06881253
240	0xbe7a8833	-0.24466018
241	0x3d930127	0.07177954
242	0x3e526e8a	0.2054998
243	0xbd226b9a	-0.039653398
244	0xbedc388e	-0.43011898
245	0x3d15eb80	0.036601543
246	0xbe72fd9e	-0.2372956
247	0x3d857e17	0.0651819
248	0xbceab999	-0.028652953
249	0x3d315ad9	0.04329953
250	0x3db1c60f	0.08680355
251	0xbe31bb35	-0.1735657
252	0xbe040376	-0.12891945
253	0x3e2e08c5	0.16995533
254	0xbd51f08e	-0.0512548
255	0xbe080476	-0.13282952

critic.fc.weight f4 [1, 65]
0	0x3eabd090	0.33557558
1	0xbcefd6ea	-0.029277284
2	0x3df22003	0.11822512
3	0xbe0b7dc9	-0.13622202
4	0x3e9095c5	0.28239265
5	0xbe0f0e5e	-0.13970324
6	0xbe0afc1d	-0.13572736
7	0x3eb244eb	0.34818205
8	0xbe5ccef4	-0.21563321
9	0xbed9221b	-0.42408833
10	0x3d024bda	0.03181062
11	0x3e4e5e5f	0.20153187
12	0x3e724b77	0.236616
13	0x3d74d612	0.059774466
14	0x3e832147	0.25611326
15	0xbe2a440e	-0.16627523
16	0x3ea13c01	0.31491092
17	0xbe8ed6ed	-0.2789835
18	0xbd857db3	-0.06518116
19	0xbddf2268	-0.10895234
20	0xbe1593ba	-0.14607134
21	0xbe482131	-0.19543912
22	0x3e1b9fa8	0.15197623
23	0x3e866fc4	0.26257145
24	0x3dff4264	0.12463835
25	0xbe69ed77	-0.22844492
26	0x3ed2e7db	0.41192517
27	0x3e21e03d	0.15808196
28	0x3f34681b	0.7047135
29	0xbe566dc6	-0.20940313
30	0xbdb665fb	-0.0890617
31	0xbe7114a5	-0.23543032
32	0x3eaac60a	0.33354217
33	0xbe54bc30	-0.20774913
34	0xbe31071a	-0.17287865
35	0x3e1105f8	0.14162433
36	0xbe8d69d2	-0.27619797
37	0x3eb14246	0.34620875
38	0x3d9cbe01	0.07653428
39	0x3e308de0	0.17241621
40	0x3eeca8f6	0.46222657
41	0x3dec0c6d	0.115258075
42	0x3cd2388d	0.025661731
43	0xbdc3658f	-0.09540855
44	0x3efc3ad0	0.4926362
45	0x3d8c5e71	0.06853951
46	0xbe1e332a	-0.15449205
47	0x3d13f263	0.03611983
48	0xbd9788de	-0.07399152
49	0xbdc425df	-0.09577536
50	0xbf56f24b	-0.8396346
51	0x3ef94f80	0.48693466
52	0xbe7e234f	-0.24818157
53	0xbddfee86	-0.109341666
54	0x3e27f662	0.16402581
55	0x3e943e1a	0.2895363
56	0xbe8c4653	-0.27397403
57	0xbdd59fc9	-0.10430867
58	0xbdc82821	-0.09773279
59	0x3e36fd2a	0.17870012
60	0xbe2a2ca5	-0.16618593
61	0xbe719661	-0.23592521
62	0xbd73f5c3	-0.05956055
63	0x3de471a9	0.111544915
64	0xc07dbd72	-3.9646878

_actor_critic.actor.sigma_param f4 [2, 1]
0	0xbe0cdf0b	-0.13756959
1	0xc0210f84	-2.516572

_actor_critic.actor.conv1.bias f4 [64]
0	0x3ac28ec3	0.0014843572
1	0xbbfbc491	-0.0076833447
2	0xbdec201d	-0.115295626
3	0x00000000	0.0
4	0xbb81aa21	-0.0039570485
5	0xbbc455b9	-0.0059916642
6	0x00000000	0.0
7	0x3d9feb55	0.07808558
8	0xbbe08e96	-0.006852935
9	0xbe074464	-0.13209683
10	0x3d96cdd4	0.07363477
11	0x3d45b47e	0.048267834
12	0xbc743332	-0.014904784
13	0x00000000	0.0
14	0xbbc21181	-0.005922497
15	0x00000000	0.0
16	0x00000000	0.0
17	0xbc54b6f7	-0.012983075
18	0x00000000	0.0
19	0x3dbaf90a	0.09129532
20	0x00000000	0.0
21	0x00000000	0.0
22	0x00000000	0.0
23	0x00000000	0.0
24	0x00000000	0.0
25	0x3cd6a076	0.02619956
26	0x00000000	0.0
27	0xbd002edf	-0.0312947
28	0xbde24173	-0.1104764
29	0x00000000	0.0
30	0x3da17907	0.07884412
31	0x3d9a28d9	0.07527322
32	0xbcdfa767	-0.027301503
33	0xbca0e626	-0.019640993
34	0xbcccade1	-0.024985256
35	0xbd0cc3b6	-0.034366332
36	0xbdb18377	-0.08667653
37	0x3c27b99e	0.010237126
38	0xbd154c19	-0.036449526
39	0x00000000	0.0
40	0xbd55c4b8	-0.05218956
41	0xbbf1e989	-0.007382576
42	0xbaf47777	-0.0018651326
43	0xbcbaeed3	-0.022818958
44	0x3d54bd8c	0.05193858
45	0x00000000	0.0
46	0x00000000	0.0
47	0x3d8a326c	0.067478985
48	0x3d91fd59	0.071284
49	0xbd26488a	-0.040596522
50	0xbdadb4da	-0.0848176
51	0xbc4b9160	-0.012424797
52	0x3d438e36	0.047743045
53	0x3d4ab678	0.049490422
54	0x3d83dca9	0.06438572
55	0x3d9df9bf	0.07713651
56	0x00000000	0.0
57	0x00000000	0.0
58	0x00000000	0.0
59	0xbd2ea244	-0.042635217
60	0x00000000	0.0
61	0x00000000	0.0
62	0x00000000	0.0
63	0x00000000	0.0

_actor_critic.actor.conv1.lin.weight f4 [64, 2]
0	0x3c8c032e	0.01709136
1	0x3e89f8aa	0.26947528
2	0xbe3e8387	-0.18604861
3	0x3bc9154f	0.0061365734
4	0x3e1e5f2f	0.15465997
5	0xbd4b8fa3	-0.04969753
6	0xbdca2e9f	-0.098721735
7	0xbdb41bbf	-0.08794355
8	0x39aa8f8f	0.00032531886
9	0xbd58e76f	-0.052955087
10	0xbcf47d99	-0.029845046
11	0xbb21342d	-0.002459775
12	0xbd8ad6ee	-0.06779276
13	0xbd86194b	-0.06547793
14	0x3d658121	0.05603135
15	0x3e828d33	0.2549835
16	0x3bd1efa5	0.0064067417
17	0xbe533331	-0.20624997
18	0x3e9a221b	0.30104145
19	0xbe13746c	-0.1439988
20	0x3e3e8047	0.18603621
21	0x3e704a63	0.23465876
22	0x3e413d5b	0.18871062
23	0x3ee5efda	0.44909555
24	0x3c56afec	0.0131034665
25	0xbdc222bd	-0.09479282
26	0xbd77d658	-0.06050715
27	0xbb8b19d3	-0.004245022
28	0xbb523b6c	-0.0032078875
29	0xbdf91554	-0.12162271
30	0xbd8ee28e	-0.069768056
31	0xbd392be2	-0.045207866
32	0xbd9c561b	-0.07633611
33	0xbe335463	-0.1751266
34	0x3bb3e5f9	0.0054900614
35	0xbc5a6143	-0.013328853
36	0xb98909b0	-0.00026137894
37	0xbdbde0ca	-0.09271391
38	0xbda1eada	-0.079061225
39	0x3e428c5c	0.18998855
40	0xbe1b64fb	-0.1517524
41	0xbd800bf0	-0.06252277
42	0xbc012369	-0.007881978
43	0xbe57cd94	-0.21074516
44	0xbc0585f5	-0.008149614
45	0xbc4ffd7c	-0.012694713
46	0xbde9e2e6	-0.114202306
47	0xbdfac945	-0.1224542
48	0xbce1fb3a	-0.027585614
49	0xbde0e2b4	-0.1098074
50	0x3d99992b	0.074999176
51	0x3dc296ca	0.09501417
52	0xbd8de15c	-0.069277495
53	0xbb951eac	-0.0045507755
54	0x3cf8cf69	0.030372338
55	0xbe8acec0	-0.27110863
56	0x3d813076	0.06308071
57	0x3d94144d	0.072304346
58	0xbe800614	-0.25004637
59	0xbd8439a3	-0.06456306
60	0x3ce68f6c	0.02814456
61	0x3e6e33c8	0.2326194
62	0xbd99669c	-0.07490274
63	0x3e944b13	0.28963527
64	0x3ca97c62	0.020689193
65	0xbd5618d9	-0.05226979
66	0x3d1e5573	0.03865571
67	0xbe08aa6b	-0.1334626
68	0xbe63fe29	-0.22264923
69	0x3c810bbd	0.015752668
70	0x3c71b4a3	0.01475254
71	0x3c9d0dc6	0.019171607
72	0xbe8cb9ed	-0.274856
73	0x3e2bb5cc	0.16768569
74	0x3de58de3	0.11208703
75	0x3ea43ba7	0.3207676
76	0xbe04aa72	-0.12955645
77	0x3ccc0075	0.024902562
78	0xbac8db1a	-0.0015324086
79	0xbe7a4223	-0.24439292
80	0xbe64d3e8	-0.22346461
81	0x3d526ed9	0.051375244
82	0xbdcbd7d1	-0.09953273
83	0x3beefeb1	0.007293545
84	0xbc1a661e	-0.009423761
85	0xbe48e685	-0.19619186
86	0x3c97562d	0.018473709
87	0xbe543620	-0.20723772
88	0x3e9ae8fa	0.30255872
89	0x3e34b84f	0.17648433
90	0xbdcfd25c	-0.10147545
91	0xbd0ce2a4	-0.03439583
92	0xbe010fd4	-0.12603694
93	0xbdba9e4d	-0.09112225
94	0x3e6393b9	0.2222432
95	0xbefc0f19	-0.4923027
96	0x3e095e51	0.13414885
97	0x3e91eafc	0.2849959
98	0x3d1f365e	0.038870208
99	0xbe20163f	-0.15633486
100	0xbd85a501	-0.065256126
101	0x3da72f14	0.08163276
102	0x3c2a5bef	0.010397895
103	0xbbeb86d3	-0.007187703
104	0x3c8d5f3c	0.017257325
105	0x3d82cc94	0.063866764
106	0x3dfd2ed4	0.123624474
107	0x3e535705	0.20638664
108	0x3db3a7e3	0.08772256
109	0x3eb7ba90	0.35884523
110	0xbdad6a9b	-0.08467599
111	0xbdb15f05	-0.08660702
112	0xbe9f8b99	-0.31161192
113	0xbe1459fb	-0.1448745
114	0xbd20071f	-0.03906929
115	0xbd7140f9	-0.058899853
116	0xbbb53fa0	-0.0055312663
117	0xbdc35b7d	-0.095389344
118	0x3d22063a	0.03955672
119	0xbe25aaae	-0.1617839
120	0xbc114032	-0.008865403
121	0xbe0f969a	-0.14022294
122	0xbdfdff5a	-0.1240222
123	0xbc84aa19	-0.01619439
124	0xbd592976	-0.053018056
125	0xbe2faea3	-0.17156462
126	0xbdbbcab9	-0.09169526
127	0xbc473e29	-0.012160816

_actor_critic.actor.conv2.bias f4 [64]
0	0x3dd68aee	0.104757175
1	0xbc8c2af9	-0.017110335
2	0xbcf33fc0	-0.029693484
3	0x3ddbdf43	0.10735943
4	0x3dedcf9a	0.116118625
5	0x3dde02e6	0.108403966
6	0xbbc36093	-0.0059624403
7	0xbc964ad9	-0.018346237
8	0xbc3cc8ab	-0.011522452
9	0x3cbcd407	0.023050321
10	0xbc3c6bbd	-0.011500296
11	0xbcb5a432	-0.022173021
12	0xbcf8667d	-0.030322308
13	0x3dd227cf	0.10261499
14	0xbcdab1d1	-0.026696118
15	0xbc8303a9	-0.015992956
16	0x3e12fa36	0.1435326
17	0x3c9a3896	0.01882581
18	0xbce1f75b	-0.027583769
19	0xbbf5e2b9	-0.007503834
20	0x3df8366c	0.12119755
21	0xbd041123	-0.032242905
22	0xbccd74fa	-0.025080193
23	0xbd04953f	-0.032368895
24	0x3dde2d2a	0.10848458
25	0xbc843b12	-0.016141448
26	0xbc5aa8d6	-0.013345918
27	0xbd0f3227	-0.03495994
28	0x3de8cfd9	0.11367769
29	0xbc81cb95	-0.015844146
30	0xbbafe5ee	-0.005367986
31	0xbcdcf3f9	-0.026971804
32	0xbcea23c9	-0.028581517
33	0x3dc9896d	0.09840665
34	0xbd0926d3	-0.03348429
35	0xbd6ceb0c	-0.057841346
36	0xbc433510	-0.011914507
37	0x3e0fbb78	0.14036357
38	0x3de16e49	0.11007363
39	0x3ddb5671	0.10709847
40	0xbc7a149d	-0.015263704
41	0xbcc97ec6	-0.024596583
42	0x3dd11d9a	0.10210724
43	0x3dd83983	0.105578445
44	0xbda0e103	-0.078554176
45	0xbc9691e9	-0.018380122
46	0xbd52514c	-0.051347062
47	0xbce5e3d8	-0.028062746
48	0xbbd1cd4a	-0.006402646
49	0xbd15bc0f	-0.0365563
50	0xbcc167ec	-0.023609124
51	0xbd30332d	-0.043017555
52	0x3dc910b3	0.09817638
53	0xbc4795aa	-0.012181679
54	0xbc9432d8	-0.01809065
55	0x3df6fc2b	0.12059816
56	0xbbc4b43a	-0.00600293
57	0xbc818e1f	-0.015814839
58	0xbb5d77d2	-0.0033793342
59	0x3db691be	0.08914517
60	0xbc5b6171	-0.013389931
61	0x3dde153e	0.108438954
62	0xbbb290c8	-0.005449388
63	0xbd08045d	-0.033207286

_actor_critic.actor.conv2.lin.weight f4 [64, 64]
0	0x3d996b67	0.074911885
1	0xbbef409b	-0.0073014027
2	0x3de44a2b	0.11146959
3	0xbe2c7dfa	-0.16844931
4	0xbda6cdf5	-0.08144752
5	0xbe4c2ac3	-0.19938187
6	0xbe85da0b	-0.26142916
7	0x3e3fd3d5	0.18733151
8	0x3dbb9a7e	0.091603264
9	0xbc7b2925	-0.015329634
10	0x3e6eb6ce	0.23311922
11	0x3e67e582	0.22646144
12	0xbe0b8a0a	-0.13626876
13	0xbddafd51	-0.106928475
14	0xbdff5827	-0.124679856
15	0x3bb83a40	0.0056221783
16	0xbd1ef116	-0.038804136
17	0xbdd554b5	-0.10416547
18	0x3e9e6e08	0.30943322
19	0xbdd08b9c	-0.101828784
20	0x3e35b44e	0.17744562
21	0x3c081d4d	0.008307767
22	0xbcff7ae2	-0.031186525
23	0xbe3e0741	-0.18557455
24	0x3e32a55b	0.1744589
25	0xbd1fa8cd	-0.03897934
26	0x3d8f0eb0	0.06985223
27	0x3d3906dd	0.04517256
28	0xbbbdf41e	-0.0057969233
29	0xbda715d3	-0.081584595
30	0xbda423a6	-0.08014612
31	0x3e15ef5c	0.1464209
32	0xbdb14ff8	-0.08657831
33	0x3c86ad2b	0.016439995
34	0xbdac5617	-0.08414858
35	0x3cc98579	0.024599778
36	0x3d365527	0.0445148
37	0x3e9e3709	0.30901363
38	0xbdde2e9a	-0.10848732
39	0x3dfc6cd5	0.123254456
40	0xbc9a8bab	-0.018865427
41	0xbdc5f481	-0.09665776
42	0xbe1e5c2c	-0.15464848
43	0xbe198f5b	-0.14996092
44	0x3e4447fe	0.19168088
45	0xbe2fa847	-0.17154036
46	0xbd91a4eb	-0.07111534
47	0xbe241d10	-0.16026711
48	0xbd97d962	-0.07414509
49	0x3d32f2c8	0.043688565
50	0xbdc65da5	-0.0968583
51	0x3e088050	0.13330197
52	0xbd35de33	-0.04440136
53	0x3e81564e	0.25261158
54	0x3e504555	0.20338948
55	0xbcc60233	-0.02417097
56	0xbd5bf591	-0.053700987
57	0xbe5d7c8d	-0.21629544
58	0x3e172ecf	0.1476395
59	0x3da761b7	0.081729345
60	0x3d98c061	0.07458568
61	0xbbd0909d	-0.0063648955
62	0xbe8cb6ec	-0.27483308
63	0x3dee809f	0.11645626
64	0xbe1d8448	-0.15382493
65	0xbe40c33b	-0.18824475
66	0xbe48f05a	-0.19622937
67	0xbdfaf56a	-0.1225384
68	0xbd20ddea	-0.039274134
69	0x3dc426aa	0.09577687
70	0x3e0cc274	0.13746053
71	0x3e6a7206	0.22895059
72	0xbe30a0a5	-0.17248781
73	0x3e168d8c	0.14702433
74	0x3e0c15f6	0.13680252
75	0x3cee147c	0.029062502
76	0x3d2b6dd3	0.041852783
77	0x3dcafc5c	0.09911415
78	0x3c86d96e	0.0164611
79	0xbd46165c	-0.048361167
80	0xbe44774a	-0.1918613
81	0x3e126a61	0.14298393
82	0x3e365fbb	0.17809956
83	0xbd50c320	-0.050967336
84	0xbe326ba2	-0.17423871
85	0xbd15f303	-0.036608707
86	0xbd5f6837	-0.054542746
87	0xbd55dea6	-0.052214287
88	0x3e61d825	0.22055109
89	0xbd82c1ba	-0.06384607
90	0x3d80e0ea	0.06292899
91	0x3cda6501	0.02665949
92	0x3e24792c	0.16061848
93	0x3bd83880	0.006598532
94	0x3e1b5478	0.15168941
95	0xbe6f54c0	-0.23372173
96	0xbd56cfb5	-0.05244418
97	0xbcb7965a	-0.02241056
98	0xbe16e54b	-0.14735906
99	0x3e6eca95	0.23319466
100	0x3e08caae	0.13358566
101	0x3d8e4736	0.06947176
102	0x3d431680	0.04762888
103	0x3c971c67	0.01844616
104	0x3e3e32f8	0.1857413
105	0xbd09d820	-0.03365338
106	0xbd5b9497	-0.053608503
107	0xbe03c893	-0.12869482
108	0xbe41dc6c	-0.1893174
109	0xbe179d77	-0.14806162
110	0xbd6890c8	-0.0567787
111	0x3d38f76b	0.04515783
112	0xbda7fd2d	-0.08202586
113	0x3be1bd25	0.006889003
114	0xbd039b4f	-0.032130536
115	0xbc95e520	-0.018297732
116	0x3b8bf4c9	0.004271124
117	0xbe63196a	-0.22177663
118	0xbde0386b	-0.10948261
119	0x3d62b1d3	0.055345368
120	0x3dba5bef	0.09099566
121	0xbcb426d2	-0.021991167
122	0x3e2cac9a	0.16862717
123	0xbdb9d119	-0.09073085
124	0xbe5d11b5	-0.21588786
125	0xbd800d03	-0.06252482
126	0x3e3f6dcf	0.18694232
127	0xba107760	-0.00055109523
128	0x3d0e0467	0.034672167
129	0xbe280c00	-0.16410828
130	0x3c93fe69	0.018065648
131	0x3e2765d5	0.1634744
132	0xbd317a97	-0.0433298
133	0xbdeab417	-0.11460131
134	0xbc623c04	-0.013808254
135	0xbe2e1c8d	-0.17003079
136	0x3d2b7f40	0.041869402
137	0xbcf5a198	-0.02998428
138	0xbead4e3a	-0.33848745
139	0x3d172f5b	0.036910396
140	0x3e0298db	0.12753622
141	0x3d8d59a1	0.06901861
142	0x3e354fd9	0.1770624
143	0x3c07e392	0.008294003
144	0xbdd1f852	-0.102524415
145	0x3df79a45	0.120899715
146	0x3e0bb82c	0.13644475
147	0x3dfe4ec8	0.1241737
148	0xbdc48c4a	-0.095970705
149	0xbe66ae98	-0.2252754
150	0x3ccd7953	0.025082266
151	0xbc87411a	-0.016510535
152	0xbc8d9aab	-0.017285665
153	0x3d95b12f	0.07309186
154	0xbe9a19fe	-0.30097955
155	0xbc65ec56	-0.014033398
156	0xbd823e15	-0.063594975
157	0xbe3c0859	-0.1836256
158	0x3e2e116a	0.1699883
159	0x3dc789f2	0.09743108
160	0xbe4351e4	-0.19074208
161	0xbdd2cf93	-0.10293498
162	0xbdcccf1e	-0.10000442
163	0xbcc02c2a	-0.023458559
164	0x3e4db424	0.2008825
165	0xbde69618	-0.11259097
166	0x3da1af30	0.078947425
167	0x3e5f44b3	0.2180355
168	0xbd478cb3	-0.048718166
169	0xbd2f34d7	-0.042775
170	0x3b3a64fb	0.0028441537
171	0x3d367a10	0.04455
172	0x3e4aaabf	0.19791697
173	0xbdb4d839	-0.08830304
174	0xbc552ebf	-0.013011633
175	0xbbb49da4	-0.0055119563
176	0xbdee61ec	-0.11639771
177	0x3da1f632	0.07908286
178	0xbe00d326	-0.12580547
179	0x3d9f446f	0.077767245
180	0x3d94e917	0.07271021
181	0xbcbfb407	-0.023401273
182	0xbe86c6c2	-0.26323515
183	0x3da06c12	0.07833113
184	0x3e455520	0.19270754
185	0xbe0c95fe	-0.13729092
186	0xbca3a292	-0.01997498
187	0x3da07cac	0.07836279
188	0x3d40e1a9	0.047090206
189	0xbda8df7a	-0.0824575
190	0xbdb2298a	-0.08699329
191	0x3e2304b3	0.15919761
192	0x3e68b489	0.22725119
193	0x3e067376	0.13129982
194	0xbdd0ab0a	-0.10188873
195	0xbdf385b0	-0.11890733
196	0x3d8aa81d	0.06770346
197	0xbc9e4cdd	-0.01932376
198	0x3e24fbe8	0.1611172
199	0xbd18dcb3	-0.03731985
200	0x3dc1faf5	0.094716944
201	0x3d4c54a5	0.04988541
202	0x3d0c2fda	0.034225322
203	0x3e96e5f9	0.2947233
204	0x3c19fcd4	0.009398658
205	0xbd895c2d	-0.06707034
206	0xbe1d103f	-0.15338229
207	0x3d92e9b1	0.07173479
208	0xbe610bbd	-0.21977134
209	0xbd54f270	-0.05198902
210	0x3e0315e6	0.12801322
211	0x3d0f3cb2	0.034969993
212	0xbd9561b0	-0.07294023
213	0x3d6a387c	0.057182774
214	0x3c3e32cc	0.011608791
215	0x3e624d20	0.22099733
216	0x3c8576a2	0.01629192
217	0x3e1f8285	0.15577133
218	0xbdccbfc0	-0.09997511
219	0x39c736f7	0.0003799719
220	0xbe6709eb	-0.22562377
221	0x3da156fb	0.07877918
222	0x3e4c81ad	0.19971342
223	0x3e8e03db	0.27737316
224	0x3dc14c05	0.09438328
225	0x3d7f3742	0.062308557
226	0x3e225c0d	0.15855427
227	0x3dc9c830	0.09852636
228	0x3d892d5f	0.06698107
229	0x3e697ea2	0.22802213
230	0xbe5439f9	-0.2072524
231	0x3e9c86b8	0.30571532
232	0xbde1eaef	-0.11031138
233	0x3d9ebfba	0.07751413
234	0xbdc7579d	-0.09733508
235	0xbdafd20e	-0.085849866
236	0x3dcabfe4	0.098998815
237	0xbe5eda2a	-0.2176291
238	0xbce0a549	-0.027422564
239	0xbe43465d	-0.1906981
240	0x3ea3603a	0.31909353
241	0xbc936c9e	-0.017996129
242	0xbc8feb24	-0.017568178
243	0xbe6f0c2f	-0.23344491
244	0x3d93f674	0.072247416
245	0xbd1f2c5f	-0.038860675
246	0x3e8cc55b	0.2749432
247	0x3e030c07	0.12797557
248	0x3c67ae4e	0.014140679
249	0x3dc0113e	0.09378289
250	0xbd0ac2b8	-0.033877105
251	0xbe08a51d	-0.13344236
252	0x3dc17e61	0.09447933
253	0xbcb01906	-0.021496307
254	0x3e03c528	0.12868178
255	0x3d0a3dfc	0.03375052

_actor_critic.actor.fc_mu.weight f4 [2, 65]
0	0xbe034812	-0.12820461
1	0x3b8b9f96	0.0042609675
2	0xbcf6bacb	-0.030118367
3	0xbe016545	-0.12636288
4	0xbe08c9ca	-0.13358226
5	0xbdffdcd1	-0.12493289
6	0x3bbdf5ed	0.005797139
7	0x3b514211	0.0031930248
8	0x3b50ab55	0.0031840403
9	0xbbd6a122	-0.0065499702
10	0x3be3caef	0.006951682
11	0x3aadd8bd	0.0013263446
12	0x3bc8e47d	0.0061307536
13	0xbe00d436	-0.12580952
14	0xbb72c317	-0.0037042552
15	0xb874e9b2	-5.839178e-05
16	0xbe069353	-0.13142137
17	0xbcb325a5	-0.021868536
18	0x3cf378c3	0.02972067
19	0x3b3fa982	0.0029245322
20	0xbe02b70a	-0.12765136
21	0x3bda3605	0.0066592717
22	0xbb84c966	-0.004052329
23	0x3c6512b2	0.013981508
24	0xbdff7942	-0.124743
25	0xba99ba18	-0.0011728434
26	0x3b8e0ec9	0.0043352586
27	0xba373716	-0.00069891044
28	0xbe01e18e	-0.12683699
29	0x3b5c598a	0.0033622705
30	0xbb658d2e	-0.0035026777
31	0x3b909b26	0.0044130264
32	0x3c627b31	0.013823316
33	0xbe026ced	-0.12736864
34	0x3bccba45	0.006247791
35	0x3b27b299	0.002558863
36	0xbc5ebe3e	-0.013595162
37	0xbe04f5fb	-0.12984459
38	0xbe01cdf8	-0.12676227
39	0xbdfe407b	-0.124146424
40	0xbbafcde9	-0.0053651226
41	0x3ad1b8f9	0.0016000561
42	0xbe03c504	-0.12868124
43	0xbdf2b0fc	-0.11850163
44	0xbd506f9d	-0.050887693
45	0xbb9efb72	-0.004851752
46	0xbc323553	-0.010876971
47	0x3d61574a	0.055014886
48	0x3be3f524	0.0069567133
49	0xbc8da299	-0.017289447
50	0xbba738a5	-0.005103188
51	0x3c8be029	0.017074661
52	0xbe0ae6c7	-0.13564597
53	0x3b0835e4	0.0020784074
54	0xbbee0868	-0.0072641857
55	0xbe0018f7	-0.12509523
56	0xbb7f9c77	-0.0039003172
57	0x3b422a23	0.0029627166
58	0x3b364e7f	0.0027817783
59	0xbe03a6ff	-0.12856673
60	0xbb318b2f	-0.0027091017
61	0xbe7b90b1	-0.24566914
62	0x3b15d83c	0.0022864481
63	0xbae4e615	-0.0017463589
64	0xbd1219b4	-0.035669044
65	0xbddcf4ba	-0.107888654
66	0x3b9017a7	0.004397351
67	0xbc8aa228	-0.016923025
68	0xbdea717a	-0.11447425
69	0xbde4a000	-0.1116333
70	0xbdb8c9b8	-0.0902285
71	0xbb7dc94f	-0.0038724726
72	0x3b97a922	0.0046283165
73	0x3a0169e5	0.0004936739
74	0xbb534cbb	-0.003224178
75	0x3aff978d	0.0019500122
76	0xbbe65bf1	-0.0070300032
77	0xbc807d5a	-0.015684772
78	0xbdcc5b75	-0.099783815
79	0x3c17ea4a	0.009272167
80	0x3c7ed24b	0.015553067
81	0xbe07137c	-0.13191026
82	0xbba6741c	-0.0050797593
83	0xbc98d98f	-0.018658428
84	0xbc1c260f	-0.009530558
85	0xbde099ae	-0.10966812
86	0x3c8528d0	0.016254812
87	0x3ad367ea	0.0016128991
88	0xbc4a9760	-0.012365192
89	0xbde89935	-0.11357347
90	0xbb09ab2e	-0.0021006572
91	0xbae86dc8	-0.0017732913
92	0xbb827847	-0.0039816233
93	0xbde31734	-0.1108841
94	0x3c087450	0.008328512
95	0x3b4d6692	0.0031341654
96	0xbb397f44	-0.0028304616
97	0x3c292966	0.010324812
98	0xbdc0b556	-0.09409587
99	0xbb0bb6ad	-0.00213186
100	0xb9a02dae	-0.00030551612
101	0xbb4db85e	-0.003139041
102	0xbe094e24	-0.13408715
103	0xbde857fc	-0.11344907
104	0xbdb7a248	-0.089664996
105	0x3b69223b	0.0035573381
106	0xbadb0e74	-0.0016712681
107	0xbdd5a095	-0.10431019
108	0xbde6680d	-0.11250315
109	0x3d5d932d	0.054095436
110	0xbb20e8c6	-0.0024552806
111	0x3c8160c8	0.01579322
112	0xbddd6b21	-0.10811449
113	0xbb3af780	-0.002852887
114	0x3c745333	0.014912414
115	0x3b98422d	0.0046465606
116	0x3bc49f5e	0.0060004434
117	0xbdc12fdb	-0.09432956
118	0x3be96312	0.007122406
119	0xbb2bff21	-0.0026244598
120	0xbdfb6f9c	-0.12277147
121	0xbb17c164	-0.0023156041
122	0xb91920b7	-0.00014603404
123	0x3b5adb41	0.0033394846
124	0xbd9dbf39	-0.077024885
125	0xbaa5b527	-0.0012642489
126	0xbc929fec	-0.017898522
127	0x3b72699d	0.003698922
128	0xbb288079	-0.0025711341
129	0xbe3d7e85	-0.18505295

_actor_critic.actor.fc_mu.bias f4 [2]
0	0xbdaf534a	-0.08560808
1	0xbe2e0199	-0.16992797
