rl_environments/trained_models/PPO_routing_2_obj_200/policy.pth (torch, 41822 bytes, 24 tensors)

actor.sigma_param f4 [2, 1]
0	0x3c41a4c1	0.011819066
1	0xc045962e	-3.0872912

actor.conv1.bias f4 [64]
0	0x3e15be5d	0.14623399
1	0xbd2b0c72	-0.041759916
2	0xbc908297	-0.017640395
3	0x00000000	0.0
4	0x00000000	0.0
5	0xbcedeca4	-0.029043503
6	0xbd9ca08a	-0.07647808
7	0xbd2f1724	-0.042746678
8	0x3de2ced4	0.110746056
9	0xbd77c664	-0.060491934
10	0x00000000	0.0
11	0x3e2023fc	0.15638727
12	0xbd4006f8	-0.046881646
13	0xbd9e1fce	-0.0772091
14	0x00000000	0.0
15	0x3d77826d	0.060427118
16	0xbd715f07	-0.058928516
17	0x00000000	0.0
18	0x00000000	0.0
19	0x00000000	0.0
20	0x00000000	0.0
21	0xbd93d377	-0.07218068
22	0xbdca5821	-0.098800905
23	0x3de04aed	0.10951791
24	0x00000000	0.0
25	0xbba23e62	-0.0049512843
26	0x3d7b70dd	0.06138693
27	0xbda0f7e5	-0.07859782
28	0x3dfbbf6a	0.12292369
29	0xbb7ef791	-0.0038904885
30	0x3d91b649	0.07114846
31	0x3d8eb650	0.06968367
32	0x3dd0016a	0.1015652
33	0x00000000	0.0
34	0x3e098e15	0.13433106
35	0x3daaa3d9	0.08332033
36	0x3d92b41b	0.07163259
37	0x3d96282d	0.07331882
38	0x3e0e0122	0.1386762
39	0x3deed238	0.1166119
40	0x00000000	0.0
41	0xbd405690	-0.046957552
42	0x00000000	0.0
43	0xbbbc9d7b	-0.005756078
44	0x00000000	0.0
45	0xbd44975c	-0.04799591
46	0x00000000	0.0
47	0x3da7030a	0.081548765
48	0x3dddf798	0.108382404
49	0x00000000	0.0
50	0xbc06e2c5	-0.008232777
51	0x00000000	0.0
52	0x00000000	0.0
53	0x3da64b86	0.08119874
54	0x3e11cb74	0.14237767
55	0x00000000	0.0
56	0x00000000	0.0
57	0x3da461c5	0.080264606
58	0x3e0df584	0.13863188
59	0xbddc37fd	-0.107528664
60	0xbd9c6f26	-0.076383874
61	0x00000000	0.0
62	0x00000000	0.0
63	0xbd83cb13	-0.06435218

actor.conv1.lin.weight f4 [64, 2]
0	0xbe234160	-0.15942907
1	0x3e3eaa00	0.18619537
2	0x3e2ac0ad	0.16675062
3	0x3de81349	0.11331803
4	0xbb0a3fd5	-0.0021095176
5	0x3c82ea8d	0.015980983
6	0xbd38ef2f	-0.04514998
7	0xbd28ae54	-0.041181877
8	0xbd9ee118	-0.07757777
9	0xbd7d4ef0	-0.06184286
10	0x3e194baa	0.1497027
11	0x3d866521	0.065622576
12	0x3da1ddb0	0.07903612
13	0x3e05252b	0.1300246
14	0x3cbf1066	0.02332325
15	0xbaeae6a0	-0.0017921515
16	0x3e9fe393	0.31228313
17	0xbe6cfd45	-0.2314349
18	0x3cf0b656	0.02938382
19	0x3cec7bd8	0.028867647
20	0xbd8b432f	-0.06799924
21	0xbdfd4ff1	-0.12368763
22	0xbdae6402	-0.08515169
23	0x3dfd7601	0.12376023
24	0x3e31044e	0.17286798
25	0x3d2f7da0	0.042844415
26	0x3e626d5d	0.22112031
27	0x3de0f51f	0.10984253
28	0xbce11f03	-0.027480608
29	0xbcf1f9f6	-0.029538136
30	0x3daeccf1	0.08535183
31	0x3d424e79	0.04743812
32	0x3e841874	0.25799906
33	0x3d79c007	0.060974147
34	0xbc98d562	-0.018656436
35	0xbc184459	-0.009293639
36	0xbd60bf4f	-0.054869946
37	0xbdbe21c3	-0.09283783
38	0xbc08a567	-0.008340216
39	0xbd48d146	-0.049027704
40	0xbe797fc3	-0.24365143
41	0xbdd8b634	-0.105816275
42	0xbcdb0555	-0.026735941
43	0x3d91eb78	0.0712499
44	0x3d972a71	0.07381142
45	0x3d645686	0.055746578
46	0xbd527869	-0.051384363
47	0x3d6835da	0.05669198
48	0xbdc96c97	-0.09835165
49	0xbbfa66d8	-0.0076416545
50	0xbd0a3695	-0.03374346
51	0xba01702b	-0.0004937674
52	0xbdab314a	-0.083590105
53	0x3d9dc5bf	0.07703733
54	0x3e0e4a24	0.1389547
55	0xbdafcc6a	-0.08583911
56	0xbd40cb34	-0.04706879
57	0x3ddbef0e	0.107389554
58	0x3b54b79f	0.003245808
59	0xbdc305e9	-0.09522612
60	0x3dc8318f	0.097750776
61	0x3d91287a	0.070877984
62	0xbd54462a	-0.051824726
63	0x3e52fca6	0.2060419
64	0x3def2933	0.1167778
65	0x3dd215fc	0.102580994
66	0xbe0b238a	-0.13587776
67	0xbe9f45a9	-0.31107834
68	0x3c5aa7b8	0.013345651
69	0x3de2b83c	0.11070296
70	0x3e29c95b	0.16580717
71	0xbe2fcb15	-0.17167313
72	0x3d3ff657	0.046865787
73	0x3d93e047	0.07220512
74	0x3e9d1dc0	0.3068676
75	0xbe5f68c6	-0.21817312
76	0xbe04ad04	-0.12956625
77	0x3df78018	0.12084979
78	0x3de840b4	0.11340466
79	0x3c957747	0.018245352
80	0xbc926d33	-0.017874336
81	0xbdf6fae9	-0.12059576
82	0x3e2fdbda	0.1717371
83	0x3d4f6f33	0.050643157
84	0xbe30e092	-0.17273167
85	0xbd9c5b00	-0.076345444
86	0xbc82ebf8	-0.01598166
87	0x3bb83a0d	0.0056221546
88	0xbdd9aee3	-0.1062906
89	0xbdc765a5	-0.09736184
90	0x3e36b059	0.17840709
91	0x3d42f889	0.047600303
92	0xbcefc7c6	-0.029270064
93	0xbe85e869	-0.26153877
94	0x3ddfc92d	0.10927043
95	0x3cb10ea8	0.021613434
96	0xbbd2244d	-0.006413019
97	0x3d8b01dc	0.06787464
98	0xbe8dd9cf	-0.27705237
99	0xbcae4a7e	-0.021275755
100	0xbddf9a8e	-0.10918151
101	0xbab71d03	-0.0013970438
102	0xbd607cb9	-0.054806445
103	0xbc651b06	-0.013983494
104	0xbe07ef07	-0.13274775
105	0xbd32695e	-0.043557517
106	0x3c259166	0.0101054665
107	0x3db13346	0.08652358
108	0x3c679014	0.014133472
109	0x3d630f11	0.05543429
110	0xbda6a9cd	-0.08137856
111	0xbe8a6fb4	-0.27038348
112	0xbc4b9e5d	-0.0124278935
113	0xbe1c9287	-0.15290271
114	0x3e3395a2	0.17537549
115	0xbe14ff35	-0.14550479
116	0x3d7f5e33	0.062345695
117	0x3e982f52	0.29723603
118	0x3d93962d	0.07206378
119	0x3d06b5f2	0.03288836
120	0xbce9a3f1	-0.028520556
121	0x3d9c1a5b	0.076222144
122	0xbd09aff5	-0.03361507
123	0xbe67e60b	-0.22646348
124	0xbdad37d2	-0.084579125
125	0xbd116a88	-0.035501987
126	0x3e4b39f0	0.1984632
127	0x3db5b2f2	0.08872022

actor.conv2.bias f4 [64]
0	0xbd41e2fb	-0.047335606
1	0xbbb4821a	-0.0055086734
2	0x3de7e410	0.11322796
3	0xbdd13378	-0.10214895
4	0xbba522a8	-0.0050395317
5	0x3e446772	0.19180086
6	0xbd01103a	-0.031509615
7	0xbce9340d	-0.028467203
8	0xbbb49bab	-0.005511721
9	0xbc362e3b	-0.011119421
10	0x3e31d568	0.17366564
11	0x3e387868	0.18014681
12	0x3e47b423	0.1950231
13	0xbcaf9b76	-0.021436434
14	0x3db5f85a	0.0888526
15	0x00000000	0.0
16	0x3dfcd929	0.123461075
17	0xbd10b297	-0.035326567
18	0xbcfd0ebd	-0.030890817
19	0xbc87f7df	-0.016597686
20	0x3e28dddb	0.16490881
21	0xbc9e1af0	-0.019299954
22	0x00000000	0.0
23	0xbcd25a0a	-0.0256777
24	0xbcc23c5a	-0.023710418
25	0xbdb802ea	-0.08984931
26	0x3e282408	0.16419995
27	0xbc3dd1d7	-0.011585674
28	0xbbdc72a5	-0.006727534
29	0xbbfae8a2	-0.0076571265
30	0xbceac2e5	-0.028657386
31	0xbd341223	-0.04396261
32	0x3ae51999	0.0017478942
33	0xbd109ba8	-0.035304695
34	0xbc0992c0	-0.008396804
35	0xbb8e8608	-0.004349474
36	0xbd2fabfe	-0.042888634
37	0xbccb4d72	-0.024817202
38	0xbd9954d2	-0.07486881
39	0x3dbd42e7	0.09241276
40	0xbc88945b	-0.016672304
41	0xbd8f02de	-0.06982969
42	0xbb1c2cd7	-0.0023830438
43	0xbcbd38c2	-0.023098353
44	0xbc8ceb4a	-0.017202038
45	0x00000000	0.0
46	0xbcc2efc2	-0.023795966
47	0xbcc55304	-0.024087436
48	0xbbbe4ca4	-0.005807476
49	0xbc975cf6	-0.018476944
50	0xbc88ff42	-0.016723279
51	0xbd032a1a	-0.032022573
52	0xbd303898	-0.043022722
53	0xbcbf6a79	-0.0233662
54	0xbc8f7ab4	-0.017514564
55	0x00000000	0.0
56	0xbd00e9ee	-0.031473093
57	0xbbfca553	-0.007710138
58	0xbd4bf67d	-0.049795616
59	0xbb5af3ec	-0.003340955
60	0x3e048e0c	0.12944812
61	0x3e06e355	0.13172658
62	0xbc399317	-0.011326573
63	0xbd423e41	-0.04742265

actor.conv2.lin.weight f4 [64, 64]
0	0xbe4edbd8	-0.20201051
1	0xbda3ed36	-0.08004229
2	0x3cb5d537	0.022196395
3	0xbe1a5d35	-0.15074618
4	0xbe6b2132	-0.22961882
5	0x3e31b35e	0.1735358
6	0xbdffc1f4	-0.124881655
7	0x3e19a762	0.15005258
8	0x3e3c37d2	0.18380669
9	0xbe0307cd	-0.12795945
10	0xbe2787da	-0.16360417
11	0x3db53905	0.08848766
12	0xbdc760d2	-0.09735264
13	0x3d9597d2	0.07304348
14	0x3e09f6a0	0.13472986
15	0xbc0bd271	-0.00853406
16	0xbd947514	-0.072488934
17	0xbd605015	-0.054763872
18	0xbde9e4d4	-0.114205986
19	0xbcefa09f	-0.029251395
20	0x3cf66a90	0.03008011
21	0x3e2cd3d7	0.16877685
22	0x3db84816	0.08998124
23	0xbda092fc	-0.07840535
24	0xbc983055	-0.018577734
25	0xbe4b233c	-0.1983766
26	0x3e532956	0.20621237
27	0xbd0a5be3	-0.033779036
28	0x3defe937	0.11714404
29	0xbd5cb998	-0.053887933
30	0x3df3a947	0.118975215
31	0xbe576863	-0.21035914
32	0x3c73790c	0.014860403
33	0x3e130e64	0.14360958
34	0x3e09023c	0.13379759
35	0xbe4529c9	-0.19254221
36	0x3de11e4c	0.10992107
37	0x3deacd1a	0.11464901
38	0x38a7f207	8.008262e-05
39	0xbe89225e	-0.26784033
40	0x3d8504d9	0.06495065
41	0x3b6ac2fb	0.0035821784
42	0xbdee33f4	-0.11631003
43	0x3e4ce798	0.20010221
44	0xbc1a40d7	-0.009414873
45	0xbc8d75e9	-0.017268138
46	0xbe4651f7	-0.19367205
47	0x3c90ab49	0.0176598
48	0xbdbb5dbf	-0.0914874
49	0xbe388764	-0.18020397
50	0xbd8790b7	-0.06619399
51	0xbd7e3f66	-0.06207218
52	0x3dfaeb38	0.12251896
53	0xbcdfe765	-0.027332017
54	0xbd965e45	-0.07342199
55	0xbb3fc88d	-0.0029263825
56	0x3c1182d5	0.00888129
57	0xbccafb67	-0.024778081
58	0x3d3754c3	0.04475857
59	0x3e0c4b3d	0.13700576
60	0xbe2f3559	-0.17110194
61	0x3dff1ca8	0.124566376
62	0x3de42e91	0.11141694
63	0xbd2a2d3c	-0.041547045
64	0xbd4b4b40	-0.04963231
65	0x3ce7a2e9	0.028275924
66	0x3d02609e	0.031830423
67	0xbdaa2b07	-0.08308988
68	0xbe34d466	-0.17659149
69	0xbc7a178b	-0.015264402
70	0xbe69660c	-0.22792834
71	0xbe00ec02	-0.1259003
72	0xbcf0fe09	-0.029418008
73	0x3e01135b	0.1260504
74	0x3c5836ba	0.013196642
75	0x3d7fbde1	0.062436942
76	0xbd96c043	-0.0736089
77	0x3e59160e	0.2119982
78	0xbe684524	-0.22682625
79	0xbd651dd6	-0.055936657
80	0x3d9873b4	0.074439436
81	0x3d5895fd	0.052877415
82	0xbdc1ca1c	-0.094623774
83	0xbc057717	-0.008146069
84	0x3dee2040	0.11627245
85	0x3eb81cb9	0.35959414
86	0x3df18aee	0.11794077
87	0xbe3672b2	-0.1781719
88	0x3e816d53	0.2527872
89	0xbd4ad8a5	-0.049523015
90	0xbd83337b	-0.064063035
91	0x3e0d7d0e	0.13817236
92	0xbe35bccd	-0.17747803
93	0x3e1bd142	0.15216544
94	0xbea08176	-0.3134877
95	0x3e126c63	0.14299159
96	0xbe3dc6a2	-0.18532804
97	0x3e262235	0.16223986
98	0x3a30a256	0.0006738057
99	0xbde182d7	-0.11011284
100	0xbe0d3737	-0.13790594
101	0xbce8af37	-0.028403861
102	0x3d695644	0.056967035
103	0xbde91b9a	-0.11382218
104	0x3d40c902	0.047066696
105	0x3dca8e31	0.09890402
106	0xbc74a2e2	-0.014931412
107	0x3c68c29d	0.014206556
108	0x3da1d866	0.07902603
109	0xbd900420	-0.07032037
110	0x3df1bcd5	0.11803595
111	0x3e2ff311	0.17182566
112	0x3d205b6d	0.03914969
113	0x3cbf895a	0.023380924
114	0x3b5aac58	0.0033366885
115	0x3ded3977	0.11583226
116	0xbe0a7730	-0.13522029
117	0xbd197ed4	-0.03747447
118	0xbb48581a	-0.003057009
119	0xbd6fbb3f	-0.05852818
120	0xbb2cc9e9	-0.0026365465
121	0x3e18d12d	0.14923544
122	0xbc0b1153	-0.008488017
123	0xbe72d149	-0.23712648
124	0xbd8e45bb	-0.06946894
125	0x3c393cd0	0.011306003
126	0xbc373927	-0.01118306
127	0xbd49ce5e	-0.049269073
128	0x3d57956f	0.052632745
129	0x3ddaf8c8	0.106919825
130	0x3e0eb8e0	0.13937712
131	0xbe3f5e6c	-0.18688363
132	0xbde41138	-0.11136097
133	0xbe468d43	-0.19389825
134	0xbd9bbcb9	-0.07604355
135	0x3d7e1a6b	0.062036913
136	0xbde3ee79	-0.111294694
137	0x3d768b9f	0.060191747
138	0x3d137986	0.036004566
139	0x3ce097af	0.027416078
140	0xbd620a28	-0.055185467
141	0xbdb9f220	-0.09079385
142	0x3e487b46	0.19578275
143	0x3ed18942	0.40925032
144	0xbe78b7fe	-0.24288937
145	0xbd74b692	-0.059744425
146	0x3daf3b0a	0.08556183
147	0x3d861f48	0.06548935
148	0xbb811aec	-0.003939977
149	0xbd00f434	-0.03148289
150	0xbd7454a5	-0.059651036
151	0xbb3c60b6	-0.0028744168
152	0xbd3cfdf2	-0.04614062
153	0x3dfb8203	0.12280657
154	0x3e2e2f2e	0.17010185
155	0xbaa5f2b9	-0.0012660838
156	0x3e1184dc	0.14210838
157	0xbd7a543f	-0.0611155
158	0x3d60ff93	0.054931235
159	0x3dfe061c	0.12403509
160	0x3d60df80	0.054900646
161	0xbdb5d7dc	-0.088790625
162	0xbc91fe38	-0.017821416
163	0x3d62f376	0.055407964
164	0xbe5a8ee8	-0.21343577
165	0xbc49738b	-0.012295614
166	0x3e597cb1	0.21238972
167	0xbdd0f5b4	-0.10203114
168	0xbe31e2b8	-0.17371643
169	0xbe378f43	-0.17925744
170	0xbdcb8682	-0.09937765
171	0x3d16373c	0.03667377
172	0xbe26aca2	-0.16276792
173	0xbe5235a1	-0.2052827
174	0x3e52616e	0.20544979
175	0x3df6187b	0.12016388
176	0x3e8d5e1c	0.27610862
177	0x3d0ff27c	0.03514336
178	0xbe5713b6	-0.21003613
179	0x3e4b22aa	0.19837442
180	0xbd453ba6	-0.04815259
181	0xbda4e882	-0.0805216
182	0x3cbce346	0.023057591
183	0xbe18d80f	-0.1492617
184	0xbd549254	-0.051897362
185	0x3d61724f	0.055040654
186	0x3bd941bc	0.0066301506
187	0x3e11d03d	0.14239593
188	0xbd073d88	-0.033017665
189	0x3e1b2214	0.15149719
190	0x3d7f41f0	0.062318742
191	0xbda8d9b1	-0.08244646
192	0xbdd87a9e	-0.10570262
193	0x3e0917f2	0.1338804
194	0xbcca7590	-0.024714261
195	0x3d7955e0	0.060872912
196	0xbdf3ccf6	-0.119043276
197	0x3e114719	0.14187278
198	0x3e50ed92	0.20403126
199	0xbded5d30	-0.1159004
200	0xbd54f722	-0.051993497
201	0xbdd4b575	-0.10386173
202	0x3c543964	0.012953136
203	0xbdae0187	-0.08496385
204	0x3e23a9d6	0.15982756
205	0x3e0eb49f	0.13936089
206	0xbd16a779	-0.036780808
207	0xbd6deed0	-0.058089077
208	0x3ed971cb	0.4246963
209	0xbd3915aa	-0.045186676
210	0xbdcc63c0	-0.09979963
211	0xbe2e608b	-0.17029016
212	0x3dffd361	0.12491489
213	0x3d98166c	0.07426152
214	0xbd40133d	-0.046893347
215	0xbeb40afa	-0.35164624
216	0x3a47b580	0.0007618293
217	0xbda50824	-0.08058193
218	0xbe690e70	-0.22759414
219	0x3e298397	0.16554104
220	0x3c39a597	0.011330984
221	0xbca505d4	-0.02014438
222	0x3d913d5b	0.07091781
223	0xbe142aae	-0.14469406
224	0x3ddb9e78	0.10723585
225	0x3d39b10c	0.04533486
226	0xbd6247e0	-0.055244327
227	0x3aa028dc	0.0012219208
228	0xbd7eb8a5	-0.06218781
229	0xbcdaf0ae	-0.026726093
230	0xbcf151b4	-0.029457904
231	0xbde76f6d	-0.1130055
232	0x3d149073	0.03627057
233	0xbd0f0160	-0.03491342
234	0x3d06866f	0.03284305
235	0xba73a8e0	-0.00092948787
236	0x3cdb2a95	0.026753703
237	0x3d915c81	0.07097722
238	0x3e17caaf	0.14823411
239	0xbe248a2e	-0.16068336
240	0x3e2ae189	0.16687597
241	0x3ea8524f	0.32875296
242	0x3e392260	0.1807952
243	0x3d32b1bf	0.043626543
244	0x3d234208	0.039857894
245	0xbe07bfad	-0.13256712
246	0xbe6a5870	-0.22885299
247	0xbde45b7c	-0.11150262
248	0x3e36067c	0.17775911
249	0xbe84452c	-0.25834024
250	0x3d44677d	0.047950257
251	0x3de9407d	0.11389253
252	0xbd942c89	-0.07235057
253	0xbcbda75e	-0.023151096
254	0x3db936db	0.09043666
255	0x3e9d614a	0.30738288

actor.fc_mu.weight f4 [2, 65]
0	0x3c1184a6	0.0088817235
1	0x3b26e58b	0.0025466408
2	0x3d7899d4	0.060693577
3	0x3dd66af7	0.10469621
4	0x3da011bb	0.07815882
5	0x3db6d3ab	0.08927091
6	0x3c69738e	0.014248742
7	0xba77e984	-0.0009457099
8	0x3b79a172	0.0038090614
9	0x3ab5fa3d	0.0013883781
10	0x3da17915	0.07884423
11	0x3db84faf	0.089995734
12	0x3db9e8b4	0.09077588
13	0xbb00b484	-0.0019638846
14	0x3d6bba34	0.057550624
15	0xba540884	-0.0008088427
16	0x3d9166ec	0.07099709
17	0x3c9021fa	0.017594326
18	0x3c284a4b	0.010271619
19	0x3b71ec97	0.00369147
20	0x3daae8c9	0.083451815
21	0xba014dca	-0.0004932551
22	0x3a17a33d	0.0005784517
23	0xbc8bfa81	-0.017087223
24	0xbbcd8abc	-0.006272642
25	0xbdc86aaf	-0.09785973
26	0x3da4f883	0.08055212
27	0x39fb87a9	0.00047975525
28	0x3b8138ed	0.0039435537
29	0x3be39945	0.0069457614
30	0x3bcfb50a	0.00633872
31	0x3d39177a	0.045188405
32	0x3d341aaf	0.04397076
33	0xbac5cb7c	-0.001509055
34	0x3be63a05	0.0070259594
35	0x3baeb421	0.0053315316
36	0xbb6b6fcb	-0.0035924788
37	0x3be29be6	0.006915557
38	0x3d3c0904	0.045907035
39	0x3d819bba	0.063285306
40	0x3b0bdd24	0.0021341527
41	0xbcad327c	-0.021142237
42	0xb900b2c9	-0.00012273634
43	0xbb946c75	-0.0045295306
44	0xbb1833da	-0.0023224265
45	0x3b2b212e	0.0026112306
46	0xbd1b4ed4	-0.037916973
47	0x3acb50d6	0.0015511762
48	0x3a909fb9	0.0011033929
49	0xbc69f7da	-0.014280284
50	0x3ccf6142	0.02531493
51	0x3b2e7eba	0.0026625828
52	0xbcc78923	-0.024357384
53	0x3ce965c3	0.028490907
54	0x3c2b80e7	0.010467744
55	0x3a8e8f3d	0.0010876429
56	0xbcc93a22	-0.024563853
57	0xbc000cee	-0.007815583
58	0x3bd8ce56	0.006616394
59	0x3b866a71	0.0041020443
60	0x3d68d4d9	0.056843612
61	0x3d99fe8a	0.075192526
62	0x39f5a454	0.00046852475
63	0x3c7b54e0	0.01534006
64	0xbd0af3cc	-0.03392391
65	0xbb181994	-0.0023208605
66	0x3be728f3	0.007054442
67	0xbd91edda	-0.07125445
68	0x3d7572dc	0.05992399
69	0xbca0f13e	-0.019646283
70	0xbe16dd14	-0.14732772
71	0xbca4a9b5	-0.020100454
72	0xbb89f46c	-0.0042100456
73	0xbb8433df	-0.004034504
74	0x3ba3f4e2	0.0050035575
75	0xbe0075b3	-0.12544899
76	0xbe1345e9	-0.14382137
77	0xbe1a66be	-0.15078256
78	0x3a8cc87b	0.00107409
79	0xbd865294	-0.06558719
80	0xba8caaef	-0.0010732095
81	0xbdb39f2b	-0.08770593
82	0x3ce6b81c	0.028163962
83	0xba968a2e	-0.0011485273
84	0x3b018e5f	0.0019768698
85	0xbded3fc8	-0.11584431
86	0xbc37a330	-0.0112083405
87	0x3a4ef9d9	0.00078955066
88	0xbc5663b9	-0.013085299
89	0xbc0ad5fd	-0.00847387
90	0x3cbcf3c6	0.023065459
91	0xbe02d33e	-0.12775895
92	0x3bca700f	0.006177909
93	0x3b0903aa	0.0020906725
94	0xbb38ddd3	-0.002820839
95	0xbb5eaaec	-0.003397639
96	0xbbae6c56	-0.0053229732
97	0xbccff5e3	-0.025385803
98	0x3ba39d3a	0.004993108
99	0xbc380977	-0.011232725
100	0xbc05bff4	-0.008163441
101	0xb9d1e68c	-0.00040035357
102	0xba65bc78	-0.0008763741
103	0x3b96a98c	0.0045978483
104	0xbd7d7645	-0.06188037
105	0x3b5352e3	0.003224545
106	0x3c5a3672	0.013318645
107	0x3b33509e	0.0027361284
108	0x3ba0d4f3	0.004908198
109	0x3b723371	0.003695693
110	0xb9b8d890	-0.00035256566
111	0x3d9550a2	0.0729077
112	0x3aa9284a	0.0012905684
113	0x3b9424ae	0.004520974
114	0xbc14419b	-0.009048845
115	0xb97f4e51	-0.0002434787
116	0xbc2c8194	-0.010528941
117	0xbcd3fb72	-0.025876734
118	0x3b81d2ab	0.003961881
119	0x3a023588	0.0004967083
120	0xbaba07ef	-0.0014193038
121	0xbc91fe4e	-0.017821457
122	0x3bacf104	0.0052777547
123	0xba83bb9e	-0.0010050421
124	0xbb1486ee	-0.0022663432
125	0xbdc41467	-0.09574204
126	0xbdc45d71	-0.09588135
127	0x3bac8dde	0.0052659353
128	0x3a4346c7	0.00074492063
129	0xbe304be8	-0.17216456

actor.fc_mu.bias f4 [2]
0	0x3d4c4c02	0.049877174
1	0xbe3f3bee	-0.18675205

critic.conv1.bias f4 [64]
0	0xbc82afeb	-0.015953025
1	0x3d3015cc	0.042989537
2	0x3d107298	0.035265535
3	0xbc800f10	-0.015632182
4	0x3d7251f8	0.059160203
5	0x3d94ef99	0.07272262
6	0x3d65128d	0.055925895
7	0xbc334557	-0.010941825
8	0xbc81d0d7	-0.015846653
9	0xbc815164	-0.01578588
10	0xbc17e75c	-0.009271469
11	0xbddda9de	-0.10823415
12	0x3d76a670	0.06021732
13	0x00000000	0.0
14	0x3e0652b5	0.13117488
15	0x3dd3bf41	0.10339213
16	0x3e08d011	0.13360621
17	0x00000000	0.0
18	0xbc412058	-0.0117874965
19	0xbbf9aa55	-0.007619182
20	0x00000000	0.0
21	0xbe044e14	-0.1292041
22	0x00000000	0.0
23	0x00000000	0.0
24	0x3c9f01aa	0.019409973
25	0xbbfa8be1	-0.0076460694
26	0xbdad50af	-0.08462655
27	0x00000000	0.0
28	0x00000000	0.0
29	0x00000000	0.0
30	0x00000000	0.0
31	0x3d2ec3c6	0.042667173
32	0x00000000	0.0
33	0xbd1b8847	-0.03797176
34	0x3d3f616c	0.046723768
35	0xbd81dad2	-0.06340565
36	0xbd0ff39c	-0.035144433
37	0xbdb364e8	-0.08759481
38	0xbdd83cd8	-0.1055848
39	0x3dbede7c	0.09319779
40	0x00000000	0.0
41	0x00000000	0.0
42	0x3daaa7d1	0.0833279
43	0x3dedca78	0.116108835
44	0x3e0266c3	0.12734513
45	0xbe06a83e	-0.13150117
46	0x3d0c6730	0.034278095
47	0xbd52d581	-0.051473144
48	0xbc8ee085	-0.017441044
49	0x3d40b6f5	0.04704948
50	0x3cf96edb	0.030448368
51	0x3d8efbcf	0.069816224
52	0xbc61a94e	-0.013773276
53	0xbc92190a	-0.017834205
54	0xbc7a86d3	-0.015290934
55	0x00000000	0.0
56	0x3e3e6f06	0.1859704
57	0xbdecbfde	-0.11560033
58	0x3d12c13b	0.03582881
59	0xbd9762af	-0.07391869
60	0xbc1cefd9	-0.0095786685
61	0x3e08501f	0.13311814
62	0xbd801477	-0.06253903
63	0x00000000	0.0

critic.conv1.lin.weight f4 [64, 2]
0	0x3e3c0c43	0.18364052
1	0xbeb215e9	-0.3478234
2	0x3de7ae54	0.11312547
3	0x3df34eaf	0.11880242
4	0xbb996a55	-0.004681865
5	0x3d74f0d3	0.05979998
6	0x3c74b899	0.01493659
7	0xbdc6fe0f	-0.097164266
8	0x3e935772	0.28777653
9	0xbcf80450	-0.030275494
10	0xbd346755	-0.044043858
11	0x3e853167	0.26014253
12	0x3d1a29ef	0.037637647
13	0x3e39a991	0.1813109
14	0x3de6217b	0.11236855
15	0xbe13a54d	-0.14418526
16	0xbb33e4c6	-0.0027449592
17	0x3c3d9001	0.011569978
18	0xbe5cc05c	-0.21557754
19	0x3c704bfe	0.014666555
20	0xbe463bb3	-0.19358711
21	0x3e2879a8	0.16452658
22	0x3e756ff0	0.23968482
23	0x3e0efa04	0.13962561
24	0x3e15bdd2	0.14623192
25	0x3e33da6a	0.17563787
26	0xbdb57c90	-0.08861649
27	0xbca00239	-0.01953231
28	0x3ea78b24	0.32723343
29	0x3e8d5376	0.27602738
30	0xbd3fb4e7	-0.04680338
31	0xbeaa3487	-0.332432
32	0x3eb8e03c	0.36108577
33	0x3e2634d8	0.16231096
34	0xbd851d26	-0.064997
35	0xbe185e7e	-0.14879796
36	0xbe77b09e	-0.24188468
37	0x3e66c817	0.22537266
38	0x3d784296	0.060610376
39	0xbd3ca126	-0.04605212
40	0xbe38ff79	-0.18066205
41	0xbe8ea88a	-0.2786296
42	0x3e9e7d33	0.30954894
43	0x3e1b3696	0.15157542
44	0xbc5fffc6	-0.013671821
45	0xbe01080f	-0.1260073
46	0xbd3835f6	-0.044973336
47	0xbd0e974d	-0.03481226
48	0x3dc472b9	0.09592194
49	0x3e85b400	0.26113892
50	0xbeaf57ba	-0.34246618
51	0x3e30c739	0.17263497
52	0x3dfca0a0	0.12335324
53	0x3e21c156	0.15796408
54	0xbe51bbaf	-0.20481752
55	0xbdbe70d6	-0.092988655
56	0xbd95d7d3	-0.07316556
57	0xbc6a25bf	-0.014291226
58	0xbd26e340	-0.040744066
59	0xbe130f10	-0.14361215
60	0xbe618b48	-0.22025788
61	0xbda50065	-0.08056716
62	0x3ca2b9b5	0.019863943
63	0xbe43a582	-0.19106105
64	0xbe37f720	-0.17965364
65	0xbd5f273e	-0.054480784
66	0xbdd72163	-0.10504415
67	0x3e4ba569	0.19887318
68	0x3e46ae97	0.19402538
69	0xbcd3bc3f	-0.025846599
70	0x3d5a324c	0.053270623
71	0x3e26f995	0.16306145
72	0x3e59c046	0.21264753
73	0xbe01cece	-0.12676546
74	0x3e886f5e	0.26647466
75	0x3d70cf4a	0.058791436
76	0x3ea3a1db	0.31959423
77	0x3d8c98c4	0.06865075
78	0x3ecb767c	0.39738834
79	0x3e38a9f4	0.18033582
80	0xbd8152eb	-0.063146435
81	0xbd206b16	-0.039164625
82	0xbdd719d4	-0.10502973
83	0xbe513286	-0.2042943
84	0x3e7441a9	0.23853172
85	0x3e2e7f5a	0.17040768
86	0x3e99227a	0.29909116
87	0x3e253664	0.1613403
88	0x3ea895ef	0.3292689
89	0xbc64ba31	-0.013960407
90	0x3e976d35	0.29575506
91	0x3e298407	0.1655427
92	0xbe28b7cc	-0.16476363
93	0x3e8e8bff	0.27841184
94	0x3e52f4bb	0.2060117
95	0x3e1bb56a	0.15205923
96	0x3e1c17f0	0.15243506
97	0xbebdc7a1	-0.37066367
98	0x3eb81a4e	0.3595757
99	0x3e106f16	0.14104876
100	0x3cba4396	0.022737306
101	0xbe10f240	-0.14154911
102	0x3eacf05c	0.3377713
103	0x3e01b858	0.12667978
104	0x3df6858a	0.12037189
105	0xbe58e3ba	-0.21180621
106	0x3dfdf0d9	0.12399454
107	0xbd8f3c09	-0.06993873
108	0x3e8f07a5	0.2793552
109	0xbedb3197	-0.42811272
110	0xbd001666	-0.03127136
111	0xbc78514a	-0.0151561
112	0x3ebd5c8c	0.3698467
113	0x3e2d5fcd	0.16931076
114	0x3ef0dfbf	0.47045705
115	0x3ec554a0	0.38541126
116	0x3e9dab3b	0.307947
117	0x3e687a06	0.22702798
118	0x3e197295	0.14985116
119	0x3dd3e664	0.10346678
120	0xbdefe8fe	-0.117143616
121	0x3d62bed8	0.055357784
122	0x3ec3edba	0.38267308
123	0x3dd04848	0.101700366
124	0x3f07451e	0.5283984
125	0x3ea7c1ad	0.3276495
126	0xbe3e6c17	-0.1859592
127	0xbd8031ed	-0.062595226

critic.conv2.bias f4 [64]
0	0xbd90f764	-0.07078436
1	0x3e04b883	0.1296101
2	0x3df74cee	0.1207522
3	0xbc6b4897	-0.0143605685
4	0x3dc0c9dd	0.09413502
5	0xbd8a5726	-0.067549035
6	0xbe51202b	-0.20422427
7	0x3db3a2a3	0.08771255
8	0x00000000	0.0
9	0x3c7e3427	0.015515364
10	0xbc877516	-0.016535323
11	0xbb0dc589	-0.0021632633
12	0x3e0c8a12	0.13724545
13	0xbccb6973	-0.024830556
14	0x3e0417b2	0.12899664
15	0xbc482e34	-0.012218047
16	0xbe0b87b5	-0.13625987
17	0x3e122f92	0.14275959
18	0x3dfaf7d2	0.12254299
19	0x3ddc1577	0.107462816
20	0x3d422bc1	0.04740501
21	0xbb8c0065	-0.004272508
22	0x3e1d912e	0.15387413
23	0xbc8778b3	-0.016537046
24	0x3de01c35	0.1094288
25	0xbc82c673	-0.015963769
26	0x3de238e4	0.11046007
27	0xbdd8920e	-0.10574733
28	0xbc6d8673	-0.014497387
29	0x3dc66fde	0.09689306
30	0x3e150dc2	0.1455603
31	0x3dcd51a0	0.10025334
32	0x3d95eb10	0.07320225
33	0xbc917682	-0.017756704
34	0x3e1a5fee	0.15075657
35	0x3e0d712a	0.138127
36	0xbc2b069e	-0.010438589
37	0x00000000	0.0
38	0x3de3f16f	0.11130034
39	0x3d316735	0.043311317
40	0x3e281524	0.16414315
41	0xbca33056	-0.01992051
42	0x3ded06f3	0.11573591
43	0xbbc4c0c3	-0.0060044243
44	0xbc3bebbc	-0.011469778
45	0xbc687fb6	-0.014190605
46	0xbdf307c1	-0.11866713
47	0xbc818b10	-0.01581338
48	0xbc876cbc	-0.01653134
49	0x3dce7ab7	0.10082
50	0x00000000	0.0
51	0xbe3e944e	-0.18611261
52	0xbc7c1943	-0.015386882
53	0xbc6ead5e	-0.014567701
54	0x3e4bf8cc	0.19919127
55	0xbda62032	-0.081116095
56	0xbbc4c108	-0.0060044564
57	0x3df78b5c	0.120871276
58	0x3e31582a	0.17318788
59	0x3dee5125	0.11636571
60	0xbc5cb152	-0.013470011
61	0x00000000	0.0
62	0x3d9b7997	0.07591551
63	0x3de28dd7	0.1106221

critic.conv2.lin.weight f4 [64, 64]
0	0x3d9bf49c	0.07615015
1	0xbdd454fa	-0.103677705
2	0x3dd38770	0.10328567
3	0xbe1fbde9	-0.15599789
4	0x3dbff9f5	0.093738474
5	0x3de39a9a	0.11113472
6	0xbdfeae0e	-0.12435542
7	0xbc4878b1	-0.012235806
8	0x3e0550b6	0.1301907
9	0x3e0a02e6	0.13477668
10	0x3e7e3121	0.24823429
11	0x3e10aa70	0.14127517
12	0xbeb4a702	-0.35283667
13	0xbe624470	-0.2209642
14	0x3abb32c5	0.0014282098
15	0x3d72f66f	0.05931705
16	0xbd363126	-0.044480465
17	0xbd6aa28e	-0.05728393
18	0x3d23da61	0.040003184
19	0x3e61cfcd	0.22051926
20	0xbda330e2	-0.07968308
21	0x3eb2392e	0.3480925
22	0xbe146549	-0.14491762
23	0xbd0fb1aa	-0.035081543
24	0xbafbfa32	-0.0019224344
25	0x3d67750d	0.056508113
26	0x3e8101d8	0.2519672
27	0x3d14db4d	0.036341954
28	0xbd9084e0	-0.07056594
29	0xbdd03935	-0.101671614
30	0xbcd5cea2	-0.026099507
31	0x3db30b11	0.08742345
32	0xbcba2298	-0.022721574
33	0x3dfffff3	0.1249999
34	0xbc8a7873	-0.016903138
35	0x3e07eb2b	0.13273303
36	0x3dd062c0	0.10175085
37	0x3e9d5679	0.30730036
38	0x3e8d782e	0.27630752
39	0x3e19c265	0.15015562
40	0xbdb2deb0	-0.087338805
41	0xbe412569	-0.18861927
42	0xbd4f096d	-0.0505461
43	0x3c8a6aa4	0.016896553
44	0xbcae1e71	-0.02125475
45	0xbdfd1200	-0.12356949
46	0x3e2f69b2	0.17130163
47	0x3df5b123	0.11996677
48	0x3d4bb966	0.049737357
49	0x3d5a8557	0.05334982
50	0xbe305600	-0.17220306
51	0x3dc5d8e0	0.09660506
52	0x3d11680d	0.03549962
53	0x3e82e9f5	0.2556912
54	0x3cc44fd8	0.023963854
55	0xbdbea848	-0.09309441
56	0xbdd34e6e	-0.10317694
57	0x3e9e3f30	0.30907583
58	0x3db49be8	0.08818799
59	0xbe92f8ca	-0.28705436
60	0xbe02bf52	-0.12768295
61	0x3b95e978	0.004574951
62	0x3e80b560	0.25138378
63	0x3db78f9a	0.08962937
64	0x3c8355c3	0.016032105
65	0x3e6a01cb	0.22852246
66	0x3e0e0757	0.13869987
67	0x3d104e00	0.035230637
68	0x3d529a5d	0.051416744
69	0x3ceb9881	0.028759243
70	0x3dfe7b6e	0.12425886
71	0x3ab6563e	0.00139112
72	0xbd91eeb8	-0.0712561
73	0x3cc30210	0.023804694
74	0xbd67c5f2	-0.05658526
75	0x3e53e3e4	0.20692402
76	0x3c9301ed	0.017945254
77	0xbd9f6640	-0.077831745
78	0x3e91e57d	0.28495398
79	0x3ced2105	0.028946409
80	0x3e54d9b9	0.2078618
81	0x3dbf6abb	0.09346529
82	0xbe9609b2	-0.29304272
83	0x3da785d7	0.08179825
84	0xbc880daf	-0.016608087
85	0x3e9bc1f7	0.3042142
86	0xbceedadc	-0.029157095
87	0xbe0d8ba3	-0.13822798
88	0xbd376224	-0.04477133
89	0xbd9901ae	-0.074710235
90	0xbb2da7da	-0.0026497752
91	0xbe8de9a6	-0.27717322
92	0x3dbbc272	0.09167947
93	0x3dd17d28	0.1022895
94	0x3d5e29b3	0.054238986
95	0xbca25ed8	-0.019820616
96	0xbdc098d3	-0.09404149
97	0x3df2f680	0.118634224
98	0xbd324c0d	-0.04352956
99	0x3e9b38f6	0.30316895
100	0x3dc3a698	0.095532596
101	0x3e656c5b	0.22404616
102	0x3e2d3457	0.16914497
103	0x3e82835d	0.25490847
104	0x3d695d97	0.05697402
105	0x3e108093	0.14111547
106	0x3e9ee7b2	0.31036144
107	0x3e2b86b7	0.16750608
108	0x3d89bde3	0.06725671
109	0xbc7d24ae	-0.01545064
110	0xbe551f21	-0.20812656
111	0x3dfa11bf	0.12210416
112	0x3d5e8e06	0.054334663
113	0xbd955fc4	-0.072936565
114	0x3e89f79f	0.26946732
115	0xbd91d21a	-0.07120152
116	0x3e00f847	0.1259471
117	0x3e9dbc01	0.30807498
118	0xbe520330	-0.20509028
119	0x3d9d792c	0.07689127
120	0x3ea35ae7	0.3190529
121	0xbe0a7d19	-0.13524283
122	0x3dd0eaf4	0.10201064
123	0x3cf9a46a	0.030473907
124	0xbdb66160	-0.089052916
125	0x3ec9cf98	0.39416194
126	0xbed52549	-0.4163001
127	0xbe890349	-0.2676032
128	0xbe0fca4a	-0.14042011
129	0xbdc01bd1	-0.093803056
130	0xbd8563da	-0.06513186
131	0x3e420a37	0.18949209
132	0x3dfd7f8a	0.12377842
133	0x3e6344ff	0.22194289
134	0x3d30f73f	0.043204542
135	0xbe1439f0	-0.14475226
136	0x3bded06b	0.0067997477
137	0xbe9de058	-0.30835223
138	0xbd84fb75	-0.06493274
139	0x3df7f001	0.12106324
140	0x3e40b10b	0.18817537
141	0xbdb24b80	-0.08705807
142	0x3ec7b89a	0.39008027
143	0x3e13b0c1	0.14422895
144	0x3e73e714	0.23818618
145	0xbc97fc41	-0.018552901
146	0xbd4424bb	-0.04788659
147	0xbd32683b	-0.043556433
148	0xbdbe3260	-0.09286952
149	0x3e36dd45	0.17857845
150	0x3da8c53b	0.08240744
151	0x3defd33c	0.11710212
152	0x3d691db6	0.0569131
153	0xbe7e6cb5	-0.24846156
154	0x3eaa30cf	0.33240363
155	0xbe7687b7	-0.24075209
156	0xbd7f68a5	-0.062355656
157	0xbbdbd514	-0.0067087505
158	0x3d9bed46	0.07613616
159	0xbcfc220e	-0.030777957
160	0xbda973b0	-0.08274019
161	0x3da37462	0.07981183
162	0xbd0871ae	-0.03331154
163	0x3d91ae24	0.07113293
164	0x3ed21060	0.41028118
165	0x3d603c37	0.054744925
166	0x3e709ece	0.23498079
167	0x3edfa952	0.4368387
168	0x3de09a0a	0.109668806
169	0x3d1b64b6	0.037937842
170	0x3e319719	0.17342795
171	0x3db1b5dc	0.08677265
172	0x3e01ab20	0.12662935
173	0x3d86f342	0.065893665
174	0x3e00cab2	0.12577322
175	0x3ce6fd0f	0.02819684
176	0xbe1331aa	-0.14374414
177	0xbe235e29	-0.15953888
178	0x3dc2a776	0.09504597
179	0xbd23f241	-0.040025953
180	0x3d1fee88	0.03904584
181	0x3da6eed2	0.0815102
182	0xbe51bd54	-0.20482379
183	0x3df7aed7	0.12093895
184	0x3ec9dafc	0.39424884
185	0xbd274ac4	-0.040842786
186	0xbd7a221f	-0.061067697
187	0x3e3ca26e	0.18421337
188	0xbb69b3b9	-0.0035660102
189	0x3d4192b4	0.047259048
190	0x3ca21429	0.019785004
191	0x3e0d8bae	0.13822815
192	0xbbbd11e4	-0.005769955
193	0xbd27f294	-0.041002825
194	0xbe9e6ca2	-0.30942255
195	0xbd9bc57a	-0.07606025
196	0x3e1f466d	0.15554209
197	0x3dbea3c5	0.0930858
198	0xbdf60691	-0.12012971
199	0xbd278275	-0.040895898
200	0xbc221fe5	-0.0098953
201	0x3e3ef3d7	0.18647705
202	0x3e5a7eb5	0.21337397
203	0x3c76ef0b	0.015071641
204	0x3de944b4	0.11390057
205	0xbe24f9d9	-0.16110934
206	0x3dc366e4	0.09541109
207	0x3e0b1e40	0.13585758
208	0xbc9eb244	-0.019372113
209	0xbc62a4b0	-0.01383321
210	0x3d95505b	0.07290717
211	0xbda1ed34	-0.07906571
212	0x3da9aaa6	0.08284502
213	0x3dad8de8	0.08474332
214	0x3dc67298	0.09689826
215	0xbec96d9a	-0.39341432
216	0xbea3a4d1	-0.31961682
217	0x3cdc187b	0.026867142
218	0xbd53149f	-0.051533338
219	0xbe192ef0	-0.14959311
220	0xbe46e0a7	-0.19421636
221	0xbdabb9c3	-0.083850406
222	0x3d15b46d	0.03654902
223	0xbddf84a9	-0.10913975
224	0xbcd4f859	-0.025997328
225	0x3e1c695f	0.15274571
226	0x3e0ed8b7	0.13949858
227	0xbd915715	-0.07096688
228	0x3d1a7382	0.037707813
229	0xbd209cb0	-0.03921193
230	0xbe1f7c25	-0.15574701
231	0xbde586c7	-0.11207347
232	0x3c322594	0.010873217
233	0xbe0bd024	-0.13653618
234	0x3d46f012	0.048568793
235	0xbcfe6ac5	-0.031056771
236	0xbc89755a	-0.01677959
237	0xbdcd423c	-0.10022399
238	0xbe3d9606	-0.1851426
239	0xbc5085a6	-0.012727177
240	0xbe39465c	-0.18093246
241	0x3d8a9c92	0.06768145
242	0x3d86281d	0.0655062
243	0xbde6664f	-0.112499826
244	0xbe000162	-0.12500528
245	0xbc7ec86a	-0.015550712
246	0x3dc77e0a	0.09740837
247	0x3c99ab43	0.018758422
248	0xbdc6551e	-0.096842036
249	0x3e480ca7	0.19536076
250	0xbd2441dc	-0.04010187
251	0x3b5eed44	0.0034015933
252	0x3e2fef69	0.17181171
253	0xbcdb69a2	-0.026783768
254	0x3e0ea2cc	0.1392929
255	0xbdb33388	-0.08750063

critic.fc.weight f4 [1, 65]
0	0x3de1ecdb	0.11031505
1	0x3ec42bc0	0.3831463
2	0x3e9e243e	0.30887026
3	0xbe90e442	-0.28299147
4	0x3de66840	0.11250353
5	0x3deb4c9a	0.1148922
6	0xbef6d4df	-0.48209283
7	0x3dc641f4	0.09680548
8	0xbe6edfeb	-0.23327605
9	0x3cb81a15	0.022473374
10	0xbe1987c8	-0.14993203
11	0xbb42c96d	-0.002972211
12	0x3f07e837	0.53088707
13	0xbe224d47	-0.15849791
14	0x3efc33a0	0.49258137
15	0xbd1b3435	-0.037891585
16	0xbf5e93ff	-0.86944574
17	0x3e9eeed1	0.31041577
18	0x3f09bf90	0.53807926
19	0x3e33ef9d	0.17571874
20	0x3d226388	0.0396457
21	0xbdf79018	-0.120880306
22	0x3eaf9a7e	0.34297556
23	0xbe14264e	-0.14467737
24	0x3e456bb1	0.19279362
25	0xbc9713d8	-0.01844208
26	0x3e465ddc	0.19371742
27	0xbecc9d0f	-0.39963576
28	0xbe201cbf	-0.15635966
29	0x3dfbbd84	0.122920066
30	0x3ebda411	0.37039235
31	0x3e06467a	0.13112822
32	0x3d865ee0	0.06561065
33	0xbd7dae7e	-0.061933987
34	0x3f063ba2	0.5243474
35	0x3eb11ebd	0.34593764
36	0xbd41c574	-0.047307447
37	0xbe820802	-0.25396734
38	0x3e564393	0.20924215
39	0x3d55aea5	0.052168507
40	0x3ef252bc	0.47328746
41	0xbc9642bb	-0.018342366
42	0x3e82dcba	0.25559026
43	0xbd34f09b	-0.04417477
44	0xbd2b043c	-0.041752085
45	0xbe3b7530	-0.18306422
46	0xbebe9e34	-0.37230074
47	0xbd4079f0	-0.04699129
48	0xbd2f8187	-0.042848136
49	0x3e0bc88a	0.13650718
50	0x3d459226	0.04823508
51	0xbf0204fc	-0.50788856
52	0xbdbb2bd0	-0.09139216
53	0xbdf5f768	-0.120100796
54	0x3e790c52	0.24321106
55	0xbe02737b	-0.12739365
56	0xbda1bbde	-0.07897161
57	0x3e855c1f	0.26046845
58	0x3e9f906b	0.3116487
59	0x3e8edf0b	0.27904543
60	0xbdd63491	-0.10459245
61	0xbd47306d	-0.048630167
62	0x3d8f7020	0.07003808
63	0x3e55f058	0.20892465
64	0xc0685fcd	-3.6308472

_actor_critic.actor.sigma_param f4 [2, 1]
0	0x3c41a4c1	0.011819066
1	0xc045962e	-3.0872912

_actor_critic.actor.conv1.bias f4 [64]
0	0x3e15be5d	0.14623399
1	0xbd2b0c72	-0.041759916
2	0xbc908297	-0.017640395
3	0x00000000	0.0
4	0x00000000	0.0
5	0xbcedeca4	-0.029043503
6	0xbd9ca08a	-0.07647808
7	0xbd2f1724	-0.042746678
8	0x3de2ced4	0.110746056
9	0xbd77c664	-0.060491934
10	0x00000000	0.0
11	0x3e2023fc	0.15638727
12	0xbd4006f8	-0.046881646
13	0xbd9e1fce	-0.0772091
14	0x00000000	0.0
15	0x3d77826d	0.060427118
16	0xbd715f07	-0.058928516
17	0x00000000	0.0
18	0x00000000	0.0
19	0x00000000	0.0
20	0x00000000	0.0
21	0xbd93d377	-0.07218068
22	0xbdca5821	-0.098800905
23	0x3de04aed	0.10951791
24	0x00000000	0.0
25	0xbba23e62	-0.0049512843
26	0x3d7b70dd	0.06138693
27	0xbda0f7e5	-0.07859782
28	0x3dfbbf6a	0.12292369
29	0xbb7ef791	-0.0038904885
30	0x3d91b649	0.07114846
31	0x3d8eb650	0.06968367
32	0x3dd0016a	0.1015652
33	0x00000000	0.0
34	0x3e098e15	0.13433106
35	0x3daaa3d9	0.08332033
36	0x3d92b41b	0.07163259
37	0x3d96282d	0.07331882
38	0x3e0e0122	0.1386762
39	0x3deed238	0.1166119
40	0x00000000	0.0
41	0xbd405690	-0.046957552
42	0x00000000	0.0
43	0xbbbc9d7b	-0.005756078
44	0x00000000	0.0
45	0xbd44975c	-0.04799591
46	0x00000000	0.0
47	0x3da7030a	0.081548765
48	0x3dddf798	0.108382404
49	0x00000000	0.0
50	0xbc06e2c5	-0.008232777
51	0x00000000	0.0
52	0x00000000	0.0
53	0x3da64b86	0.08119874
54	0x3e11cb74	0.14237767
55	0x00000000	0.0
56	0x00000000	0.0
57	0x3da461c5	0.080264606
58	0x3e0df584	0.13863188
59	0xbddc37fd	-0.107528664
60	0xbd9c6f26	-0.076383874
61	0x00000000	0.0
62	0x00000000	0.0
63	0xbd83cb13	-0.06435218

_actor_critic.actor.conv1.lin.weight f4 [64, 2]
0	0xbe234160	-0.15942907
1	0x3e3eaa00	0.18619537
2	0x3e2ac0ad	0.16675062
3	0x3de81349	0.11331803
4	0xbb0a3fd5	-0.0021095176
5	0x3c82ea8d	0.015980983
6	0xbd38ef2f	-0.04514998
7	0xbd28ae54	-0.041181877
8	0xbd9ee118	-0.07757777
9	0xbd7d4ef0	-0.06184286
10	0x3e194baa	0.1497027
11	0x3d866521	0.065622576
12	0x3da1ddb0	0.07903612
13	0x3e05252b	0.1300246
14	0x3cbf1066	0.02332325
15	0xbaeae6a0	-0.0017921515
16	0x3e9fe393	0.31228313
17	0xbe6cfd45	-0.2314349
18	0x3cf0b656	0.02938382
19	0x3cec7bd8	0.028867647
20	0xbd8b432f	-0.06799924
21	0xbdfd4ff1	-0.12368763
22	0xbdae6402	-0.08515169
23	0x3dfd7601	0.12376023
24	0x3e31044e	0.17286798
25	0x3d2f7da0	0.042844415
26	0x3e626d5d	0.22112031
27	0x3de0f51f	0.10984253
28	0xbce11f03	-0.027480608
29	0xbcf1f9f6	-0.029538136
30	0x3daeccf1	0.08535183
31	0x3d424e79	0.04743812
32	0x3e841874	0.25799906
33	0x3d79c007	0.060974147
34	0xbc98d562	-0.018656436
35	0xbc184459	-0.009293639
36	0xbd60bf4f	-0.054869946
37	0xbdbe21c3	-0.09283783
38	0xbc08a567	-0.008340216
39	0xbd48d146	-0.049027704
40	0xbe797fc3	-0.24365143
41	0xbdd8b634	-0.105816275
42	0xbcdb0555	-0.026735941
43	0x3d91eb78	0.0712499
44	0x3d972a71	0.07381142
45	0x3d645686	0.055746578
46	0xbd527869	-0.051384363
47	0x3d6835da	0.05669198
48	0xbdc96c97	-0.09835165
49	0xbbfa66d8	-0.0076416545
50	0xbd0a3695	-0.03374346
51	0xba01702b	-0.0004937674
52	0xbdab314a	-0.083590105
53	0x3d9dc5bf	0.07703733
54	0x3e0e4a24	0.1389547
55	0xbdafcc6a	-0.08583911
56	0xbd40cb34	-0.04706879
57	0x3ddbef0e	0.107389554
58	0x3b54b79f	0.003245808
59	0xbdc305e9	-0.09522612
60	0x3dc8318f	0.097750776
61	0x3d91287a	0.070877984
62	0xbd54462a	-0.051824726
63	0x3e52fca6	0.2060419
64	0x3def2933	0.1167778
65	0x3dd215fc	0.102580994
66	0xbe0b238a	-0.13587776
67	0xbe9f45a9	-0.31107834
68	0x3c5aa7b8	0.013345651
69	0x3de2b83c	0.11070296
70	0x3e29c95b	0.16580717
71	0xbe2fcb15	-0.17167313
72	0x3d3ff657	0.046865787
73	0x3d93e047	0.07220512
74	0x3e9d1dc0	0.3068676
75	0xbe5f68c6	-0.21817312
76	0xbe04ad04	-0.12956625
77	0x3df78018	0.12084979
78	0x3de840b4	0.11340466
79	0x3c957747	0.018245352
80	0xbc926d33	-0.017874336
81	0xbdf6fae9	-0.12059576
82	0x3e2fdbda	0.1717371
83	0x3d4f6f33	0.050643157
84	0xbe30e092	-0.17273167
85	0xbd9c5b00	-0.076345444
86	0xbc82ebf8	-0.01598166
87	0x3bb83a0d	0.0056221546
88	0xbdd9aee3	-0.1062906
89	0xbdc765a5	-0.09736184
90	0x3e36b059	0.17840709
91	0x3d42f889	0.047600303
92	0xbcefc7c6	-0.029270064
93	0xbe85e869	-0.26153877
94	0x3ddfc92d	0.10927043
95	0x3cb10ea8	0.021613434
96	0xbbd2244d	-0.006413019
97	0x3d8b01dc	0.06787464
98	0xbe8dd9cf	-0.27705237
99	0xbcae4a7e	-0.021275755
100	0xbddf9a8e	-0.10918151
101	0xbab71d03	-0.0013970438
102	0xbd607cb9	-0.054806445
103	0xbc651b06	-0.013983494
104	0xbe07ef07	-0.13274775
105	0xbd32695e	-0.043557517
106	0x3c259166	0.0101054665
107	0x3db13346	0.08652358
108	0x3c679014	0.014133472
109	0x3d630f11	0.05543429
110	0xbda6a9cd	-0.08137856
111	0xbe8a6fb4	-0.27038348
112	0xbc4b9e5d	-0.0124278935
113	0xbe1c9287	-0.15290271
114	0x3e3395a2	0.17537549
115	0xbe14ff35	-0.14550479
116	0x3d7f5e33	0.062345695
117	0x3e982f52	0.29723603
118	0x3d93962d	0.07206378
119	0x3d06b5f2	0.03288836
120	0xbce9a3f1	-0.028520556
121	0x3d9c1a5b	0.076222144
122	0xbd09aff5	-0.03361507
123	0xbe67e60b	-0.22646348
124	0xbdad37d2	-0.084579125
125	0xbd116a88	-0.035501987
126	0x3e4b39f0	0.1984632
127	0x3db5b2f2	0.08872022

_actor_critic.actor.conv2.bias f4 [64]
0	0xbd41e2fb	-0.047335606
1	0xbbb4821a	-0.0055086734
2	0x3de7e410	0.11322796
3	0xbdd13378	-0.10214895
4	0xbba522a8	-0.0050395317
5	0x3e446772	0.19180086
6	0xbd01103a	-0.031509615
7	0xbce9340d	-0.028467203
8	0xbbb49bab	-0.005511721
9	0xbc362e3b	-0.011119421
10	0x3e31d568	0.17366564
11	0x3e387868	0.18014681
12	0x3e47b423	0.1950231
13	0xbcaf9b76	-0.021436434
14	0x3db5f85a	0.0888526
15	0x00000000	0.0
16	0x3dfcd929	0.123461075
17	0xbd10b297	-0.035326567
18	0xbcfd0ebd	-0.030890817
19	0xbc87f7df	-0.016597686
20	0x3e28dddb	0.16490881
21	0xbc9e1af0	-0.019299954
22	0x00000000	0.0
23	0xbcd25a0a	-0.0256777
24	0xbcc23c5a	-0.023710418
25	0xbdb802ea	-0.08984931
26	0x3e282408	0.16419995
27	0xbc3dd1d7	-0.011585674
28	0xbbdc72a5	-0.006727534
29	0xbbfae8a2	-0.0076571265
30	0xbceac2e5	-0.028657386
31	0xbd341223	-0.04396261
32	0x3ae51999	0.0017478942
33	0xbd109ba8	-0.035304695
34	0xbc0992c0	-0.008396804
35	0xbb8e8608	-0.004349474
36	0xbd2fabfe	-0.042888634
37	0xbccb4d72	-0.024817202
38	0xbd9954d2	-0.07486881
39	0x3dbd42e7	0.09241276
40	0xbc88945b	-0.016672304
41	0xbd8f02de	-0.06982969
42	0xbb1c2cd7	-0.0023830438
43	0xbcbd38c2	-0.023098353
44	0xbc8ceb4a	-0.017202038
45	0x00000000	0.0
46	0xbcc2efc2	-0.023795966
47	0xbcc55304	-0.024087436
48	0xbbbe4ca4	-0.005807476
49	0xbc975cf6	-0.018476944
50	0xbc88ff42	-0.016723279
51	0xbd032a1a	-0.032022573
52	0xbd303898	-0.043022722
53	0xbcbf6a79	-0.0233662
54	0xbc8f7ab4	-0.017514564
55	0x00000000	0.0
56	0xbd00e9ee	-0.031473093
57	0xbbfca553	-0.007710138
58	0xbd4bf67d	-0.049795616
59	0xbb5af3ec	-0.003340955
60	0x3e048e0c	0.12944812
61	0x3e06e355	0.13172658
62	0xbc399317	-0.011326573
63	0xbd423e41	-0.04742265

_actor_critic.actor.conv2.lin.weight f4 [64, 64]
0	0xbe4edbd8	-0.20201051
1	0xbda3ed36	-0.08004229
2	0x3cb5d537	0.022196395
3	0xbe1a5d35	-0.15074618
4	0xbe6b2132	-0.22961882
5	0x3e31b35e	0.1735358
6	0xbdffc1f4	-0.124881655
7	0x3e19a762	0.15005258
8	0x3e3c37d2	0.18380669
9	0xbe0307cd	-0.12795945
10	0xbe2787da	-0.16360417
11	0x3db53905	0.08848766
12	0xbdc760d2	-0.09735264
13	0x3d9597d2	0.07304348
14	0x3e09f6a0	0.13472986
15	0xbc0bd271	-0.00853406
16	0xbd947514	-0.072488934
17	0xbd605015	-0.054763872
18	0xbde9e4d4	-0.114205986
19	0xbcefa09f	-0.029251395
20	0x3cf66a90	0.03008011
21	0x3e2cd3d7	0.16877685
22	0x3db84816	0.08998124
23	0xbda092fc	-0.07840535
24	0xbc983055	-0.018577734
25	0xbe4b233c	-0.1983766
26	0x3e532956	0.20621237
27	0xbd0a5be3	-0.033779036
28	0x3defe937	0.11714404
29	0xbd5cb998	-0.053887933
30	0x3df3a947	0.118975215
31	0xbe576863	-0.21035914
32	0x3c73790c	0.014860403
33	0x3e130e64	0.14360958
34	0x3e09023c	0.13379759
35	0xbe4529c9	-0.19254221
36	0x3de11e4c	0.10992107
37	0x3deacd1a	0.11464901
38	0x38a7f207	8.008262e-05
39	0xbe89225e	-0.26784033
40	0x3d8504d9	0.06495065
41	0x3b6ac2fb	0.0035821784
42	0xbdee33f4	-0.11631003
43	0x3e4ce798	0.20010221
44	0xbc1a40d7	-0.009414873
45	0xbc8d75e9	-0.017268138
46	0xbe4651f7	-0.19367205
47	0x3c90ab49	0.0176598
48	0xbdbb5dbf	-0.0914874
49	0xbe388764	-0.18020397
50	0xbd8790b7	-0.06619399
51	0xbd7e3f66	-0.06207218
52	0x3dfaeb38	0.12251896
53	0xbcdfe765	-0.027332017
54	0xbd965e45	-0.07342199
55	0xbb3fc88d	-0.0029263825
56	0x3c1182d5	0.00888129
57	0xbccafb67	-0.024778081
58	0x3d3754c3	0.04475857
59	0x3e0c4b3d	0.13700576
60	0xbe2f3559	-0.17110194
61	0x3dff1ca8	0.124566376
62	0x3de42e91	0.11141694
63	0xbd2a2d3c	-0.041547045
64	0xbd4b4b40	-0.04963231
65	0x3ce7a2e9	0.028275924
66	0x3d02609e	0.031830423
67	0xbdaa2b07	-0.08308988
68	0xbe34d466	-0.17659149
69	0xbc7a178b	-0.015264402
70	0xbe69660c	-0.22792834
71	0xbe00ec02	-0.1259003
72	0xbcf0fe09	-0.029418008
73	0x3e01135b	0.1260504
74	0x3c5836ba	0.013196642
75	0x3d7fbde1	0.062436942
76	0xbd96c043	-0.0736089
77	0x3e59160e	0.2119982
78	0xbe684524	-0.22682625
79	0xbd651dd6	-0.055936657
80	0x3d9873b4	0.074439436
81	0x3d5895fd	0.052877415
82	0xbdc1ca1c	-0.094623774
83	0xbc057717	-0.008146069
84	0x3dee2040	0.11627245
85	0x3eb81cb9	0.35959414
86	0x3df18aee	0.11794077
87	0xbe3672b2	-0.1781719
88	0x3e816d53	0.2527872
89	0xbd4ad8a5	-0.049523015
90	0xbd83337b	-0.064063035
91	0x3e0d7d0e	0.13817236
92	0xbe35bccd	-0.17747803
93	0x3e1bd142	0.15216544
94	0xbea08176	-0.3134877
95	0x3e126c63	0.14299159
96	0xbe3dc6a2	-0.18532804
97	0x3e262235	0.16223986
98	0x3a30a256	0.0006738057
99	0xbde182d7	-0.11011284
100	0xbe0d3737	-0.13790594
101	0xbce8af37	-0.028403861
102	0x3d695644	0.056967035
103	0xbde91b9a	-0.11382218
104	0x3d40c902	0.047066696
105	0x3dca8e31	0.09890402
106	0xbc74a2e2	-0.014931412
107	0x3c68c29d	0.014206556
108	0x3da1d866	0.07902603
109	0xbd900420	-0.07032037
110	0x3df1bcd5	0.11803595
111	0x3e2ff311	0.17182566
112	0x3d205b6d	0.03914969
113	0x3cbf895a	0.023380924
114	0x3b5aac58	0.0033366885
115	0x3ded3977	0.11583226
116	0xbe0a7730	-0.13522029
117	0xbd197ed4	-0.03747447
118	0xbb48581a	-0.003057009
119	0xbd6fbb3f	-0.05852818
120	0xbb2cc9e9	-0.0026365465
121	0x3e18d12d	0.14923544
122	0xbc0b1153	-0.008488017
123	0xbe72d149	-0.23712648
124	0xbd8e45bb	-0.06946894
125	0x3c393cd0	0.011306003
126	0xbc373927	-0.01118306
127	0xbd49ce5e	-0.049269073
128	0x3d57956f	0.052632745
129	0x3ddaf8c8	0.106919825
130	0x3e0eb8e0	0.13937712
131	0xbe3f5e6c	-0.18688363
132	0xbde41138	-0.11136097
133	0xbe468d43	-0.19389825
134	0xbd9bbcb9	-0.07604355
135	0x3d7e1a6b	0.062036913
136	0xbde3ee79	-0.111294694
137	0x3d768b9f	0.060191747
138	0x3d137986	0.036004566
139	0x3ce097af	0.027416078
140	0xbd620a28	-0.055185467
141	0xbdb9f220	-0.09079385
142	0x3e487b46	0.19578275
143	0x3ed18942	0.40925032
144	0xbe78b7fe	-0.24288937
145	0xbd74b692	-0.059744425
146	0x3daf3b0a	0.08556183
147	0x3d861f48	0.06548935
148	0xbb811aec	-0.003939977
149	0xbd00f434	-0.03148289
150	0xbd7454a5	-0.059651036
151	0xbb3c60b6	-0.0028744168
152	0xbd3cfdf2	-0.04614062
153	0x3dfb8203	0.12280657
154	0x3e2e2f2e	0.17010185
155	0xbaa5f2b9	-0.0012660838
156	0x3e1184dc	0.14210838
157	0xbd7a543f	-0.0611155
158	0x3d60ff93	0.054931235
159	0x3dfe061c	0.12403509
160	0x3d60df80	0.054900646
161	0xbdb5d7dc	-0.088790625
162	0xbc91fe38	-0.017821416
163	0x3d62f376	0.055407964
164	0xbe5a8ee8	-0.21343577
165	0xbc49738b	-0.012295614
166	0x3e597cb1	0.21238972
167	0xbdd0f5b4	-0.10203114
168	0xbe31e2b8	-0.17371643
169	0xbe378f43	-0.17925744
170	0xbdcb8682	-0.09937765
171	0x3d16373c	0.03667377
172	0xbe26aca2	-0.16276792
173	0xbe5235a1	-0.2052827
174	0x3e52616e	0.20544979
175	0x3df6187b	0.12016388
176	0x3e8d5e1c	0.27610862
177	0x3d0ff27c	0.03514336
178	0xbe5713b6	-0.21003613
179	0x3e4b22aa	0.19837442
180	0xbd453ba6	-0.04815259
181	0xbda4e882	-0.0805216
182	0x3cbce346	0.023057591
183	0xbe18d80f	-0.1492617
184	0xbd549254	-0.051897362
185	0x3d61724f	0.055040654
186	0x3bd941bc	0.0066301506
187	0x3e11d03d	0.14239593
188	0xbd073d88	-0.033017665
189	0x3e1b2214	0.15149719
190	0x3d7f41f0	0.062318742
191	0xbda8d9b1	-0.08244646
192	0xbdd87a9e	-0.10570262
193	0x3e0917f2	0.1338804
194	0xbcca7590	-0.024714261
195	0x3d7955e0	0.060872912
196	0xbdf3ccf6	-0.119043276
197	0x3e114719	0.14187278
198	0x3e50ed92	0.20403126
199	0xbded5d30	-0.1159004
200	0xbd54f722	-0.051993497
201	0xbdd4b575	-0.10386173
202	0x3c543964	0.012953136
203	0xbdae0187	-0.08496385
204	0x3e23a9d6	0.15982756
205	0x3e0eb49f	0.13936089
206	0xbd16a779	-0.036780808
207	0xbd6deed0	-0.058089077
208	0x3ed971cb	0.4246963
209	0xbd3915aa	-0.045186676
210	0xbdcc63c0	-0.09979963
211	0xbe2e608b	-0.17029016
212	0x3dffd361	0.12491489
213	0x3d98166c	0.07426152
214	0xbd40133d	-0.046893347
215	0xbeb40afa	-0.35164624
216	0x3a47b580	0.0007618293
217	0xbda50824	-0.08058193
218	0xbe690e70	-0.22759414
219	0x3e298397	0.16554104
220	0x3c39a597	0.011330984
221	0xbca505d4	-0.02014438
222	0x3d913d5b	0.07091781
223	0xbe142aae	-0.14469406
224	0x3ddb9e78	0.10723585
225	0x3d39b10c	0.04533486
226	0xbd6247e0	-0.055244327
227	0x3aa028dc	0.0012219208
228	0xbd7eb8a5	-0.06218781
229	0xbcdaf0ae	-0.026726093
230	0xbcf151b4	-0.029457904
231	0xbde76f6d	-0.1130055
232	0x3d149073	0.03627057
233	0xbd0f0160	-0.03491342
234	0x3d06866f	0.03284305
235	0xba73a8e0	-0.00092948787
236	0x3cdb2a95	0.026753703
237	0x3d915c81	0.07097722
238	0x3e17caaf	0.14823411
239	0xbe248a2e	-0.16068336
240	0x3e2ae189	0.16687597
241	0x3ea8524f	0.32875296
242	0x3e392260	0.1807952
243	0x3d32b1bf	0.043626543
244	0x3d234208	0.039857894
245	0xbe07bfad	-0.13256712
246	0xbe6a5870	-0.22885299
247	0xbde45b7c	-0.11150262
248	0x3e36067c	0.17775911
249	0xbe84452c	-0.25834024
250	0x3d44677d	0.047950257
251	0x3de9407d	0.11389253
252	0xbd942c89	-0.07235057
253	0xbcbda75e	-0.023151096
254	0x3db936db	0.09043666
255	0x3e9d614a	0.30738288

_actor_critic.actor.fc_mu.weight f4 [2, 65]
0	0x3c1184a6	0.0088817235
1	0x3b26e58b	0.0025466408
2	0x3d7899d4	0.060693577
3	0x3dd66af7	0.10469621
4	0x3da011bb	0.07815882
5	0x3db6d3ab	0.08927091
6	0x3c69738e	0.014248742
7	0xba77e984	-0.0009457099
8	0x3b79a172	0.0038090614
9	0x3ab5fa3d	0.0013883781
10	0x3da17915	0.07884423
11	0x3db84faf	0.089995734
12	0x3db9e8b4	0.09077588
13	0xbb00b484	-0.0019638846
14	0x3d6bba34	0.057550624
15	0xba540884	-0.0008088427
16	0x3d9166ec	0.07099709
17	0x3c9021fa	0.017594326
18	0x3c284a4b	0.010271619
19	0x3b71ec97	0.00369147
20	0x3daae8c9	0.083451815
21	0xba014dca	-0.0004932551
22	0x3a17a33d	0.0005784517
23	0xbc8bfa81	-0.017087223
24	0xbbcd8abc	-0.006272642
25	0xbdc86aaf	-0.09785973
26	0x3da4f883	0.08055212
27	0x39fb87a9	0.00047975525
28	0x3b8138ed	0.0039435537
29	0x3be39945	0.0069457614
30	0x3bcfb50a	0.00633872
31	0x3d39177a	0.045188405
32	0x3d341aaf	0.04397076
33	0xbac5cb7c	-0.001509055
34	0x3be63a05	0.0070259594
35	0x3baeb421	0.0053315316
36	0xbb6b6fcb	-0.0035924788
37	0x3be29be6	0.006915557
38	0x3d3c0904	0.045907035
39	0x3d819bba	0.063285306
40	0x3b0bdd24	0.0021341527
41	0xbcad327c	-0.021142237
42	0xb900b2c9	-0.00012273634
43	0xbb946c75	-0.0045295306
44	0xbb1833da	-0.0023224265
45	0x3b2b212e	0.0026112306
46	0xbd1b4ed4	-0.037916973
47	0x3acb50d6	0.0015511762
48	0x3a909fb9	0.0011033929
49	0xbc69f7da	-0.014280284
50	0x3ccf6142	0.02531493
51	0x3b2e7eba	0.0026625828
52	0xbcc78923	-0.024357384
53	0x3ce965c3	0.028490907
54	0x3c2b80e7	0.010467744
55	0x3a8e8f3d	0.0010876429
56	0xbcc93a22	-0.024563853
57	0xbc000cee	-0.007815583
58	0x3bd8ce56	0.006616394
59	0x3b866a71	0.0041020443
60	0x3d68d4d9	0.056843612
61	0x3d99fe8a	0.075192526
62	0x39f5a454	0.00046852475
63	0x3c7b54e0	0.01534006
64	0xbd0af3cc	-0.03392391
65	0xbb181994	-0.0023208605
66	0x3be728f3	0.007054442
67	0xbd91edda	-0.07125445
68	0x3d7572dc	0.05992399
69	0xbca0f13e	-0.019646283
70	0xbe16dd14	-0.14732772
71	0xbca4a9b5	-0.020100454
72	0xbb89f46c	-0.0042100456
73	0xbb8433df	-0.004034504
74	0x3ba3f4e2	0.0050035575
75	0xbe0075b3	-0.12544899
76	0xbe1345e9	-0.14382137
77	0xbe1a66be	-0.15078256
78	0x3a8cc87b	0.00107409
79	0xbd865294	-0.06558719
80	0xba8caaef	-0.0010732095
81	0xbdb39f2b	-0.08770593
82	0x3ce6b81c	0.028163962
83	0xba968a2e	-0.0011485273
84	0x3b018e5f	0.0019768698
85	0xbded3fc8	-0.11584431
86	0xbc37a330	-0.0112083405
87	0x3a4ef9d9	0.00078955066
88	0xbc5663b9	-0.013085299
89	0xbc0ad5fd	-0.00847387
90	0x3cbcf3c6	0.023065459
91	0xbe02d33e	-0.12775895
92	0x3bca700f	0.006177909
93	0x3b0903aa	0.0020906725
94	0xbb38ddd3	-0.002820839
95	0xbb5eaaec	-0.003397639
96	0xbbae6c56	-0.0053229732
97	0xbccff5e3	-0.025385803
98	0x3ba39d3a	0.004993108
99	0xbc380977	-0.011232725
100	0xbc05bff4	-0.008163441
101	0xb9d1e68c	-0.00040035357
102	0xba65bc78	-0.0008763741
103	0x3b96a98c	0.0045978483
104	0xbd7d7645	-0.06188037
105	0x3b5352e3	0.003224545
106	0x3c5a3672	0.013318645
107	0x3b33509e	0.0027361284
108	0x3ba0d4f3	0.004908198
109	0x3b723371	0.003695693
110	0xb9b8d890	-0.00035256566
111	0x3d9550a2	0.0729077
112	0x3aa9284a	0.0012905684
113	0x3b9424ae	0.004520974
114	0xbc14419b	-0.009048845
115	0xb97f4e51	-0.0002434787
116	0xbc2c8194	-0.010528941
117	0xbcd3fb72	-0.025876734
118	0x3b81d2ab	0.003961881
119	0x3a023588	0.0004967083
120	0xbaba07ef	-0.0014193038
121	0xbc91fe4e	-0.017821457
122	0x3bacf104	0.0052777547
123	0xba83bb9e	-0.0010050421
124	0xbb1486ee	-0.0022663432
125	0xbdc41467	-0.09574204
126	0xbdc45d71	-0.09588135
127	0x3bac8dde	0.0052659353
128	0x3a4346c7	0.00074492063
129	0xbe304be8	-0.17216456

_actor_critic.actor.fc_mu.bias f4 [2]
0	0x3d4c4c02	0.049877174
1	0xbe3f3bee	-0.18675205

_actor_critic.critic.conv1.bias f4 [64]
0	0xbc82afeb	-0.015953025
1	0x3d3015cc	0.042989537
2	0x3d107298	0.035265535
3	0xbc800f10	-0.015632182
4	0x3d7251f8	0.059160203
5	0x3d94ef99	0.07272262
6	0x3d65128d	0.055925895
7	0xbc334557	-0.010941825
8	0xbc81d0d7	-0.015846653
9	0xbc815164	-0.01578588
10	0xbc17e75c	-0.009271469
11	0xbddda9de	-0.10823415
12	0x3d76a670	0.06021732
13	0x00000000	0.0
14	0x3e0652b5	0.13117488
15	0x3dd3bf41	0.10339213
16	0x3e08d011	0.13360621
17	0x00000000	0.0
18	0xbc412058	-0.0117874965
19	0xbbf9aa55	-0.007619182
20	0x00000000	0.0
21	0xbe044e14	-0.1292041
22	0x00000000	0.0
23	0x00000000	0.0
24	0x3c9f01aa	0.019409973
25	0xbbfa8be1	-0.0076460694
26	0xbdad50af	-0.08462655
27	0x00000000	0.0
28	0x00000000	0.0
29	0x00000000	0.0
30	0x00000000	0.0
31	0x3d2ec3c6	0.042667173
32	0x00000000	0.0
33	0xbd1b8847	-0.03797176
34	0x3d3f616c	0.046723768
35	0xbd81dad2	-0.06340565
36	0xbd0ff39c	-0.035144433
37	0xbdb364e8	-0.08759481
38	0xbdd83cd8	-0.1055848
39	0x3dbede7c	0.09319779
40	0x00000000	0.0
41	0x00000000	0.0
42	0x3daaa7d1	0.0833279
43	0x3dedca78	0.116108835
44	0x3e0266c3	0.12734513
45	0xbe06a83e	-0.13150117
46	0x3d0c6730	0.034278095
47	0xbd52d581	-0.051473144
48	0xbc8ee085	-0.017441044
49	0x3d40b6f5	0.04704948
50	0x3cf96edb	0.030448368
51	0x3d8efbcf	0.069816224
52	0xbc61a94e	-0.013773276
53	0xbc92190a	-0.017834205
54	0xbc7a86d3	-0.015290934
55	0x00000000	0.0
56	0x3e3e6f06	0.1859704
57	0xbdecbfde	-0.11560033
58	0x3d12c13b	0.03582881
59	0xbd9762af	-0.07391869
60	0xbc1cefd9	-0.0095786685
61	0x3e08501f	0.13311814
62	0xbd801477	-0.06253903
63	0x00000000	0.0
