rl_environments/trained_models/PPO_scheduling_2_obj_j10m5/policy.pth (torch, 41822 bytes, 24 tensors)

actor.sigma_param f4 [2, 1]
-0.21845143 -0.33883733
00000000: bbb1 5fbe 167c adbe

actor.conv1.bias f4 [64]
0.13396616 0.0013274604 0.12512103 0.0 -0.00085757225 0.1088197 0.11689101 0.14342077
0.0 0.03593282 0.12910794 -0.079293445 -0.0925197 0.14473805 0.008978145 0.10557401
0.16697693 -0.008278811 -0.054704256 0.13933821 0.0 0.16840431 0.0 -0.02170491
-0.023049176 0.0 -0.011223686 0.0 0.12381963 0.011033435 0.14209855 0.12711619
0.0 0.13458952 0.12998325 0.0 0.0 0.0 0.14512704 0.15203828
0.15883958 0.1148063 0.16865811 0.0 0.12124132 0.10882428 -0.030324146 0.15160555
0.14069775 -0.032229234 0.14373352 -0.017249478 0.0 0.0 0.0 0.14428554
-0.046374258 0.14717661 0.12254525 0.14314513 0.16053508 -0.060443357 0.0 0.0
00000000: 6d2e 093e 2efe ad3a ba1f 003e 0000 0000
00000010: b3ce 60ba dddc de3d 8e64 ef3d e5dc 123e
00000020: 0000 0000 4b2e 133d df34 043e 9a64 a2bd
00000030: f87a bdbd 3636 143e 1219 133c 3037 d83d
00000040: 00fc 2a3e daa3 07bc 9211 60bd adae 0e3e
00000050: 0000 0000 2e72 2c3e 0000 0000 7fce b1bc
00000060: a0d1 bcbc 0000 0000 8de3 37bc 0000 0000
00000070: 2595 fd3d 95c5 343c 4882 113e bf2a 023e
00000080: 0000 0000 d6d1 093e 541a 053e 0000 0000
00000090: 0000 0000 0000 0000 2f9c 143e ecaf 1b3e
000000a0: d8a6 223e 911f eb3d b6b4 2c3e 0000 0000
000000b0: 5f4d f83d 44df de3d 586a f8bc 7c3e 1b3e
000000c0: 1213 103e cd02 04bd e12e 133e c74e 8dbc
000000d0: 0000 0000 0000 0000 0000 0000 97bf 133e
000000e0: eff2 3dbd 77b5 163e 01f9 fa3d a394 123e
000000f0: 4f63 243e 7493 77bd 0000 0000 0000 0000

actor.conv1.lin.weight f4 [64, 2]
0.13988605 0.24298401 -0.11272339 0.1499525 0.1550599 0.27648094 -0.23425892 -0.11286886
-0.18709624 0.118488945 0.124365896 0.056083392 0.3114218 0.20586957 0.26295564 0.06036924
-0.09576416 -0.012726322 0.24156727 -0.050172415 -0.089073114 0.23941895 0.05061684 0.028421383
0.03362043 0.17057611 0.1954682 0.14023006 0.32539243 -0.031572737 -0.10867599 0.078269795
0.19381952 -0.18023355 -0.0067228056 0.0073309005 0.0014256116 0.048058268 0.3734902 0.046130817
-0.083661236 -0.14987694 -0.019280793 0.12976156 -0.06280666 -0.32820818 0.017071236 -0.08056022
0.016755832 -0.26106364 -0.10572339 -0.052288406 0.007977412 -0.14533286 -0.051223498 -0.17897278
0.27684665 0.28233117 0.2865298 -0.13348585 -0.009153623 0.14619836 0.22708535 0.1696445
-0.17335048 -0.054879922 -0.00022841031 0.19592883 0.21725333 0.24271083 -0.25579637 -0.049579136
-0.10196181 -0.18073323 -0.06938961 -0.08864156 0.16914019 0.11396822 0.1984452 0.08457468
0.18956822 0.15347949 0.10779758 0.23391075 0.3412854 -0.009841055 -0.034952745 -0.017492026
0.18318671 0.060746364 0.32897633 0.07106187 -0.18619666 0.023053411 -0.06698348 0.20881078
0.24459013 0.14546324 -0.17716004 0.03236352 0.3186989 0.09057165 0.016007494 -0.09956557
-0.21488504 -0.017712303 -0.0130368965 -0.027318683 -0.013762838 -0.14391753 0.22806987 0.08395164
-0.06801465 0.0447086 0.23322918 -0.02329482 0.10144833 0.18354484 0.24912794 0.094676934
0.18025312 0.11781027 -0.06824192 0.062758885 -0.041028243 -0.036435686 -0.08421787 -0.08356729
00000000: 4a3e 0f3e cdd0 783e 85db e6bd 268d 193e
00000010: 06c8 1e3e e98e 8d3e 92e1 6fbe ca27 e7bd
00000020: 2896 3fbe 55aa f23d 8cb3 fe3d b3b7 653d
00000030: ae72 9f3e 79cf 523e 1fa2 863e bc45 773d
00000040: 0020 c4bd 1082 50bc 695d 773e 9781 4dbd
00000050: f76b b6bd 3e2a 753e 9b53 4f3d f6d3 e83c
00000060: 93b5 093d 81ab 2e3e d128 483e 7898 0f3e
00000070: d699 a63e 6a52 01bd 8491 debd ea4b a03d
00000080: a078 463e 258f 38be fb4a dcbb 0d38 f03b
00000090: 96db ba3a bfd8 443d 1c3a bf3e abf3 3c3d
000000a0: 9556 abbd 5779 19be c1f2 9dbc 37e0 043e
000000b0: c7a0 80bd e70a a8be fad8 8b3c c2fc a4bd
000000c0: 8743 893c 22aa 85be 8185 d8bd 5e2c 56bd
000000d0: b1b3 023c 23d2 14be bbcf 51bd a444 37be
000000e0: d8be 8d3e b68d 903e 09b4 923e 84b0 08be
000000f0: 14f9 15bc 06b5 153e 1089 683e 4ab7 2d3e
00000100: ca82 31be c5c9 60bd 6d81 6fb9 91a1 483e
00000110: a877 5e3e 3089 783e bef7 82be 7e13 4bbd
00000120: 5ad1 d0bd 2212 39be 241c 8ebd b589 b5bd
00000130: 1633 2d3e 2c68 e93d 3835 4b3e 7d35 ad3d
00000140: 2c1e 423e ba29 1d3e fac4 dc3d 4d86 6f3e
00000150: f6bc ae3e 603c 21bc 9c2a 0fbd 704b 8fbc
00000160: 4c95 3b3e 2ed1 783d 966f a83e e388 913d
00000170: 56aa 3ebe 82da bc3c a22e 89bd 7ed2 553e
00000180: d675 7a3e 51f4 143e 7169 35be 9c8f 043d
00000190: 812c a33e a17d b93d 2622 833c 09e9 cbbd
000001a0: d30a 5cbe 6419 91bc b598 55bc 6ecb dfbc
000001b0: 877d 61bc 1e5f 13be 268b 693e d6ee ab3d
000001c0: 444b 8bbd 5d20 373d a1d3 6e3e c7d4 bebc
000001d0: 24c4 cf3d 2ef3 3b3e 651b 7f3e fbe5 c13d
000001e0: 4694 383e 8346 f13d 6bc2 8bbd bb87 803d
000001f0: 3b0d 28bd 963d 15bd 6b7a acbd 5425 abbd

actor.conv2.bias f4 [64]
-0.008109105 -0.013831886 0.0 0.12850583 0.005086051 -0.0050916034 0.0 0.1329861
0.12985386 0.1385036 -0.011021609 0.0 -0.0055424566 0.14660716 -0.014750697 -0.014343027
0.13479584 0.13878691 0.14627518 0.14154932 -0.0053449315 0.11793385 0.13021962 0.14030382
-0.012909405 -0.000680621 0.14936832 0.024271064 -0.010818891 0.15339257 -0.0020986511 -0.027284598
-0.020486062 0.13338897 0.14152429 -0.005482963 -0.0045918934 0.14669982 0.0 0.13321532
0.0004528637 -0.019442985 -0.005975101 -0.0126824165 0.0 0.10700546 -0.0075001526 -0.010213425
-0.006000556 0.14315264 0.14043687 -0.021146188 0.13764207 0.14228813 0.13622002 0.121210195
0.16791962 0.0 0.13980259 0.14257224 -0.0041174535 -0.0058786175 0.16133372 0.0
00000000: 0ddc 04bc 239f 62bc 0000 0000 0897 033e
00000010: e3a8 a63b 77d7 a6bb 0000 0000 822d 083e
00000020: 69f8 043e e3d3 0d3e fb93 34bc 0000 0000
00000030: 7f9d b5bb 3020 163e e8ac 71bc 04ff 6abc
00000040: ec07 0a3e 281e 0e3e 29c9 153e 4ef2 103e
00000050: 8924 afbb 4d87 f13d 4b58 053e ceab 0f3e
00000060: f881 53bc b46b 32ba 02f4 183e 1cd4 c63c
00000070: b841 31bc f112 1d3e 8689 09bb f383 dfbc
00000080: 63d2 a7bc 1e97 083e beeb 103e 6daa b3bb
00000090: 9877 96bb 7a38 163e 0000 0000 9969 083e
000000a0: 566e ed39 e546 9fbc c8ca c3bb e9c9 4fbc
000000b0: 0000 0000 ae25 db3d d7c3 f5bb 3656 27bc
000000c0: 50a0 c4bb 9b96 123e afce 0f3e c53a adbc
000000d0: 0bf2 0c3e fbb3 113e 437d 0b3e 0d3d f83d
000000e0: 1ff3 2b3e 0000 0000 6928 0f3e 75fe 113e
000000f0: b4eb 86bb 6ba1 c0bb ab34 253e 0000 0000

actor.conv2.lin.weight f4 [64, 64]
-0.08027138 0.13511276 -0.062854104 0.07055847 -0.021547927 0.10006528 -0.13350242 0.13070841
0.014706209 -0.0024784505 -0.058609713 0.04999602 0.043493792 -0.05404157 -0.1566729 0.183619
-0.050401077 -0.059825942 -0.10237786 0.07228491 -0.030763019 0.010606087 0.18863589 -0.26793337
0.25823382 0.26387128 0.14351271 -0.020381073 0.20060152 -0.09565843 -0.075580716 0.02379036
-0.12933315 -0.046226714 -0.13715811 0.07339251 0.10253881 0.06005151 0.14027669 -0.0038307817
0.053670093 -0.034874734 -0.18868557 -0.08702672 -0.024143443 -0.020878341 0.105027005 0.022761295
-0.17149003 0.02717019 0.025958708 -0.2349699 0.06846078 -0.044933047 0.06347074 -0.20493403
0.16554627 0.26675186 -0.17705972 -0.08163849 -0.19224662 0.24045078 -0.04105482 -0.016783612
0.097968884 -0.15861236 0.18422373 0.16065474 -0.12592976 0.072015874 -0.08413564 0.00023393588
-0.13272318 -0.16656962 -0.17342065 -0.13757023 -0.059491634 -0.25921386 -0.04350052 -0.14146148
-0.02752264 -0.123680785 0.080869675 0.074550234 0.042267874 -0.18078254 0.1409742 0.18786931
0.096352406 0.007839665 -0.14974403 0.11052539 -0.020482061 0.07793818 -0.16678622 0.11359659
-0.052490093 0.16415054 0.1854838 -0.117309034 -0.0017009778 0.033055753 0.064524494 0.22076535
-0.036890194 0.057905387 -0.025152648 0.06858073 -0.16072856 0.108318284 0.22795059 0.017813865
-0.13905989 -0.0769036 -0.055851415 0.10044788 0.13462397 0.053234633 -0.24786372 0.032954626
0.102653146 -0.029655844 0.013012 -0.10901507 -0.23941615 -0.019311162 0.17908119 -0.19290325
-0.15355541 0.13672002 -0.11166906 0.15417917 -0.11409748 -0.09206804 -0.14205281 0.20515451
0.20256102 -0.10571878 -0.29343525 -0.16658074 -0.02485661 -0.13159806 0.07143976 0.056291107
0.17170136 -0.24717823 0.09701239 -0.12547767 -0.019773435 0.06562211 0.15605398 -0.019841582
-0.046602674 -0.10007282 0.05657493 0.06710312 -0.11029442 0.030382631 0.012458852 0.02385624
0.14905038 0.050789606 -0.14478463 -0.05680815 -0.065126464 -0.043727558 -0.0057810647 0.0070826486
0.08855979 0.1129456 0.03806691 -0.18020917 -0.090305984 -0.04624115 -0.09496258 -0.23020634
0.26885793 0.14009336 -0.04226353 0.1645094 -0.017302139 0.12057847 0.07771993 -0.036005247
-0.0550412 -0.07806219 -0.09390457 -0.16056468 -0.20042264 -0.040104035 -0.12600018 0.20052807
0.083718814 -0.08971957 0.14851604 0.23038161 -0.08155873 0.23356679 0.22129864 0.035495624
-0.016847828 0.19955142 0.029086761 0.064150825 0.075447395 0.083465785 0.20230198 0.030904006
-0.076079234 -0.021029823 -0.3008126 0.22967957 -0.0052978415 0.121470064 -0.0054487195 0.0045140707
-0.21080121 -0.07455709 0.049060944 0.012532141 0.3560258 -0.033975042 0.054020524 0.029041823
-0.07143028 0.21317346 0.13412777 0.012111921 -0.073261835 0.14069726 0.24326418 -0.060340144
0.033879828 0.30505118 0.28115156 -0.05640842 0.45628762 0.1681841 0.08603858 -0.15368053
0.37658924 -0.025810407 0.052890252 -0.110154174 0.24106748 0.01723459 -0.030065391 0.118044674
-0.17696345 0.09126289 -0.03570888 0.2124784 0.0389889 -0.051597223 0.05171787 -0.08741754
00000000: 5265 a4bd 005b 0a3e a7b9 80bd f680 903d
00000010: 4785 b0bc 07ef cc3d dcb4 08be 6dd8 053e
00000020: 50f2 703c 806d 22bb bd10 70bd a0c8 4c3d
00000030: 8c26 323d b15a 5dbd dc6e 20be 9e06 3c3e
00000040: 5c71 4ebd 0c0c 75bd 7cab d1bd 1c0a 943d
00000050: ba02 fcbc 27c5 2d3c c429 413e 902e 89be
00000060: 3937 843e 231a 873e fff4 123e 35f6 a6bc
00000070: 7c6a 4d3e 91e8 c3bd 10ca 9abd 00e4 c23c
00000080: e96f 04be 3958 3dbd 2d73 0cbe d04e 963d
00000090: deff d13d 92f8 753d b1a4 0f3e da0d 7bbb
000000a0: 2cd5 5b3d cfd8 0ebd ca36 41be 113b b2bd
000000b0: 78c8 c5bc 0e09 abbc 6618 d73d e575 ba3c
000000c0: 159b 2fbe 0594 de3c 5ba7 d43c f39b 70be
000000d0: 2a35 8c3d b70b 38bd f3fc 813d 3ada 51be
000000e0: f684 293e b393 883e 254f 35be 1532 a7bd
000000f0: 4cdc 44be bb38 763e 1929 28bd c97d 89bc
00000100: e9a3 c83d 476b 22be 25a5 3c3e ad82 243e
00000110: bbf3 00be 0f7d 933d 4e4f acbd af4c 7539
00000120: 96e8 07be 3a91 2abe 2f95 31be 36df 0cbe
00000130: 80ad 73bd aeb7 84be 9a2d 32bd 47db 10be
00000140: 2977 e1bc 5a4c fdbd 009f a53d cbad 983d
00000150: 1421 2d3d 0f1f 39be 8a5b 103e d060 403e
00000160: 6954 c53d f071 003c 8056 19be 235b e23d
00000170: ffc9 a7bc 0d9e 9f3d 02ca 2abe 54a5 e83d
00000180: daff 56bd 1417 283e 77ef 3d3e b83f f0bd
00000190: 58f3 deba 7865 073d 6b25 843d 5010 623e
000001a0: 2c1a 17bd 332e 6d3d ed0c cebc 0e74 8c3d
000001b0: 0796 24be fad5 dd3d e16b 693e 62ee 913c
000001c0: b765 0ebe a27f 9dbd 74c4 64bd 9eb7 cd3d
000001d0: deda 093e 8f0c 5a3d fdcf 7dbe 6efb 063d
000001e0: d03b d23d d0f0 f2bc 4930 553c 4b43 dfbd
000001f0: 8229 75be 7132 9ebc 0f61 373e 6e88 45be
00000200: a13d 1dbe 5500 0c3e c0b2 e4bd 25e1 1d3e
00000210: f1ab e9bd 2b8e bcbd 4b76 11be 0614 523e
00000220: 286c 4f3e 1683 d8bd 253d 96be 2494 2abe
00000230: 17a0 cbbc a4c1 06be 024f 923d 8191 663d
00000240: 7bd2 2f3e 4a1c 7dbe 6fae c63d 387d 00be
00000250: e6fb a1bc e364 863d 9dcc 1f3e d08a a2bc
00000260: 72e2 3ebd fbf2 ccbd 1dbb 673d 5c6d 893d
00000270: 0ae2 e1bd ffe4 f83c 3620 4c3c 296e c33c
00000280: aaa0 183e c308 503d 6c42 14be aaaf 68bd
00000290: 0661 85bd ab1b 33bd 166f bdbb 9015 e83b
000002a0: d65e b53d 0650 e73d 0cec 1b3d c188 38be
000002b0: 58f2 b8bd 5c67 3dbd be7b c2bd 36bb 6bbe
000002c0: bfa7 893e a274 0f3e 861c 2dbd 2775 283e
000002d0: 37bd 8dbc d8f1 f63d a02b 9f3d 3d7a 13bd
000002e0: e272 61bd 12df 9fbd 0a51 c0bd 116b 24be
000002f0: 983b 4dbe 2144 24bd 3106 01be 3b57 4d3e
00000300: c574 ab3d e5be b7bd 9714 183e 28e9 6b3e
00000310: 4308 a7bd 222c 6f3e 1c9c 623e dc63 113d
00000320: 7504 8abc 3557 4c3e 5c47 ee3c 8261 833d
00000330: 2a84 9a3d 1cf0 aa3d 4028 4f3e 662a fd3c
00000340: 6ecf 9bbd bc46 acbc 1c04 9abe 1f31 6b3e
00000350: 8499 adbb 4cc5 f83d 2c8b b2bb c5ea 933b
00000360: 46dc 57be 63b1 98bd 21f4 483d 9c53 4d3c
00000370: 0349 b63e 6a29 0bbd a044 5d3d 1ee9 ed3c
00000380: 0a4a 92bd 254a 5a3e ca58 093e 1471 463c
00000390: 4d0a 96bd f112 103e 3f1a 793e 3a27 77bd
000003a0: 93c5 0a3d ab2f 9c3e 19f3 8f3e 840c 67bd
000003b0: 889e e93e 7438 2c3e ff34 b03d 6e5e 1dbe
000003c0: 4ed0 c03e 5970 d3bc 73a3 583d 8398 e1bd
000003d0: 65da 763e 8e2f 8d3c b24b f6bc 68c1 f13d
000003e0: e835 35be 0ae8 ba3d 7943 12bd f093 593e
000003f0: d3b2 1f3d 9c57 53bd 1ed6 533d f807 b3bd

actor.fc_mu.weight f4 [2, 65]
0.0055079875 -0.009859742 0.0018868127 0.16145891 0.004084926 -0.0074588438 0.00061019947 0.15025869
0.15082802 0.15737899 0.001159479 0.0020482678 -0.0016842223 0.15176329 0.00077818433 -0.0043054656
0.146161 0.16668393 0.15303464 0.15134528 -0.00094571087 0.16313244 0.14463198 0.15944356
0.0010042485 0.0053556827 0.15506728 0.03315584 0.005956289 0.16379295 -0.0029800006 0.0026725687
-0.0019263605 0.15138075 0.14918573 0.0035347266 -0.0042002792 0.15572682 0.0023531804 0.15133803
0.006511116 -0.0029464492 0.0067727435 -0.0022624047 -0.0019236096 0.16058643 -0.00060208444 -0.0027648457
0.0026034003 0.15431482 0.15400077 -0.0025408398 0.17014346 0.15463637 0.15441114 0.1383839
0.17832185 0.00085074164 0.15618506 0.1563999 -0.00020041826 -0.0037377267 0.15727569 0.0022101228
0.043008745 -0.00036357858 -0.002359307 0.00069585734 0.011704325 -0.0042953854 -0.0028802883 0.0007897456
-0.044364564 -0.02288112 -0.024334127 0.0035460321 -0.0006305196 -0.00022008372 -0.049290426 -0.0057394775
0.0025629562 -0.038495604 -0.015450309 -0.026243292 -0.039372146 -0.005262816 0.0038786908 -0.015159301
-0.023314025 -0.0040242625 0.0077737556 -0.028164828 0.00991931 -0.0029183396 -0.0696262 -0.009610722
0.010025452 -0.0016539219 -0.01196531 -0.012301025 -0.002319564 -0.0035098442 -0.038675927 -0.0017855602
-0.032048836 0.0021363248 -0.00424023 0.003075265 -0.0011297816 0.00032993444 0.027224688 0.0015788376
0.0030458965 0.0015305895 -0.020094313 -0.035168782 -0.003791222 -0.017067255 -0.040657405 -0.03022609
0.0013808958 -0.060763262 0.00088225026 -0.029194057 -0.018870315 -0.0024735355 -0.0010310959 -0.06788857
-0.0010242533 -0.33579573
00000000: 597c b43b c18a 21bc ee4e f73a 7c55 253e
00000010: d8da 853b 5169 f4bb cbf5 1f3a 6add 193e
00000020: a972 1a3e f527 213e a9f9 973a 3b3c 063b
00000030: 1fc1 dcba d667 1b3e 11ff 4b3a dd14 8dbb
00000040: 3bab 153e 31af 2a3e 1db5 1c3e 42fa 1a3e
00000050: 95e9 77ba 310c 273e 681a 143e 2c45 233e
00000060: fda0 833a b97e af3b f5c9 1e3e 6bce 073d
00000070: f92c c33b 57b9 273e 1d4c 43bb 4326 2f3b
00000080: ef7d fcba 8e03 1b3e 25c4 183e dfa6 673b
00000090: 7fa2 89bb da76 1f3e d137 1a3b 5bf8 1a3e
000000a0: 335b d53b 3719 41bb e4ed dd3b da44 14bb
000000b0: a121 fcba c570 243e 34d5 1dba 6a32 35bb
000000c0: cf9d 2a3b b404 1e3e 61b2 1d3e 3884 26bb
000000d0: 163a 2e3e ff58 1e3e f41d 1e3e 82b4 0d3e
000000e0: 019a 363e 4e04 5f3a faee 1f3e 4c27 203e
000000f0: 5e27 52b9 a6f4 74bb e10c 213e b5d7 103b
00000100: f029 303d b19e beb9 9a9e 1abb 326a 363a
00000110: 7fc3 3f3c 4ec0 8cbb 38c3 3cbb ee06 4f3a
00000120: 9eb7 35bd 3071 bbbc 5d58 c7bc 8c64 683b
00000130: 7449 25ba 46c6 66b9 c2e4 49bd 3a12 bcbb
00000140: 45f7 273b 91ad 1dbd 4b23 7dbc 2cfc d6bc
00000150: b044 21bd b373 acbb a231 7e3b b85e 78bc
00000160: 0efd bebc f6dd 83bb fdba fe3b edb9 e6bc
00000170: 9a84 223c 9d41 3fbb 2e98 8ebd 4a76 1dbc
00000180: cb41 243c 69c8 d8ba 260a 44bc 3d8a 49bc
00000190: d403 18bb 6a05 66bb a66a 1ebd 7509 eaba
000001a0: a445 03bd 9501 0c3b a1f1 8abb 638a 493b
000001b0: 2e15 94ba 0dfb ac39 4f06 df3c 00f1 ce3a
000001c0: aa9d 473b 109e c83a d49c a4bc 240d 10bd
000001d0: 2776 78bb a1d0 8bbc 6188 26bd b59c f7bc
000001e0: 2dff b43a e6e2 78bd d046 673a 6028 efbc
000001f0: eb95 9abc 0a1b 22bb d625 87ba 2a09 8bbd
00000200: 3d40 86ba 6bed abbe

actor.fc_mu.bias f4 [2]
0.11856117 -0.052566517
00000000: 33d0 f23d fd4f 57bd

critic.conv1.bias f4 [64]
0.0 -0.0059968107 0.0 0.04743039 0.007191478 0.011625789 -0.058069002 0.034411833
-0.01377852 -0.017353732 0.0 -0.024512468 -0.039636824 0.028767405 0.0 0.0
-0.012610306 0.0 -0.024793606 -0.03437773 0.0 0.07872894 0.0 0.19153075
0.0076331473 -0.01748604 -0.05437252 -0.011216061 -0.012511578 0.026664235 0.0147511875 0.024032699
-0.02581342 0.054539137 0.0 0.08490915 -0.037776824 -0.028167984 -0.008194437 -0.0352729
-0.017341454 0.025732148 0.01903702 -0.02639421 0.00738787 0.026771082 0.03079047 -0.03415791
0.0 -0.039528713 -0.020349527 -0.019 -0.010934642 -0.12416005 0.013137042 0.0
-0.01983701 -0.01664055 0.058133177 -0.035494525 0.24037614 -0.027200988 0.03496079 -0.0025018782
00000000: 0000 0000 e580 c4bb 0000 0000 5e46 423d
00000010: 7da6 eb3b 187a 3e3c c3d9 6dbd 6cf3 0c3d
00000020: 4dbf 61bc 6a29 8ebc 0000 0000 5fce c8bc
00000030: 395a 22bd 9fa9 eb3c 0000 0000 0000 0000
00000040: 759b 4ebc 0000 0000 f61b cbbc aacf 0cbd
00000050: 0000 0000 a33c a13d 0000 0000 a320 443e
00000060: 7b1f fa3b e23e 8fbc b8b5 5ebd 92c3 37bc
00000070: 5dfd 4cbc f46e da3c f7ae 713c 39e0 c43c
00000080: aa76 d3bc 6e64 5f3d 0000 0000 d9e4 ad3d
00000090: dfbb 1abd 8bc0 e6bc f641 06bc 517a 10bd
000000a0: aa0f 8ebc 3acc d23c 86f3 9b3c ac38 d8bc
000000b0: f215 f23b 074f db3c 4c3c fc3c 2ae9 0bbd
000000c0: 0000 0000 dce8 21bd 0db4 a6bc e3a5 9bbc
000000d0: 3627 33bc a047 febd bf3c 573c 0000 0000
000000e0: 3a81 a2bc c351 88bc 0e1d 6e3d b562 11bd
000000f0: 2a25 763e 9bd4 debc 0c33 0f3d 8df6 23bb

critic.conv1.lin.weight f4 [64, 2]
-0.048093796 -0.15886104 -0.005212444 -0.0020775965 -0.1157412 -0.13626632 0.20208298 -0.05313495
0.16573852 0.057107553 -0.117394306 0.23546688 0.05270623 0.13125238 -0.12269 0.15387866
-0.4226593 0.30565178 0.028303185 -0.040926598 -0.06676552 -0.24083517 0.03247193 0.069003016
0.16740598 0.27240667 -0.004090892 0.10041806 -0.0225609 -0.010550936 -0.2046216 -0.1226803
-0.14009257 0.020849213 -0.12518393 -0.06947116 0.25237456 0.06794248 0.0026652843 0.10091418
-0.3504414 -0.0087169595 -0.15076204 0.049362343 -0.058567867 -0.04962589 0.2013684 0.27191997
0.18011436 -0.007008187 0.09315025 0.05613496 0.3506406 0.3384759 -0.068193994 0.0056207236
-0.066151656 0.011499399 0.14126146 -0.03211973 0.08259243 0.1668305 0.029546898 0.04220929
0.041841023 0.16104712 0.20400025 -0.05290668 -0.19386259 -0.076270826 -0.15850383 0.16286908
0.22844425 0.21267648 0.08145247 0.032773647 0.010661233 -0.05529271 0.16465724 0.2168212
0.026271353 0.4034484 0.051164623 -0.01629662 0.16276073 0.04257518 0.0645422 0.15659134
0.13854936 0.15918083 0.18202078 0.02245658 0.19395554 -0.047003508 0.056533076 0.0841114
-0.10641536 -0.25491524 0.07049464 0.068249844 0.13044545 0.078711495 0.09222489 0.07149739
0.027384935 -0.04043821 0.20963393 0.21491036 0.19261356 0.08659415 -0.07480822 -0.12383396
0.14523026 0.06497559 0.038270663 -0.05942184 -0.123041086 0.12955572 0.23431198 0.17336003
0.29410514 0.2676829 0.07058803 0.1779365 -0.06412598 0.13178806 -0.18834558 0.101271346
00000000: 00fe 44bd 78ac 22be 26cd aabb 4928 08bb
00000010: b909 edbd 6689 0bbe d7ee 4e3e 09a4 59bd
00000020: 5cb7 293e 9ce9 693d 6d6c f0bd 3b1e 713e
00000030: 7de2 573d 0667 063e e544 fbbd 5e92 1d3e
00000040: cd66 d8be 647e 9c3e 15dc e73c a6a2 27bd
00000050: 5cbc 88bd 7f9d 76be 4901 053d 7451 8d3d
00000060: 796c 2b3e e378 8b3e e40c 86bb fca7 cd3d
00000070: a3d1 b8bc d5dd 2cbc 5388 51be cf3f fbbd
00000080: 6d74 0fbe f8cb aa3c 3730 00be e546 8ebd
00000090: 3d37 813e 6d25 8b3d 0dac 2e3b 18ac ce3d
000000a0: 0e6d b3be 94d1 0ebc 5d61 1abe 2b30 4a3d
000000b0: dce4 6fbd 8444 4bbd 8533 4e3e 1839 8b3e
000000c0: e66f 383e efa4 e5bb 8fc5 be3d c6ed 653d
000000d0: 2a87 b33e b74c ad3e 4ba9 8bbd 0c2e b83b
000000e0: 857a 87bd fa67 3c3c d8a6 103e fa8f 03bd
000000f0: 3826 a93d 9dd5 2a3e 560c f23c a6e3 2c3d
00000100: 7e61 2b3d 89e9 243e 71e5 503e adb4 58bd
00000110: ea83 46be e133 9cbd d44e 22be 27c7 263e
00000120: 4aed 693e ddc7 593e 8dd0 a63d a93d 063d
00000130: 74ac 2e3c 9c7a 62bd e89b 283e 6006 5e3e
00000140: 0537 d73c ca90 ce3e ff91 513d 7d80 85bc
00000150: c0aa 263e 5063 2e3d b32e 843d 7b59 203e
00000160: e2df 0d3e 4d00 233e a863 3a3e ddf6 b73c
00000170: 489c 463e c086 40bd 3a8f 673d 9942 ac3d
00000180: 4cf0 d9bd 4084 82be 7e5f 903d 93c6 8b3d
00000190: 7e93 053e 7e33 a13d 67e0 bc3d 396d 923d
000001a0: 5f56 e03c 89a2 25bd 47aa 563e 7611 5c3e
000001b0: 7d3c 453e 4658 b13d 0d35 99bd a99c fdbd
000001c0: 3eb7 143e ec11 853d b3c1 1c3d 5164 73bd
000001d0: f7fc fbbd 41aa 043e 7bef 6f3e 4b85 313e
000001e0: f394 963e bc0d 893e 7590 903d fc34 363e
000001f0: 7b54 83bd 73f3 063e aadd 40be 5a67 cf3d

critic.conv2.bias f4 [64]
0.019879336 -0.028204024 0.027786523 0.020898217 0.13825409 0.021346428 0.02088016 -0.018920954
-0.013970514 0.02088157 0.020829512 -0.01949964 -0.016288966 0.050039947 0.02150038 0.020861728
0.0 -0.0066764434 0.0 -0.017566267 0.0 0.020876255 -0.013661381 -0.020405008
-0.014347092 -0.014506121 0.020908134 0.057825346 0.0 -0.013870222 0.02116887 -0.017454118
0.023749 0.043518033 0.020848678 0.021937568 0.020885676 0.020917408 -0.014043885 -0.008906946
-0.020912241 -0.012902134 -0.01127581 -0.021727646 0.4767636 -0.013469647 -0.0196641 0.020849353
0.20686656 -0.015436 -0.013591765 -0.01602043 -0.005213526 0.21210574 0.13281511 0.0
0.0 0.19109862 0.0 0.44755837 -0.0130362 -0.016090369 -0.0059991493 0.020843552
00000000: fdd9 a23c 200c e7bc 90a0 e33c bd32 ab3c
00000010: 7b92 0d3e b4de ae3c df0c ab3c 1e00 9bbc
00000020: 95e4 64bc d40f ab3c a7a2 aa3c b6bd 9fbc
00000030: 7070 85bc b0f6 4c3d 9121 b03c 37e6 aa3c
00000040: 0000 0000 11c6 dabb 0000 0000 22e7 8fbc
00000050: 0000 0000 ae04 ab3c fcd3 5fbc 6728 a7bc
00000060: 1110 6bbc 15ab 6dbc 8947 ab3c 45da 6c3d
00000070: 0000 0000 ed3f 63bc 576a ad3c f0fb 8ebc
00000080: 438d c23c f73f 323d d9ca aa3c 6ab6 b33c
00000090: 7018 ab3c fc5a ab3c 5318 66bc 70ee 11bc
000000a0: 2650 abbc 7963 53bc 2dbe 38bc 2dfe b1bc
000000b0: 5c1a f43e cbaf 5cbc 9b16 a1bc 43cc aa3c
000000c0: d4d4 533e 47e7 7cbc ffaf 5ebc 473d 83bc
000000d0: 3ad6 aabb 3f32 593e af00 083e 0000 0000
000000e0: 0000 0000 5baf 433e 0000 0000 5f26 e53e
000000f0: c995 55bc f3cf 83bc 8394 c4bb 19c0 aa3c

critic.conv2.lin.weight f4 [64, 64]
0.081056 0.13875951 0.0566053 0.15137854 0.03775096 -0.23653492 -0.16896297 0.14436513
-0.14925408 -0.07738088 -0.03492871 -0.2231579 -0.01912164 0.023559297 -0.13174841 -0.012589693
-0.02414688 0.064662844 -0.06757679 -0.16569604 0.024661979 0.114572965 -0.04271721 0.41390342
-0.19712962 0.08858321 0.058772452 -0.016086057 0.041179337 0.021874517 0.1639966 0.10227694
0.048325 0.030600615 0.11634545 0.11941921 0.28656796 0.06802537 -0.048250455 -0.02626148
0.079863966 -0.2623535 0.115929246 0.14296807 -0.20160027 -0.04599543 0.02805092 -0.039045244
0.10854314 -0.12538587 -0.2855299 -0.022008969 0.054247074 -0.5093128 0.24026006 -0.008570349
-0.16256574 0.04874745 -0.19357216 -0.16448867 0.18824637 -0.13451663 0.031297248 0.14941941
0.0991762 -0.06454897 -0.20256107 -0.093570866 0.31297028 0.18583965 0.170139 0.20443076
-0.14661169 0.022841275 0.13833688 -0.017623747 0.110394046 -0.11483751 0.2362878 -0.16758208
0.1239476 -0.02628961 0.044736445 -0.1501728 -0.023528803 0.012692501 0.024055805 0.04181188
-0.034014974 -0.21756536 -0.16443148 0.09433319 0.06257058 -0.015921738 -0.03656751 -0.26465312
0.13111869 -0.021855086 -0.00844068 -0.2163824 0.16777423 0.114432365 -0.13219053 -0.094527505
-0.13053796 0.029263526 0.20083037 0.0804151 -0.14054549 -0.02509562 -0.06218726 -0.0037224428
-0.13996105 -0.038152806 0.080954954 -0.00521466 -0.016245613 0.07424249 0.030143064 -0.05559652
-0.11911431 0.20754755 -0.15370071 -0.066534266 0.039224092 0.1477919 -0.09894392 -0.02528437
0.1074917 0.12869789 0.1777873 0.011297724 0.21520953 0.1557009 -0.22861814 -0.065350294
-0.4862996 -0.114951015 0.1567394 0.12253902 -0.18411176 0.13930275 0.0076109245 -0.025426304
-0.10812868 0.054786753 0.08140277 -0.41330758 0.088193394 0.09268182 -0.15718189 0.3696251
-0.266001 0.20962068 0.05727019 -0.15115808 0.06928759 -0.08756294 -0.11590977 0.05005686
0.025487501 0.04201042 -0.010186202 0.06366107 -0.04373789 0.09916503 0.25322515 0.020536484
-0.20251964 0.07266334 0.09524718 -0.019273946 0.043425646 0.14912683 -0.07522834 -0.13439324
-0.00814769 0.09452669 -0.04958361 0.07944326 -0.057202294 -1.0549672 -0.13489623 0.12993704
-0.053008724 0.03527541 -0.18474875 -0.092715 0.23312402 -0.00338065 0.0011057792 -0.2570755
-0.086006716 0.12702678 -0.031134775 0.015844377 0.19615774 -0.08218361 0.042877216 -0.062670864
-0.11637456 0.10083666 0.015738847 -0.09532948 0.0034880452 0.25152788 0.036978863 -0.022042105
-0.028325818 -0.087278634 0.2241071 0.157982 -0.18241005 0.2931863 0.049136516 0.18146066
-0.049436506 -0.097637706 -0.016942862 0.059131686 0.07540122 0.021609236 0.24716198 0.069570854
0.07727383 0.19765092 0.153073 0.16390704 0.242432 0.08410182 0.056548312 -0.049391728
-0.18386915 -0.017999196 0.030374806 0.032757163 0.12389922 -0.031126589 0.0017377142 -0.010159411
0.026554625 -0.1017717 -0.034685828 -0.07070438 0.00020843101 -0.36261502 0.10434206 -0.16841048
0.0170353 -0.2642548 0.28979117 -0.115581736 0.50926065 -0.04073441 -0.037095554 -0.34074187
00000000: b000 a63d f916 0e3e f6da 673d fa02 1b3e
00000010: c0a0 1a3d 3636 72be a104 2dbe 74d4 133e
00000020: 10d6 18be de79 9ebd 6811 0fbd 8183 64be
00000030: fca4 9cbc 6dff c03c 0ee9 06be 0045 4ebc
00000040: adcf c5bc f46d 843d b365 8abd 39ac 29be
00000050: eb07 ca3c 3ba5 ea3d 3ef8 2ebd 26eb d33e
00000060: 59dc 49be 1d6b b53d 62bb 703d e8c6 83bc
00000070: aaab 283d 3032 b33c baee 273e 9376 d13d
00000080: 6ff0 453d 24ae fa3c 8646 ee3d 0f92 f43d
00000090: 09b9 923e e350 8b3d 45a2 45bd 5122 d7bc
000000a0: b88f a33d 3353 86be 506c ed3d 3966 123e
000000b0: 4d70 4ebe b465 3cbd 0bcb e53c e8ed 1fbd
000000c0: de4b de3d 2765 00be fa30 92be 274c b4bc
000000d0: 2e32 5e3d 5362 02bf bc06 763e a66a 0cbc
000000e0: a277 26be 68ab 473d c837 46be b86f 28be
000000f0: a8c3 403e babe 09be 8b31 003d 6701 193e
00000100: e41c cb3d 4032 84bd 2b6c 4fbe 15a2 bfbd
00000110: a43d a03e c04c 3e3e eb38 2e3e 4c56 513e
00000120: 6021 16be a01d bb3c 2fa8 0d3e ad5f 90bc
00000130: 4616 e23d ee2f ebbd 6ef5 713e a39a 2bbe
00000140: 3dd8 fd3d 4f5d d7bc 903d 373d e6c6 19be
00000150: 7abf c0bc 35f4 4f3c ae10 c53c ef42 2b3d
00000160: 4953 0bbd 74c9 5ebe ba60 28be c231 c13d
00000170: 0125 803d 4e6e 82bc d0c7 15bd 9d80 87be
00000180: fa43 063e 7009 b3bc c74a 0abc 5993 5dbe
00000190: 02cd 2b3e 845b ea3d f45c 07be a397 c1bd
000001a0: beab 05be 10ba ef3c 7aa6 4d3e acb0 a43d
000001b0: 28eb 0fbe 5495 cdbc 11b8 7ebd 3af4 73bb
000001c0: f351 0fbe 1e46 1cbd b6cb a53d bddf aabb
000001d0: 8515 85bc 720c 983d 96ee f63c 2db9 63bd
000001e0: 34f2 f3bd 5887 543e b863 1dbe 1e43 88bd
000001f0: 71a9 203d c356 173e 1ca3 cabd 2b21 cfbc
00000200: 9c24 dc3d 61c9 033e e00d 363e 171a 393c
00000210: e35f 5c3e 0f70 1f3e e01a 6abe 60d6 85bd
00000220: 43fc f8be 706b ebbd 4b80 203e bdf5 fa3d
00000230: cb87 3cbe 61a5 0e3e 1065 f93b d34a d0bc
00000240: 9272 ddbd 1368 603d 7fb6 a63d 0d9d d3be
00000250: bd9e b43d f7cf bd3d 4af4 20be 803f bd3e
00000260: 4831 88be cea6 563e 2694 6a3d 2fc9 1abe
00000270: a7e6 8d3d 3354 b3bd 1a62 edbd 6c08 4d3d
00000280: 2acb d03c 1e13 2c3d 07e4 26bc bc60 823d
00000290: 8026 33bd 0917 cb3d baa6 813e 213c a83c
000002a0: 4f61 4fbe 84d0 943d f410 c33d 65e4 9dbc
000002b0: 17df 313d b4b4 183e 5111 9abd 629e 09be
000002c0: e47d 05bc 3697 c13d 2f18 4bbd 26b3 a23d
000002d0: f44c 6abd 2a09 87bf 3d22 0abe 370e 053e
000002e0: ad1f 59bd f37c 103d c72e 3dbe 5de1 bdbd
000002f0: 10b8 6e3e e58d 5dbb cbef 903a 669f 83be
00000300: 4a24 b0bd 4f13 023e 5b0e ffbc 11cc 813c
00000310: 93dd 483e e14f a8bd 05a0 2f3d 9559 80bd
00000320: c955 eebd 7383 ce3d c1ee 803c 1a3c c3bd
00000330: b097 643b 43c8 803e 2677 173d a591 b4bc
00000340: 8c0b e8bc 24bf b2bd 557c 653e 09c6 213e
00000350: b3c9 3abe 841c 963e 5f43 493d d3d0 393e
00000360: ef7d 4abd 47f6 c7bd c2cb 8abc 1134 723d
00000370: f46b 9a3d da05 b13c 0818 7d3e 2a7b 8e3d
00000380: be41 9e3d 0165 4a3e 2bbf 1c3e 3fd7 273e
00000390: 1840 783e 933d ac3d 349f 673d fb4e 4abd
000003a0: 3248 3cbe 0d73 93bc 96d4 f83c 602c 063d
000003b0: e0be fd3d 30fd febc 03c4 e33a a873 26bc
000003c0: 1689 d93c ae6d d0bd ba12 0ebd 75cd 90bd
000003d0: 468e 5a39 ada8 b9be 4ab1 d53d cc73 2cbe
000003e0: 9d8d 8b3c 684c 87be 825f 943e 1eb6 ecbd
000003f0: e85e 023f 20d9 26bd 82f1 17bd b875 aebe

critic.fc.weight f4 [1, 65]
0.25523198 -0.029092163 0.08269743 0.25021645 0.37158793 0.07455654 0.1364232 -0.15726647
-0.12027188 0.25399986 0.06438921 -0.2691081 -0.15725161 0.4182648 0.21222784 0.07910942
0.032822773 -0.18261437 0.0049520065 -0.39636433 0.1730098 0.09900299 -0.16252026 -0.26207015
-0.17816299 -0.29423863 0.05007343 0.2675842 0.20283929 -0.14781174 0.43948254 -0.116728686
0.14408332 0.5698827 0.3646944 0.16518876 0.17153178 0.08284038 -0.06720326 -0.29046276
-0.0010996077 -0.05743084 -0.19986303 -0.062114667 -1.0488943 -0.022733338 -0.13138029 0.09094771
0.32180557 -0.22229831 -0.01010689 -0.08387151 -0.017466255 0.3181322 0.41788113 0.0995892
-0.07971995 0.49762982 -0.22088628 -1.2295091 -0.078801125 -0.140466 -0.02550662 0.1375315
-0.564189
00000000: c4ad 823e b052 eebc 455d a93d 5f1c 803e
00000010: c640 be3e 19b1 983d 86b2 0b3e 760a 21be
00000020: 1a51 f6bd 450c 823e 7dde 833d 89c8 89be
00000030: 9106 21be ce26 d63e 4152 593e 1f04 a23d
00000040: 2c71 063d 43ff 3abe 7144 a23b 44f0 cabe
00000050: 7b29 313e 14c2 ca3d b66b 26be 0f2e 86be
00000060: 5c70 36be 72a6 96be cc19 4d3d cc00 893e
00000070: 1ab5 4f3e f65b 17be db03 e13e 730f efbd
00000080: 948a 133e d5e3 113f 39b9 ba3e 3e27 293e
00000090: 07a6 2f3e 38a8 a93d dda1 89bd 89b7 94be
000000a0: b620 90ba 9a3c 6bbd e5a8 4cbe f36b 7ebd
000000b0: 2b42 86bf 443b babc 8e88 06be cb42 ba3d
000000c0: b3c3 a43e 2ba2 63be 5f97 25bc d4c4 abbd
000000d0: 6415 8fbc 39e2 a23e 84f4 d53e 6cf5 cb3d
000000e0: 3744 a3bd 56c9 fe3e 0330 62be 8e60 9dbf
000000f0: 7c62 a1bd 52d6 0fbe 42f3 d0bc 0fd5 0c3e
00000100: b16e 10bf

_actor_critic.actor.sigma_param f4 [2, 1]
-0.21845143 -0.33883733
00000000: bbb1 5fbe 167c adbe

_actor_critic.actor.conv1.bias f4 [64]
0.13396616 0.0013274604 0.12512103 0.0 -0.00085757225 0.1088197 0.11689101 0.14342077
0.0 0.03593282 0.12910794 -0.079293445 -0.0925197 0.14473805 0.008978145 0.10557401
0.16697693 -0.008278811 -0.054704256 0.13933821 0.0 0.16840431 0.0 -0.02170491
-0.023049176 0.0 -0.011223686 0.0 0.12381963 0.011033435 0.14209855 0.12711619
0.0 0.13458952 0.12998325 0.0 0.0 0.0 0.14512704 0.15203828
0.15883958 0.1148063 0.16865811 0.0 0.12124132 0.10882428 -0.030324146 0.15160555
0.14069775 -0.032229234 0.14373352 -0.017249478 0.0 0.0 0.0 0.14428554
-0.046374258 0.14717661 0.12254525 0.14314513 0.16053508 -0.060443357 0.0 0.0
00000000: 6d2e 093e 2efe ad3a ba1f 003e 0000 0000
00000010: b3ce 60ba dddc de3d 8e64 ef3d e5dc 123e
00000020: 0000 0000 4b2e 133d df34 043e 9a64 a2bd
00000030: f87a bdbd 3636 143e 1219 133c 3037 d83d
00000040: 00fc 2a3e daa3 07bc 9211 60bd adae 0e3e
00000050: 0000 0000 2e72 2c3e 0000 0000 7fce b1bc
00000060: a0d1 bcbc 0000 0000 8de3 37bc 0000 0000
00000070: 2595 fd3d 95c5 343c 4882 113e bf2a 023e
00000080: 0000 0000 d6d1 093e 541a 053e 0000 0000
00000090: 0000 0000 0000 0000 2f9c 143e ecaf 1b3e
000000a0: d8a6 223e 911f eb3d b6b4 2c3e 0000 0000
000000b0: 5f4d f83d 44df de3d 586a f8bc 7c3e 1b3e
000000c0: 1213 103e cd02 04bd e12e 133e c74e 8dbc
000000d0: 0000 0000 0000 0000 0000 0000 97bf 133e
000000e0: eff2 3dbd 77b5 163e 01f9 fa3d a394 123e
000000f0: 4f63 243e 7493 77bd 0000 0000 0000 0000

_actor_critic.actor.conv1.lin.weight f4 [64, 2]
0.13988605 0.24298401 -0.11272339 0.1499525 0.1550599 0.27648094 -0.23425892 -0.11286886
-0.18709624 0.118488945 0.124365896 0.056083392 0.3114218 0.20586957 0.26295564 0.06036924
-0.09576416 -0.012726322 0.24156727 -0.050172415 -0.089073114 0.23941895 0.05061684 0.028421383
0.03362043 0.17057611 0.1954682 0.14023006 0.32539243 -0.031572737 -0.10867599 0.078269795
0.19381952 -0.18023355 -0.0067228056 0.0073309005 0.0014256116 0.048058268 0.3734902 0.046130817
-0.083661236 -0.14987694 -0.019280793 0.12976156 -0.06280666 -0.32820818 0.017071236 -0.08056022
0.016755832 -0.26106364 -0.10572339 -0.052288406 0.007977412 -0.14533286 -0.051223498 -0.17897278
0.27684665 0.28233117 0.2865298 -0.13348585 -0.009153623 0.14619836 0.22708535 0.1696445
-0.17335048 -0.054879922 -0.00022841031 0.19592883 0.21725333 0.24271083 -0.25579637 -0.049579136
-0.10196181 -0.18073323 -0.06938961 -0.08864156 0.16914019 0.11396822 0.1984452 0.08457468
0.18956822 0.15347949 0.10779758 0.23391075 0.3412854 -0.009841055 -0.034952745 -0.017492026
0.18318671 0.060746364 0.32897633 0.07106187 -0.18619666 0.023053411 -0.06698348 0.20881078
0.24459013 0.14546324 -0.17716004 0.03236352 0.3186989 0.09057165 0.016007494 -0.09956557
-0.21488504 -0.017712303 -0.0130368965 -0.027318683 -0.013762838 -0.14391753 0.22806987 0.08395164
-0.06801465 0.0447086 0.23322918 -0.02329482 0.10144833 0.18354484 0.24912794 0.094676934
0.18025312 0.11781027 -0.06824192 0.062758885 -0.041028243 -0.036435686 -0.08421787 -0.08356729
00000000: 4a3e 0f3e cdd0 783e 85db e6bd 268d 193e
00000010: 06c8 1e3e e98e 8d3e 92e1 6fbe ca27 e7bd
00000020: 2896 3fbe 55aa f23d 8cb3 fe3d b3b7 653d
00000030: ae72 9f3e 79cf 523e 1fa2 863e bc45 773d
00000040: 0020 c4bd 1082 50bc 695d 773e 9781 4dbd
00000050: f76b b6bd 3e2a 753e 9b53 4f3d f6d3 e83c
00000060: 93b5 093d 81ab 2e3e d128 483e 7898 0f3e
00000070: d699 a63e 6a52 01bd 8491 debd ea4b a03d
00000080: a078 463e 258f 38be fb4a dcbb 0d38 f03b
00000090: 96db ba3a bfd8 443d 1c3a bf3e abf3 3c3d
000000a0: 9556 abbd 5779 19be c1f2 9dbc 37e0 043e
000000b0: c7a0 80bd e70a a8be fad8 8b3c c2fc a4bd
000000c0: 8743 893c 22aa 85be 8185 d8bd 5e2c 56bd
000000d0: b1b3 023c 23d2 14be bbcf 51bd a444 37be
000000e0: d8be 8d3e b68d 903e 09b4 923e 84b0 08be
000000f0: 14f9 15bc 06b5 153e 1089 683e 4ab7 2d3e
00000100: ca82 31be c5c9 60bd 6d81 6fb9 91a1 483e
00000110: a877 5e3e 3089 783e bef7 82be 7e13 4bbd
00000120: 5ad1 d0bd 2212 39be 241c 8ebd b589 b5bd
00000130: 1633 2d3e 2c68 e93d 3835 4b3e 7d35 ad3d
00000140: 2c1e 423e ba29 1d3e fac4 dc3d 4d86 6f3e
00000150: f6bc ae3e 603c 21bc 9c2a 0fbd 704b 8fbc
00000160: 4c95 3b3e 2ed1 783d 966f a83e e388 913d
00000170: 56aa 3ebe 82da bc3c a22e 89bd 7ed2 553e
00000180: d675 7a3e 51f4 143e 7169 35be 9c8f 043d
00000190: 812c a33e a17d b93d 2622 833c 09e9 cbbd
000001a0: d30a 5cbe 6419 91bc b598 55bc 6ecb dfbc
000001b0: 877d 61bc 1e5f 13be 268b 693e d6ee ab3d
000001c0: 444b 8bbd 5d20 373d a1d3 6e3e c7d4 bebc
000001d0: 24c4 cf3d 2ef3 3b3e 651b 7f3e fbe5 c13d
000001e0: 4694 383e 8346 f13d 6bc2 8bbd bb87 803d
000001f0: 3b0d 28bd 963d 15bd 6b7a acbd 5425 abbd

_actor_critic.actor.conv2.bias f4 [64]
-0.008109105 -0.013831886 0.0 0.12850583 0.005086051 -0.0050916034 0.0 0.1329861
0.12985386 0.1385036 -0.011021609 0.0 -0.0055424566 0.14660716 -0.014750697 -0.014343027
0.13479584 0.13878691 0.14627518 0.14154932 -0.0053449315 0.11793385 0.13021962 0.14030382
-0.012909405 -0.000680621 0.14936832 0.024271064 -0.010818891 0.15339257 -0.0020986511 -0.027284598
-0.020486062 0.13338897 0.14152429 -0.005482963 -0.0045918934 0.14669982 0.0 0.13321532
0.0004528637 -0.019442985 -0.005975101 -0.0126824165 0.0 0.10700546 -0.0075001526 -0.010213425
-0.006000556 0.14315264 0.14043687 -0.021146188 0.13764207 0.14228813 0.13622002 0.121210195
0.16791962 0.0 0.13980259 0.14257224 -0.0041174535 -0.0058786175 0.16133372 0.0
00000000: 0ddc 04bc 239f 62bc 0000 0000 0897 033e
00000010: e3a8 a63b 77d7 a6bb 0000 0000 822d 083e
00000020: 69f8 043e e3d3 0d3e fb93 34bc 0000 0000
00000030: 7f9d b5bb 3020 163e e8ac 71bc 04ff 6abc
00000040: ec07 0a3e 281e 0e3e 29c9 153e 4ef2 103e
00000050: 8924 afbb 4d87 f13d 4b58 053e ceab 0f3e
00000060: f881 53bc b46b 32ba 02f4 183e 1cd4 c63c
00000070: b841 31bc f112 1d3e 8689 09bb f383 dfbc
00000080: 63d2 a7bc 1e97 083e beeb 103e 6daa b3bb
00000090: 9877 96bb 7a38 163e 0000 0000 9969 083e
000000a0: 566e ed39 e546 9fbc c8ca c3bb e9c9 4fbc
000000b0: 0000 0000 ae25 db3d d7c3 f5bb 3656 27bc
000000c0: 50a0 c4bb 9b96 123e afce 0f3e c53a adbc
000000d0: 0bf2 0c3e fbb3 113e 437d 0b3e 0d3d f83d
000000e0: 1ff3 2b3e 0000 0000 6928 0f3e 75fe 113e
000000f0: b4eb 86bb 6ba1 c0bb ab34 253e 0000 0000

_actor_critic.actor.conv2.lin.weight f4 [64, 64]
-0.08027138 0.13511276 -0.062854104 0.07055847 -0.021547927 0.10006528 -0.13350242 0.13070841
0.014706209 -0.0024784505 -0.058609713 0.04999602 0.043493792 -0.05404157 -0.1566729 0.183619
-0.050401077 -0.059825942 -0.10237786 0.07228491 -0.030763019 0.010606087 0.18863589 -0.26793337
0.25823382 0.26387128 0.14351271 -0.020381073 0.20060152 -0.09565843 -0.075580716 0.02379036
-0.12933315 -0.046226714 -0.13715811 0.07339251 0.10253881 0.06005151 0.14027669 -0.0038307817
0.053670093 -0.034874734 -0.18868557 -0.08702672 -0.024143443 -0.020878341 0.105027005 0.022761295
-0.17149003 0.02717019 0.025958708 -0.2349699 0.06846078 -0.044933047 0.06347074 -0.20493403
0.16554627 0.26675186 -0.17705972 -0.08163849 -0.19224662 0.24045078 -0.04105482 -0.016783612
0.097968884 -0.15861236 0.18422373 0.16065474 -0.12592976 0.072015874 -0.08413564 0.00023393588
-0.13272318 -0.16656962 -0.17342065 -0.13757023 -0.059491634 -0.25921386 -0.04350052 -0.14146148
-0.02752264 -0.123680785 0.080869675 0.074550234 0.042267874 -0.18078254 0.1409742 0.18786931
0.096352406 0.007839665 -0.14974403 0.11052539 -0.020482061 0.07793818 -0.16678622 0.11359659
-0.052490093 0.16415054 0.1854838 -0.117309034 -0.0017009778 0.033055753 0.064524494 0.22076535
-0.036890194 0.057905387 -0.025152648 0.06858073 -0.16072856 0.108318284 0.22795059 0.017813865
-0.13905989 -0.0769036 -0.055851415 0.10044788 0.13462397 0.053234633 -0.24786372 0.032954626
0.102653146 -0.029655844 0.013012 -0.10901507 -0.23941615 -0.019311162 0.17908119 -0.19290325
-0.15355541 0.13672002 -0.11166906 0.15417917 -0.11409748 -0.09206804 -0.14205281 0.20515451
0.20256102 -0.10571878 -0.29343525 -0.16658074 -0.02485661 -0.13159806 0.07143976 0.056291107
0.17170136 -0.24717823 0.09701239 -0.12547767 -0.019773435 0.06562211 0.15605398 -0.019841582
-0.046602674 -0.10007282 0.05657493 0.06710312 -0.11029442 0.030382631 0.012458852 0.02385624
0.14905038 0.050789606 -0.14478463 -0.05680815 -0.065126464 -0.043727558 -0.0057810647 0.0070826486
0.08855979 0.1129456 0.03806691 -0.18020917 -0.090305984 -0.04624115 -0.09496258 -0.23020634
0.26885793 0.14009336 -0.04226353 0.1645094 -0.017302139 0.12057847 0.07771993 -0.036005247
-0.0550412 -0.07806219 -0.09390457 -0.16056468 -0.20042264 -0.040104035 -0.12600018 0.20052807
0.083718814 -0.08971957 0.14851604 0.23038161 -0.08155873 0.23356679 0.22129864 0.035495624
-0.016847828 0.19955142 0.029086761 0.064150825 0.075447395 0.083465785 0.20230198 0.030904006
-0.076079234 -0.021029823 -0.3008126 0.22967957 -0.0052978415 0.121470064 -0.0054487195 0.0045140707
-0.21080121 -0.07455709 0.049060944 0.012532141 0.3560258 -0.033975042 0.054020524 0.029041823
-0.07143028 0.21317346 0.13412777 0.012111921 -0.073261835 0.14069726 0.24326418 -0.060340144
0.033879828 0.30505118 0.28115156 -0.05640842 0.45628762 0.1681841 0.08603858 -0.15368053
0.37658924 -0.025810407 0.052890252 -0.110154174 0.24106748 0.01723459 -0.030065391 0.118044674
-0.17696345 0.09126289 -0.03570888 0.2124784 0.0389889 -0.051597223 0.05171787 -0.08741754
00000000: 5265 a4bd 005b 0a3e a7b9 80bd f680 903d
00000010: 4785 b0bc 07ef cc3d dcb4 08be 6dd8 053e
00000020: 50f2 703c 806d 22bb bd10 70bd a0c8 4c3d
00000030: 8c26 323d b15a 5dbd dc6e 20be 9e06 3c3e
00000040: 5c71 4ebd 0c0c 75bd 7cab d1bd 1c0a 943d
00000050: ba02 fcbc 27c5 2d3c c429 413e 902e 89be
00000060: 3937 843e 231a 873e fff4 123e 35f6 a6bc
00000070: 7c6a 4d3e 91e8 c3bd 10ca 9abd 00e4 c23c
00000080: e96f 04be 3958 3dbd 2d73 0cbe d04e 963d
00000090: deff d13d 92f8 753d b1a4 0f3e da0d 7bbb
000000a0: 2cd5 5b3d cfd8 0ebd ca36 41be 113b b2bd
000000b0: 78c8 c5bc 0e09 abbc 6618 d73d e575 ba3c
000000c0: 159b 2fbe 0594 de3c 5ba7 d43c f39b 70be
000000d0: 2a35 8c3d b70b 38bd f3fc 813d 3ada 51be
000000e0: f684 293e b393 883e 254f 35be 1532 a7bd
000000f0: 4cdc 44be bb38 763e 1929 28bd c97d 89bc
00000100: e9a3 c83d 476b 22be 25a5 3c3e ad82 243e
00000110: bbf3 00be 0f7d 933d 4e4f acbd af4c 7539
00000120: 96e8 07be 3a91 2abe 2f95 31be 36df 0cbe
00000130: 80ad 73bd aeb7 84be 9a2d 32bd 47db 10be
00000140: 2977 e1bc 5a4c fdbd 009f a53d cbad 983d
00000150: 1421 2d3d 0f1f 39be 8a5b 103e d060 403e
00000160: 6954 c53d f071 003c 8056 19be 235b e23d
00000170: ffc9 a7bc 0d9e 9f3d 02ca 2abe 54a5 e83d
00000180: daff 56bd 1417 283e 77ef 3d3e b83f f0bd
00000190: 58f3 deba 7865 073d 6b25 843d 5010 623e
000001a0: 2c1a 17bd 332e 6d3d ed0c cebc 0e74 8c3d
000001b0: 0796 24be fad5 dd3d e16b 693e 62ee 913c
000001c0: b765 0ebe a27f 9dbd 74c4 64bd 9eb7 cd3d
000001d0: deda 093e 8f0c 5a3d fdcf 7dbe 6efb 063d
000001e0: d03b d23d d0f0 f2bc 4930 553c 4b43 dfbd
000001f0: 8229 75be 7132 9ebc 0f61 373e 6e88 45be
00000200: a13d 1dbe 5500 0c3e c0b2 e4bd 25e1 1d3e
00000210: f1ab e9bd 2b8e bcbd 4b76 11be 0614 523e
00000220: 286c 4f3e 1683 d8bd 253d 96be 2494 2abe
00000230: 17a0 cbbc a4c1 06be 024f 923d 8191 663d
00000240: 7bd2 2f3e 4a1c 7dbe 6fae c63d 387d 00be
00000250: e6fb a1bc e364 863d 9dcc 1f3e d08a a2bc
00000260: 72e2 3ebd fbf2 ccbd 1dbb 673d 5c6d 893d
00000270: 0ae2 e1bd ffe4 f83c 3620 4c3c 296e c33c
00000280: aaa0 183e c308 503d 6c42 14be aaaf 68bd
00000290: 0661 85bd ab1b 33bd 166f bdbb 9015 e83b
000002a0: d65e b53d 0650 e73d 0cec 1b3d c188 38be
000002b0: 58f2 b8bd 5c67 3dbd be7b c2bd 36bb 6bbe
000002c0: bfa7 893e a274 0f3e 861c 2dbd 2775 283e
000002d0: 37bd 8dbc d8f1 f63d a02b 9f3d 3d7a 13bd
000002e0: e272 61bd 12df 9fbd 0a51 c0bd 116b 24be
000002f0: 983b 4dbe 2144 24bd 3106 01be 3b57 4d3e
00000300: c574 ab3d e5be b7bd 9714 183e 28e9 6b3e
00000310: 4308 a7bd 222c 6f3e 1c9c 623e dc63 113d
00000320: 7504 8abc 3557 4c3e 5c47 ee3c 8261 833d
00000330: 2a84 9a3d 1cf0 aa3d 4028 4f3e 662a fd3c
00000340: 6ecf 9bbd bc46 acbc 1c04 9abe 1f31 6b3e
00000350: 8499 adbb 4cc5 f83d 2c8b b2bb c5ea 933b
00000360: 46dc 57be 63b1 98bd 21f4 483d 9c53 4d3c
00000370: 0349 b63e 6a29 0bbd a044 5d3d 1ee9 ed3c
00000380: 0a4a 92bd 254a 5a3e ca58 093e 1471 463c
00000390: 4d0a 96bd f112 103e 3f1a 793e 3a27 77bd
000003a0: 93c5 0a3d ab2f 9c3e 19f3 8f3e 840c 67bd
000003b0: 889e e93e 7438 2c3e ff34 b03d 6e5e 1dbe
000003c0: 4ed0 c03e 5970 d3bc 73a3 583d 8398 e1bd
000003d0: 65da 763e 8e2f 8d3c b24b f6bc 68c1 f13d
000003e0: e835 35be 0ae8 ba3d 7943 12bd f093 593e
000003f0: d3b2 1f3d 9c57 53bd 1ed6 533d f807 b3bd

_actor_critic.actor.fc_mu.weight f4 [2, 65]
0.0055079875 -0.009859742 0.0018868127 0.16145891 0.004084926 -0.0074588438 0.00061019947 0.15025869
0.15082802 0.15737899 0.001159479 0.0020482678 -0.0016842223 0.15176329 0.00077818433 -0.0043054656
0.146161 0.16668393 0.15303464 0.15134528 -0.00094571087 0.16313244 0.14463198 0.15944356
0.0010042485 0.0053556827 0.15506728 0.03315584 0.005956289 0.16379295 -0.0029800006 0.0026725687
-0.0019263605 0.15138075 0.14918573 0.0035347266 -0.0042002792 0.15572682 0.0023531804 0.15133803
0.006511116 -0.0029464492 0.0067727435 -0.0022624047 -0.0019236096 0.16058643 -0.00060208444 -0.0027648457
0.0026034003 0.15431482 0.15400077 -0.0025408398 0.17014346 0.15463637 0.15441114 0.1383839
0.17832185 0.00085074164 0.15618506 0.1563999 -0.00020041826 -0.0037377267 0.15727569 0.0022101228
0.043008745 -0.00036357858 -0.002359307 0.00069585734 0.011704325 -0.0042953854 -0.0028802883 0.0007897456
-0.044364564 -0.02288112 -0.024334127 0.0035460321 -0.0006305196 -0.00022008372 -0.049290426 -0.0057394775
0.0025629562 -0.038495604 -0.015450309 -0.026243292 -0.039372146 -0.005262816 0.0038786908 -0.015159301
-0.023314025 -0.0040242625 0.0077737556 -0.028164828 0.00991931 -0.0029183396 -0.0696262 -0.009610722
0.010025452 -0.0016539219 -0.01196531 -0.012301025 -0.002319564 -0.0035098442 -0.038675927 -0.0017855602
-0.032048836 0.0021363248 -0.00424023 0.003075265 -0.0011297816 0.00032993444 0.027224688 0.0015788376
0.0030458965 0.0015305895 -0.020094313 -0.035168782 -0.003791222 -0.017067255 -0.040657405 -0.03022609
0.0013808958 -0.060763262 0.00088225026 -0.029194057 -0.018870315 -0.0024735355 -0.0010310959 -0.06788857
-0.0010242533 -0.33579573
00000000: 597c b43b c18a 21bc ee4e f73a 7c55 253e
00000010: d8da 853b 5169 f4bb cbf5 1f3a 6add 193e
00000020: a972 1a3e f527 213e a9f9 973a 3b3c 063b
00000030: 1fc1 dcba d667 1b3e 11ff 4b3a dd14 8dbb
00000040: 3bab 153e 31af 2a3e 1db5 1c3e 42fa 1a3e
00000050: 95e9 77ba 310c 273e 681a 143e 2c45 233e
00000060: fda0 833a b97e af3b f5c9 1e3e 6bce 073d
00000070: f92c c33b 57b9 273e 1d4c 43bb 4326 2f3b
00000080: ef7d fcba 8e03 1b3e 25c4 183e dfa6 673b
00000090: 7fa2 89bb da76 1f3e d137 1a3b 5bf8 1a3e
000000a0: 335b d53b 3719 41bb e4ed dd3b da44 14bb
000000b0: a121 fcba c570 243e 34d5 1dba 6a32 35bb
000000c0: cf9d 2a3b b404 1e3e 61b2 1d3e 3884 26bb
000000d0: 163a 2e3e ff58 1e3e f41d 1e3e 82b4 0d3e
000000e0: 019a 363e 4e04 5f3a faee 1f3e 4c27 203e
000000f0: 5e27 52b9 a6f4 74bb e10c 213e b5d7 103b
00000100: f029 303d b19e beb9 9a9e 1abb 326a 363a
00000110: 7fc3 3f3c 4ec0 8cbb 38c3 3cbb ee06 4f3a
00000120: 9eb7 35bd 3071 bbbc 5d58 c7bc 8c64 683b
00000130: 7449 25ba 46c6 66b9 c2e4 49bd 3a12 bcbb
00000140: 45f7 273b 91ad 1dbd 4b23 7dbc 2cfc d6bc
00000150: b044 21bd b373 acbb a231 7e3b b85e 78bc
00000160: 0efd bebc f6dd 83bb fdba fe3b edb9 e6bc
00000170: 9a84 223c 9d41 3fbb 2e98 8ebd 4a76 1dbc
00000180: cb41 243c 69c8 d8ba 260a 44bc 3d8a 49bc
00000190: d403 18bb 6a05 66bb a66a 1ebd 7509 eaba
000001a0: a445 03bd 9501 0c3b a1f1 8abb 638a 493b
000001b0: 2e15 94ba 0dfb ac39 4f06 df3c 00f1 ce3a
000001c0: aa9d 473b 109e c83a d49c a4bc 240d 10bd
000001d0: 2776 78bb a1d0 8bbc 6188 26bd b59c f7bc
000001e0: 2dff b43a e6e2 78bd d046 673a 6028 efbc
000001f0: eb95 9abc 0a1b 22bb d625 87ba 2a09 8bbd
00000200: 3d40 86ba 6bed abbe

_actor_critic.actor.fc_mu.bias f4 [2]
0.11856117 -0.052566517
00000000: 33d0 f23d fd4f 57bd

_actor_critic.critic.conv1.bias f4 [64]
0.0 -0.0059968107 0.0 0.04743039 0.007191478 0.011625789 -0.058069002 0.034411833
-0.01377852 -0.017353732 0.0 -0.024512468 -0.039636824 0.028767405 0.0 0.0
-0.012610306 0.0 -0.024793606 -0.03437773 0.0 0.07872894 0.0 0.19153075
0.0076331473 -0.01748604 -0.05437252 -0.011216061 -0.012511578 0.026664235 0.0147511875 0.024032699
-0.02581342 0.054539137 0.0 0.08490915 -0.037776824 -0.028167984 -0.008194437 -0.0352729
-0.017341454 0.025732148 0.01903702 -0.02639421 0.00738787 0.026771082 0.03079047 -0.03415791
0.0 -0.039528713 -0.020349527 -0.019 -0.010934642 -0.12416005 0.013137042 0.0
-0.01983701 -0.01664055 0.058133177 -0.035494525 0.24037614 -0.027200988 0.03496079 -0.0025018782
00000000: 0000 0000 e580 c4bb 0000 0000 5e46 423d
00000010: 7da6 eb3b 187a 3e3c c3d9 6dbd 6cf3 0c3d
00000020: 4dbf 61bc 6a29 8ebc 0000 0000 5fce c8bc
00000030: 395a 22bd 9fa9 eb3c 0000 0000 0000 0000
00000040: 759b 4ebc 0000 0000 f61b cbbc aacf 0cbd
00000050: 0000 0000 a33c a13d 0000 0000 a320 443e
00000060: 7b1f fa3b e23e 8fbc b8b5 5ebd 92c3 37bc
00000070: 5dfd 4cbc f46e da3c f7ae 713c 39e0 c43c
00000080: aa76 d3bc 6e64 5f3d 0000 0000 d9e4 ad3d
00000090: dfbb 1abd 8bc0 e6bc f641 06bc 517a 10bd
000000a0: aa0f 8ebc 3acc d23c 86f3 9b3c ac38 d8bc
000000b0: f215 f23b 074f db3c 4c3c fc3c 2ae9 0bbd
000000c0: 0000 0000 dce8 21bd 0db4 a6bc e3a5 9bbc
000000d0: 3627 33bc a047 febd bf3c 573c 0000 0000
000000e0: 3a81 a2bc c351 88bc 0e1d 6e3d b562 11bd
000000f0: 2a25 763e 9bd4 debc 0c33 0f3d 8df6 23bb

_actor_critic.critic.conv1.lin.weight f4 [64, 2]
-0.048093796 -0.15886104 -0.005212444 -0.0020775965 -0.1157412 -0.13626632 0.20208298 -0.05313495
0.16573852 0.057107553 -0.117394306 0.23546688 0.05270623 0.13125238 -0.12269 0.15387866
-0.4226593 0.30565178 0.028303185 -0.040926598 -0.06676552 -0.24083517 0.03247193 0.069003016
0.16740598 0.27240667 -0.004090892 0.10041806 -0.0225609 -0.010550936 -0.2046216 -0.1226803
-0.14009257 0.020849213 -0.12518393 -0.06947116 0.25237456 0.06794248 0.0026652843 0.10091418
-0.3504414 -0.0087169595 -0.15076204 0.049362343 -0.058567867 -0.04962589 0.2013684 0.27191997
0.18011436 -0.007008187 0.09315025 0.05613496 0.3506406 0.3384759 -0.068193994 0.0056207236
-0.066151656 0.011499399 0.14126146 -0.03211973 0.08259243 0.1668305 0.029546898 0.04220929
0.041841023 0.16104712 0.20400025 -0.05290668 -0.19386259 -0.076270826 -0.15850383 0.16286908
0.22844425 0.21267648 0.08145247 0.032773647 0.010661233 -0.05529271 0.16465724 0.2168212
0.026271353 0.4034484 0.051164623 -0.01629662 0.16276073 0.04257518 0.0645422 0.15659134
0.13854936 0.15918083 0.18202078 0.02245658 0.19395554 -0.047003508 0.056533076 0.0841114
-0.10641536 -0.25491524 0.07049464 0.068249844 0.13044545 0.078711495 0.09222489 0.07149739
0.027384935 -0.04043821 0.20963393 0.21491036 0.19261356 0.08659415 -0.07480822 -0.12383396
0.14523026 0.06497559 0.038270663 -0.05942184 -0.123041086 0.12955572 0.23431198 0.17336003
0.29410514 0.2676829 0.07058803 0.1779365 -0.06412598 0.13178806 -0.18834558 0.101271346
00000000: 00fe 44bd 78ac 22be 26cd aabb 4928 08bb
00000010: b909 edbd 6689 0bbe d7ee 4e3e 09a4 59bd
00000020: 5cb7 293e 9ce9 693d 6d6c f0bd 3b1e 713e
00000030: 7de2 573d 0667 063e e544 fbbd 5e92 1d3e
00000040: cd66 d8be 647e 9c3e 15dc e73c a6a2 27bd
00000050: 5cbc 88bd 7f9d 76be 4901 053d 7451 8d3d
00000060: 796c 2b3e e378 8b3e e40c 86bb fca7 cd3d
00000070: a3d1 b8bc d5dd 2cbc 5388 51be cf3f fbbd
00000080: 6d74 0fbe f8cb aa3c 3730 00be e546 8ebd
00000090: 3d37 813e 6d25 8b3d 0dac 2e3b 18ac ce3d
000000a0: 0e6d b3be 94d1 0ebc 5d61 1abe 2b30 4a3d
000000b0: dce4 6fbd 8444 4bbd 8533 4e3e 1839 8b3e
000000c0: e66f 383e efa4 e5bb 8fc5 be3d c6ed 653d
000000d0: 2a87 b33e b74c ad3e 4ba9 8bbd 0c2e b83b
000000e0: 857a 87bd fa67 3c3c d8a6 103e fa8f 03bd
000000f0: 3826 a93d 9dd5 2a3e 560c f23c a6e3 2c3d
00000100: 7e61 2b3d 89e9 243e 71e5 503e adb4 58bd
00000110: ea83 46be e133 9cbd d44e 22be 27c7 263e
00000120: 4aed 693e ddc7 593e 8dd0 a63d a93d 063d
00000130: 74ac 2e3c 9c7a 62bd e89b 283e 6006 5e3e
00000140: 0537 d73c ca90 ce3e ff91 513d 7d80 85bc
00000150: c0aa 263e 5063 2e3d b32e 843d 7b59 203e
00000160: e2df 0d3e 4d00 233e a863 3a3e ddf6 b73c
00000170: 489c 463e c086 40bd 3a8f 673d 9942 ac3d
00000180: 4cf0 d9bd 4084 82be 7e5f 903d 93c6 8b3d
00000190: 7e93 053e 7e33 a13d 67e0 bc3d 396d 923d
000001a0: 5f56 e03c 89a2 25bd 47aa 563e 7611 5c3e
000001b0: 7d3c 453e 4658 b13d 0d35 99bd a99c fdbd
000001c0: 3eb7 143e ec11 853d b3c1 1c3d 5164 73bd
000001d0: f7fc fbbd 41aa 043e 7bef 6f3e 4b85 313e
000001e0: f394 963e bc0d 893e 7590 903d fc34 363e
000001f0: 7b54 83bd 73f3 063e aadd 40be 5a67 cf3d
